storage/MiniGrid-ThrowLeftoversNavigation-8x8-N2-v0_22-07-20-17-02-05/status.pt (torch, 255933 bytes, 39 tensors)

image_conv.0.weight f4 [16, 3, 2, 2]
0.09944708 -0.035235364 0.1122184 0.025522951 0.16293134 0.10266655 0.009084421 -0.20747839
0.0659087 -0.25557697 0.037939996 0.019184738 -0.02812305 0.2664242 0.053414844 0.1513517
0.15515056 -0.12958449 -0.07970663 0.31683958 -0.28275076 -0.019606322 -0.022877425 0.20475999
-0.022089176 0.08122406 -0.008437649 -0.16223216 -0.16391663 -0.13749866 -0.26223376 -0.18734504
0.06793937 0.1899904 0.014220804 -0.13232572 0.16356957 -0.054963537 -0.02313861 -0.10126347
-0.031139938 -0.25508502 0.17590204 0.15631753 0.057340562 0.14173406 0.12234971 0.012771875
0.060228106 0.05581994 0.1920724 0.23241308 0.25040627 0.21270214 -0.024606902 0.033049338
-0.058665246 0.16793153 0.03205973 0.2671795 0.17865822 -0.212251 0.12223008 0.30770016
0.30138218 0.032790862 0.13954146 -0.23831055 -0.0920299 0.14076933 -0.26297235 0.2514947
-0.17333391 0.09786523 0.005957133 0.0635534 0.031690594 -0.2628399 -0.05448339 -0.17801528
0.24541837 -0.035434753 -0.28743893 0.069916815 0.12815446 -0.13982555 -0.027390162 0.11812903
-0.17461689 -0.14646015 -0.03156961 -0.20396815 0.17741925 0.023611069 0.17271557 0.15454388
-0.22247083 -0.17992955 -0.19744864 -0.05367242 -0.10548894 -0.046514377 -0.27926448 0.16101632
0.16376731 0.091490716 0.18344066 0.21686155 -0.26151475 0.074624166 0.29337448 -0.18723556
-0.11249849 0.002374649 -0.15562835 -0.04417092 -0.042657703 0.2572012 -0.018151551 0.15654042
0.24881284 0.16639937 -0.20370756 0.25592914 0.24113388 -0.16107097 -0.050840825 0.24314444
-0.28062254 -0.25301397 -0.19565198 0.08995092 -0.08040936 -0.21737327 0.1467619 0.1695151
0.15403421 -0.23863134 0.3246056 0.0129306875 -0.27475384 -0.043457493 0.1885494 0.1329433
0.031936005 0.2211078 -0.21550685 0.20321268 0.33315948 -0.15327933 0.10393235 -0.061759833
-0.24369663 -0.0025307536 -0.09674166 -0.24657029 -0.17785406 0.04741951 0.2953704 0.13518459
-0.15256724 0.2562565 0.06238371 -0.22420682 0.013693392 0.18531257 -0.16974247 -0.013282388
-0.10363889 -0.18631855 -0.12364041 0.06897986 0.22402102 -0.013532698 -0.24975297 0.0524003
-0.25106835 0.016957343 0.2140302 0.123202085 -0.13632338 0.016704535 0.14334078 0.116552256
-0.2532513 -0.02205193 -0.06667405 0.15969762 0.25793207 0.12863758 0.10904983 -0.2449583
00000000: e9aa cb3d f552 10bd c3d2 e53d 8215 d13c
00000010: 79d7 263e d742 d23d d3d6 143c 3775 54be
00000020: 24fb 863d fcda 82be f866 1b3d 5029 9d3c
00000030: 5062 e6bc c168 883e 86c9 5a3d f1fb 1a3e
00000040: cadf 1e3e ccb1 04be 3b3d a3bd cc38 a23e
00000050: b5c4 90be 709d a0bc 7069 bbbc 9aac 513e
00000060: 5cf4 b4bc cd58 a63d 113e 0abc 3020 26be
00000070: c3d9 27be 73cc 0cbe 8143 86be 61d7 3fbe
00000080: cc23 8b3d d88c 423e 60fe 683c 6580 07be
00000090: c87e 273e 7221 61bd 2f8d bdbc 3963 cfbd
000000a0: 2f19 ffbc 819a 82be aa1f 343e b411 203e
000000b0: f0dd 6a3d bc22 113e 7c92 fa3d 2041 513c
000000c0: bfb1 763d 73a3 643d a1ae 443e b2fd 6d3e
000000d0: 4035 803e 97ce 593e 6a94 c9bc be5e 073d
000000e0: f84a 70bd 3ef6 2b3e 1051 033d c0cb 883e
000000f0: 2ef2 363e 5358 59be c453 fa3d e08a 9d3e
00000100: c44e 9a3e b64f 063d f5e3 0e3e ae07 74be
00000110: 2c7a bcbd d625 103e 50a4 86be eac3 803e
00000120: 727e 31be 916d c83d 0e34 c33b 4928 823d
00000130: ffcd 013d f492 86be fa29 5fbd a349 36be
00000140: f44e 7b3e 0824 11bd 322b 93be 8c30 8f3d
00000150: ec3a 033e 6e2e 0fbe 5561 e0bc a2ed f13d
00000160: c5ce 32be a6f9 15be 234f 01bd 07dd 50be
00000170: 64ad 353e 006c c13c 5adc 303e c040 1e3e
00000180: 65cf 63be 743f 38be fa2f 4abe 9dd7 5bbd
00000190: 960a d8bd dc85 3ebd c1fb 8ebe 76e1 243e
000001a0: 9eb2 273e 7c5f bb3d ded7 3b3e f410 5e3e
000001b0: 43e5 85be 8ed4 983d 2e35 963e aeba 3fbe
000001c0: 9c65 e6bd 00a0 1b3b 0a5d 1fbe 91ec 34bd
000001d0: d8b9 2ebd e0af 833e 90b2 94bc 224c 203e
000001e0: cbc8 7e3e 9964 2a3e b798 50be 2509 833e
000001f0: cdeb 763e caef 24be 783e 50bd dbfa 783e
00000200: c2ad 8fbe 0c8b 81be fe58 48be 3038 b83d
00000210: aaad a4bd 1997 5ebe c048 163e 5e95 2d3e
00000220: 25bb 1d3e c65b 74be b532 a63e 3cdb 533c
00000230: 89ac 8cbe 7c00 32bd 1813 413e 4a22 083e
00000240: 54cf 023d 156a 623e d4ad 5cbe fc16 503e
00000250: e193 aa3e 42f5 1cbe 7cda d43d e1f7 7cbd
00000260: 9c8b 79be 00db 25bb 7e20 c6bd ec7c 7cbe
00000270: 601f 36be f63a 423d ca3a 973e d46d 0a3e
00000280: 963a 1cbe 0d34 833e 1086 7f3d 7996 65be
00000290: 405a 603c 94c2 3d3e f8d0 2dbe 609e 59bc
000002a0: a040 d4bd 4aca 3ebe 2f37 fdbd 5045 8d3d
000002b0: c465 653e 40b8 5dbc 3ebf 7fbe b2a1 563d
000002c0: 088c 80be 20ea 8a3c bc2a 5b3e 6051 fc3d
000002d0: 5b98 0bbe f3d7 883c edc7 123e f3b2 ee3d
000002e0: 28aa 81be 40a6 b4bc 688c 88bd c687 233e
000002f0: ac0f 843e 92b9 033e 8455 df3d 59d6 7abe

image_conv.0.bias f4 [16]
0.23291922 0.14727914 -0.08739051 -0.07761004 0.13235483 -0.114275485 0.1420871 0.2521294
-0.15136997 -0.14931409 -0.07038376 -0.20076653 0.02333704 0.22945374 0.16784997 -0.038096342
00000000: 6082 6e3e 58d0 163e ccf9 b2bd 03f2 9ebd
00000010: 0688 073e 4409 eabd 487f 113e 1b17 813e
00000020: bb00 1bbe cbe5 18be 5c25 90bd be95 4dbe
00000030: 522d bf3c ecf5 6a3e dde0 2b3e e90a 1cbd

image_conv.3.weight f4 [32, 16, 2, 2]
-0.004198658 -0.034320172 -0.09693732 -0.01697878 0.014063074 -0.058764763 -0.081610665 0.049661666
0.021630345 -0.047403913 0.049444202 0.1261626 0.017283978 -0.07691439 0.13556625 0.11530619
-0.003863783 -0.045184623 -0.042760417 0.12127778 0.07178023 -0.046776 0.0041387673 0.0400482
0.03594669 -0.020777918 -0.053541556 0.001224613 -0.025054004 -0.04487158 -0.0581111 -0.05127472
-0.058469333 0.032420643 -0.08536524 -0.13087377 0.10792944 0.035551723 0.0675823 0.06320006
-0.0391417 -0.07708798 -0.07903468 0.004147225 0.032548834 -0.09461297 -0.094274566 0.08986203
0.023837045 0.10052353 0.11019149 0.08852822 -0.017836468 -0.057246264 0.04213556 0.112535186
-0.11009498 0.0066517983 -0.07557402 -0.099485315 0.03498275 0.053879406 0.051594224 0.044644568
-0.022351855 0.06348384 -0.09791439 -0.028203007 0.016751429 0.0048367097 -0.011597131 0.10443291
0.055030715 -0.025870366 -0.021901187 -0.08447285 0.06229368 -0.05607952 0.03408164 0.029708594
0.108746246 -0.040129688 -0.07416885 0.045951825 0.0035039964 -0.007282131 0.12111104 -0.086210966
0.09192635 0.1065545 0.019981379 0.07649553 0.0042324276 -0.06913112 0.1213562 -0.018090993
-0.0023807858 0.13509399 0.1637674 -0.04979376 -0.025713775 0.07005211 0.066309616 -0.09257427
-0.08212245 0.084532864 -0.084407024 0.117386796 -0.09312891 -0.035457987 0.046936657 0.08985189
-0.04100934 -0.03042354 0.04603109 0.061461 0.05829792 -0.07239383 -0.014706321 -0.027479427
0.058864072 0.15482911 -0.04014137 0.041199517 0.064238444 0.08661048 -0.1064663 0.026479235
0.10299336 -0.06529255 0.079751484 -0.0056914203 0.11574487 -0.087431744 0.025339939 0.10378349
0.09048047 -0.06400343 -0.099756956 0.013467066 -0.052785844 0.11159579 -0.06367357 0.030467376
-0.10893987 0.014630953 0.11161932 0.07957107 0.053004295 -0.058265068 0.10611499 -0.056604467
0.1296656 -0.09726257 -0.044321623 -0.02139953 0.026247026 0.07924614 0.027970228 -0.046489988
-0.072437696 -0.006844622 -0.03982735 -0.04115416 0.07342402 0.018161066 -0.06711244 0.052133285
-0.08222226 -0.050012264 -0.009496291 0.093089044 0.061707884 -0.066815875 -0.08881878 0.04924408
-0.00794765 0.024350155 0.0034834614 -0.08486778 -0.023383677 -0.030630764 -0.0203718 0.08021483
-0.068318 0.07683874 0.15727738 -0.07243917 0.042084705 0.14271657 0.083562806 0.06917338
-0.04044938 0.038992424 0.021473017 0.10664369 -0.11329711 0.05130736 -0.06431599 -0.12364006
0.11669921 0.03224689 -0.08303257 -0.10702674 -0.008753477 -0.03530023 0.00035735773 -0.007381813
0.04456521 0.065913536 -0.09212982 -0.060247857 0.1194412 -0.11389761 0.10926624 -0.01856655
0.01289698 -0.06256311 0.037728563 -0.0029905534 -0.043684423 0.109136194 -0.11096997 0.09756001
0.07671388 -0.02847379 -0.038894936 0.10003939 0.05776549 -0.09551084 -0.08807081 -0.103939414
-0.035457294 -0.033688035 0.061438624 0.06348604 -0.10161398 0.054772805 0.05285735 0.06701555
-0.09637603 -0.08383861 0.018237984 0.051306117 -0.022142788 -0.050757624 0.017135503 -0.006518528
-0.037955962 -0.010823007 -0.087687 0.080926746 0.016503628 0.05308651 -0.053701505 -0.025856622
00000000: e594 89bb 4f93 0cbd 1387 c6bd 1517 8bbc
00000010: cf68 663c 52b3 70bd 7e23 a7bd 086a 4b3d
00000020: 1f32 b13c 9b2a 42bd 0186 4a3d c530 013e
00000030: 2197 8d3c 4b85 9dbd e1d1 0a3e a725 ec3d
00000040: 8637 7dbb 8313 39bd 8c25 2fbd 7c60 f83d
00000050: 8301 933d 3198 3fbd 7f9e 873b 9509 243d
00000060: d63c 133d 7436 aabc 644e 5bbd 3283 a03a
00000070: 0e3e cdbc 43cb 37bd e805 6ebd 7105 52bd
00000080: 8a7d 6fbd 82cb 043d f9d3 aebd c603 06be
00000090: 1c0a dd3d af9e 113d 9768 8a3d 086f 813d
000000a0: 0c53 20bd 4ee0 9dbd efdc a1bd 72e5 873b
000000b0: ed51 053d 72c4 c1bd 0613 c1bd 9609 b83d
000000c0: e845 c33c 48df cd3d 13ac e13d 494e b53d
000000d0: c91d 92bc 0f7b 6abd 5696 2c3d d978 e63d
000000e0: 7a79 e1bd 54f7 d93b 8dc6 9abd f5be cbbd
000000f0: 124a 0f3d a7b0 5c3d 7754 533d 39dd 363d
00000100: 3d1b b7bc d103 823d 5787 c8bd fe09 e7bc
00000110: 4b3a 893c 437d 9e3b e501 3ebc ece0 d53d
00000120: e367 613d 17ee d3bc 1e6a b3bc 1a00 adbd
00000130: a827 7f3d a4b3 65bd 3199 0b3d 705f f33c
00000140: 5ab6 de3d 075f 24bd d7e5 97bd fb37 3c3d
00000150: 4ea3 653b f19e eebb 1109 f83d 608f b0bd
00000160: e243 bc3d 3f39 da3d fdaf a33c b0a9 9c3d
00000170: 2db0 8a3b 9e94 8dbd 9989 f83d 9033 94bc
00000180: f506 1cbb 1456 0a3e a4b2 273e 8bf4 4bbd
00000190: b2a5 d2bc 7b77 8f3d 56cd 873d 9497 bdbd
000001a0: d12f a8bd 911f ad3d 97dd acbd 7d68 f03d
000001b0: 5fba bebd 653c 11bd a740 403d 4504 b83d
000001c0: 69f9 27bd ca3a f9bc 198b 3c3d 88be 7b3d
000001d0: cdc9 6e3d 3743 94bd c8f2 70bc 891c e1bc
000001e0: 741b 713d 868b 1e3e 476b 24bd d3c0 283d
000001f0: 728f 833d d660 b13d 010b dabd fbea d83c
00000200: 2fee d23d 1ab8 85bd bf54 a33d 187f babb
00000210: a50b ed3d 6a0f b3bd b495 cf3c 708c d43d
00000220: d34d b93d 3b14 83bd 604d ccbd f8a4 5c3c
00000230: f835 58bd 558c e43d 4a67 82bd b896 f93c
00000240: de1b dfbd aab6 6f3c ac98 e43d 28f6 a23d
00000250: 081b 593d 5aa7 6ebd d152 d93d 16da 67bd
00000260: 0fc7 043e 9931 c7bd 978a 35bd 114e afbc
00000270: 0104 d73c cd4b a23d d221 e53c 496c 3ebd
00000280: 375a 94bd da48 e0bb 0122 23bd 4491 28bd
00000290: 555f 963d 84c6 943c 3f72 89bd b689 553d
000002a0: 2564 a8bd a9d9 4cbd 5596 1bbc 78a5 be3d
000002b0: 68c1 7c3d c3d6 88bd 9fe6 b5bd 29b4 493d
000002c0: dc36 02bc fa79 c73c c94a 643b 29cf adbd
000002d0: 208f bfbc 5eed fabc c3e2 a6bc ac47 a43d
000002e0: 4fea 8bbd a15d 9d3d 520d 213e fd5a 94bd
000002f0: 0361 2c3d 4b24 123e fa22 ab3d c6aa 8d3d
00000300: 40ae 25bd 85b6 1f3d 2ee8 af3c 0268 da3d
00000310: 5108 e8bd ab27 523d 1ab8 83bd 0037 fdbd
00000320: ffff ee3d 5115 043d fb0c aabd d630 dbbd
00000330: be6a 0fbc f996 10bd be5b bb39 23e3 f1bb
00000340: 028a 363d adfd 863d 8fae bcbd 75c6 76bd
00000350: 969d f43d 2643 e9bd fac6 df3d e118 98bc
00000360: db4d 533c 1621 80bd 4489 1a3d 29fd 43bb
00000370: 70ee 32bd cc82 df3d 3944 e3bd 8bcd c73d
00000380: 2b1c 9d3d de41 e9bc 4c50 1fbd 74e1 cc3d
00000390: 829b 6c3d 309b c3bd 785e b4bd 30de d4bd
000003a0: ab3b 11bd 77fc 09bd 11a7 7b3d f804 823d
000003b0: fe1a d0bd 7359 603d f380 583d 733f 893d
000003c0: cc60 c5bd 94b3 abbd d367 953c 5d26 523d
000003d0: cb64 b5bc 3ae7 4fbd c15f 8c3c 6099 d5bb
000003e0: b677 1bbd fb52 31bc 3e95 b3bd ecbc a53d
000003f0: 9e32 873c 3e71 593d 1cf6 5bbd 44d1 d3bc

image_conv.3.bias f4 [32]
-0.0018713769 -0.052581046 0.043605756 -0.076847814 -0.0017396314 0.11515509 0.030661793 0.076809555
0.12974635 0.15466774 -0.100601465 -0.02181641 0.0917557 -0.03572127 -0.029506039 -0.026410598
-0.06630963 0.09680311 0.16264439 -0.04925686 -0.05643754 0.020201793 -0.06703102 -0.07370611
-0.015356549 0.015604965 -0.01993855 0.05343855 0.05836698 0.12512979 0.03307494 0.028078433
00000000: fd48 f5ba 395f 57bd f39b 323d 6362 9dbd
00000010: 5804 e4ba 6fd6 eb3d 712e fb3c 544e 9d3d
00000020: 3adc 043e 3861 1e3e 2408 cebd 54b8 b2bc
00000030: 6aea bb3d 7750 12bd a6b6 f1bc 0a5b d8bc
00000040: 58cd 87bd b540 c63d 408c 263e 90c1 49bd
00000050: 0d2b 67bd 3b7e a53c 8f47 89bd 3bf3 96bd
00000060: 099a 7bbc f8ab 7f3c 2c56 a3bc 62e2 5a3d
00000070: 3712 6f3d 0622 003e 9779 073d be04 e63c

image_conv.5.weight f4 [64, 32, 2, 2]
0.06515973 0.006438416 -0.029942788 -0.095828205 0.012622388 0.005930404 0.04499457 -0.097737275
0.025523916 0.038807545 -0.095803656 0.042494237 -0.07784824 0.07065968 -0.007535728 -0.052141376
-0.100775465 -0.01191635 0.044863548 -0.083628416 -0.07791911 0.04694496 3.9995834e-05 -0.03505105
-0.010808818 0.01219101 0.040596966 -0.050325852 -0.074129045 0.051278602 -0.03785653 0.064516045
-0.013357926 0.051041253 -0.043854564 0.008307276 -0.037389386 -0.058808543 0.061820302 -0.049247503
-0.06552571 0.016779892 0.025754467 0.06996923 0.055601288 -0.043126214 -0.018943526 0.056024384
-0.040520962 -0.07968054 -0.07934406 0.071904264 -0.0838719 0.028025521 -0.08970807 0.021259552
0.009211866 0.016382568 -0.09402473 -0.023155987 -0.015701925 -0.006087245 0.052922234 0.017397195
-0.023945719 0.042302277 0.051900424 -0.06507448 0.06313884 -0.05172584 0.058325782 -0.081722945
0.044552177 -0.066441074 0.017320774 0.03587743 -0.07315961 -0.042675707 0.060172077 -0.06631692
0.041788418 0.0048148236 0.013450149 -0.02371992 -0.057348896 0.016236978 -0.0021586975 0.001158796
-0.095132284 0.053468924 -0.049481306 0.043027468 0.03611712 0.033371326 0.0021002935 -0.025404183
-0.06824382 -0.0686234 -0.010604948 0.019977298 -0.10016811 0.06507494 -0.09913533 -0.05781977
-0.0687343 0.057475425 -0.005830498 0.06285499 -0.054166928 0.045732982 0.032394424 -0.023454377
-0.04309323 -0.021840287 -0.09585487 -0.067231014 0.0322116 -0.091560416 -0.011167953 0.03562763
-0.0077776304 0.014360315 0.013534344 -0.033327296 -0.03248334 -0.009486339 -0.04824992 -0.06302733
0.0014918423 -0.031831928 -0.031847455 0.051007528 0.07034543 0.036838252 -0.025568632 -0.0021369448
0.012482642 0.0015568507 0.08451172 0.1073976 -0.005935724 0.052769713 0.04294679 -0.073741816
0.044875737 0.10236076 0.10013837 -0.045040295 -0.0042543137 0.02021369 0.0048691174 0.04851353
0.04236534 0.022795511 0.09767821 0.10138852 0.057561893 0.0673528 -0.031924006 0.0999209
0.019129278 -0.023705656 0.08670067 0.1004269 0.041748673 0.0851581 0.07807861 0.07891112
-0.009783909 0.019205486 -0.0018519151 -0.0747287 0.09383315 0.010337655 0.09882385 -0.034540486
0.0022870544 0.05462219 -0.021529423 0.071822 0.061673064 -0.04061534 0.007824741 0.01804392
-0.026785256 0.041520927 0.11269924 -0.04882831 -0.002311299 0.10871369 -0.035197306 0.086674444
-0.051138166 -0.029541813 0.059978824 0.10358432 0.008054656 -0.03446975 0.022615852 0.06105454
0.0529889 0.11945755 0.061247416 0.007044481 0.07869091 0.083924964 -0.0043187053 0.08043206
-0.022990972 -0.05649904 -0.007599969 0.02342039 0.11981833 0.014124653 0.117618576 0.055607636
-0.050069295 -0.013879356 0.08352712 -0.052800607 0.08037683 -0.03244231 0.008153753 -0.021769535
-0.034518573 -0.042199392 0.07863393 -0.06227885 0.06546609 0.09278921 -0.0071907225 -0.002188296
-0.013819844 0.06525453 0.0675065 -0.013495129 0.058749188 0.0032839852 0.11983618 -0.0024184515
0.06390103 0.13177744 0.10281904 0.11235808 0.036215726 0.073885344 -0.03921055 0.01387264
-0.04749821 0.03184523 0.09891979 -0.034112506 0.033545595 0.06681292 -0.040278107 0.021425802
00000000: 7772 853d 59f9 d23b 944a f5bc 9441 c4bd
00000010: 22ce 4e3c d653 c23b 3a4c 383d 7b2a c8bd
00000020: 8817 d13c a9f4 1e3d b534 c4bd 700e 2e3d
00000030: e66e 9fbd 06b6 903d 45ee f6bb 3292 55bd
00000040: 5e63 cebd cb3c 43bc d7c2 373d 6045 abbd
00000050: 0e94 9fbd 5c49 403d 33c1 2738 b191 0fbd
00000060: 7817 31bc cdbc 473c 0149 263d 7b22 4ebd
00000070: f8d0 97bd 8309 523d 730f 1bbd fd20 843d
00000080: 34db 5abc a210 513d d8a0 33bd 3e1b 083c
00000090: 9d25 19bd 3ae1 70bd 4937 7d3d c0b7 49bd
000000a0: 5832 86bd fc75 893c 08fb d23c 074c 8f3d
000000b0: 2dbe 633d 1da5 30bd 742f 9bbc d379 653d
000000c0: 4ff9 25bd 8d2f a3bd 237f a2bd 8b42 933d
000000d0: 08c5 abbd c795 e53c ddb8 b7bd 8328 ae3c
000000e0: 5eed 163c bc34 863c 0a90 c0bd a0b1 bdbc
000000f0: 53a1 80bc 8377 c7bb fcc4 583d 9084 8e3c
00000100: d029 c4bc 2745 2d3d 8a95 543d c545 85bd
00000110: f04e 813d 79de 53bd 04e7 6e3d 5c5e a7bd
00000120: 587c 363d 4212 88bd 4ce4 8d3c 36f4 123d
00000130: b5d4 95bd b9cc 2ebd ff76 763d 2ad1 87bd
00000140: 552a 2b3d abc5 9d3b 045e 5c3c 4750 c2bc
00000150: ade6 6abd 6903 853c ef78 0dbb bee2 973a
00000160: b7d4 c2bd 3b02 5b3d e9ac 4abd 923d 303d
00000170: 8cef 133d 5fb0 083d 14a5 093b 6f1c d0bc
00000180: 6ac3 8bbd 6d8a 8cbd 60c0 2dbc 6ea7 a33c
00000190: f024 cdbd 0346 853d 7707 cbbd 6cd4 6cbd
000001a0: 92c4 8cbd 5a6b 6b3d c30d bfbb 1eba 803d
000001b0: 24de 5dbd 8252 3b3d 04b0 043d 6523 c0bc
000001c0: 8782 30bd 67ea b2bc 8f4f c4bd 6ab0 89bd
000001d0: 50f0 033d 0784 bbbd caf9 36bc 47ee 113d
000001e0: 7edb febb 8747 6b3c 27bf 5d3c 3482 08bd
000001f0: 400d 05bd 976c 1bbc b5a1 45bd 7914 81bd
00000200: ec89 c33a 3262 02bd 7a72 02bd 45ed 503d
00000210: 4411 903d b5e3 163d 4f75 d1bc fc0b 0cbb
00000220: ff83 4c3c 3e0f cc3a 7b14 ad3d 46f3 db3d
00000230: 7680 c2bb 0e25 583d f9e8 2f3d f305 97bd
00000240: 9fcf 373d 85a2 d13d 5915 cd3d 2c7c 38bd
00000250: c567 8bbb 2e97 a53c 1e8d 9f3b 20b6 463d
00000260: 4787 2d3d a7bd ba3c 830b c83d c9a4 cf3d
00000270: 05c6 6b3d 44f0 893d bfc2 02bd 54a3 cc3d
00000280: 01b5 9c3c 5d32 c2bc 1f90 b13d 9eac cd3d
00000290: a800 2b3d 5f67 ae3d aee7 9f3d 279c a13d
000002a0: b04c 20bc d354 9d3c f6bb f2ba 5c0b 99bd
000002b0: 982b c03d 455f 293c 2964 ca3d 537a 0dbd
000002c0: 68e2 153b 84bb 5f3d 795e b0bc 6a17 933d
000002d0: e59c 7c3d 455c 26bd 5833 003c d8d0 933c
000002e0: c16c dbbc d911 2a3d dcce e63d 3200 48bd
000002f0: 2a79 17bb 48a5 de3d 0d2b 10bd 5f82 b13d
00000300: 4176 51bd ac01 f2bc 5bac 753d 0424 d43d
00000310: adf7 033c 2730 0dbd e144 b93c 5314 7a3d
00000320: e40a 593d 29a6 f43d 92de 7a3d 64d5 e63b
00000330: b328 a13d dae0 ab3d ed83 8dbb 90b9 a43d
00000340: 9057 bcbc 8a6b 67bd 2909 f9bb 1edc bf3c
00000350: 5063 f53d 176b 673c 02e2 f03d d5c4 633d
00000360: 7615 4dbd 3d66 63bc 4410 ab3d 7345 58bd
00000370: 9c9c a43d 3ae2 04bd 5297 053c 0656 b2bc
00000380: 5963 0dbd 45d9 2cbd d30a a13d 1b18 7fbd
00000390: 1613 863d 4508 be3d 27a0 ebbb 8469 0fbb
000003a0: a16c 62bc 2ba4 853d d940 8a3d ac1a 5dbc
000003b0: fda2 703d 2138 573b ac6c f53d e27e 1ebb
000003c0: 8bde 823d aaf0 063e ca92 d23d fe1b e63d
000003d0: f156 143d 3351 973d 3e9b 20bd 124a 633c
000003e0: 7c8d 42bd 2570 023d 7596 ca3d 8eb9 0bbd
000003f0: 1b67 093d 36d5 883d a8fa 24bd 2a85 af3c

image_conv.5.bias f4 [64]
-0.044982683 0.07889036 0.023868877 0.13117097 -0.013471163 -0.00037694327 -0.014539021 -0.068303294
0.033338934 -0.10131464 0.017355438 0.06961433 0.07569892 0.0519761 -0.029359318 -0.030172516
0.0050797127 0.06789096 -0.031647578 -0.09237017 0.051331952 -0.041514453 0.044949297 -0.08072511
0.02234863 -0.012367188 -0.01548027 -0.07082242 0.036540527 -0.010379806 0.068287 0.019741967
0.005212444 0.09374543 -0.027771734 -0.024226435 0.002184715 -0.04759011 0.00020854952 -0.031582806
-0.0023135678 0.036729746 0.020519331 0.04637648 -0.049170207 0.015134526 -0.07398705 0.07113315
-0.0010693882 -0.09645753 -0.06263046 0.050563484 0.04151102 -0.049375128 0.04528925 0.027010147
-0.042780064 -0.09998166 -0.008745523 0.10393823 -0.043728188 -0.047326423 -0.020989684 -0.00080293976
00000000: c33f 38bd 4591 a13d aa88 c33c af51 063e
00000010: 27b6 5cbc 78a0 c5b9 1335 6ebc 99e2 8bbd
00000020: 688e 083d 0d7e cfbd fe2c 8e3c f591 8e3d
00000030: 0908 9b3d e4e4 543d f482 f0bc 5a2c f7bc
00000040: b873 a63b 6a0a 8b3d e4a0 01bd 922c bdbd
00000050: 7441 523d 0f0b 2abd c11c 383d 3553 a5bd
00000060: 7914 b73c bf9f 4abc f5a0 7dbc 580b 91bd
00000070: 85ab 153d 1010 2abc 0eda 8b3d e8b9 a13c
00000080: 26cd aa3b 9bfd bf3d 8c81 e3bc 8476 c6bc
00000090: 6f2d 0f3b d9ed 42bd 16ae 5a39 f95c 01bd
000000a0: 3a9f 17bb ee71 163d 2818 a83c 44f5 3d3d
000000b0: b366 49bd cef6 773c 8686 97bd 42ae 913d
000000c0: b72a 8cba 878b c5bd 6644 80bd a81b 4f3d
000000d0: 7607 2a3d 933d 4abd 3881 393d 6244 dd3c
000000e0: 263a 2fbd 2fc3 ccbd 6249 0fbc 91dd d43d
000000f0: 541c 33bd 5ad9 41bd 8ff2 abbc 607c 52ba

actor.0.weight f4 [64, 64]
0.04308506 0.1515354 -0.038589876 0.08874922 0.10168827 -0.1779346 0.1419154 -0.013281375
0.19491127 0.26329806 0.15261719 -0.0009793728 -0.14384905 -0.03212657 -0.07429241 0.07516935
-0.009435669 -0.18536131 0.10877086 0.010022602 -0.21816462 -0.15334138 -0.063598566 -0.065119475
-0.10055972 -0.09612869 -0.08649545 -0.11548755 0.01124643 -0.11529886 -0.046756987 -0.0050716675
0.123441026 -0.021990918 0.06877413 0.10891099 -0.09225662 -0.070154525 -0.0142101515 -0.017920772
-0.0085547445 -0.024265243 -0.028264496 -0.045638848 -0.054176595 -0.28132844 0.2933193 -0.20806126
0.019794341 -0.015322388 0.0017076321 0.035348427 -0.087285034 -0.10152559 0.056140244 -0.038037162
-0.14343235 -0.0832445 0.30382052 -0.17668365 0.044962924 0.04526814 -0.14547272 0.29373425
-0.027948024 -0.058101926 0.18781261 -0.12445484 -0.036849696 -0.22655375 0.07327973 0.069175795
-0.050826922 0.21596141 -0.27002236 0.09836138 -0.1713378 -0.04055457 -0.00791655 -0.030307021
0.118196905 0.050623823 0.15439014 -0.2765763 0.078503445 -0.12835856 0.060625616 -0.14798011
-0.18807669 0.06764759 0.075451985 0.045413844 0.010688215 0.207499 0.0027607244 0.12741262
-0.12358885 -0.2452347 0.07041623 -0.1609924 0.09082357 0.15897232 -0.10279365 0.04305113
-0.17868882 0.13781874 -0.17840812 0.05098475 -0.11311886 0.030326819 0.12667228 -0.08742568
-0.13569675 -0.047549136 -0.057619423 0.041003294 -0.10197604 -0.017911505 0.16895695 -0.15181334
-0.1472423 -0.27937207 -0.08016827 0.07017663 -0.02588129 -0.04507429 -0.010770772 0.00080018275
-0.15149413 0.15654671 -0.119477004 -0.23050024 0.080409825 -0.07327239 0.02431106 -0.11500386
-0.02914662 -0.022411676 -0.19976753 0.10442911 0.07151797 0.041753173 -0.06929117 0.05799582
0.048460286 0.086581975 0.08275222 -0.06016994 0.21038464 -0.0806839 0.15433899 0.020815594
-0.16073087 -0.31208068 -0.0018351156 0.1313567 -0.025395697 -0.004674076 0.0076133213 -0.07083185
-0.071791805 -0.026711501 -0.021976518 0.13640045 -0.12095155 0.02305975 -0.19051343 -0.035142444
-0.16691355 -0.00979121 -0.04897404 0.11682852 0.0964247 0.0825059 0.054238804 -0.107315116
-0.2649442 0.02451973 -0.14858535 -0.17037831 0.04952541 -0.16091491 -0.2073001 -0.121644005
-0.17054941 0.37092113 0.102780595 0.11896057 0.08499412 0.017789671 0.06503799 -0.017506814
-0.094088376 0.14632148 -0.10653605 -0.0465638 -0.093159534 0.25281233 -0.010465195 -0.012408778
0.0859021 -0.13469891 0.075266816 -0.0958213 -0.1314685 0.10444344 0.22369559 0.18238933
-0.18216082 0.055088073 0.0748154 0.17529716 -0.041507464 0.056904085 0.035062376 -0.06947185
-0.2095979 -0.12086703 0.077206366 0.0070352065 0.030578453 0.031562433 -0.048365366 0.11920392
0.089625075 0.00397842 0.14845791 -0.008720315 -0.047472335 0.025162999 0.03889997 -0.22278298
0.047466896 0.13425519 0.19199339 -0.089248314 -0.08091934 -0.19610493 0.10550967 0.049082108
-0.09318549 -0.13266273 0.04783 0.012891628 0.18871872 -0.21640779 0.10805097 -0.30338353
-0.20431904 0.15632701 -0.018161664 -0.007859142 -0.22457747 -0.0037425363 0.1376793 0.08301166
00000000: f679 303d 192c 1b3e 6b10 1ebd 27c2 b53d
00000010: f141 d03d 7d34 36be 4552 113e 209a 59bc
00000020: d296 473e 01cf 863e ae47 1c3e 4c5e 80ba
00000030: 2a4d 13be 2697 03bd 9e26 98bd 63f2 993d
00000040: 1098 1abc 5bcf 3dbe 42c3 de3d d735 243c
00000050: 8c66 5fbe 8605 1dbe f73f 82bd 5c5d 85bd
00000060: 41f2 cdbd 1edf c4bd 8724 b1bd bd84 ecbd
00000070: f242 383c cf21 ecbd 4184 3fbd 3b30 a6bb
00000080: a6ce fc3d 4c26 b4bc 73d9 8c3d ba0c df3d
00000090: 0af1 bcbd 2dad 8fbd b2d1 68bc 95ce 92bc
000000a0: 3329 0cbc e7c7 c6bc f28a e7bc cdef 3abd
000000b0: 47e8 5dbd 480a 90be f32d 963e 030e 55be
000000c0: be27 a23c c10a 7bbc a0d2 df3a 83c9 103d
000000d0: 7fc2 b2bd a6ec cfbd 50f3 653d dbcc 1bbd
000000e0: eedf 12be 187c aabd 5d8e 9b3e 8fec 34be
000000f0: 0b2b 383d 166b 393d cdf6 14be 5664 963e
00000100: 41f3 e4bc 49fc 6dbd f351 403e 2ee2 febd
00000110: b5ef 16bd b5fd 67be af13 963d 0aac 8d3d
00000120: e42f 50bd fd24 5d3e 5f40 8abe b171 c93d
00000130: 2d73 2fbe 8c1c 26bd 6bb4 01bc 6e46 f8bc
00000140: 3811 f23d ed5a 4f3d 7318 1e3e 699b 8dbe
00000150: 6ac6 a03d 6d70 03be 9152 783d 1988 17be
00000160: 2d97 40be d28a 8a3d 9286 9a3d de03 3a3d
00000170: 9f1d 2f3c 9e7a 543e 45ed 343b 7478 023e
00000180: 271c fdbd ce1e 7bbe 6236 903d 31db 24be
00000190: b501 ba3d a4c9 223e 7a85 d2bd 6256 303d
000001a0: 34fa 36be 5b20 0d3e 9eb0 36be 63d5 503d
000001b0: dcaa e7bd f36f f83c 61b6 013e 3c0c b3bd
000001c0: 17f4 0abe e2c2 42bd 5802 6cbd 12f3 273d
000001d0: d0d8 d0bd 26bb 92bc 0d03 2d3e f574 1bbe
000001e0: afc6 16be db09 8fbe 432f a4bd c4b8 8f3d
000001f0: 0005 d4bc d29f 38bd e477 30bc 5bc3 513a
00000200: 4721 1bbe c84d 203e 5cb0 f4bd 4108 6cbe
00000210: e8ad a43d d60f 96bd fd27 c73c 2587 ebbd
00000220: e4c4 eebc b198 b7bc dc8f 4cbe eede d53d
00000230: 0378 923d 6005 2b3d 87e8 8dbd 068d 6d3d
00000240: 4b7e 463d e451 b13d ff79 a93d c174 76bd
00000250: 126f 573e 9a3d a5bd 0a0b 1e3e 7785 aa3c
00000260: a296 24be 0ac9 9fbe 4388 f0ba 5f82 063e
00000270: a30a d0bc fe28 99bb 2b79 f93b 4a10 91bd
00000280: 9507 93bd 14d2 dabc 1908 b4bc 8fac 0b3e
00000290: 72b5 f7bd cde7 bc3c f415 43be 86f1 0fbd
000002a0: 63eb 2abe 506b 20bc 0199 48bd cb43 ef3d
000002b0: 507a c53d daf8 a83d 8229 5e3d 07c8 dbbd
000002c0: c4a6 87be 9add c83c c226 18be a777 2ebe
000002d0: 28db 4a3d e1c6 24be 7a46 54be 7e20 f9bd
000002e0: 81a4 2ebe 60e9 bd3e a27e d23d 99a1 f33d
000002f0: 6611 ae3d a5bb 913c a332 853d 736a 8fbc
00000300: 68b1 c0bd 4cd5 153e 932f dabd afb9 3ebd
00000310: 6dca bebd 9e70 813e 3676 2bbc 304e 4bbc
00000320: 71ed af3d 83ee 09be 7d25 9a3d f53d c4bd
00000330: ae9f 06be 71e6 d53d 7510 653e 45c4 3a3e
00000340: 5e88 3abe 08a4 613d d138 993d 1981 333e
00000350: bb03 2abd 4214 693d 919d 0f3d 4247 8ebd
00000360: d5a0 56be 2289 f7bd 5f1e 9e3d 9787 e63b
00000370: aa7f fa3c 9c47 013d c31a 46bd 2f21 f43d
00000380: 5a8d b73d 685d 823b 5a05 183e a7df 0ebc
00000390: 5a72 42bd a222 ce3c 9355 1f3d 3921 64be
000003a0: a66c 423d 317a 093e ea99 443e d2c7 b6bd
000003b0: 0ab9 a5bd bbcf 48be 7415 d83d 520a 493d
000003c0: 09d8 bebd bdd8 07be 64e9 433d 6837 533c
000003d0: 7b3f 413e 019a 5dbe d449 dd3d 1655 9bbe
000003e0: 0339 51be 3014 203e c5c7 94bc a1c3 00bc
000003f0: a3f7 65be 5745 75bb cdfb 0c3e 0402 aa3d

actor.0.bias f4 [64]
-0.0016719577 -0.017978368 0.008355975 0.007193452 0.008408614 0.0011201373 -0.0066119707 0.007798577
-0.0038960034 -0.004730509 5.8682417e-06 0.0044773757 -0.009073334 -0.004629477 0.0054088198 -0.0018105943
0.0070777494 0.016510207 -0.003292924 2.2433069e-06 -0.009077739 0.00219885 -0.011390778 0.0069437074
0.0063427207 -0.0016774676 -0.007936311 0.0034204437 -0.013132462 0.014556286 -0.0052853953 0.0024698004
0.021281047 -0.0087873675 0.017075999 -0.007110631 0.001989615 0.0061619435 -0.009690275 -0.008007903
-0.0018306765 0.0015269929 -0.0024996747 -0.008947443 -9.8629695e-05 0.0057994016 0.012899133 -0.009765376
-0.0019413604 0.0038382043 -0.012706934 -0.002928097 0.0051281718 -0.0039932523 -0.01182461 0.0025557491
-0.010350585 0.007291907 -0.006935472 -0.009358581 -0.0077655865 -0.0011186127 -0.0059719193 -0.008008184
00000000: 9725 dbba 5f47 93bc 80e7 083c 0db7 eb3b
00000010: 49c4 093c 92d1 923a 3ba9 d8bb 358b ff3b
00000020: 1754 7fbb 6302 9bbb d0e7 c436 f3b6 923b
00000030: 52a8 14bc deb2 97bb 783c b13b 7751 edba
00000040: 77ec e73b 6a40 873c 19ce 57bb b88b 1636
00000050: ccba 14bc 951a 103b 63a0 3abc 0a88 e33b
00000060: 99d6 cf3b 79de dbba 4d07 02bc 8629 603b
00000070: 8a29 57bc 7d7d 6e3c 1c31 adbb 60dc 213b
00000080: 9755 ae3c e4f8 0fbc f7e2 8b3c 4c00 e9bb
00000090: 3364 023b 21ea c93b f6c3 1ebc 9433 03bc
000000a0: 4ff3 efba 6125 c83a 95d1 23bb 4c98 12bc
000000b0: 6ad7 ceb8 e808 be3b e356 533c f5fe 1fbc
000000c0: 3f75 feba 628a 7b3b be30 50bc 51e5 3fbb
000000d0: 390a a83b d4d9 82bb 02bc 41bc 5b7e 273b
000000e0: 8095 29bc f3f0 ee3b f542 e3bb bc54 19bc
000000f0: 7676 febb 6a9e 92ba 17b0 c3bb c234 03bc

actor.2.weight f4 [17, 64]
-0.069734834 -0.005609011 0.056927677 0.14135179 -0.0022203627 0.056899145 0.16746269 0.24369164
0.19539183 0.1396046 -0.012976128 -0.026642865 -0.013785623 0.10678942 0.061985742 -0.16691712
-0.09784214 -0.07310394 0.05356233 0.052161623 0.24536456 0.2955764 0.1941579 0.17253715
-0.012344638 -0.06267997 -0.19697496 0.15489459 -0.19880576 -0.023107879 0.23269838 -0.12592033
0.112822235 0.013869505 -0.061940245 0.029275266 -0.035070516 -0.05745715 0.22863144 0.07814912
-0.12679705 0.0047994005 0.12120068 -0.013209151 -0.00504117 -0.008071399 -0.08026268 -0.22833514
0.048861727 0.19331893 -0.072739586 -0.0736714 0.043017864 0.03474224 0.19978076 0.109140545
0.22051626 0.12958984 0.18404086 -0.07032701 0.03691625 -0.022534948 -0.2492607 0.15201737
-0.030929962 -0.13467108 -0.13011801 0.18433905 0.18548195 -0.021854091 -0.18418775 0.24779384
-0.22513305 -0.09233388 -0.06855032 -0.032623775 -0.22464466 -0.15823372 -0.02582262 -0.30037275
0.079273485 0.088251 0.071207516 -0.12123835 -0.26983017 0.051618468 -0.27722296 -0.07923823
0.071268044 -0.039869208 -0.02995388 -0.10505211 0.016355742 0.05764934 -0.07499609 0.1127166
0.18030448 -0.21042857 0.178041 -0.048452716 0.0025385297 -0.094136514 -0.08393727 -0.109170444
0.036043108 0.21074216 0.092726395 -0.14667742 -0.23671372 0.12585853 0.25500083 -0.02107591
-0.10938467 0.03569681 -0.18960549 -0.27564 0.1793796 0.13651167 -0.013792287 0.042568136
-0.052186165 -0.09740598 0.09382116 -0.35400862 -0.10387197 -0.25422564 -0.108382 -0.117232695
0.08426963 -0.040487424 -0.15145664 0.023074877 -0.044266712 0.10112409 0.03531101 0.00016983412
0.026814358 -0.28637233 0.13905665 0.024845116 0.11470033 0.041807942 -0.15886623 -0.109373145
0.07425353 0.18625179 0.013036826 0.12253047 0.014941235 -0.07934862 -0.06167692 -0.004029791
0.33868504 -0.075596176 -0.16884688 0.20886606 -0.11560655 0.08987964 0.24780492 0.00023388659
-0.035863414 -0.31551304 0.23401591 0.09197144 0.18265603 0.017155377 -0.08031793 -0.18095683
-0.03224916 -0.029428484 0.04072571 0.033667833 0.046848666 0.035190403 0.07797586 -0.13228911
0.032433763 0.016272787 0.21840106 0.021947253 0.051141113 0.0051637194 -0.24650465 0.16451986
-0.18833119 0.0630828 0.09005953 0.09943072 0.012888047 -0.10281876 -0.13880123 0.09917956
-0.015826184 -0.1842696 0.004818815 -0.05447343 0.0027796677 0.017808292 -0.014439262 -0.06194909
0.15769765 -0.037445944 0.0006260344 -0.07403532 -0.0061702374 0.2095659 -0.193436 0.18206616
0.068651296 0.042166654 -0.24622211 0.08200579 0.12835608 0.06297414 0.16679421 0.10234222
-0.04446469 -0.0118309995 0.06281035 -0.08509291 0.14271165 0.054713085 -0.18323788 0.091897
0.077622436 0.03702477 0.018050456 0.008097352 0.18592031 0.080594495 -0.013617498 0.0040694554
0.1618561 -0.1852299 0.16104627 0.012468497 -0.08533144 -0.12884307 0.20182408 0.072334275
0.07075835 0.1853633 -0.09650849 0.113069795 0.23902088 0.09637541 0.09011934 -0.2085351
-0.23615293 -0.15176918 -0.20042798 -0.057153825 0.23571877 -0.007419721 -0.09979153 -0.15147065
00000000: 23d1 8ebd cbcb b7bb ff2c 693d 86be 103e
00000010: 8183 11bb 140f 693d 577b 2b3e 4d8a 793e
00000020: cc14 483e 82f4 0e3e d399 54bc 2342 dabc
00000030: 18dd 61bc 69b4 da3d c3e4 7d3d 52ec 2abe
00000040: 7661 c8bd 85b7 95bd 2c64 5b3d 6da7 553d
00000050: d940 7b3e ca55 973e 54d1 463e 94ad 303e
00000060: 2a41 4abc 5b5e 80bd ceb3 49be b09c 1e3e
00000070: bd93 4bbe bc4c bdbc 7c48 6e3e 42f1 00be
00000080: 580f e73d ec3c 633c 0eb5 7dbd afd2 ef3c
00000090: 1aa6 0fbd 3058 6bbd 5c1e 6a3e a50c a03d
000000a0: 16d7 01be 4a44 9d3b 1038 f83d 326b 58bc
000000b0: 6630 a5bb e73d 04bc c360 a4bd b0d0 69be
000000c0: 3c23 483d 66f5 453e 7ef8 94bd 08e1 96bd
000000d0: 8033 303d e14d 0e3d 5493 4c3e 1485 df3d
000000e0: 04cf 613e 33b3 043e 3575 3c3e 9b07 90bd
000000f0: 7e35 173d 369b b8bc 323e 7fbe 71aa 1b3e
00000100: d560 fdbc 37e7 09be a83d 05be 60c3 3c3e
00000110: fbee 3d3e 5a07 b3bc b79b 3cbe abbd 7d3e
00000120: 4789 66be 8c19 bdbd 1c64 8cbd 82a0 05bd
00000130: 4009 66be 0508 22be f689 d3bc 75ca 99be
00000140: 235a a23d f1bc b43d 3fd5 913d d04b f8bd
00000150: 2e27 8abe e36d 533d 2bf0 8dbe a747 a2bd
00000160: fbf4 913d e54d 23bd d761 f5bc 9025 d7bd
00000170: 7afc 853c b721 6c3d 8d97 99bd f6d7 e63d
00000180: bda1 383e 967a 57be 6150 363e 5b76 46bd
00000190: 765d 263b a5ca c0bd 4ee7 abbd c194 dfbd
000001a0: f0a1 133d cbcc 573e 56e7 bd3d 9b32 16be
000001b0: 1565 72be 0fe1 003e 788f 823e 63a7 acbc
000001c0: 1205 e0bd d136 123d f127 42be b020 8dbe
000001d0: 49af 373e b7c9 0b3e 0bf9 61bc ed5b 2e3d
000001e0: 29c1 55bd c97c c7bd 4f25 c03d 9e40 b5be
000001f0: d4ba d4bd dd29 82be 62f7 ddbd b217 f0bd
00000200: 8e95 ac3d 24d6 25bd 7317 1bbe 8607 bd3c
00000210: 0351 35bd 261a cf3d 47a2 103d 8015 3239
00000220: c9a9 db3c 659f 92be de64 0e3e fc87 cb3c
00000230: 02e8 ea3d ce3e 2b3d d4ad 22be 07ff dfbd
00000240: 3c12 983d cab8 3e3e 6998 553c 41f1 fa3d
00000250: 15cc 743c 8781 a2bd f0a0 7cbd 560c 84bb
00000260: 2068 ad3e 2bd2 9abd 32e6 2cbe fce0 553e
00000270: 20c3 ecbd d112 b83d 93c0 7d3e 743f 7539
00000280: 84e5 12bd ed8a a1be dea1 6f3e 865b bc3d
00000290: 2f0a 3b3e 6f89 8c3c ba7d a4bd bf4c 39be
000002a0: b217 04bd 0114 f1bc 01d0 263d 48e7 093d
000002b0: 63e4 3f3d d023 103d cfb1 9f3d cc76 07be
000002c0: 44d9 043d 824e 853c 87a4 5f3e baca b33c
000002d0: 5879 513d 6b34 a93b b76b 7cbe e577 283e
000002e0: e4d9 40be 8e31 813d 2271 b83d 55a2 cb3d
000002f0: 6328 533c a492 d2bd e921 0ebe a71e cb3d
00000300: eaa5 81bc 2cb1 3cbe 26e7 9d3b 881f 5fbd
00000310: 162b 363b b2e2 913c a892 6cbc 54be 7dbd
00000320: 7e7b 213e eb60 19bd 751c 243a d49f 97bd
00000330: b42f cabb 7198 563e 1614 46be 8d6f 3a3e
00000340: 0d99 8c3d f1b6 2c3d a621 7cbe a7f2 a73d
00000350: c76f 033e 96f8 803d 1acc 2a3e cc98 d13d
00000360: 9b20 36bd cfd6 41bc b6a2 803d 3145 aebd
00000370: 0123 123e d41a 603d b6a2 3bbe 7f34 bc3d
00000380: 83f8 9e3d 49a7 173d 8dde 933c c2aa 043c
00000390: e561 3e3e ba0e a53d ed1b 5fbc 1159 853b
000003a0: 9bbd 253e e8ac 3dbe 50e9 243e ab48 4c3c
000003b0: 40c2 aebd 70ef 03be f9aa 4e3e fe23 943d
000003c0: c1e9 903d e0cf 3d3e 3ea6 c5bd 2391 e73d
000003d0: e4c1 743e 7960 c53d 7d90 b83d 3a8a 55be
000003e0: 13d2 71be 6169 1bbe fe3c 4dbe 211a 6abd
000003f0: 4360 713e 2221 f3bb 805f ccbd 1f1b 1bbe

actor.2.bias f4 [17]
-0.016413288 0.049144097 0.018267509 0.02121497 -0.023172416 -0.0156215625 -0.01301111 0.007431886
-0.011453283 0.0036449512 -0.020274516 -0.0011722167 -0.028360616 -0.020654459 0.002978433 -0.0022588957
-0.025691876
00000000: 2975 86bc 524b 493d bea5 953c 04cb ad3c
00000010: 14d4 bdbc 95f1 7fbc 8d2c 55bc 2e87 f33b
00000020: 8da6 3bbc 22e0 6e3b be16 a6bc 11a5 99ba
00000030: 8654 e8bc 8a33 a9bc d031 433b fb09 14bb
00000040: c577 d2bc

critic.0.weight f4 [64, 64]
0.042575985 -0.048253603 -0.106202565 -0.023409197 0.0048176614 0.13679525 -0.09327566 -0.23886624
-0.040352095 -0.048563235 0.09709109 -0.07321452 -0.05776826 -0.035183918 0.13386092 0.021044865
-0.029007928 0.031234875 0.1304024 -0.056398954 0.015174972 0.10939168 0.07755472 -0.17210345
0.012194854 0.09381458 0.23067622 -0.095524214 0.10719817 -0.18106344 0.08733647 -0.13837658
-0.14522898 -0.17427817 -0.06379343 0.083623745 -0.15036944 0.15454608 0.074674726 -0.016960522
0.004427194 -0.058759045 -0.009801996 0.12339532 -0.15562108 -0.018577497 -0.09102375 0.0655886
-0.15039162 -0.17654598 0.21483406 -0.088560075 -0.08971739 0.3189482 0.0575723 -0.011299893
0.11262514 -0.11987783 0.0030395617 0.30771595 -0.049141794 0.35354844 0.19924095 0.06512563
0.1583427 -0.012369314 0.20479475 0.112935655 -0.05157473 0.25646868 -0.32892296 -0.04817655
0.0710226 0.20635533 0.23373747 0.06531218 0.12847736 -0.0041412353 0.09679351 0.07611817
0.06847924 0.115154274 -0.025305001 -0.17285547 0.069722764 -0.07148028 0.067661166 -0.19619852
-0.07218752 0.2586856 0.24573496 0.029208815 0.0036229568 0.035524916 -0.06042 0.09131834
0.085187025 0.10374907 0.099049956 0.0075604557 -0.011863203 0.10492963 -0.24738328 0.21562064
0.09080091 0.07835748 -0.17592093 0.24063243 0.07654518 0.030310055 -0.081454575 -0.113860056
0.13065395 0.07113598 0.004213169 0.17470828 -0.07054089 -0.022124924 -0.008936547 0.027303493
0.09850522 0.077432364 -0.028378835 0.03105202 -0.022021309 0.30463257 0.092096575 -0.03095743
0.09294255 -0.12905909 0.046225425 -0.07596353 0.03287191 -0.09945755 0.026482124 0.067821056
0.2612099 -0.038272686 0.12346195 -0.07021493 -0.18814754 -0.04219911 0.078969665 0.3551992
-0.15537144 0.09348437 -0.03821612 -0.0093716895 0.033775013 0.020888783 -0.079590395 0.13808283
0.03892713 0.1426767 0.13204792 -0.028762795 0.047876194 -0.018676603 0.051260397 -0.2515946
-0.013663769 0.032636527 0.023056481 0.15796137 -0.22703011 -0.032538738 -0.14120068 0.044395305
-0.21614939 -0.03873576 0.27920333 0.02910429 0.09425855 0.043569766 0.007913834 0.07747085
0.3410445 -0.046094842 -0.032556232 0.14958347 0.07286607 0.1061051 0.13034481 -0.09733732
0.305506 -0.06829311 0.11422343 0.08598341 -0.051367853 0.14584447 0.03772287 0.13987096
-0.10206019 -0.052734297 -0.031146402 -0.15480886 0.15079853 0.15819032 -0.053747013 0.13320942
-0.21228231 -0.044446614 -0.03972798 -0.3317407 -0.18224238 0.06290466 -0.06917984 0.13961208
0.100802176 0.12610283 -0.0034666392 0.11551285 0.025167529 -0.24367516 -0.17980741 -0.16538511
0.024903337 -0.015269114 -0.020128217 0.20534818 0.068989895 -0.1625196 0.23803134 0.08981389
-0.07539491 -0.03794288 -0.17152356 0.123550534 0.07545564 -0.15939578 -0.023717815 -0.04356357
-0.04355513 -0.17066798 0.0021468233 0.06893963 -0.05976455 0.13616307 -0.12490549 0.05200564
-0.074916214 -0.08473144 -0.18077292 0.09433028 -0.21789397 -0.27698177 -0.17024517 0.14985277
-0.10317956 0.13987957 0.026177116 0.061015382 0.15712848 0.08669413 0.010398548 -0.010034633
00000000: 2864 2e3d 92a5 45bd bb80 d9bd a5c4 bfbc
00000010: 79dd 9d3b 0e14 0c3e 4f07 bfbd 5a99 74be
00000020: 3d48 25bd 3eea 46bd b2d7 c63d 7ff1 95bd
00000030: 699e 6cbd 031d 10bd d612 093e 4866 ac3c
00000040: 09a2 edbc 48e0 ff3c 3588 053e 9702 67bd
00000050: 72a0 783c bf08 e03d 02d5 9e3d e33b 30be
00000060: edcc 473c dc21 c03d 6336 6c3e 33a2 c3bd
00000070: b78a db3d b268 39be 77dd b23d 97b2 0dbe
00000080: e8b6 14be fa75 32be 21a6 82bd ed42 ab3d
00000090: 72fa 19be 5441 1e3e 10ef 983d cbf0 8abc
000000a0: ff11 913b 53ad 70bd 8d98 20bc afb6 fc3d
000000b0: 225b 1fbe d62f 98bc a96a babd 5153 863d
000000c0: 4300 1abe 78c8 34be 76fd 5b3e fc5e b5bd
000000d0: c0bd b7bd 2e4d a33e efd0 6b3d 3023 39bc
000000e0: 02a8 e63d 8282 f5bd 6233 473b f28c 9d3e
000000f0: e848 49bd 4d04 b53e d205 4c3e 9660 853d
00000100: 9724 223e aaa8 4abc b7b5 513e cf4a e73d
00000110: 0640 53bd dd4f 833e 9768 a8be c654 45bd
00000120: 4c74 913d d04e 533e e058 6f3e 64c2 853d
00000130: 928f 033e 33b3 87bb ad3b c63d d8e3 9b3d
00000140: d83e 8c3d 01d6 eb3d 6f4c cfbc 0601 31be
00000150: cfca 8e3d 4164 92bd f091 8a3d 44e8 48be
00000160: 0dd7 93bd 7072 843e f2a1 7b3e 5347 ef3c
00000170: 216f 6d3b 9382 113d f67a 77bd 1c05 bb3d
00000180: 8976 ae3d 647a d43d b4da ca3d b3bd f73b
00000190: e15d 42bc 59e5 d63d 0b52 7dbe a8cb 5c3e
000001a0: d4f5 b93d e379 a03d 9e24 34be 5968 763e
000001b0: b8c3 9c3d cb4c f83c a8d1 a6bd 762f e9bd
000001c0: 26ca 053e beaf 913d a00e 8a3b bae6 323e
000001d0: be77 90bd 543f b5bc 986a 12bc 93ab df3c
000001e0: 1bbd c93d dc94 9e3d bb7a e8bc ce60 fe3c
000001f0: 0866 b4bc cdf8 9b3e 219d bc3d 709a fdbc
00000200: aa58 be3d 1128 04be df56 3d3d c492 9bbd
00000210: b2a4 063d 66b0 cbbd 0af1 d83c c4e5 8a3d
00000220: 4ebd 853e d2c3 1cbd 9ed9 fc3d d8cc 8fbd
00000230: c0a9 40be f9d8 2cbd d9ba a13d abdc b53e
00000240: b119 1fbe bc74 bf3d 8288 1cbd b78b 19bc
00000250: ab57 0a3d f41e ab3c 4a00 a3bd 9665 0d3e
00000260: 0e72 1f3d d719 123e 9237 073e f49f ebbc
00000270: d419 443d adff 98bc 6cf6 513d 02d1 80be
00000280: 00de 5fbc e1ad 053d f2e0 bc3c a0c0 213e
00000290: 957a 68be 5747 05bd e996 10be dad7 353d
000002a0: 4456 5dbe 63a9 1ebd bdf3 8e3e 1f6c ee3c
000002b0: a00a c13d 3676 323d 07a9 013c 09a9 9e3d
000002c0: 629d ae3e f2cd 3cbd af59 05bd 692c 193e
000002d0: ce3a 953d a14d d93d 1c79 053e ca58 c7bd
000002e0: 486b 9c3e 42dd 8bbd f9ed e93d 1218 b03d
000002f0: 1967 52bd 4158 153e 4c83 1a3d 553a 0f3e
00000300: ef04 d1bd ebff 57bd bd26 ffbc 3786 1ebe
00000310: ee6a 1a3e a5fc 213e d425 5cbd 0d68 083e
00000320: 8960 59be a70d 36bd ceb9 22bd ebd9 a9be
00000330: bf9d 3abe 29d4 803d 29ae 8dbd 78f6 0e3e
00000340: 5f71 ce3d 1a21 013e 8e30 63bb 0092 ec3d
00000350: 222c ce3c fb85 79be 6f1f 38be b75a 29be
00000360: 1502 cc3c 4e2b 7abc eee3 a4bc cb46 523e
00000370: 934a 8d3d 8a6b 26be 7dbe 733e 58f0 b73d
00000380: a668 9abd fe69 1bbd dfa3 2fbe 1008 fd3d
00000390: 7d88 9a3d a638 23be dd4b c2bc b76f 32bd
000003a0: dd66 32bd 96c3 2ebe b8b1 0c3b 3930 8d3d
000003b0: accb 74bd 556e 0b3e 73ce ffbd de03 553d
000003c0: ac6d 99bd ad87 adbd 891c 39be 3c30 c13d
000003d0: 991f 5fbe 8ed0 8dbe c054 2ebe 0173 193e
000003e0: ce4f d3bd 973c 0f3e 6471 d63c 44eb 793d
000003f0: 4ae6 203e b18c b13d ac5e 2a3c 4d68 24bc

critic.0.bias f4 [64]
0.027293433 0.030177718 0.02044844 -0.038841225 -0.025271082 -0.04324664 -0.017427549 -0.025665065
0.043142617 -0.027791614 -0.028430028 -0.03440967 0.030597096 -0.03789343 -0.02728403 -0.03387594
-0.029757408 0.030894278 0.0341731 -0.04013555 0.022634618 -0.025302902 -0.028653976 0.023575852
-0.016101222 -0.028865792 -0.027268654 -0.043675125 0.029714689 0.028716259 0.027738161 0.02918953
0.02385855 -0.031403035 -0.03852814 -0.020325169 0.024880236 0.026020989 0.023768159 0.025602343
-0.019581538 0.033561785 -0.02323225 0.032778345 0.028604802 -0.023681767 0.022399746 0.024067294
-0.026473254 -0.028362535 -0.025203528 0.039543178 -0.028381636 0.031800825 -0.043025278 0.027854407
0.03507128 0.041415423 -0.026658345 -0.038874034 -0.028240208 0.03428491 0.026015515 0.022879252
00000000: 7a96 df3c 4337 f73c 7d83 a73c fa17 1fbd
00000010: 4d05 cfbc 6423 31bd 38c4 8ebc 8b3f d2bc
00000020: 50b6 303d 3dab e3bc 17e6 e8bc 27f1 0cbd
00000030: c3a6 fa3c 2436 1bbd c282 dfbc 7fc1 0abd
00000040: cfc5 f3bc ff15 fd3c 18f9 0b3d 2d65 24bd
00000050: 3c6c b93c 0848 cfbc bebb eabc 2522 c13c
00000060: b6e6 83bc f477 ecbc 8362 dfbc b0e4 32bd
00000070: 386c f33c 5c3e eb3c 243b e33c e21e ef3c
00000080: 0173 c33c 78a0 00bd afcf 1dbd f880 a6bc
00000090: a3d1 cb3c f829 d53c 71b5 c23c 01bc d13c
000000a0: 7669 a0bc 1578 093d 8f51 bebc 9642 063d
000000b0: 9e54 ea3c 4400 c2bc ac7f b73c c628 c53c
000000c0: 70de d8bc 8c58 e8bc a177 cebc 07f8 213d
000000d0: 9b80 e8bc 9541 023d 463b 30bd ed2e e43c
000000e0: e7a6 0f3d 38a3 293d 9a62 dabc 613a 1fbd
000000f0: 0258 e7bc 556e 0c3d 7d1e d53c 456d bb3c

critic.2.weight f4 [1, 64]
0.87039566 0.84531957 1.0190649 -0.86513114 -0.85493565 -0.82111144 -0.80755824 -0.9751363
0.8199477 -0.8637432 -0.92814296 -0.7737265 0.96414655 -0.8616609 -0.8278713 -0.88962096
-0.80706406 0.8042978 0.9622347 -0.809892 0.9073145 -0.9638478 -0.86214316 1.0374565
0.7879817 -0.9529512 -0.94292283 -0.8497901 0.9348243 0.88450634 1.0434147 0.99028313
0.8882119 -0.8908816 -0.84427917 -0.8453525 0.8910616 0.89995 0.88031644 0.95494735
-0.8432675 0.81183 -0.97281176 0.8167826 0.86285585 -1.0838479 0.9115051 0.969033
-0.90663975 -0.91046906 -1.089161 0.7795099 -0.84047264 0.88630575 -0.8154306 0.868017
0.8913707 0.94272816 -0.9022176 -0.8316873 -1.0843916 0.9222477 0.84119517 0.94042856
00000000: 40d2 5e3f dd66 583f b870 823f 3c79 5dbf
00000010: 10dd 5abf 5c34 52bf 23bc 4ebf 88a2 79bf
00000020: 18e8 513f 461e 5dbf c79a 6dbf f112 46bf
00000030: 4fd2 763f cf95 5cbf 60ef 53bf 33be 63bf
00000040: c09b 4ebf 76e6 4d3f 0355 763f 1555 4fbf
00000050: c345 683f bbbe 76bf 6ab5 5cbf 60cb 843f
00000060: 2bb9 493f 9cf4 73bf 6463 71bf d88b 59bf
00000070: a550 6f3f 026f 623f 9d8e 853f 3283 7d3f
00000080: db61 633f d110 64bf ae22 58bf 0569 58bf
00000090: 9d1c 643f 2063 663f 6b5c 613f 6e77 743f
000000a0: 61e0 57bf 17d4 4f3f 310a 79bf aa18 513f
000000b0: 1fe4 5c3f 87bb 8abf 6658 693f 8c12 783f
000000c0: 8b19 68bf 8014 69bf a169 8bbf f68d 473f
000000d0: 3729 57bf efe4 623f 0fc0 50bf 5d36 5e3f
000000e0: df30 643f a256 713f bcf7 66bf 75e9 54bf
000000f0: 58cd 8abf 6d18 6c3f 9158 573f edbf 703f

exp_avg f4 [16, 3, 2, 2]
-2.1727461e-05 -1.4799397e-05 -2.2328946e-05 -1.2087402e-05 -5.8590413e-05 -9.776461e-06 -5.607047e-05 -3.9458605e-08
0.0 0.0 0.0 0.0 -5.1463903e-06 -2.4848407e-05 -4.6080945e-06 -3.4701527e-05
-1.33841195e-05 -6.051467e-05 -9.158616e-06 -8.4066596e-05 0.0 0.0 0.0 0.0
-1.0320521e-07 -2.5926638e-06 -1.03376884e-07 -1.0320521e-07 8.9817835e-26 -3.183421e-07 0.0 0.0
0.0 0.0 0.0 0.0 -2.085785e-05 -1.0426405e-05 -2.5124766e-05 -1.9313627e-05
-5.291903e-05 -5.7949126e-08 -6.238734e-05 -2.694948e-05 0.0 0.0 0.0 0.0
-2.1718006e-05 -2.6019015e-05 -2.2904269e-05 -2.5971742e-05 -5.6933994e-05 -4.1934887e-05 -5.8726364e-05 -4.4277735e-05
0.0 0.0 0.0 0.0 -1.8573342e-05 -1.1895164e-05 -2.0474627e-05 -1.51094e-05
-5.5123106e-05 -4.889861e-06 -5.7403966e-05 -5.947162e-06 0.0 0.0 0.0 0.0
2.8570562e-07 -4.211878e-07 3.715963e-07 4.887722e-07 1.5930402e-07 -6.509585e-08 1.10732856e-07 6.064231e-08
0.0 0.0 0.0 0.0 1.2951244e-07 -7.69086e-07 -3.8855353e-07 -2.8105558e-06
7.277184e-08 -4.4702617e-07 -1.992181e-07 -6.2948527e-07 0.0 0.0 0.0 0.0
0.0 0.0 0.0 -4.729819e-06 0.0 0.0 0.0 -1.1824547e-05
0.0 0.0 0.0 0.0 4.440114e-07 3.5923608e-07 2.3370617e-06 1.10468115e-07
1.7989746e-07 -2.440373e-06 4.0322107e-07 9.452953e-08 0.0 0.0 0.0 0.0
-2.106389e-05 -1.9773344e-05 -1.970764e-05 -2.3775912e-05 -5.4405962e-05 -1.9019957e-05 -4.9198425e-05 -3.6693513e-05
0.0 0.0 0.0 0.0 -1.2691106e-05 -6.1647925e-06 -1.744482e-05 -1.04882165e-05
-3.1322797e-05 -1.6778709e-07 -3.7315585e-05 -1.5384425e-05 0.0 0.0 0.0 0.0
-2.0258325e-05 -1.4226094e-05 -1.9729432e-05 -1.1074175e-05 -5.541006e-05 -6.191599e-06 -4.9724353e-05 -1.7365303e-06
0.0 0.0 0.0 0.0 -1.316138e-06 -3.314979e-05 -7.836149e-06 -2.8628221e-05
-2.4949554e-06 -8.155404e-05 -1.627025e-05 -7.264881e-05 0.0 0.0 0.0 0.0
-1.1660845e-06 -1.45118665e-05 4.9007034e-09 -2.2543069e-05 -2.6175758e-06 -3.5657267e-05 -4.934848e-07 -5.3618653e-05
0.0 0.0 0.0 0.0 -6.01224e-07 -2.1978924e-05 -4.883721e-06 -2.8773225e-05
-9.683679e-07 -4.9824845e-05 -8.087992e-06 -6.0327533e-05 0.0 0.0 0.0 0.0
00000000: 5e43 b6b7 ed4a 78b7 0c4f bbb7 ffca 4ab7
00000010: fabe 75b8 9505 24b7 352d 6bb8 3279 29b3
00000020: 0000 0000 0000 0000 0000 0000 0000 0000
00000030: 28af acb6 8c71 d0b7 3b9f 9ab6 7b8c 11b8
00000040: 5b8c 60b7 22d1 7db8 f5a7 19b7 e94c b0b8
00000050: 0000 0000 0000 0000 0000 0000 0000 0000
00000060: aaa1 ddb3 a0fd 2db6 0b00 deb3 aaa1 ddb3
00000070: d160 de15 9be8 aab4 0000 0000 0000 0000
00000080: 0000 0000 0000 0000 0000 0000 0000 0000
00000090: e4f7 aeb7 12ed 2eb7 06c3 d2b7 b303 a2b7
000000a0: 60f5 5db8 bde3 78b3 f3d5 82b8 9111 e2b7
000000b0: 0000 0000 0000 0000 0000 0000 0000 0000
000000c0: 102f b6b7 6943 dab7 8b22 c0b7 e4dd d9b7
000000d0: 69cc 6eb8 3ee3 2fb8 f450 76b8 dbb6 39b8
000000e0: 0000 0000 0000 0000 0000 0000 0000 0000
000000f0: f3cd 9bb7 5791 47b7 edc0 abb7 617e 7db7
00000100: fc33 67b8 9613 a4b6 0ac5 70b8 bc8d c7b6
00000110: 0000 0000 0000 0000 0000 0000 0000 0000
00000120: 1563 9934 9c1f e2b4 ce7f c734 2b34 0335
00000130: 280d 2b34 d2ca 8bb3 08cc ed33 763a 8233
00000140: 0000 0000 0000 0000 0000 0000 0000 0000
00000150: 1c10 0b34 3073 4eb5 649a d0b4 fb9c 3cb6
00000160: be46 9c33 cffe efb4 a8e8 55b4 e6f9 28b5
00000170: 0000 0000 0000 0000 0000 0000 0000 0000
00000180: 0000 0000 0000 0000 0000 0000 d6b4 9eb6
00000190: 0000 0000 0000 0000 0000 0000 0b62 46b7
000001a0: 0000 0000 0000 0000 0000 0000 0000 0000
000001b0: 7660 ee34 08dd c034 6ad6 1c36 7d3a ed33
000001c0: d629 4134 4ac5 23b6 487a d834 2900 cb33
000001d0: 0000 0000 0000 0000 0000 0000 0000 0000
000001e0: 5cb2 b0b7 efde a5b7 d651 a5b7 6272 c7b7
000001f0: f531 64b8 0c8d 9fb7 685a 4eb8 5ce7 19b8
00000200: 0000 0000 0000 0000 0000 0000 0000 0000
00000210: e3eb 54b7 2adb ceb6 7756 92b7 8cf6 2fb7
00000220: 9960 03b8 f728 34b4 4e83 1cb8 cd0d 81b7
00000230: 0000 0000 0000 0000 0000 0000 0000 0000
00000240: 6cf0 a9b7 9cac 6eb7 a280 a5b7 38cb 39b7
00000250: 1968 68b8 6ec1 cfb6 1e8f 50b8 ba12 e9b5
00000260: 0000 0000 0000 0000 0000 0000 0000 0000
00000270: 28a6 b0b5 510a 0bb8 0178 03b7 a326 f0b7
00000280: 026f 27b6 fe07 abb8 197c 88b7 085b 98b8
00000290: 0000 0000 0000 0000 0000 0000 0000 0000
000002a0: 5c82 9cb5 fe77 73b7 0b63 a831 df1a bdb7
000002b0: 9ca9 2fb6 b38e 15b8 0478 04b5 97e4 60b8
000002c0: 0000 0000 0000 0000 0000 0000 0000 0000
000002d0: cc63 21b5 615f b8b7 d8de a3b6 085e f1b7
000002e0: def8 81b5 05fb 50b8 a9b1 07b7 3208 7db8
000002f0: 0000 0000 0000 0000 0000 0000 0000 0000
