storage/MiniGrid-ThrowLeftoversNavigation-8x8-N2-v0_22-07-19-14-22-33/status.pt (torch, 256701 bytes, 39 tensors)

image_conv.0.weight f4 [16, 3, 2, 2]
0	0x3e15957a	0.14607802
1	0xbdf762ee	-0.12079416
2	0xbd6028d3	-0.054726433
3	0x3e08c546	0.13356504
4	0xbe819024	-0.25305283
5	0x3e4a63fc	0.19764704
6	0xbd271479	-0.04079101
7	0x3e2abe56	0.1667417
8	0x3d246020	0.040130734
9	0xbd10c790	-0.035346568
10	0x3da3fa44	0.08006719
11	0x3c695280	0.014240861
12	0x3dee00e0	0.11621261
13	0xbd9e4a27	-0.07728987
14	0xbc1af488	-0.009457715
15	0x3b222494	0.002474104
16	0x3d9b7731	0.07591093
17	0x3d22863a	0.03967879
18	0x3e925a56	0.28584546
19	0x3e071d22	0.13194707
20	0xbddc2b48	-0.10750443
21	0xbe328872	-0.17434862
22	0xbd4630e4	-0.04838647
23	0xbdff02f2	-0.12451734
24	0xbd79145b	-0.060810428
25	0x3d387683	0.045034897
26	0x3e4cea9f	0.20011376
27	0x3e3fc970	0.18729186
28	0xbe816995	-0.25275865
29	0x3e5ec48b	0.21754663
30	0x3de33b44	0.110952884
31	0x3e9f0d67	0.31064913
32	0x3e431daa	0.19054285
33	0xbe86aaec	-0.26302278
34	0xbe8c87f4	-0.27447474
35	0xbe0e9438	-0.13923728
36	0x3e893f02	0.26805884
37	0xbd1ed028	-0.038772732
38	0x3dfff4d2	0.12497868
39	0xbdfc84dc	-0.123300284
40	0x3e9f1caa	0.31076556
41	0xbdd665b9	-0.10468621
42	0x3e7c4694	0.24636298
43	0x3cb8025b	0.02246206
44	0xbe1bba9f	-0.15207909
45	0x3e17f1ca	0.14838329
46	0xbe1ce986	-0.15323457
47	0x3dade06c	0.08490071
48	0xbd25c760	-0.040473342
49	0x3b94d0bb	0.004541484
50	0xbe7105ad	-0.23537321
51	0xbdbf741c	-0.09348318
52	0x3e4d3c75	0.20042594
53	0xbcd37ef7	-0.025817377
54	0x3ea8ac67	0.32944033
55	0x3e8d27fd	0.2756957
56	0xbc5d75a0	-0.0135168135
57	0xbe454f6b	-0.19268577
58	0x3e3402e2	0.17579225
59	0x3db77c34	0.08959237
60	0xbe236f78	-0.1596049
61	0x3e5fd51a	0.21858636
62	0x3e4ffcf9	0.20311345
63	0x3e916040	0.28393745
64	0xbe05d752	-0.1307042
65	0xbbb1ea87	-0.005429569
66	0x3d00de91	0.031462256
67	0x3db001dd	0.085941054
68	0xbe6056ba	-0.21908084
69	0xbe51c449	-0.20485033
70	0x3e20cf40	0.1570406
71	0xbd8aa21a	-0.067692
72	0x3e23f8e0	0.16012907
73	0x3d0721b0	0.03299111
74	0x3dfb0739	0.12257237
75	0x3dc58cfc	0.09646031
76	0x3e053068	0.13006747
77	0x3e2fb18f	0.17157577
78	0xbe7814ba	-0.24226657
79	0x3e35a77c	0.17739671
80	0xbe4fd877	-0.20297419
81	0xbe5f090e	-0.21780798
82	0x3c8fd0c0	0.017555594
83	0xbd497de0	-0.04919231
84	0x3e4fc9ad	0.20291777
85	0xbe0cd705	-0.13753898
86	0xbe5f6b15	-0.21818192
87	0x3e72ed8a	0.23723426
88	0xbb33a783	-0.0027413077
89	0x3e51143d	0.20417877
90	0x3e0b5e27	0.13610135
91	0xbe38a003	-0.1802979
92	0x3d6d8b78	0.057994336
93	0x3d8e017c	0.06933877
94	0xbe45ec7c	-0.19328493
95	0xbe0c416e	-0.13696834
96	0x3df2db49	0.118582316
97	0x3da2988b	0.079392515
98	0xbdccf946	-0.10008483
99	0xbd671fde	-0.056426875
100	0x3e975eb3	0.29564437
101	0xbcabb2bc	-0.02095925
102	0x3e45d3df	0.19319104
103	0x3e1d10e8	0.1533848
104	0xbe3f1482	-0.18660167
105	0xbe7b63ca	-0.24549785
106	0x3e8ddf86	0.27709597
107	0x3c76f7a0	0.015073687
108	0x3e6aee06	0.22942361
109	0x3db510c9	0.08841092
110	0x3dff6913	0.12471213
111	0x3e7bc7a5	0.24587877
112	0x3e9e693a	0.30939656
113	0xbe1f7942	-0.155736
114	0x3d8df111	0.069307454
115	0x3e80dffd	0.2517089
116	0x3e56253a	0.20912638
117	0x3e37a3e2	0.1793361
118	0xbe55ef08	-0.20891964
119	0xbe54dd7e	-0.20787618
120	0xbe4b6ccf	-0.19865726
121	0x3cf51fd2	0.0299224
122	0x3e947309	0.28994015
123	0xbe3aa965	-0.18228681
124	0x3e1ca38a	0.1529676
125	0xbe27b04c	-0.16375846
126	0xbe8780e5	-0.26465526
127	0xbd6f2729	-0.058386955
128	0x3e2a516c	0.16632622
129	0x3e893722	0.26799875
130	0xbe3794c6	-0.17927846
131	0x3d804c68	0.06264573
132	0x3e8e65ab	0.27811942
133	0x3e5ffc71	0.21873643
134	0x3e5223ef	0.2052152
135	0x3e6a7eda	0.22899953
136	0x3e4efcf9	0.20213689
137	0x3dca967d	0.098919846
138	0xbe34d5bd	-0.1765966
139	0xbe5ec4b1	-0.2175472
140	0xbe077398	-0.1322769
141	0xbd09afe8	-0.033615023
142	0xbe3530d3	-0.17694406
143	0x3dd84b8c	0.105612844
144	0x3dbdf48a	0.09275158
145	0xbd7b935b	-0.061419826
146	0x3dd933a9	0.106055565
147	0x3db56447	0.08857017
148	0x3e3f3e99	0.18676223
149	0x3e63bb90	0.22239518
150	0xbdba20bd	-0.090882756
151	0x3e9c3ae9	0.30513695
152	0xbd08b238	-0.033373088
153	0xbc227e00	-0.009917736
154	0xbe8b81ce	-0.2724747
155	0xbe3e414e	-0.185796
156	0xbe0f539b	-0.13996737
157	0xbdc42165	-0.09576682
158	0x3e698d24	0.22807747
159	0xbd847317	-0.06467264
160	0xbe392d99	-0.180838
161	0x3e0d8013	0.13818388
162	0x3dfd1280	0.12357044
163	0x3e5d41c4	0.21607119
164	0xbe18f76c	-0.14938134
165	0x3d802eb8	0.06258911
166	0xbdd73aaa	-0.10509236
167	0xbd84d446	-0.064858004
168	0xbe815461	-0.25259688
169	0xbe165534	-0.1468094
170	0xbde02322	-0.10944201
171	0x3dd6e8c9	0.10493619
172	0x3d08a019	0.033355806
173	0x3d60d119	0.05488691
174	0x3e88bf93	0.2670866
175	0x3e867898	0.2626388
176	0x3e499d8c	0.19689006
177	0x3c169be0	0.009192437
178	0xbe4c7ef0	-0.19970298
179	0x3e670450	0.22560239
180	0xbdb032ee	-0.08603464
181	0xbcf01ed1	-0.02931157
182	0xbe847b04	-0.25875103
183	0xbd7f0204	-0.06225778
184	0xbe4a6080	-0.19763374
185	0x3e86995f	0.26288888
186	0xbe7f8e28	-0.24956572
187	0xbe67758c	-0.22603434
188	0xbc209a00	-0.009802341
189	0xbe1fd659	-0.15609111
190	0x3dd38a68	0.10329133
191	0xbde39212	-0.11111845

image_conv.0.bias f4 [16]
0	0xbdede5be	-0.116160855
1	0x3d890955	0.06691233
2	0x3e7f2fa9	0.24920525
3	0xbe2ed23f	-0.1707239
4	0x3e3d78d2	0.1850312
5	0x3e6b19d0	0.22959065
6	0x3ea08bf8	0.31356788
7	0xbe211b8e	-0.15733168
8	0x3ddc74ed	0.10764489
9	0xbe346272	-0.17615679
10	0x3e6836ac	0.22677106
11	0xbda38aff	-0.07985496
12	0x3e4c9c33	0.1998146
13	0x3d21d7b5	0.039512355
14	0xbd2d3bc7	-0.042293336
15	0xbc2fdaf6	-0.010733357

image_conv.3.weight f4 [32, 16, 2, 2]
0	0x3cc929ca	0.02455606
1	0x3d714879	0.058907006
2	0x3ccd5bf1	0.025068255
3	0x3d473d97	0.04864272
4	0xbdd44356	-0.10364406
5	0x3db9f732	0.09080352
6	0x3de6691a	0.11250515
7	0x3deadfb4	0.11468449
8	0x3dc85958	0.09782666
9	0xbdac6c5b	-0.08419105
10	0xbd3f2403	-0.046665203
11	0x3dfa5eec	0.12225136
12	0xbdb4d8aa	-0.08830388
13	0x3de71163	0.11282613
14	0xbdbf53ef	-0.09342181
15	0xbd9ef191	-0.07760919
16	0x3d8ef5e9	0.069804974
17	0xbda0752e	-0.0783485
18	0xbccf6b8b	-0.025319835
19	0x3dd58695	0.1042606
20	0x3dc5eb67	0.0966404
21	0x3dfb3fd8	0.122680366
22	0xbcf50326	-0.029908728
23	0xbdb0d7eb	-0.08634933
24	0x3e03361e	0.12813613
25	0xbccd831e	-0.025086936
26	0xbd3abd2d	-0.04559057
27	0x3d348d7d	0.044080246
28	0xbdc4a70a	-0.09602173
29	0x3d9f71ea	0.07785399
30	0x3db4c520	0.08826661
31	0xbdbc475f	-0.091933005
32	0xbdc5ddc5	-0.0966144
33	0xbb9d4baa	-0.0048002796
34	0x3d64f55a	0.055898048
35	0x3bf74502	0.007546068
36	0xbd79fce7	-0.061032202
37	0x3b0702ca	0.0020601028
38	0xbdeab9b2	-0.114612
39	0xbd9accc1	-0.07558585
40	0xbda1e8a6	-0.07905702
41	0x3dd6b1a9	0.10483105
42	0x3e008e8c	0.12554377
43	0xbd02beb4	-0.03192015
44	0xbb1142af	-0.002216499
45	0x3d6bf5b0	0.057607353
46	0x3cbb86c1	0.022891404
47	0xbd5e9a0d	-0.054346133
48	0x3da2a366	0.07941322
49	0x3da6e355	0.08148829
50	0xba15bac9	-0.0005711732
51	0xba1beb0f	-0.0005947807
52	0x3e005459	0.12532176
53	0x3def701b	0.11691304
54	0xbd95abd2	-0.07308163
55	0x3e09b0b8	0.13446319
56	0x3d24b17f	0.040208336
57	0xbd9dda58	-0.077076614
58	0x3d96d5c6	0.07364993
59	0xbda3d109	-0.07998855
60	0x3e05899e	0.13040778
61	0xbd8d2839	-0.068924375
62	0x3d0b10b2	0.03395147
63	0x3d19ef4b	0.037581723
64	0x3cca62ca	0.02470531
65	0x3ddde2b5	0.108342566
66	0xbd6d8962	-0.057992347
67	0xbd31ad16	-0.04337796
68	0xbddfefaf	-0.10934388
69	0x3a993052	0.0011687374
70	0xbd783d7f	-0.060605522
71	0x3c2c1950	0.010504082
72	0xbcf058eb	-0.029339274
73	0x3d3df50a	0.046376266
74	0x3dd2b2f8	0.10288042
75	0x3d395194	0.045243815
76	0xbd2353b2	-0.03987474
77	0xbd71ea50	-0.05906135
78	0xbddebc1c	-0.10875723
79	0x3ddbfce4	0.107415944
80	0xbcb29434	-0.021799184
81	0x3d218391	0.039432112
82	0x3b9e9375	0.0048393556
83	0xbd8a4be0	-0.06752753
84	0x3d888271	0.06665505
85	0x3d8f9979	0.070116945
86	0xba4340e8	-0.00074483315
87	0xbd8ffdbf	-0.0703082
88	0xbd65754b	-0.056020062
89	0x3c020687	0.007936127
90	0xbd98166f	-0.07426154
91	0xbd81a8aa	-0.06330998
92	0xbcc63a57	-0.02419774
93	0xbd1710ac	-0.036881134
94	0x3cc3839b	0.023866465
95	0xbcfa1436	-0.030527215
96	0xbc8e0c0d	-0.01733973
97	0xbd20a582	-0.03922034
98	0xbdeec95e	-0.116595015
99	0x3de93b2e	0.11388241
100	0x3c9b49ff	0.018956183
101	0x3de7ab2a	0.11311944
102	0xbcceb652	-0.025233421
103	0xbceaa362	-0.02864236
104	0xbddaf8e4	-0.10692003
105	0xbd4c31d1	-0.049852196
106	0x3dba1b82	0.09087278
107	0xbdfad9a9	-0.12248547
108	0xbd4952f3	-0.049151372
109	0x3d9969e8	0.07490903
110	0x3d8279bf	0.063708775
111	0x3d3a2f53	0.04545529
112	0xbcea2205	-0.028580675
113	0xbb6e90a9	-0.0036402142
114	0xbce2dce3	-0.027693218
115	0xbd1c846a	-0.038212217
116	0x3d450cc8	0.048107892
117	0xbd164d18	-0.036694616
118	0xbd9b4a82	-0.075825706
119	0x3d39b9a9	0.045343075
120	0xbdc47940	-0.09593439
121	0xbcba35e6	-0.022730779
122	0x3d6d8460	0.05798757
123	0x3d66cee8	0.056349665
124	0x3dd8b555	0.10581461
125	0xbd824afd	-0.06361959
126	0x3bcb636e	0.0062069213
127	0xbcc58052	-0.02410904
128	0xbd93d9f5	-0.072193064
129	0xbd64d3fb	-0.055866223
130	0x3cd995f6	0.026560765
131	0x3c5a56b6	0.013326338
132	0xbd8e0daf	-0.06936204
133	0xbdb1f0a9	-0.086884804
134	0xbdd79cdc	-0.105279654
135	0x3df72f51	0.12069572
136	0xbcbf0b98	-0.023320958
137	0xbceb4aa4	-0.028722115
138	0xbd53c853	-0.051704716
139	0xbd884979	-0.06654639
140	0xbdf204d2	-0.11817326
141	0xbd960e00	-0.07326889
142	0x3d95bf8d	0.07311926
143	0x3ccf891c	0.025333934
144	0xbd486e34	-0.048933223
145	0xbd4a14a2	-0.049336083
146	0x3da1699c	0.078814715
147	0x3db6e7ba	0.08930917
148	0x3df19534	0.11796036
149	0x3d085fb4	0.033294395
150	0x3d58e9c9	0.05295733
151	0xbc7a76ad	-0.015287084
152	0xbd9bb0e5	-0.07602099
153	0xbdf627e1	-0.12019325
154	0x3d8f8b7d	0.07009027
155	0xbcbba90c	-0.022907756
156	0x3d45a6f1	0.04825491
157	0x3c2fbe96	0.010726592
158	0xbdf97516	-0.121805355
159	0xbd83addd	-0.06429646
160	0x3d074a41	0.0330298
161	0xbcc8bf3e	-0.024505254
162	0xbdfe6dba	-0.124232724
163	0x3d2f55e6	0.04280653
164	0x3b2a7058	0.0026006903
165	0xbd1f835c	-0.038943633
166	0x3d338960	0.043832183
167	0x3cbc1659	0.022959875
168	0xbd4866cf	-0.04892617
169	0x3dde56c3	0.10856392
170	0x3d753e61	0.059873942
171	0x3c0cd778	0.008596294
172	0xbcd3eb30	-0.025868982
173	0xbddbd71c	-0.10734388
174	0x3db6add2	0.08919872
175	0xbd157585	-0.03648903
176	0xbdab1389	-0.083533354
177	0x3da4b5f4	0.08042517
178	0x3d2041ad	0.039125133
179	0x3ce36186	0.027756464
180	0xbcd5fd91	-0.026121886
181	0xbd245645	-0.040121336
182	0x3c92aec8	0.017905608
183	0x3dbf0618	0.09327334
184	0x3c7b963b	0.015355642
185	0xbd75ecfd	-0.060040463
186	0x3df6349e	0.12021755
187	0x3b8bf41d	0.004271044
188	0x3de3f390	0.1113044
189	0x3c6ee0d4	0.01457997
190	0x3dd39c02	0.103324905
191	0x3d8e0e4c	0.06936321
192	0xbd21f23a	-0.039537646
193	0x3dea341b	0.114357196
194	0x3cd99155	0.026558558
195	0xbd99ad34	-0.07503739
196	0xba650ff1	-0.0008738032
197	0xbdad9cea	-0.084771946
198	0xbd1d8718	-0.038458914
199	0xbd79b5cb	-0.060964387
200	0x3de307b8	0.110854566
201	0x3919c917	0.00014666129
202	0x3bb1764d	0.005415714
203	0x3db5e763	0.08882024
204	0x3d982f29	0.0743087
205	0xbd69055e	-0.056889884
206	0x3d90bb3f	0.07066964
207	0x3d9db829	0.077011414
208	0xbd958e19	-0.073024936
209	0x3e0f2995	0.13980706
210	0xbd4923d8	-0.04910645
211	0xbc90b110	-0.017662555
212	0xbda6efb7	-0.08151191
213	0x3e0c3575	0.13692267
214	0x3d3c6517	0.045994844
215	0x3e04472b	0.12917773
216	0x3d0cc912	0.034371443
217	0x3dc512ef	0.09622752
218	0xbc55ddd8	-0.01305338
219	0xbd94d0de	-0.07266401
220	0x3d222beb	0.039592665
221	0x3c302aea	0.010752419
222	0x3c11aa74	0.008890737
223	0xbd2501a8	-0.040284783
224	0x3cdaba5b	0.02670019
225	0x3d820a7c	0.06349656
226	0x3d90fea9	0.070798226
227	0xbd94f6e3	-0.072736524
228	0x3daa175d	0.083052374
229	0x3d1a5766	0.037681006
230	0x3de2dca0	0.11077237
231	0x3de9c634	0.11414757
232	0xbd9b4e66	-0.07583313
233	0x3e0bb599	0.13643493
234	0xbdcccb5e	-0.09999727
235	0x3db9398c	0.09044179
236	0x3cee25c1	0.029070737
237	0x3da7f583	0.082011245
238	0xbd421cf2	-0.047390886
239	0x3dc8279d	0.09773181
240	0xbd13c227	-0.03607383
241	0xbda99c91	-0.08281816
242	0x3d8c4dbd	0.06850765
243	0x3dc6da69	0.09709627
244	0x3e19b85e	0.15011737
245	0x3c21b879	0.009870642
246	0x3e16fd44	0.1474505
247	0x3dd8d5af	0.10587632
248	0xbd1a8aa0	-0.03772986
249	0xbd8f6988	-0.0700255
250	0x3dc36edd	0.0954263
251	0xbd207554	-0.039174393
252	0x3d9e1b67	0.0772007
253	0xbda84410	-0.08216107
254	0x3deb31f4	0.11484137
255	0x3d8c40d9	0.06848306

image_conv.3.bias f4 [32]
0	0x3c3bdba0	0.011465937
1	0xbcf8c844	-0.030368932
2	0x3cb7691d	0.02238899
3	0xbd28e89a	-0.04123745
4	0xbd4ac3ba	-0.049503066
5	0xbd14cdff	-0.036329266
6	0xbd6892e5	-0.056780715
7	0x3c4ef115	0.012630721
8	0x3d37d5a8	0.044881493
9	0x3e1b009b	0.1513695
10	0x3cd0c898	0.025486276
11	0x3ce07c87	0.02740313
12	0xbd6a9814	-0.05727394
13	0xbc846cb4	-0.016165115
14	0x3c489f59	0.012245023
15	0xbd54960d	-0.051900912
16	0x3ba1a97f	0.0049335356
17	0x3dfb64fe	0.12275122
18	0x3de6873d	0.112562634
19	0xbcfc2dfe	-0.03078365
20	0x3c589f42	0.013221564
21	0x3e229783	0.1587811
22	0x3c4269af	0.011866017
23	0xbdfb4e6e	-0.12270819
24	0x3ca7195a	0.02039783
25	0x3d0ec4c6	0.034855627
26	0xbaa79925	-0.001278673
27	0x3c19d96d	0.009390217
28	0xbdbef83d	-0.093246914
29	0x3d8d9d3c	0.06914756
30	0xbd3a4eed	-0.045485426
31	0x3d30b38a	0.04313997

image_conv.5.weight f4 [64, 32, 2, 2]
0	0x3d7d234f	0.06180125
1	0xbd821fdc	-0.06353733
2	0xbd2a905e	-0.041641586
3	0xba35dc49	-0.0006937427
4	0x3bedbbf7	0.007255073
5	0x3d55669f	0.05209982
6	0xbb19ef93	-0.0023488745
7	0x3c563fc5	0.013076727
8	0xbc9e8fe3	-0.01935572
9	0x3cc9c506	0.02463008
10	0x3d06de90	0.032927096
11	0xbd8b51c4	-0.06802705
12	0x3d1a7a58	0.037714332
13	0xbce1f021	-0.027580323
14	0x3d90d266	0.0707138
15	0xbdca7f54	-0.09887567
16	0xbca3394f	-0.019924788
17	0x3d1a86d1	0.037726227
18	0x3d4e245e	0.05032765
19	0xbc445de9	-0.011985281
20	0xbd43a61b	-0.047765832
21	0xbd819496	-0.06327169
22	0xbd8913b4	-0.06693211
23	0x3d91c00d	0.07116709
24	0xbdb25ebd	-0.08709476
25	0xbd321131	-0.043473426
26	0x3d1aee89	0.03782514
27	0x3d213a2f	0.03936213
28	0xbd9e584e	-0.077316865
29	0x3c8bc39b	0.017061045
30	0x3c2f1358	0.010685764
31	0x3dacdd61	0.08440662
32	0xbc66e36b	-0.014092307
33	0x3cf6e152	0.030136738
34	0xbc89f1be	-0.016838904
35	0x3d924dfc	0.071437806
36	0xbcc7e9d7	-0.024403496
37	0xbd85d577	-0.06534856
38	0x3b58dce3	0.0033090643
39	0xbd606eeb	-0.05479328
40	0x3ce63ec9	0.02810611
41	0x3d8d8944	0.06910947
42	0xbd807668	-0.06272584
43	0xbd6f32c4	-0.058398023
44	0xbbe82cd4	-0.007085422
45	0xbc23d306	-0.009999042
46	0xbd1557ce	-0.03646069
47	0x3d871f40	0.06597757
48	0x3ce890e5	0.028389404
49	0xbd14f3c0	-0.03636527
50	0x3c63e9eb	0.013910751
51	0xbc9552ac	-0.018227898
52	0xbd8510f4	-0.06497374
53	0x3d11d67b	0.035604935
54	0xbd88288d	-0.066483594
55	0x3c2cf941	0.010557474
56	0x3d480d60	0.04884088
57	0xbdb8944b	-0.0901266
58	0xbb75c293	-0.0037500008
59	0x3d94b844	0.072617084
60	0x3ce8a5c2	0.028399352
61	0xbd3bd11a	-0.04585371
62	0x3c00f0a3	0.007869872
63	0xbdc1a05f	-0.094544165
64	0x3c87670f	0.016528634
65	0x3d9aaaf2	0.075521365
66	0x3daa706f	0.08322226
67	0x3b188eaa	0.0023278394
68	0x3cdf57ba	0.027263511
69	0xbc7e18ef	-0.015508874
70	0xbd076889	-0.033058677
71	0x3bd52360	0.006504461
72	0xbd6cd414	-0.05781944
73	0x3ce71b3e	0.028211232
74	0x3d273bff	0.0408287
75	0xbce24c6e	-0.027624335
76	0xbce6951d	-0.028147275
77	0xbd8bf3c4	-0.06833604
78	0xb9ae6383	-0.00033262008
79	0x3cf4d039	0.029884445
80	0x3d918b93	0.071067
81	0xbdb78b30	-0.08962095
82	0xbdafb6d7	-0.08579796
83	0x3a967488	0.0011478821
84	0x3d9108ea	0.07081778
85	0xbb9a61c8	-0.0047113635
86	0x3c70d92b	0.014700214
87	0x3b90021a	0.004394782
88	0xbca3edeb	-0.020010909
89	0x3d660d09	0.056164775
90	0x3d671f17	0.056426134
91	0xbd5b0058	-0.053467125
92	0xbd58d0d2	-0.05293352
93	0xbd835bb7	-0.064139776
94	0xbcfa1aa3	-0.03053028
95	0xbc66554b	-0.014058421
96	0x3d84f2a4	0.064915925
97	0xbdb77d7a	-0.0895948
98	0x3d650fc8	0.055923253
99	0xbd734bd0	-0.059398472
100	0x3a241046	0.00062585284
101	0xbbbba830	-0.0057268366
102	0x3d13ab2d	0.036051918
103	0xbdb6400b	-0.08898934
104	0xbd841633	-0.06449547
105	0xbb8d5af2	-0.00431382
106	0x3d4403f4	0.047855332
107	0xbd6061c3	-0.054780733
108	0x3ca3d574	0.019999243
109	0xbcf0c69a	-0.029391576
110	0xbdbf1ab7	-0.09331267
111	0xbb06ce13	-0.0020569607
112	0xbd00ce58	-0.031446785
113	0x3d22c8d1	0.039742295
114	0x3d52859d	0.051396955
115	0x3d4b76ac	0.04967372
116	0x3d49ced3	0.04926951
117	0xbd90473c	-0.07044837
118	0xbdc0a33e	-0.09406136
119	0x3bc45102	0.005991102
120	0x3caacae8	0.020848706
121	0xbda3d0ae	-0.07998787
122	0x3d90e617	0.07075136
123	0xbc9bd0c5	-0.019020448
124	0xbd7b1923	-0.06130327
125	0x3d5766ed	0.052588392
126	0x3d9cd876	0.07658474
127	0x3c92e773	0.01793263
128	0xbd1561ae	-0.036470108
129	0x3aae57cb	0.0013301311
130	0xbd96b092	-0.07357897
131	0x3d3dd0dd	0.046341766
132	0x3d4ad6b7	0.049521174
133	0xbcc540f3	-0.024078822
134	0xbd9bc9a5	-0.0760682
135	0x3d6ad653	0.0573333
136	0xbd941652	-0.0723082
137	0xbd3e1d57	-0.0464147
138	0x3d57f5f2	0.052724786
139	0xbd33ed85	-0.04392769
140	0x3c89e764	0.016833968
141	0x3d94cb49	0.07265336
142	0xbc3711f0	-0.01117371
143	0xbca3c988	-0.019993559
144	0x3d991eda	0.074765876
145	0x3c776118	0.015098833
146	0x3cc780c3	0.02435339
147	0xbcedeef8	-0.029044613
148	0xbda875f9	-0.082256265
149	0x3c62b4d8	0.013837062
150	0xbd5604fc	-0.052250847
151	0xbd3b3dad	-0.045713115
152	0xbda3a866	-0.07991104
153	0x3d89eb07	0.06734281
154	0xbd85c8b4	-0.06532422
155	0x3c8c1124	0.017098017
156	0x3c94fcf0	0.018187016
157	0x3d7a0d9e	0.061048143
158	0x3d2efdd7	0.04272255
159	0xbd7d7802	-0.061882026
160	0x3cfcd6bf	0.030864118
161	0xbd5736f6	-0.05254265
162	0xbbaa907d	-0.0052052126
163	0xbd237f3b	-0.03991626
164	0xbd9afac4	-0.07567361
165	0x3c977c0a	0.018491764
166	0xbd7192ac	-0.058977768
167	0x3da4d61e	0.08048652
168	0x3d11e7f8	0.035621613
169	0xbcfa75b4	-0.030573703
170	0xbd76a07d	-0.060211647
171	0xbda6d859	-0.08146734
172	0xbd549b94	-0.051906183
173	0xbd817a79	-0.06322188
174	0x3b20833b	0.0024492282
175	0x3c6759fa	0.014120573
176	0x3d9cfb4f	0.07665121
177	0x3c42a900	0.011881113
178	0xbc9315b4	-0.017954685
179	0xbd21697c	-0.03940724
180	0xbcab487f	-0.020908592
181	0x3d3f5faa	0.04672209
182	0xbdbdfb61	-0.09276462
183	0xbdb11de5	-0.0864828
184	0x3cdb848f	0.026796607
185	0xbd0edd4f	-0.034879025
186	0xbd0a3b1b	-0.033747774
187	0xbd80070c	-0.06251344
188	0xbd711028	-0.0588533
189	0xbd98acee	-0.07454859
190	0xbd5c5966	-0.053796194
191	0xbdb3c0e6	-0.08777027
192	0xbd2a2465	-0.041538615
193	0x3d84ef49	0.064909525
194	0xbd485463	-0.048908602
195	0x3d89976b	0.06718334
196	0xbda9410e	-0.08264361
197	0x3b99c210	0.0046923235
198	0xbc80fdc2	-0.015746001
199	0xbd94130c	-0.072301954
200	0xbbcb5c24	-0.0062060524
201	0x3d856c71	0.06514824
202	0xbd239282	-0.039934643
203	0x3d94e7d0	0.07270777
204	0xbc185400	-0.009297371
205	0xbce4f420	-0.02794844
206	0x3d32b6a2	0.043631203
207	0x3d8d826f	0.06909644
208	0x3d8af3f9	0.06784815
209	0x3d348858	0.04407534
210	0xbdb18cb6	-0.086694166
211	0xbcd3344a	-0.02578177
212	0x3b081cfc	0.002076923
213	0xbd47acdd	-0.04874884
214	0x3d128c8d	0.03577857
215	0xbce25482	-0.027628187
216	0xbdad4821	-0.08461023
217	0xbd4162e5	-0.047213454
218	0xbd84ca5b	-0.06483909
219	0x3cd1d297	0.025613112
220	0xbd83b9c6	-0.06431918
221	0xbcb685a8	-0.02228053
222	0x3c14f488	0.009091504
223	0x3d1c1c96	0.0381132
224	0xbd9c0ffb	-0.076202355
225	0x3d577d94	0.052609995
226	0xbd8489b6	-0.06471579
227	0xbd9bc60f	-0.07606136
228	0x3ce9fd8d	0.028563285
229	0xbd6b3191	-0.057420317
230	0x3d66c39e	0.0563389
231	0x3cf4eaa4	0.029897042
232	0xbd4c913d	-0.049943198
233	0xbc9ef270	-0.019402713
234	0xbd25806c	-0.040405676
235	0xbc098148	-0.008392639
236	0xbbcb455b	-0.006203336
237	0xbb0cbf20	-0.0021476224
238	0xbd86bdac	-0.06579146
239	0xbd96f601	-0.0737114
240	0xbd8001a2	-0.062503114
241	0x3c747e68	0.014922716
242	0x3c147dd8	0.009063207
243	0xbd363ffd	-0.044494618
244	0xbca6877e	-0.02032828
245	0xbc2ecec6	-0.010669416
246	0x3d6a7ae5	0.057246108
247	0xbdb3f773	-0.087874316
248	0xbd2145ca	-0.039373197
249	0xbcab9b57	-0.020948095
250	0xbc6dd8c8	-0.014517017
251	0xbd55f4cd	-0.052235413
252	0x3d1d81b0	0.038453758
253	0xbd0815ef	-0.033224043
254	0x3a50c8d5	0.00079644966
255	0xbd4df4fc	-0.050282463

image_conv.5.bias f4 [64]
0	0x3bb39e32	0.005481505
1	0xbcb132a5	-0.021630595
2	0xbd15ee8d	-0.036604453
3	0x3d099536	0.033589564
4	0x3c34aaab	0.011027019
5	0xbbb33f40	-0.0054701865
6	0x3cac14d0	0.021006018
7	0x3b3dbd9a	0.0028952123
8	0x3cfcef7c	0.030875914
9	0xbce4a2c1	-0.027909638
10	0x3d4e4c45	0.050365705
11	0x3d846301	0.06464196
12	0x3c178953	0.009249049
13	0xbceec9cc	-0.029148959
14	0x3c26f13c	0.010189351
15	0x3cb20fbe	0.021736022
16	0xbd95e945	-0.07319883
17	0x3d0ac50e	0.033879332
18	0x3dbdd68b	0.092694364
19	0x3d642291	0.055697028
20	0x3cc8b71d	0.024501378
21	0x39d4092a	0.0004044262
22	0xbd607854	-0.054802254
23	0x3a64b88f	0.0008725011
24	0x3cb665cc	0.022265337
25	0x3cbcb10b	0.02303364
26	0x3da8ae64	0.08236387
27	0x3d6e0483	0.05810977
28	0x3d5b1c33	0.05349369
29	0xbd6de091	-0.05807549
30	0x3cd3f4f8	0.025873646
31	0x3b5593d9	0.0032589345
32	0xbd5133b8	-0.051074713
33	0xbdd148f7	-0.10218995
34	0x3d913235	0.07089654
35	0xbd14fe3b	-0.036375266
36	0xbd9bbe20	-0.07604623
37	0xbda342c2	-0.079717174
38	0x3d589f13	0.05288608
39	0x3da4cc50	0.08046782
40	0x3d4c0e12	0.049818106
41	0x3c61e940	0.013788521
42	0x3c863888	0.016384378
43	0x3c0e81fc	0.008697983
44	0xbc94aff8	-0.018150315
45	0x3d88011d	0.06640837
46	0x3cbc99ae	0.023022499
47	0xbc65e831	-0.0140324095
48	0x3cbd0d73	0.023077702
49	0xbd4435ea	-0.04790298
50	0xbd8f28cd	-0.06990204
51	0xbd2ef8e1	-0.04271782
52	0x3dd211c5	0.102572955
53	0x3d5f25ee	0.054479532
54	0xbd75a621	-0.059972886
55	0x3dc7f928	0.0976432
56	0xbda64102	-0.08117868
57	0x3d45154f	0.048116025
58	0xbb2466d4	-0.0025085704
59	0x3b69c7e2	0.0035672118
60	0x3c68f06d	0.014217478
61	0xbd2ce341	-0.042208914
62	0x3d8efb35	0.06981508
63	0xbd386636	-0.04501935

actor.0.weight f4 [64, 64]
0	0x3e05d1b2	0.13068274
1	0xbda1f44a	-0.079079226
2	0x3b6e6226	0.003637442
3	0x3e129062	0.1431289
4	0xbd0681ad	-0.032838512
5	0x3e355728	0.17709029
6	0xbe732124	-0.23743111
7	0xbe72cf2e	-0.23711845
8	0x3e22b90c	0.15890902
9	0x3e91a469	0.28445747
10	0xbb69d2f0	-0.0035678707
11	0xbea1aad6	-0.3157565
12	0x3dc7fe5f	0.09765314
13	0x3e02c638	0.12770927
14	0xbc79fcfe	-0.015258072
15	0xbc7a2271	-0.0152670005
16	0x3e21a0fd	0.15784068
17	0xbd05cd9b	-0.032666784
18	0xbd9782f6	-0.07398026
19	0xbd3f1bc2	-0.04665733
20	0x399f37ba	0.00030368363
21	0xbd3586ff	-0.044318195
22	0xbe595f0d	-0.21227665
23	0xbe434374	-0.190687
24	0x3d760fa0	0.060073495
25	0xbcac171f	-0.021007119
26	0xbe797855	-0.2436231
27	0x3da17c09	0.07884986
28	0xbd7fa43b	-0.06241248
29	0xbddd1e4f	-0.107967965
30	0x3d373b86	0.0447345
31	0xbd587e30	-0.052854717
32	0xbe1cbe84	-0.15307051
33	0xbdbddccf	-0.092706315
34	0x3e171686	0.14754686
35	0x3c908a00	0.017643929
36	0x3a6d18da	0.00090445357
37	0xbcb4122a	-0.021981318
38	0xbd2dceba	-0.042433478
39	0x3e958103	0.2919999
40	0x3d7e3c64	0.06206931
41	0x3d9ce08c	0.076600164
42	0xbe1d7893	-0.15378027
43	0xbd2af738	-0.041739672
44	0x3df30097	0.11865347
45	0xbe1ead0d	-0.15495701
46	0x3dd84fd0	0.10562098
47	0xbce40ad2	-0.02783719
48	0x3c1ad3ac	0.009449881
49	0xbbba283c	-0.005681066
50	0x3d3a16fe	0.045432083
51	0x3d6310f9	0.05543611
52	0x3e4a3a0f	0.1974871
53	0x3df44e56	0.11929004
54	0xbd000aaa	-0.03126017
55	0xbe123193	-0.14276724
56	0xbb3760bd	-0.0027981244
57	0xbd9a4a7a	-0.075337365
58	0x3e047ecb	0.12938993
59	0xbe19b552	-0.15010574
60	0x3c657292	0.0140043665
61	0x3e017698	0.12642896
62	0x3c8740e7	0.01651044
63	0xbd0f99d6	-0.03505882
64	0xbe16c94f	-0.1472523
65	0x3e3553c0	0.1770773
66	0x3e3266d6	0.17422041
67	0xbc05db67	-0.008169985
68	0xbd2e41dd	-0.04254328
69	0x3d90eaef	0.0707606
70	0x3cb96e74	0.022635676
71	0x3d430e21	0.047620896
72	0xbdb853ff	-0.09000396
73	0x3b73f74d	0.003722626
74	0xbe0cd1fb	-0.13751976
75	0xbc82f80e	-0.015987422
76	0x3c43da56	0.011953911
77	0xbdb7720b	-0.08957299
78	0xbd296387	-0.041354682
79	0xbe4b7e3b	-0.19872372
80	0x3e8f67c2	0.28008848
81	0x3d93618d	0.07196341
82	0xbd4f34ac	-0.05058734
83	0x3d0c2639	0.03421614
84	0x3dceac80	0.100914955
85	0x3c4aa76b	0.012369017
86	0x3e47d350	0.19514203
87	0x3c9bddc8	0.019026652
88	0x3dc485a8	0.095958054
89	0xbcd8fe63	-0.026488489
90	0x3dc0bddc	0.09411213
91	0x3dc4efe7	0.0961607
92	0xbe102860	-0.14077902
93	0xbd952ff0	-0.07284534
94	0x3d0e2271	0.034700815
95	0x3d78fbf8	0.06078717
96	0xbe53d789	-0.20687689
97	0x3e0792e9	0.13239636
98	0xbe6dabe9	-0.2321011
99	0xbc3e5eba	-0.011619264
100	0xbe8d7dcb	-0.27635035
101	0x3d4ceef1	0.05003256
102	0x3df89b48	0.121389925
103	0xbdf3db31	-0.11907042
104	0x3d6810cc	0.056656644
105	0x3cd922a8	0.026505783
106	0xbe144de6	-0.14482841
107	0xbda7d720	-0.08195329
108	0xbda1f734	-0.079084784
109	0xbda32738	-0.07966465
110	0xbb0bacca	-0.0021312707
111	0x3e20a768	0.1568886
112	0x3d888f45	0.066679515
113	0x3d260b9d	0.04053842
114	0x3c879005	0.016548166
115	0xbcbe7e0c	-0.023253463
116	0x3e9b0064	0.30273736
117	0xbd23dd9f	-0.040006276
118	0x3d13e49e	0.0361067
119	0x3d72c74f	0.059272107
120	0x3d9ea5f5	0.077464975
121	0x3d56a305	0.05240156
122	0xbeb31d74	-0.34983408
123	0x3e1c9ced	0.15294237
124	0x3db83cec	0.08995995
125	0x3e0f4257	0.1399015
126	0xbe1cda0f	-0.15317558
127	0xbe188509	-0.14894499
128	0x3e706632	0.23476484
129	0xbe1ab327	-0.15107404
130	0xbe2d97ed	-0.16952486
131	0xbd1c3807	-0.03813937
132	0x3bfe3f55	0.0077590146
133	0x3d0e9bfb	0.034816723
134	0xbdfaf24f	-0.12253248
135	0x3aa71bd3	0.0012749381
136	0x3d7f9fee	0.06240838
137	0xbdc94874	-0.098282725
138	0xbd9f615c	-0.07782242
139	0xbde5b33a	-0.112158254
140	0x3da0e87b	0.07856842
141	0x3cd440cd	0.025909806
142	0x3e9f6533	0.31131896
143	0xbd63a615	-0.05557831
144	0xbe940ec3	-0.28917512
145	0x3da0b3ab	0.07846769
146	0xbd3bbdbd	-0.045835245
147	0xbe218414	-0.1577304
148	0xbb2fcb54	-0.0026824074
149	0xbdaaa68e	-0.08332549
150	0x3e0ce6ca	0.13759914
151	0x3cd68419	0.026186036
152	0x3c10c453	0.00883587
153	0x3d2ea234	0.042635158
154	0x3c8277c7	0.015926255
155	0xbe19f2b5	-0.15033992
156	0xbdb07adf	-0.08617186
157	0x3e48ed88	0.19621861
158	0x3d15f0c9	0.036606584
159	0x3e08f660	0.13375235
160	0xbe98cedb	-0.29845318
161	0xbd9d4b44	-0.076803714
162	0xbdf6ce9d	-0.12051127
163	0xbbf4596d	-0.0074569494
164	0xbd9ae3ec	-0.07563004
165	0x3e249fcb	0.16076581
166	0x3de98041	0.114014156
167	0x3d0059c2	0.0313356
168	0x3d26c799	0.040717695
169	0x3e041321	0.12897922
170	0x3e8655d7	0.26237366
171	0xbc6ffc3b	-0.014647539
172	0xbc8b7e10	-0.017027885
173	0xbdc30a95	-0.09523503
174	0xbd0bfe1d	-0.03417789
175	0x3e182c49	0.14860643
176	0xbdce5cf6	-0.10076325
177	0x3dde8739	0.108656354
178	0xbdd55777	-0.10417073
179	0xbd216fcc	-0.03941326
180	0xbdbacfd4	-0.09121671
181	0xbe0c3cad	-0.13695021
182	0xbe6ebfdb	-0.23315375
183	0x3bda886c	0.006669095
184	0x3e291f9d	0.16515966
185	0xbdd2a400	-0.10285187
186	0x3e263f85	0.16235168
187	0xbd27a5a2	-0.040929444
188	0x3d2e456b	0.04254667
189	0x3c3f9712	0.011693733
190	0xbbeccf44	-0.0072268564
191	0xbe57ad40	-0.21062183
192	0x3d59fdbc	0.053220496
193	0x3e4ff145	0.20306881
194	0xbd9346e9	-0.071912594
195	0x3c387b78	0.011259906
196	0x3d428b45	0.0474961
197	0xbdf390bd	-0.11892841
198	0x3e59660d	0.21230336
199	0x3e75d929	0.24008621
200	0x3d1f7135	0.038926322
201	0xbcd8504e	-0.02640548
202	0x3dc33583	0.09531691
203	0xbdc26394	-0.09491649
204	0x3d5a2309	0.05325607
205	0xbc56658b	-0.013085733
206	0xbdfbb342	-0.1229005
207	0xbe086545	-0.13319881
208	0xbcbb780b	-0.02288439
209	0x3d8ff0b2	0.07028331
210	0x3dfecdf3	0.124416254
211	0xbcd85afd	-0.026410574
212	0x3e29167a	0.1651248
213	0xbdcb2e41	-0.099209316
214	0xbd14e10b	-0.03634743
215	0x3d883e88	0.06652552
216	0xbe7f6655	-0.2494138
217	0x3e27c637	0.16384207
218	0x3d8c106b	0.06839069
219	0xba9f2a9c	-0.0012143436
220	0xbc7477ae	-0.014921112
221	0xbe131691	-0.14364077
222	0xbcde43b7	-0.027131898
223	0xbe0c2959	-0.13687648
224	0x3d91e42b	0.07123598
225	0x3e43e258	0.19129312
226	0xbb572603	-0.0032829053
227	0x3c64dcae	0.01396863
228	0x3db3e406	0.087837264
229	0x3dbc3334	0.09189454
230	0xbe609033	-0.21930008
231	0xbdc0d6ce	-0.09415971
232	0x3c0c5a0a	0.008566389
233	0xbdfad9dc	-0.12248585
234	0x3d97e3b4	0.07416478
235	0xbce94324	-0.028474398
236	0xbda97c38	-0.08275646
237	0x3c85612b	0.016281685
238	0xbe040149	-0.12891115
239	0x3d60ccc2	0.054882772
240	0x3d77ae2e	0.060468845
241	0xbd9e9591	-0.07743371
242	0xbed3b727	-0.41350672
243	0xbc708a79	-0.014681452
244	0x3d312ac0	0.04325366
245	0x3e60d59f	0.2195649
246	0xbe00a429	-0.12562622
247	0xbc860263	-0.01635856
248	0x3c080643	0.008302274
249	0xbe267546	-0.16255674
250	0x3c1908d9	0.009340488
251	0x3e32e890	0.17471528
252	0x3ea1e6e2	0.31621462
253	0xbcf9a52f	-0.030474273
254	0x3da3c524	0.07996586
255	0x3d17ee76	0.03709265

actor.0.bias f4 [64]
0	0x3aa4e314	0.0012579882
1	0x39a19cbe	0.00030825095
2	0x3c9c7207	0.019097341
3	0x3bb469cc	0.005505776
4	0xbc45e2ed	-0.012078029
5	0xbb993a70	-0.0046761557
6	0xbc19bf52	-0.009383993
7	0x3c036555	0.008019765
8	0x3bcc1262	0.0062277773
9	0xbbdd1566	-0.0067469357
10	0x3af17a72	0.0018423332
11	0xbb85d734	-0.004084492
12	0x3b8f060e	0.0043647354
13	0x3bd0cd8c	0.0063721593
14	0x3be1b1c4	0.0068876464
15	0x3c25f21f	0.010128527
16	0xba835410	-0.0010019559
17	0x3c113556	0.008862814
18	0x3c1fec46	0.009760922
19	0x39accdb1	0.00032959649
20	0x3c4df132	0.0125697125
21	0xba601fa9	-0.00085496396
22	0x3c5d7ebf	0.013518988
23	0x3ba08441	0.0048985784
24	0x3b270bd4	0.0025489228
25	0x3ae07a18	0.001712623
26	0xbc30c87d	-0.010789988
27	0xbb91e50d	-0.004452354
28	0xbb9aa261	-0.004719064
29	0x3c01da1a	0.007925535
30	0xba5bdfff	-0.0008387565
31	0x3af09661	0.0018355363
32	0xbb70952a	-0.0036710002
33	0x3b3a70fa	0.0028448687
34	0xbb00e917	-0.0019670182
35	0x3ba25947	0.0049544903
36	0xbb2b4cae	-0.0026138234
37	0x3c1a0f73	0.009403097
38	0x3a1855d3	0.00058111286
39	0xbab546c5	-0.0013830295
40	0x3bcbf542	0.0062243054
41	0xbae5c92e	-0.001753127
42	0xbb61d3a5	-0.0034458425
43	0x39b715fa	0.00034920854
44	0x3a05d883	0.000510581
45	0x3bd6fb3b	0.0065607107
46	0x3aa8ff2e	0.0012893432
47	0xbad16dee	-0.0015978196
48	0xbad04b8f	-0.0015891659
49	0x3c95f72e	0.018306341
50	0x3b5956fd	0.0033163421
51	0x3c79c3e1	0.015244455
52	0xbaff310b	-0.0019469572
53	0x3a664e14	0.0008785438
54	0x3bb75042	0.0055942843
55	0x3b167e53	0.0022963479
56	0xbc726f69	-0.01479707
57	0xbc167927	-0.009184158
58	0xbc136a8a	-0.008997569
59	0x3b895b08	0.00419176
60	0x3c8e3f51	0.017364176
61	0x39db0cf4	0.00041780586
62	0x3c246221	0.010033161
63	0x3c326505	0.010888343

actor.2.weight f4 [18, 64]
0	0xbdd6c3b3	-0.104865454
1	0x3c344d5f	0.011004775
2	0xbbaf8a66	-0.0053570746
3	0xbe2c96ea	-0.16854444
4	0x3d930630	0.071789145
5	0x3d12155b	0.035664897
6	0x3c0de5b8	0.008660726
7	0x3d775b27	0.060389664
8	0xbdaf2b31	-0.0855316
9	0x3e1ad27b	0.15119354
10	0x3c899cd4	0.016798414
11	0x3d9f1bcb	0.07768973
12	0xbe512313	-0.20423536
13	0x3d5172e9	0.051134977
14	0xbdab0f9f	-0.08352589
15	0xbddfea70	-0.10933387
16	0xbe76987a	-0.24081603
17	0xbe79a38c	-0.24378794
18	0xbe576c88	-0.21037495
19	0xbd87fcc4	-0.06640008
20	0x3e4e106a	0.20123449
21	0xbc733e05	-0.01484633
22	0x3cf3842f	0.029726116
23	0xbc360b7f	-0.011111139
24	0x3d72272c	0.05911939
25	0x3d373d92	0.044736452
26	0x3df81759	0.12113828
27	0x3c43cc14	0.0119505115
28	0xbdaa7f0e	-0.08325015
29	0xbbb0cc47	-0.0053954455
30	0x3d33ca87	0.043894317
31	0xbd6ec1ba	-0.05829022
32	0x3e26dd54	0.16295367
33	0x3e0bc71a	0.1365017
34	0xbdd57664	-0.10422972
35	0xbe196a05	-0.1498185
36	0xbe100738	-0.14065254
37	0x3e1a3534	0.15059358
38	0xbd14d9c8	-0.036340505
39	0x3e8900ef	0.26758525
40	0xbe0fd7fe	-0.14047238
41	0x3e179296	0.14802012
42	0xbce926f2	-0.028460953
43	0xbdeb8384	-0.11499694
44	0xbe167785	-0.1469403
45	0xbd269620	-0.040670514
46	0xbd481f1c	-0.048857793
47	0xbe136bab	-0.14396541
48	0xbdbcb34c	-0.09213886
49	0xbe89b52c	-0.26896036
50	0xbd9335bb	-0.07187983
51	0x3c01da68	0.007925607
52	0xbe745b65	-0.23862989
53	0xbe4bc0a6	-0.19897708
54	0x3e46c179	0.19409741
55	0xbd4cd32a	-0.05000607
56	0xbc85ad47	-0.016317977
57	0xbe0e17ea	-0.1387631
58	0x3e6124fe	0.21986768
59	0x3cb06c70	0.021536082
60	0xbe50fa8f	-0.2040808
61	0x3cf0274e	0.029315617
62	0xbd3adbd7	-0.045619812
63	0xbbacfe70	-0.0052793548
64	0xbb9e131e	-0.0048240563
65	0x3d82317b	0.06357094
66	0xbdc7f522	-0.09763552
67	0xbd93a05a	-0.07208319
68	0x3b47d3a6	0.0030491143
69	0x3d5515a6	0.0520226
70	0x3c5e22b5	0.0135580795
71	0xbe55987b	-0.20858948
72	0xbd4ef23e	-0.05052399
73	0x3c493275	0.012280096
74	0xbe93f8e5	-0.2890083
75	0xbe789db7	-0.24278913
76	0xbe6fdf53	-0.23425035
77	0x3d6eeb0d	0.05832963
78	0x3cfeac8e	0.03108814
79	0x3d4b4844	0.049629465
80	0x3d34aec3	0.04411198
81	0xbbebb341	-0.0071929996
82	0xbd5715e6	-0.05251112
83	0xbd5fa859	-0.05460391
84	0xbde168cc	-0.110063165
85	0xbdf59de4	-0.11993006
86	0x3d55b5ba	0.05217526
87	0x3e307d45	0.17235287
88	0x3e22ce37	0.15898977
89	0xbd344158	-0.04400763
90	0x3e3a9fc1	0.18225004
91	0x3e28279d	0.16421361
92	0xbcf45530	-0.029825777
93	0xbe6b4e73	-0.22979145
94	0x3e2516fe	0.16122052
95	0x3dc3931a	0.09549542
96	0xbe4de7fc	-0.20108026
97	0x3e666b4f	0.22501872
98	0x3e03db50	0.1287663
99	0x3db57155	0.08859507
100	0xbe17d59b	-0.14827578
101	0x3d7fa2f4	0.062411264
102	0x3bf705a8	0.007538516
103	0xbdaf4b1d	-0.085592486
104	0x3bae75aa	0.0053240852
105	0x3e093613	0.13399534
106	0x3d9fd079	0.07803435
107	0xbb605fb4	-0.003423673
108	0xbe0f6bf8	-0.1400603
109	0xbe72c72e	-0.23708794
110	0xbe61ef60	-0.2206397
111	0x3d14e484	0.036350742
112	0x3e2a7db8	0.1664952
113	0x3de90162	0.11377217
114	0x3d795bc1	0.06087852
115	0xbd888256	-0.066654846
116	0x3d3e7153	0.046494793
117	0xbbb932be	-0.005651801
118	0x3dcc9ef0	0.099912524
119	0x3d791284	0.060808674
120	0xbdf3b060	-0.11898875
121	0x3da77418	0.0817644
122	0xbe68f98b	-0.22751443
123	0xbd6a28fc	-0.057167992
124	0xbd92756d	-0.071513034
125	0x3e88ce97	0.26720116
126	0xbca33388	-0.019922033
127	0xbe711cc3	-0.23546128
128	0x3e00bef1	0.12572838
129	0x3de32117	0.11090296
130	0xbc088aa0	-0.008333832
131	0x3d027fb4	0.03186007
132	0x3e99528e	0.29945797
133	0xbe0088cb	-0.12552182
134	0xbe20ff03	-0.15722279
135	0xbd4b93eb	-0.049701612
136	0xbe1182e5	-0.14210089
137	0xbd302367	-0.043002512
138	0xbddd330b	-0.10800751
139	0x3dbe377b	0.09287926
140	0x3e076aea	0.13224378
141	0x3d71a269	0.058992777
142	0xbd743eef	-0.05963033
143	0x3e58f13d	0.21185775
144	0xbde2a25a	-0.11066122
145	0x3e3e537c	0.18586534
146	0xbd86ce65	-0.065823354
147	0x3e6f66f4	0.23379117
148	0xbd0eeec7	-0.034895685
149	0x3e050415	0.12989838
150	0xbd01536f	-0.03157371
151	0xbdc73169	-0.09726221
152	0xbd988195	-0.07446591
153	0x3e2e36d0	0.17013097
154	0x3d9c1bfc	0.07622525
155	0xbe078904	-0.13235861
156	0xbcea3b2c	-0.028592668
157	0xbbf5fb9a	-0.0075068
158	0x3a590a9a	0.0008279473
159	0x3e13f886	0.14450273
160	0x3d453d56	0.048154198
161	0xbcf3f64a	-0.029780526
162	0xbd7a432f	-0.061099228
163	0x3d9b15aa	0.075724915
164	0xbd7fc252	-0.062441178
165	0xbde3177f	-0.11088466
166	0x3e40faba	0.18845645
167	0xbe3ddf13	-0.18542127
168	0x3e0e7162	0.1391044
169	0xbd10771c	-0.03526984
170	0x3d7458b3	0.059654903
171	0xbdfd1350	-0.12357199
172	0xbcc14030	-0.023590177
173	0xbccffb62	-0.025388423
174	0xbd56f50c	-0.05247979
175	0x3e8d1b24	0.2755977
176	0xbcf6da8f	-0.030133514
177	0xbe2243f5	-0.15846236
178	0xbd91c1eb	-0.07117065
179	0xbca3c511	-0.01999143
180	0x3d9082e5	0.07056216
181	0x3de56458	0.1120078
182	0x3e66ed4c	0.22551459
183	0x3dc0b6bf	0.09409856
184	0x3e23f2c9	0.16010584
185	0xbe6ddde1	-0.23229171
186	0x3e36e772	0.17861727
187	0xbdbca8be	-0.092118725
188	0xbe2ad2e8	-0.16682017
189	0x3c922d6b	0.017843923
190	0x3d69756c	0.056996748
191	0x3d718283	0.058962356
192	0x3d8e0bbb	0.06935831
193	0xbe28c908	-0.16482937
194	0xbe0d2010	-0.13781762
195	0x3de279c9	0.11058385
196	0xbd802554	-0.0625712
197	0x3d3d5d7e	0.04623174
198	0x3db6454e	0.088999376
199	0xbe030a66	-0.12796935
200	0xbe1c998c	-0.15292948
201	0x3de7bc8e	0.11315261
202	0xbe20a56c	-0.15688103
203	0xbe016d9a	-0.12639466
204	0x3e01af2c	0.12664479
205	0xbe24bf79	-0.16088666
206	0xbdf123e8	-0.11774427
207	0xbe35771e	-0.17721221
208	0xbdd33d20	-0.10314393
209	0xbc93fec5	-0.01806582
210	0xbe0e56f5	-0.13900359
211	0xbb5c904f	-0.003365535
212	0xbd490432	-0.049076267
213	0xbe196bd8	-0.14982545
214	0x3d1fa559	0.038976047
215	0xbd9171f5	-0.07101814
216	0xbd45483d	-0.048164595
217	0xbcb8838f	-0.02252367
218	0x3e7e30db	0.24823324
219	0x3e0cf288	0.13764393
220	0xbe31b137	-0.17352758
221	0x3e31d134	0.17364961
222	0xbe252a1c	-0.16129345
223	0xbe0584c1	-0.13038923
224	0xbc6000a6	-0.01367203
225	0xbd6322a4	-0.055452958
226	0x3d7f2ea4	0.06230034
227	0xbe0aa76d	-0.1354043
228	0x3e5ba36f	0.21449064
229	0xbe0a01d5	-0.13477261
230	0xbd3a963c	-0.04555343
231	0x3cd11053	0.02552048
232	0x3d25e104	0.040497795
233	0xbcd36ab0	-0.025807709
234	0x3e04534d	0.12922402
235	0xbe3253f0	-0.17414832
236	0x3d231d46	0.03982284
237	0xbd511ed0	-0.051054776
238	0xbc95a130	-0.018265337
239	0x3e678ee4	0.22613102
240	0x3c9355bd	0.01798522
241	0xbe4074c9	-0.1879455
242	0xbe71b164	-0.23602825
243	0xbe2a3522	-0.16621831
244	0xbc151a64	-0.00910053
245	0xbe4b86e9	-0.19875683
246	0xbdbbde3b	-0.091732465
247	0x3cb44ba3	0.022008723
248	0x3e4096ee	0.18807575
249	0x3dc4b50b	0.09604844
250	0x3e83b7d3	0.25726184
251	0xbdffbb51	-0.124869
252	0xbe4d39fc	-0.2004165
253	0xbdc9d6e0	-0.09855437
254	0xbe80b91d	-0.2514123
255	0xbdff0d41	-0.124537

actor.2.bias f4 [18]
0	0xbc1390bb	-0.009006674
1	0xbca3eff3	-0.020011878
2	0x3c38bb6f	0.011275156
3	0xbd057681	-0.032583717
4	0xbbc8eb66	-0.0061315773
5	0xbc303063	-0.010753724
6	0xbcedb8f7	-0.029018862
7	0xbc424ef7	-0.011859647
8	0xbd079179	-0.033097718
9	0xbce5067c	-0.027957194
10	0x3cd6c712	0.026217971
11	0xbc0cc943	-0.008592906
12	0xbc83acb8	-0.01607357
13	0xbc7f2abf	-0.015574156
14	0xbc5aa486	-0.0133448895
15	0xbc0c13da	-0.008549655
16	0x3d7adb90	0.061244547
17	0x3ab4de87	0.0013799228

critic.0.weight f4 [64, 64]
0	0x3ae9b209	0.0017829548
1	0xbd815b1b	-0.06316205
2	0xbe20add1	-0.15691306
3	0x3e214a87	0.15751086
4	0x3e74e5b5	0.23915751
5	0xbd9d59bb	-0.0768313
6	0x3e2cb42b	0.16865604
7	0xbd195791	-0.037437025
8	0xbd868a8d	-0.06569395
9	0xbdbaf098	-0.09127921
10	0xbe2ab7cb	-0.16671674
11	0x3c5cd7c2	0.013479175
12	0x3ba56934	0.0050479416
13	0xbc80693e	-0.015675183
14	0xbcbe1bba	-0.02320658
15	0xbc9fd3f1	-0.019510241
16	0x3def5b09	0.116872855
17	0x3e66718e	0.22504255
18	0xbdacd41c	-0.08438894
19	0x3dd6d387	0.104895644
20	0x3de1a619	0.11018009
21	0x3e07e31a	0.13270226
22	0x3e44f8be	0.19235513
23	0xbd44ec90	-0.048077166
24	0xbde30c10	-0.11086285
25	0xbdbf45ff	-0.093395226
26	0xbdaf9c14	-0.085746914
27	0x3de579a7	0.11204844
28	0xbe1e5a79	-0.154642
29	0x3d9c2f84	0.076262504
30	0xbd3f276f	-0.046668466
31	0x3c576dd6	0.0131487455
32	0x3dcd9280	0.10037708
33	0x3e6edf29	0.23327316
34	0x3e68a7fe	0.22720334
35	0xbe4ec822	-0.20193532
36	0x3d6d9e72	0.058012433
37	0x3df19419	0.117958255
38	0xbd9d3ba2	-0.0767739
39	0x3debad6a	0.115076855
40	0x3c9cdfac	0.019149624
41	0xbe16d9ca	-0.14731517
42	0x3cea3a3c	0.028592221
43	0x3d3ef863	0.0466236
44	0x3d802259	0.06256551
45	0xbdd2f731	-0.10301054
46	0x3d2d4ddd	0.042310584
47	0x3e3ef64e	0.18648645
48	0xbe500a8b	-0.20316522
49	0x3ebeeb08	0.3728869
50	0x3db1f268	0.086888134
51	0xbcc8116c	-0.02442237
52	0x3e3f678d	0.18691845
53	0x3df81512	0.12113394
54	0x3de5c7de	0.11219762
55	0x3db36dee	0.08761202
56	0x3d77a84d	0.06046324
57	0xbe796d70	-0.24358153
58	0xbe0f7dcb	-0.1401283
59	0x3e074914	0.13211471
60	0x3e070d7b	0.13188736
61	0xbda914b1	-0.082559
62	0xbd9e6001	-0.07733155
63	0xbc28ed35	-0.010310461
64	0x3dc3b4ef	0.09555995
65	0xbde0ed08	-0.1098271
66	0xbd2abb42	-0.04168249
67	0x3e8398f5	0.25702634
68	0xbe56c2e4	-0.20972782
69	0xbd92eeee	-0.071744785
70	0x3e805801	0.25067142
71	0x3cf3d2be	0.029763576
72	0x3da0c748	0.0785051
73	0xbda9556c	-0.08268246
74	0x3cdf675a	0.027270962
75	0x3d878172	0.066164866
76	0xbe66c676	-0.22536644
77	0xbdb30143	-0.08740475
78	0xbca39b7e	-0.019971605
79	0x3e084095	0.13305886
80	0xbd8a9f5d	-0.067686774
81	0x3db4e0b4	0.08831921
82	0x3e2c6269	0.16834415
83	0xbd9936a0	-0.07481122
84	0xbe5afc37	-0.21385275
85	0xbc33709b	-0.01095214
86	0xbd74c244	-0.05975558
87	0x3ddf05e7	0.10889798
88	0x3ce0e8ca	0.027454752
89	0x3d05b353	0.03264172
90	0x3e2a250f	0.16615699
91	0xbd5a89f9	-0.053354237
92	0x3e296f1f	0.16546296
93	0xbd70ccd7	-0.0587891
94	0x3d75083d	0.05982231
95	0xbda92565	-0.082590856
96	0xbb442ff5	-0.0029935811
97	0xbe4871e7	-0.195747
98	0xbd7cf2ce	-0.061754994
99	0x3d768a08	0.06019023
100	0x3e2c64de	0.16835353
101	0xbe99258a	-0.29911453
102	0xbddc1aef	-0.10747325
103	0x3dbfa3fe	0.09357451
104	0x3e21c941	0.15799429
105	0x3dc9c33d	0.09851692
106	0x3e0f227e	0.13978001
107	0xbd76de6f	-0.060270723
108	0x3ccaecd7	0.024771137
109	0xbca93681	-0.020655872
110	0xbd7b8329	-0.06140438
111	0x3e8197c7	0.2531111
112	0x3cc46bc1	0.023977162
113	0x3da116f0	0.07865703
114	0xbe26febd	-0.16308112
115	0x3d97f462	0.07419659
116	0x3db6cd32	0.08925857
117	0x3e3b9bdb	0.18321173
118	0x3e89ea5f	0.26936623
119	0x3e156089	0.14587606
120	0xbe3a637c	-0.18202013
121	0xbbc20727	-0.005921263
122	0x3c006c4c	0.00783832
123	0xbd9b5ed4	-0.075864464
124	0xbcbda057	-0.023147745
125	0x3e201e58	0.15636575
126	0x3dcf6483	0.10126593
127	0x3df22c66	0.118248746
128	0x3d85a83c	0.06526229
129	0xbc04f127	-0.008114136
130	0x3e21bbe6	0.15794334
131	0xbd0839d4	-0.033258274
132	0xbce5cac1	-0.028050782
133	0xbe2e9df9	-0.1705245
134	0x3dc7ce71	0.097561724
135	0x3d527266	0.05137863
136	0x3deb6996	0.11494748
137	0x3dc1800a	0.0944825
138	0xbe6167ca	-0.22012249
139	0xbe190a04	-0.14945227
140	0x3d4cde91	0.050016943
141	0xbe18d978	-0.14926708
142	0x3e8cdcd4	0.27512228
143	0xbdcd37ac	-0.10020384
144	0x3e1b9ad6	0.15195784
145	0x3e4dfea5	0.2011667
146	0x3d9adcc4	0.07561639
147	0xbcf0c8dd	-0.029392654
148	0x3d8eb9e3	0.06969049
149	0x3dd166ff	0.10224723
150	0xbe8577de	-0.26068014
151	0xbd39a308	-0.045321494
152	0xbe2a5ede	-0.16637751
153	0x3d2f2eec	0.042769358
154	0xbd624ea7	-0.05525079
155	0x3e4b24f2	0.19838312
156	0x3e63482a	0.22195497
157	0x3e44e944	0.19229609
158	0xbd01d5f1	-0.03169817
159	0xbde2eeff	-0.11080741
160	0x3e609760	0.21932745
161	0x3c0c3287	0.0085569685
162	0xbdcd6939	-0.10029835
163	0xbd709f43	-0.058745634
164	0x3deeae7d	0.11654375
165	0xbd3a6d01	-0.04551411
166	0xbd475a9b	-0.048670392
167	0x3e00cdfd	0.12578578
168	0xbded537f	-0.11588191
169	0xbdde7360	-0.1086185
170	0xbe211dd0	-0.15734029
171	0xbd894d79	-0.0670423
172	0xbd23f07c	-0.040024266
173	0x3e410a9f	0.18851708
174	0x3d920074	0.07128993
175	0xbd312e77	-0.043257203
176	0x3e0f4956	0.13992819
177	0xbd7c1195	-0.061540205
178	0xbda04030	-0.07824743
179	0xbe4cded8	-0.20006883
180	0xbd928b85	-0.071555175
181	0x3e1bd00a	0.1521608
182	0x3dbf8aaf	0.09352624
183	0xbc0daf68	-0.008647777
184	0x3da5c397	0.080939464
185	0x3d171d07	0.036892917
186	0x3b9900a6	0.0046692668
187	0xbd575603	-0.05257226
188	0x3d6b086a	0.05738107
189	0xbdf4ef79	-0.11959738
190	0x3e2e0353	0.16993456
191	0x3d464fe9	0.048416052
192	0x3e1c83e4	0.15284687
193	0x3cf6cb86	0.030126344
194	0xbe4a10c8	-0.19732964
195	0xbdcd8986	-0.10035996
196	0xbdb0124e	-0.08597241
197	0xbda94852	-0.08265747
198	0x3da1d681	0.079022415
199	0xbd401ed5	-0.046904404
200	0xbcdef036	-0.02721415
201	0xbe876b64	-0.2644912
202	0x3dd9513c	0.10611197
203	0xbdbe9e95	-0.09307591
204	0x3e3e3f3d	0.18578811
205	0xbc5dcada	-0.013537133
206	0x3e1d394b	0.15353887
207	0x3e11a3bd	0.14222617
208	0xbe764a46	-0.2405177
209	0x3e0be80a	0.13662735
210	0x3e282bda	0.16422978
211	0x3d4568e2	0.048195727
212	0x3d14ace4	0.036297694
213	0xbe0e392a	-0.13888994
214	0x3ebcd02f	0.3687758
215	0x3e3ae8ff	0.18252943
216	0xbe4bcfa2	-0.19903424
217	0x3dfcddc1	0.12346984
218	0xbd05ae1c	-0.032636747
219	0xbd612cf8	-0.054974526
220	0x3e1bfb80	0.15232658
221	0x3e5101ec	0.2041089
222	0x3dd245bd	0.10267208
223	0xbdffc3e3	-0.12488534
224	0xbce4c483	-0.027925735
225	0xbcf6cbee	-0.030126538
226	0x3e1e741c	0.1547398
227	0x3ddc2c0e	0.1075059
228	0xbd82a6ac	-0.063794464
229	0xba99c5a0	-0.001173187
230	0xbcd67714	-0.026179828
231	0x3c418cde	0.0118133705
232	0xbc950079	-0.018188702
233	0x3dbc5710	0.09196293
234	0xbe40611c	-0.18787044
235	0xbd877a14	-0.066150814
236	0xbe2bbc95	-0.16771157
237	0x3d1a3cc1	0.037655596
238	0xbdace3f4	-0.08441916
239	0x3cfed52a	0.031107504
240	0xbd80ce24	-0.06289318
241	0x3dfc17b8	0.123092115
242	0x3d8b06e4	0.06788424
243	0xbb66f0ee	-0.003523882
244	0xbd857c62	-0.06517865
245	0xbdcaed4c	-0.09908542
246	0x39b43286	0.00034369918
247	0x3d49f482	0.049305446
248	0x3d138228	0.0360128
249	0x3b83c9e4	0.00402187
250	0xbe39ab82	-0.18131831
251	0x3e486aca	0.19571987
252	0x3d7b99ac	0.06142585
253	0xbdc61179	-0.096713014
254	0x3dbed60a	0.093181685
255	0xbe3cbcf2	-0.18431452

critic.0.bias f4 [64]
0	0x3d023fc2	0.031799085
1	0x3d3d7e4e	0.04626303
2	0xbcd03092	-0.025413785
3	0x3cf129d6	0.029438894
4	0x3cd58285	0.026063213
5	0x3cb42a40	0.021992803
6	0x3cef1452	0.029184494
7	0xbd07952e	-0.033101253
8	0xbcaa39a3	-0.020779436
9	0xbcbfef99	-0.023429679
10	0x3d175de6	0.036954783
11	0xbcf1ca49	-0.029515402
12	0x3cce0b24	0.025151797
13	0x3cade24a	0.021226067
14	0x3cb49a29	0.022046166
15	0x3cefda96	0.029279035
16	0x3cdbc823	0.026828831
17	0x3d13b011	0.036056582
18	0x3d065db0	0.03280419
19	0x3ccf82fa	0.02533101
20	0x3cee5d48	0.029097214
21	0xbc9ac096	-0.01889066
22	0xbd0d3372	-0.03447289
23	0xbc8ca512	-0.017168555
24	0xbcc30c42	-0.023809556
25	0x3ce7c880	0.028293848
26	0x3cdca3cb	0.026933571
27	0x3c815bb0	0.01579079
28	0xbca36826	-0.019947123
29	0xbc7a8bea	-0.015292147
30	0x3cb514cd	0.022104645
31	0xbcf57e4f	-0.029967455
32	0x3cc5026f	0.024049012
33	0xbcb5d377	-0.02219556
34	0xbc8dc895	-0.017307559
35	0x3c97a46e	0.018511023
36	0xbd060ad4	-0.03272517
37	0xbcb68810	-0.022281677
38	0xbd050363	-0.032473933
39	0x3cf4bae0	0.029874265
40	0x3ccc0e8e	0.024909284
41	0xbcad0b62	-0.021123592
42	0xbc84ec02	-0.016225819
43	0x3cfd7066	0.030937385
44	0xbccfdd9c	-0.025374226
45	0xbc94d4d3	-0.018167889
46	0xbc8e120b	-0.017342588
47	0xbca43bbd	-0.020048017
48	0x3c8a8492	0.016908918
49	0x3cc70696	0.024295133
50	0xbcd8df38	-0.026473626
51	0xbd1e44a4	-0.03863968
52	0xbd04c79c	-0.032416925
53	0xbce9ba04	-0.028531082
54	0x3d02062a	0.03174416
55	0x3b277002	0.002554894
56	0xbcc938b6	-0.024563175
57	0x3d095f7d	0.03353833
58	0x3cc4da05	0.024029741
59	0x3ccbdcb1	0.024885507
60	0xbcab7167	-0.020928098
61	0x3ced43c1	0.028962972
62	0xbce5bc60	-0.028043926
63	0xbca7d6d3	-0.020488178

critic.2.weight f4 [1, 64]
0	0x3f6744b5	0.90339214
1	0x3f522a29	0.8209558
2	0xbf6fd4f3	-0.9368431
3	0x3f6a5c62	0.91547215
4	0x3f82da7f	1.022293
5	0x3f6c4a8f	0.9230127
6	0x3f7313a0	0.9495182
7	0xbf4ecdab	-0.80782574
8	0xbf798438	-0.97467375
9	0xbf678f60	-0.9045315
10	0x3f75951e	0.9593066
11	0xbf5ef6bf	-0.87095255
12	0x3f4b7224	0.7947104
13	0x3f4f7025	0.81030494
14	0x3f5aa2ae	0.8540448
15	0x3f68bd81	0.9091416
16	0x3f79b106	0.9753574
17	0x3f5789c4	0.8419459
18	0x3f4310de	0.7619761
19	0x3f50be84	0.81540704
20	0x3f55944e	0.8342942
21	0xbf80a571	-1.0050489
22	0xbf715507	-0.94270366
23	0xbf8a2e64	-1.0795407
24	0xbf78d3c1	-0.9719811
25	0x3f7af936	0.98036516
26	0x3f74a32c	0.9556148
27	0xbf4793a2	-0.77959645
28	0xbf6ebf68	-0.9326081
29	0xbf85b2eb	-1.0445226
30	0x3f4f66bd	0.8101614
31	0xbf80eb33	-1.0071777
32	0x3f4eb74a	0.80748427
33	0xbf5f82ce	-0.8730897
34	0xbf6b6d8a	-0.9196402
35	0x3f5c7a08	0.86123705
36	0xbf510fb4	-0.81664586
37	0xbf5690e6	-0.8381485
38	0xbf4d4839	-0.8018833
39	0x3f582a39	0.84439427
40	0x3f69cfc7	0.9133267
41	0xbf592304	-0.84819055
42	0xbf4f602c	-0.8100612
43	0x3f6cf1cf	0.9255647
44	0xbf62ab91	-0.8854304
45	0xbf8a0f5e	-1.078594
46	0xbf88c1b8	-1.0684118
47	0xbf4f808a	-0.8105551
48	0x3f56279f	0.83654207
49	0x3f621914	0.88319516
50	0xbf55a207	-0.8345036
51	0xbf5cc473	-0.8623726
52	0xbf616687	-0.8804707
53	0xbf5f75bf	-0.8728904
54	0x3f59d26a	0.8508669
55	0xbf4b6847	-0.7945599
56	0xbf4ea273	-0.8071663
57	0x3f4f7588	0.81038713
58	0x3f5a1274	0.8518441
59	0x3f6440ad	0.8916119
60	0xbf544b58	-0.82927465
61	0x3f5babc5	0.85808975
62	0xbf4d57c0	-0.8021202
63	0xbf650909	-0.8946691
