storage/MiniGrid-Navigation-16x16-N2-v0_22-07-21-10-46-12/status.pt (torch, 244989 bytes, 39 tensors)

image_conv.0.weight f4 [16, 3, 2, 2]
0	0xbe259647	-0.16170608
1	0xbdde9528	-0.10868293
2	0xbe7f8908	-0.24954617
3	0xbddbc834	-0.10731545
4	0xbe0a71c2	-0.13519958
5	0xbd9dccb4	-0.0770506
6	0xbcae0544	-0.021242745
7	0x3e0e4c15	0.1389621
8	0x3d8b4874	0.06800929
9	0xbdc893da	-0.097938254
10	0x3ce2bff0	0.027679414
11	0xbd048410	-0.032352507
12	0x3cd59c41	0.026075484
13	0xbdfaa61e	-0.122387156
14	0xbcdc4722	-0.026889388
15	0x3e9f9db0	0.31174994
16	0x3c221ad9	0.009894096
17	0xbd96cb6b	-0.07363018
18	0x3c312436	0.010811856
19	0xbdf9d547	-0.121988826
20	0xbce27dd0	-0.027647883
21	0xbe82cca4	-0.25546753
22	0xbe7efd63	-0.24901347
23	0xbe850034	-0.25976717
24	0xbeec6438	-0.4617021
25	0xbea85739	-0.32879046
26	0xbe9e0e33	-0.30870208
27	0xbeb1b6a7	-0.34709665
28	0xbe896be6	-0.26840132
29	0x3dcd7a82	0.10033132
30	0x3db24449	0.087044306
31	0x3dddddc9	0.10833318
32	0x3e1f3f5a	0.1555151
33	0x3dc8545c	0.09781715
34	0x3e023a10	0.12717462
35	0xbe23795e	-0.15964267
36	0x3e03b8eb	0.1286351
37	0xbe159e41	-0.1461115
38	0x3ea73c27	0.3266308
39	0xbd4219c4	-0.047387853
40	0x3df5680f	0.11982738
41	0x3e0a592b	0.13510577
42	0xbd55e567	-0.05222073
43	0xbe759718	-0.23983419
44	0x3d31ea78	0.043436497
45	0xbc4902a0	-0.012268692
46	0x3d38f1d0	0.045152485
47	0x3e15f572	0.14644411
48	0xbe540384	-0.20704466
49	0xbe5685a4	-0.20949417
50	0xbe986663	-0.29765615
51	0x3e6eae8a	0.23308769
52	0xbe22551a	-0.15852776
53	0xbdc33e10	-0.09533322
54	0xbe4d7c3c	-0.20066923
55	0xbc2abf81	-0.010421635
56	0x3a7e3200	0.00096967816
57	0xbcedd790	-0.029033452
58	0x3e585d5e	0.21129367
59	0x3e86ffb6	0.26366967
60	0xbeb0151b	-0.34391102
61	0xbf012cc5	-0.5045894
62	0x3d77eeaf	0.06053036
63	0xbd976d29	-0.073938675
64	0xbda948d6	-0.082658455
65	0x3d6a558a	0.057210483
66	0x3da05f81	0.07830716
67	0xbe98fc2e	-0.29879898
68	0xbe4a6ed3	-0.19768839
69	0x3e6555c0	0.22395992
70	0x3e8da84e	0.2766747
71	0xbe0c461f	-0.13698624
72	0xbd100e6f	-0.035170015
73	0x3ea23dfd	0.31687918
74	0xbd82b6ea	-0.06382544
75	0xbd7fd360	-0.062457442
76	0xbe26e712	-0.16299084
77	0x3d289d94	0.041165903
78	0x3da638e7	0.08116322
79	0xbe6ba76c	-0.23013085
80	0xbe3bf8b1	-0.18356587
81	0xbdd00794	-0.101576954
82	0x3e0c6528	0.13710463
83	0x3c85e670	0.016345233
84	0x3ec22796	0.37920827
85	0xbe62ac2c	-0.22135991
86	0xbdeadb78	-0.114676416
87	0x3e53660e	0.206444
88	0xbd11890b	-0.035531085
89	0xbe926b9a	-0.28597718
90	0x3bd52e74	0.006505782
91	0xbcb52569	-0.022112565
92	0x3e1d607a	0.15368834
93	0xbdc6172a	-0.09672387
94	0xbdfafb8a	-0.122550085
95	0x3db55038	0.08853191
96	0xbdf6d896	-0.12053029
97	0x3c9c0fb4	0.019050457
98	0xbe35593a	-0.17709818
99	0xbe2da298	-0.16956556
100	0xbd959658	-0.073040664
101	0x3dd77bde	0.10521673
102	0x3e64282b	0.22280948
103	0x3df553b8	0.11978859
104	0xbe2f8f74	-0.17144567
105	0x3e1a8964	0.15091473
106	0x3de678c8	0.11253506
107	0x3dfc33a4	0.12314537
108	0xbe88fb49	-0.26754215
109	0xbe911c53	-0.28341922
110	0x3e2c1101	0.16803361
111	0x3e814802	0.2525025
112	0x3d4d27f3	0.050086927
113	0x3d6310fe	0.055436127
114	0xbcfff1cd	-0.03124323
115	0xbe3f1f4b	-0.18664281
116	0xbbed7540	-0.0072466433
117	0xbe0b221c	-0.1358723
118	0xbdaf424a	-0.085575655
119	0x3e4748ce	0.19461367
120	0x3eadbeec	0.33934724
121	0x3c56cb01	0.013109923
122	0xbe66f17d	-0.22553058
123	0xbe112c25	-0.14176996
124	0x3cba2541	0.022722842
125	0xbe9db00a	-0.3079837
126	0xbd73f997	-0.0595642
127	0x3dffc8d4	0.12489477
128	0xbe83357e	-0.2562675
129	0xbae40e00	-0.0017399192
130	0xbd115d08	-0.035489112
131	0x3b355700	0.0027670264
132	0xbe2456ae	-0.1604869
133	0xbe285347	-0.16438018
134	0xbeaf6e0d	-0.3426365
135	0xbebffbd3	-0.37496814
136	0x3a809d1b	0.0009812446
137	0x3e0d3b9e	0.13792273
138	0xbea608ed	-0.32428685
139	0xbea70fbc	-0.32629192
140	0xbe1fe31c	-0.15613979
141	0x3e8ddebc	0.27708995
142	0x3e85055a	0.25980645
143	0xbe8fd1fa	-0.28089887
144	0x3d7be18e	0.061494403
145	0xbdc0f4fd	-0.09421728
146	0x3ed011b5	0.4063851
147	0xbe6de45d	-0.23231645
148	0x3d55e90a	0.052224196
149	0xbd3d6173	-0.046235513
150	0xbe68aebd	-0.22722907
151	0x3dcf7bca	0.10131033
152	0xbe0ee76e	-0.13955471
153	0xbc943f90	-0.018096715
154	0xbd828cea	-0.063745335
155	0xbe6f178e	-0.23348829
156	0x3d82e88a	0.063920096
157	0x3e45f071	0.19330002
158	0x3e60a0fb	0.21936409
159	0xbe4fcf4a	-0.20293918
160	0xbdecea9c	-0.11568186
161	0xbca15b34	-0.01969681
162	0x3d725c70	0.059170187
163	0xbe5a03a8	-0.21290457
164	0xbe862663	-0.26201162
165	0x3e37368a	0.17891899
166	0xbe5c6579	-0.21523084
167	0xbc04d3a0	-0.008107096
168	0xbebfccfa	-0.37461072
169	0x3dc930e3	0.098237775
170	0xbe1c6da3	-0.15276198
171	0x3e20fe67	0.15722047
172	0xbcee20ed	-0.029068435
173	0xbd72475c	-0.059150085
174	0x3e00b6ea	0.12569776
175	0xbea4a44a	-0.32156593
176	0x3e0de648	0.13857377
177	0xbe4ddbac	-0.2010333
178	0x3e1f816a	0.15576711
179	0x3d9393fc	0.0720596
180	0xbca72943	-0.020405417
181	0xbe6820a8	-0.22668707
182	0x3e587628	0.21138823
183	0x3e5bcf95	0.21465905
184	0x3d8f087e	0.06984042
185	0xbe1726ed	-0.14760943
186	0xbd807f62	-0.06274296
187	0xbc450c24	-0.01202682
188	0x3e89845a	0.2685879
189	0x3e86565c	0.26237762
190	0x3e096cf0	0.13420463
191	0x3d088a90	0.03333527

image_conv.0.bias f4 [16]
0	0xbecace34	-0.39610445
1	0xbecc4181	-0.39893726
2	0x3e14acbe	0.14519021
3	0xbeb6dad1	-0.3571382
4	0xbe25cd2d	-0.1619155
5	0x3e9de171	0.3083606
6	0xbe39f999	-0.1816162
7	0xbec3a6a3	-0.3821307
8	0xbea8dcc5	-0.32980934
9	0xbdbeff67	-0.09326058
10	0xbd67165e	-0.056417815
11	0x3e65c68b	0.2243902
12	0xbe347173	-0.17621402
13	0xbe9cf6f7	-0.3065717
14	0x3db6a1f0	0.08917606
15	0xbeb7948c	-0.3585552

image_conv.3.weight f4 [32, 16, 2, 2]
0	0xbe01c4c7	-0.12672721
1	0xbd4edcfe	-0.050503723
2	0x3d699efa	0.057036377
3	0xbe5bbd60	-0.2145896
4	0xbe6a6bad	-0.22892638
5	0xbd766e6d	-0.060163904
6	0x3bd9f774	0.006651813
7	0x3baa160d	0.005190617
8	0x3d30c8d0	0.04316026
9	0xbde6b941	-0.11265803
10	0xbda5448f	-0.08069717
11	0xbda356ae	-0.07975517
12	0x3c6be0a5	0.014396821
13	0xbd3d2228	-0.046175152
14	0xbe299bc8	-0.16563332
15	0xbe97b850	-0.29632807
16	0xbe0648f5	-0.13113768
17	0xbe91aed2	-0.2845369
18	0x3c07e628	0.00829462
19	0xbe5cffff	-0.2158203
20	0x3c268fec	0.01016615
21	0xbe570929	-0.20999588
22	0x3de2cfc7	0.11074787
23	0xbe35552b	-0.1770827
24	0xbd36d03d	-0.044632185
25	0x3e452a0b	0.1925432
26	0x3e280b18	0.16410482
27	0x3d344113	0.044007372
28	0xbbcd7fb0	-0.006271325
29	0xbd70b7f4	-0.05876918
30	0x3e042391	0.12904193
31	0xbbaa82b2	-0.0052035684
32	0xbea98977	-0.3311269
33	0x3e5ba7cf	0.21450733
34	0x3e998caa	0.2999013
35	0xbd393c89	-0.045223746
36	0xbd819197	-0.06326597
37	0x3dd0ac7d	0.101891495
38	0x3dbf3411	0.09336103
39	0xbdac70eb	-0.08419975
40	0xbe2d1350	-0.16901898
41	0x3d6b3d44	0.057431474
42	0xbeb4574f	-0.3522286
43	0x3c52efbb	0.012874539
44	0x3cc5b6d4	0.02413503
45	0x3e29a638	0.16567314
46	0x3c8f0834	0.017459966
47	0xbda79077	-0.08181851
48	0xbd091bc4	-0.033473745
49	0x3e1fbfc2	0.15600494
50	0x3d29234c	0.041293427
51	0xbc434974	-0.011919368
52	0x3e0b99ee	0.13632938
53	0x3bdd8e16	0.0067613227
54	0x3e369b23	0.17832617
55	0xbdc9aac8	-0.09847027
56	0xbe884083	-0.2661172
57	0xbda445e7	-0.08021145
58	0xbcc19209	-0.023629205
59	0xbd9a6b0b	-0.07539948
60	0xbe914153	-0.2837015
61	0xbde11490	-0.1099025
62	0xbc6e4c27	-0.014544523
63	0xbdf7503d	-0.12075851
64	0xbe95840b	-0.29202303
65	0xbdeb552d	-0.11490855
66	0xbe625f22	-0.22106603
67	0xbe3f3040	-0.1867075
68	0xbcd2c50c	-0.025728725
69	0x3d298d9f	0.041394826
70	0xbe153708	-0.14571774
71	0x3e79297f	0.24332236
72	0xbd0f937a	-0.035052754
73	0x3d4a1e48	0.049345285
74	0x3c9fc6d4	0.019503988
75	0xbdbd933b	-0.092565976
76	0x3e1709a0	0.14749765
77	0x3e565b00	0.20933151
78	0xbd8989bf	-0.06715726
79	0xbe6dc8dd	-0.23221155
80	0xbd8ce0d3	-0.06878819
81	0x3e3d7863	0.18502955
82	0xbd963734	-0.07334748
83	0x3d579777	0.052634683
84	0xbe135492	-0.1438773
85	0xbe4b3f26	-0.19848308
86	0x3cd6aebd	0.026206369
87	0xbd9775bb	-0.07395502
88	0xbda9d48c	-0.08292493
89	0xbd3e2f36	-0.046431743
90	0xbcd343e8	-0.025789216
91	0x3e630af2	0.22172144
92	0xbd0b6db3	-0.034040164
93	0xbe168d65	-0.14702375
94	0xbe18ee82	-0.14934734
95	0x3e2e5bea	0.1702725
96	0x3bdc4fa2	0.00672336
97	0xbdfbafee	-0.12289415
98	0xbd7ec5de	-0.06220042
99	0xbe240d11	-0.1602061
100	0xbd6c33a7	-0.057666447
101	0xbda1b0fb	-0.078950845
102	0x3d8e0e02	0.069362655
103	0x3d56359d	0.052297223
104	0x3dc49fb1	0.09600771
105	0x3d03e968	0.032205015
106	0x3cba3763	0.022731489
107	0xbc977dc4	-0.018492587
108	0x3db29718	0.08720225
109	0x3dbcc62a	0.09217484
110	0xbdadb0a4	-0.08480957
111	0xbd274035	-0.040832717
112	0xbd97a292	-0.07404055
113	0xbc71a972	-0.014749872
114	0xbe51de14	-0.20494872
115	0xbecec766	-0.40386504
116	0x3de1b5c3	0.110209964
117	0xbda07b79	-0.078360505
118	0x3e085ac5	0.13315876
119	0xbdd239fa	-0.102649644
120	0x3cbb454b	0.02286019
121	0xbb899625	-0.004198807
122	0x3b8f176c	0.004366806
123	0x3e37f679	0.17965116
124	0xbde18b94	-0.110129505
125	0xbe146c47	-0.1449443
126	0xbe18d810	-0.14926171
127	0x3e985782	0.29754263
128	0xbca1215e	-0.019669231
129	0xbd57660c	-0.052587554
130	0xbdcd76bd	-0.10032413
131	0xbc4ece0c	-0.012622368
132	0xbe16302f	-0.14666818
133	0xbd67572e	-0.056479625
134	0xbe34703a	-0.17620936
135	0xbd367642	-0.044546373
136	0xbd9cf5fc	-0.07664105
137	0x3d2a95a8	0.04164663
138	0x3d5b4701	0.05353451
139	0xbcff683e	-0.031177636
140	0xbd401e1d	-0.04690372
141	0xbe07f27e	-0.13276097
142	0xbd7a0296	-0.061037622
143	0xbdf9bd77	-0.12194341
144	0xbe0378ee	-0.128391
145	0x3da244ea	0.079233006
146	0xbe066332	-0.13123778
147	0xbd6f49c9	-0.058419976
148	0xbd94519b	-0.072421275
149	0xbd79b183	-0.060960304
150	0xbd97ec75	-0.074181475
151	0xbd93dc58	-0.072197616
152	0xbddcdb84	-0.10784057
153	0x3b2b249e	0.0026114355
154	0xbd56f612	-0.052480765
155	0xbe514d31	-0.20439602
156	0xbdaef67d	-0.08543108
157	0xbd9b73ee	-0.07590471
158	0xbc2ddd70	-0.010611877
159	0xbce050cb	-0.027382275
160	0xbcc57253	-0.024102366
161	0x3bbdde7c	0.0057943445
162	0xbe2076bb	-0.15670292
163	0xbd8ec3bb	-0.069709264
164	0x3d850cd2	0.06496586
165	0x3da5fc59	0.08104772
166	0x3cb6751e	0.022272643
167	0xbdb216d8	-0.08695763
168	0xbcc53ea2	-0.024077717
169	0x3d99d282	0.07510854
170	0xbb184b3c	-0.0023238203
171	0xbe07e51c	-0.13270992
172	0xbdc8cbda	-0.098045066
173	0xbddb2b70	-0.107016444
174	0xbdcefe2b	-0.101070724
175	0xbd354e55	-0.044264156
176	0xbcac94c5	-0.021067033
177	0x3c873d31	0.01650867
178	0x3d48bb51	0.049006764
179	0xbdb6a815	-0.08918778
180	0xbd166bbd	-0.03672384
181	0xbe1adf1f	-0.15124176
182	0xbe3d1b48	-0.18467438
183	0xbe803b96	-0.2504546
184	0x3cdde761	0.02708787
185	0xbd15bfb9	-0.036559794
186	0xbc8a8ff2	-0.016914342
187	0xbde30b71	-0.11086167
188	0xbb96c6b5	-0.0046013244
189	0xbe0b2b49	-0.1359073
190	0xbb1813a6	-0.002320507
191	0xbcd23bd5	-0.025663296
192	0xbdc525eb	-0.09626373
193	0xbcd550b4	-0.026039459
194	0x3db67f5b	0.0891101
195	0x3d78a5fd	0.060705174
196	0x3c7d7559	0.015469872
197	0xbd947311	-0.0724851
198	0xbd9ff766	-0.078108594
199	0x3c851060	0.01624316
200	0xbd8b1c08	-0.06792456
201	0x3d5a2721	0.053259972
202	0x3da55834	0.08073464
203	0x3d4b5e3e	0.049650423
204	0xbda3ecf0	-0.080041766
205	0xbdb6ca6f	-0.0892533
206	0xbce7fbe4	-0.028318353
207	0x3c647808	0.013944633
208	0x3db3cca0	0.087792635
209	0xbd936769	-0.07197458
210	0x3dce79a4	0.10081795
211	0xbd7d4afb	-0.061839085
212	0xbc2230ac	-0.0098993
213	0x3ddf270b	0.10896119
214	0xbd9fd802	-0.07804872
215	0xbd6993db	-0.05702577
216	0xbd90ed31	-0.07076491
217	0xbd10888c	-0.03528647
218	0xbdd3e3f8	-0.10346216
219	0xbdda0b52	-0.106466904
220	0x39fa0330	0.0004768609
221	0xbde6c1b3	-0.11267414
222	0xbcdbcfe7	-0.026832534
223	0xbd950b03	-0.07277491
224	0xbd277c62	-0.040890105
225	0xbdadd019	-0.08486957
226	0x3b0f60af	0.0021877696
227	0xbdda551a	-0.10660763
228	0xbdafa4d1	-0.08576358
229	0x3dab64ee	0.0836886
230	0x3cd18f9c	0.025581174
231	0x3cde69f4	0.027150132
232	0x3d71c475	0.059025247
233	0xbd56b3d3	-0.052417587
234	0x3d641dd8	0.055692524
235	0xbb03a1e9	-0.002008552
236	0xbda308a3	-0.07960632
237	0xbda27ce3	-0.079339765
238	0xbd7f1674	-0.062277272
239	0x3d89b960	0.067248106
240	0xbd775d77	-0.06039187
241	0xbc410d13	-0.011782902
242	0xbd79856f	-0.060918268
243	0xbdba16f1	-0.09086407
244	0xbdaf4615	-0.08558289
245	0xbdbeec2f	-0.09322392
246	0xbd5d4dd1	-0.05402929
247	0xbdd18d97	-0.10232084
248	0xbdbc21e7	-0.09186154
249	0xbdf3da14	-0.119068295
250	0xbbcd4e25	-0.006265419
251	0x3d406b71	0.046977464
252	0xbe00e57a	-0.12587538
253	0x3ddede46	0.10882239
254	0xbd6c0d57	-0.05762991
255	0x3d3bebdc	0.04587923

image_conv.3.bias f4 [32]
0	0xbd03a08d	-0.032135535
1	0xbd040c78	-0.032238454
2	0xbc0cf516	-0.008603355
3	0xbe0befc5	-0.13665684
4	0xbd3edd2b	-0.04659764
5	0xbe670880	-0.22561836
6	0xbd711555	-0.058858234
7	0xbdd477c5	-0.10374407
8	0xbdecff04	-0.11572078
9	0xbdebee29	-0.11520035
10	0x3d3265ca	0.043554105
11	0xbdaf99c8	-0.08574253
12	0xbe3e3752	-0.1857579
13	0xbc595336	-0.013264468
14	0xbd1e6cd9	-0.038678024
15	0xbdaf9122	-0.08572604
16	0xbc95f78b	-0.018306514
17	0xbe345b2b	-0.17612903
18	0x3e236c3c	0.15959257
19	0xbda2cc77	-0.07949155
20	0xbd4085dd	-0.047002662
21	0xbc89b260	-0.016808689
22	0xbe405e2a	-0.1878592
23	0xbba2b86a	-0.0049658315
24	0xbe0f8457	-0.14015327
25	0x3ddfa3ab	0.10919889
26	0x3d28eabe	0.041239493
27	0xbe296de1	-0.16545822
28	0xbdf338c7	-0.11876064
29	0xbd10172c	-0.03517835
30	0xbc6240dd	-0.01380941
31	0xbda4bdb6	-0.08043997

image_conv.5.weight f4 [64, 32, 2, 2]
0	0x3c271ec0	0.010200202
1	0x3d56a8a6	0.05240693
2	0x3db1b20e	0.08676539
3	0xbdd61af0	-0.10454357
4	0x3e6c293f	0.23062609
5	0x3dd77578	0.10520452
6	0xbca5929a	-0.020211507
7	0xbe4a6d34	-0.1976822
8	0x3cc53d3f	0.024077056
9	0x3c161843	0.009161058
10	0x3d0a43c6	0.03375604
11	0x3cad6f46	0.021171223
12	0xbcf7097e	-0.030155893
13	0x3d5e2fe7	0.054244902
14	0xbd6900bc	-0.056885466
15	0x3d511d26	0.05105319
16	0x3b04e989	0.00202808
17	0xbdf532d8	-0.11972588
18	0x3defabf2	0.11702718
19	0x3e418911	0.18899943
20	0x3e961a7f	0.2931709
21	0xbe5223d5	-0.20521481
22	0x3e476513	0.1947215
23	0xbdea0899	-0.11427421
24	0xbcfd5d3d	-0.030928249
25	0xbe3d8c99	-0.18510665
26	0xbe5aaac6	-0.21354207
27	0xbde7cb36	-0.11318056
28	0xbdbc56a3	-0.09196212
29	0xbdf5574b	-0.119795404
30	0xbd9194e8	-0.0710848
31	0xbe85606b	-0.26050124
32	0x3e1c7f7f	0.15283011
33	0x3d5f81e9	0.05456725
34	0xba654a19	-0.0008746698
35	0xbe178139	-0.14795388
36	0x3e5d3169	0.2160088
37	0x3d8f3664	0.06992796
38	0xbd7138c8	-0.05889204
39	0xbd95b917	-0.07310694
40	0xbe98a4e6	-0.29813308
41	0xbe73e9c9	-0.2381965
42	0xbd103d4a	-0.0352147
43	0xbc872cb1	-0.016500803
44	0x3e10df87	0.14147769
45	0xbda7631b	-0.081732
46	0x3d80df6d	0.06292615
47	0xbe71dffc	-0.236206
48	0xbea682f2	-0.32521778
49	0xbd83a134	-0.064272314
50	0xbe155e34	-0.14586717
51	0x3d0188b7	0.031624522
52	0x3e5289c1	0.20560361
53	0x3ce4a25e	0.027909454
54	0xbe42abdc	-0.19010872
55	0x3e353926	0.17697582
56	0x3c9a0ae3	0.01880402
57	0xbd4c2143	-0.04983641
58	0xbcb99152	-0.022652302
59	0xbcba2fa4	-0.022727795
60	0xbb23eece	-0.0025014165
61	0x3e02c336	0.1276978
62	0xbe0bfe68	-0.13671267
63	0x3e1f6877	0.15567194
64	0x3e18c59e	0.14919135
65	0xbe21a8da	-0.15787068
66	0x3c4a5e4e	0.012351586
67	0xbb2ad24e	-0.0026065293
68	0xbd89f1d1	-0.06735576
69	0x3dc6efbd	0.09713695
70	0xbe6a3432	-0.22871473
71	0xbe3349d6	-0.17508635
72	0xbed92895	-0.42413774
73	0x3c29c337	0.010361484
74	0xbecb1a16	-0.3966834
75	0xbe67e55c	-0.22646087
76	0x3e45ecfa	0.1932868
77	0xbe139665	-0.1441284
78	0x3e5c09e0	0.21488142
79	0x3e277449	0.16352953
80	0xbba4930b	-0.0050224117
81	0x3ca10eb4	0.019660331
82	0xbd622f00	-0.055220604
83	0xbce0d8a2	-0.027447049
84	0xbe30d45f	-0.17268513
85	0xbb46b07b	-0.0030317593
86	0xbdb59121	-0.08865572
87	0xbd79b02a	-0.06095902
88	0x3e3945ce	0.18093035
89	0xbc6c53af	-0.014424249
90	0xbca7ec29	-0.020498352
91	0xbc27f141	-0.0102503905
92	0x3cc84a66	0.024449538
93	0xbd8723f1	-0.06598652
94	0xbd8fb8f0	-0.07017696
95	0x3d978739	0.073988385
96	0xbe416dfa	-0.18889609
97	0xbd1e8ea2	-0.038710244
98	0xbde488e6	-0.11158924
99	0xbd1849d7	-0.037179794
100	0xbe6389ed	-0.22220583
101	0x3d7b0494	0.061283663
102	0xbebad408	-0.36489892
103	0xbe82b81b	-0.25531086
104	0x3e053453	0.13008241
105	0xbde20173	-0.11035433
106	0xbdd40a36	-0.1035351
107	0xbd49b804	-0.049247757
108	0xbe1b6f62	-0.15179208
109	0xbd9fb848	-0.07798821
110	0xbe528da0	-0.20561838
111	0xbd690df0	-0.056898057
112	0x3dc5ca5f	0.0965774
113	0xbe11cf23	-0.14239173
114	0x3df09e17	0.11748903
115	0xbe367eaa	-0.17821756
116	0x3e5736f0	0.2101705
117	0x3e435e5c	0.19078964
118	0xbdf87b47	-0.12132888
119	0xbd9faefa	-0.07797046
120	0x3e3ef517	0.18648182
121	0x3dcd0554	0.10010782
122	0xbdbb3fc6	-0.09143023
123	0x3d808cac	0.06276831
124	0x3d9e0151	0.07715095
125	0xbdf38f72	-0.118925944
126	0xbd788425	-0.060672898
127	0xbc4a4bd1	-0.012347178
128	0x3cb45e81	0.02201772
129	0xbc959bb3	-0.01826272
130	0x3e602ec5	0.21892841
131	0x3e3d6fd0	0.18499684
132	0xbc90c628	-0.017672613
133	0xbd97a96f	-0.07405364
134	0xbe006afd	-0.12540813
135	0xbe287b9f	-0.16453408
136	0x3b02c8c0	0.0019956082
137	0xbd256b9c	-0.040385827
138	0xbd3bdfd9	-0.045867775
139	0x3d9ea43c	0.07746169
140	0x3d028683	0.03186656
141	0x3d3da883	0.046303283
142	0xbd95b1fd	-0.07309339
143	0xbccc42a6	-0.024934124
144	0x3d7e7e0d	0.06213193
145	0x3dd539e8	0.10411435
146	0x3d7d379d	0.061820615
147	0x3e0ae16f	0.13562559
148	0x3d9f50fe	0.0777912
149	0x3d42cdad	0.04755943
150	0x3e385a17	0.18003117
151	0xbea62baa	-0.32455188
152	0xbd92ee21	-0.07174326
153	0x3d9dba13	0.077015065
154	0x3d8f88d3	0.07008519
155	0xbe50b81d	-0.20382734
156	0x3dfb73dd	0.122779585
157	0x3d4104ee	0.047123842
158	0xbe09cc69	-0.13456883
159	0xbcc9d327	-0.024636818
160	0xbc14814a	-0.009064028
161	0xbdb4673d	-0.08808754
162	0xbe9f8a62	-0.31160265
163	0xbe5efb27	-0.21775495
164	0xbc606806	-0.013696676
165	0xbdbfe2a4	-0.093694
166	0xbd4d6a1d	-0.050150026
167	0x3d59a90a	0.053139724
168	0x3e0c0b03	0.13676076
169	0xbe4f0360	-0.20216131
170	0x3e317544	0.1732989
171	0xbd536855	-0.05161317
172	0xbd012589	-0.031529937
173	0x3e3152ef	0.17316793
174	0x3d2dae05	0.042402286
175	0x3d6a48b2	0.057198234
176	0xbdfc1ee6	-0.12310581
177	0xbd18152c	-0.037129566
178	0x3dbcef9f	0.092253916
179	0x3e063a09	0.13108076
180	0x3d5b4485	0.053532142
181	0x3d86d034	0.0658268
182	0x3de92a6b	0.11385044
183	0x3d9bfbc4	0.0761638
184	0x3d2c50ba	0.042069174
185	0x3d94ea19	0.07271213
186	0x3da3bf31	0.07995451
187	0x3dc53c73	0.096306704
188	0xbe6cf01e	-0.23138472
189	0x3e262808	0.16226208
190	0xbc8ee099	-0.01744108
191	0x3d3854d0	0.04500276
192	0xbe2bb584	-0.16768461
193	0x3e2c6672	0.16835955
194	0x3c474832	0.012163209
195	0x3e802c69	0.25033882
196	0x3b93b7b0	0.0045079812
197	0x3dff8f2a	0.12478478
198	0xbb325365	-0.0027210352
199	0xbe220ade	-0.15824458
200	0x3d6b34a2	0.05742324
201	0x3df7fc10	0.12108624
202	0xbde36efd	-0.11105154
203	0xbdb13b97	-0.08653944
204	0x3ea3b17e	0.31971353
205	0xbd24c97b	-0.04023121
206	0x3e9ff3f7	0.31240818
207	0x3c752a4c	0.014963698
208	0x3d913317	0.07089823
209	0x3cb8f0e4	0.022575803
210	0xbd9aa4f2	-0.07550992
211	0xbd1b26a1	-0.037878636
212	0xbdba778d	-0.09104834
213	0x3d093bcd	0.033504296
214	0xbdcbb69c	-0.09946939
215	0x3ce6468e	0.028109815
216	0xbd332754	-0.043738678
217	0x3e0025bf	0.12514399
218	0xbd8539de	-0.06505178
219	0xbe3e5df6	-0.18590531
220	0x3d61c334	0.0551178
221	0xbd9a9b92	-0.07549204
222	0xbd80285d	-0.06257699
223	0x3c450956	0.012026152
224	0xbc67ea98	-0.014155053
225	0xbc4e37a3	-0.012586507
226	0xbe9066ba	-0.28203374
227	0xbdd4241f	-0.10358452
228	0xbdcacfb6	-0.09902899
229	0xbdbdeba3	-0.0927346
230	0xbe143dad	-0.14476652
231	0xbe68b1f6	-0.22724137
232	0xbd3a8480	-0.045536518
233	0x3cbb0e2e	0.02283391
234	0xbbccc20e	-0.006248719
235	0xbb808613	-0.003922233
236	0xbe705f7b	-0.23473923
237	0xbda86535	-0.08222429
238	0xbe197c1e	-0.14988753
239	0xbe22fb74	-0.15916234
240	0x3cf74c05	0.030187616
241	0x3bae2bba	0.005315271
242	0xbbdbc457	-0.006706755
243	0xbd6d9187	-0.058000114
244	0xbd8fbc1c	-0.07018301
245	0xbe0885a6	-0.13332233
246	0x3dda599d	0.106616236
247	0x3e2db8e9	0.16965069
248	0xbbe74623	-0.0070579215
249	0x3c12714a	0.008938143
250	0x3df27c3d	0.11840103
251	0x3e6b1249	0.22956194
252	0xbd180b75	-0.0371203
253	0xbd8f00ff	-0.06982612
254	0x3d1fc122	0.039002545
255	0x3d5bfb19	0.053706262

image_conv.5.bias f4 [64]
0	0x3e264372	0.16236666
1	0x3babb22b	0.005239745
2	0xbe2c19cf	-0.1680672
3	0xbd8332ab	-0.064061485
4	0xbd5320a4	-0.0515448
5	0x3daf5c8e	0.08562575
6	0xbd698a7e	-0.057016842
7	0x3c3d0e87	0.011539108
8	0x3d15d85c	0.03658329
9	0xbdaf91bd	-0.08572719
10	0x3e263970	0.16232848
11	0x3c8859df	0.016644416
12	0x3e0e9362	0.1392341
13	0x3db5571f	0.08854508
14	0x3e5d9658	0.21639383
15	0xbdc1f405	-0.09470371
16	0xbe20706d	-0.15667887
17	0x3d87266d	0.06599126
18	0xbae1e736	-0.0017235044
19	0x3cc8b6b9	0.024501191
20	0xbcfe1eee	-0.031020608
21	0xbd751777	-0.05983683
22	0x3bca614b	0.006176149
23	0xbccbedc5	-0.02489365
24	0x3b974064	0.0046158303
25	0xbb9b8f41	-0.004747302
26	0xbd537ccb	-0.051632684
27	0xbd933af3	-0.07188978
28	0xbd11c6f4	-0.035590127
29	0x3baaccb3	0.0052123903
30	0xbd35f432	-0.044422336
31	0xbe066eb5	-0.13128169
32	0xbd941fa2	-0.07232596
33	0xbdb8792e	-0.09007488
34	0x3d5b1945	0.053490896
35	0xbe2e337b	-0.17011826
36	0x3e0bf9b7	0.13669477
37	0xbd903600	-0.0704155
38	0xbe14caed	-0.14530535
39	0x3cdd1434	0.026987173
40	0xbd982aa6	-0.074300095
41	0xbe4940e0	-0.19653654
42	0xbe49dac6	-0.19712362
43	0x3e5867b5	0.21133311
44	0xbd7e9d4f	-0.06216174
45	0xbdaa419d	-0.08313296
46	0xbe32fcbf	-0.17479227
47	0x3cf6aaa6	0.030110668
48	0x3de7f30c	0.113256544
49	0xbcbc27be	-0.02296817
50	0x3dd68870	0.10475242
51	0x3dbcc27c	0.092167825
52	0xbde9300b	-0.113861166
53	0x3c736a82	0.014856936
54	0xbd46cc83	-0.04853488
55	0xbc9735a3	-0.018458193
56	0xbde7ca7d	-0.113179184
57	0x3da75682	0.08170797
58	0xbd4049ae	-0.046945266
59	0xbd6d5705	-0.057944316
60	0xbc5dd1b3	-0.013538766
61	0xbd774789	-0.060370956
62	0xbde0840a	-0.109626845
63	0x3d8b294e	0.067949876

actor.0.weight f4 [64, 64]
0	0x3d9048b1	0.07045115
1	0xbe4a5d88	-0.19762242
2	0x3e91cc92	0.28476387
3	0xbe70dd52	-0.23521927
4	0xbe66d7f5	-0.22543319
5	0xbe2c4e6b	-0.16826789
6	0xbe6f4f6a	-0.23370138
7	0x3d84423a	0.06457944
8	0xbd99ef48	-0.075163424
9	0xbebf029a	-0.37306672
10	0x3e9144ad	0.28372708
11	0xbdb1b4ba	-0.08677049
12	0xbedb5acc	-0.4284271
13	0x3d99637a	0.07489677
14	0xbc225c2c	-0.009909671
15	0xbe00ce92	-0.125788
16	0x3d2587c3	0.040412676
17	0x3e2f091d	0.1709332
18	0xbdebff9d	-0.11523364
19	0xbe948ab3	-0.2901207
20	0x3ecbc6f6	0.39800233
21	0xbb1f96ac	-0.0024351282
22	0xbd92779b	-0.07151719
23	0x3d6daf2f	0.058028396
24	0xbc8b7d5f	-0.017027555
25	0x3d27220a	0.040803947
26	0x3cb1a603	0.021685606
27	0xbe028ee7	-0.12749825
28	0xbe27e69e	-0.16396567
29	0x3e840656	0.25786084
30	0xbe930823	-0.28717145
31	0xbde8249f	-0.1133511
32	0xbddddfac	-0.10833678
33	0x3df1e3e3	0.11811044
34	0xbe1b7d77	-0.1518458
35	0x3daf8053	0.08569398
36	0x3e943190	0.28944063
37	0x3d81799a	0.06322022
38	0x3e3268d3	0.174228
39	0xbe3452df	-0.17609738
40	0xbdbd17c8	-0.092330515
41	0xbd3ab89f	-0.045586225
42	0xbda6fcd4	-0.08153692
43	0xbbae34c6	-0.0053163497
44	0xbdd2a8ca	-0.102861
45	0x3e46f101	0.19427873
46	0xbe4cd551	-0.20003249
47	0x3d949f47	0.07256942
48	0xbe82c5a3	-0.2554141
49	0x3d816ed4	0.06319967
50	0x3cb72835	0.02235804
51	0x3e8c0ff3	0.27355918
52	0x3def1d5a	0.1167552
53	0xbd87ba74	-0.0662736
54	0xbe4392ae	-0.19098923
55	0xbe035bb7	-0.12827955
56	0x3f007c5c	0.5018976
57	0x3df7d899	0.121018596
58	0xbde4b798	-0.1116783
59	0xbef276f0	-0.47356367
60	0x3ebd55ff	0.36979672
61	0x3e901834	0.28143466
62	0xbecebee7	-0.40380022
63	0xbebbb6a8	-0.36662793
64	0x3e8b1c6e	0.27170128
65	0x3eb5b9f6	0.3549344
66	0x3cbc4ace	0.022984888
67	0xbc9034d5	-0.017603317
68	0xbc8b9443	-0.01703847
69	0x3ea61bab	0.32442984
70	0xbeb1eda6	-0.34751624
71	0xbe3279e9	-0.17429318
72	0xbc8abf81	-0.01693702
73	0x3e7029b7	0.23453413
74	0x3e0dc425	0.13844354
75	0xbe6fe9c6	-0.23429021
76	0xbd61a8f6	-0.055092774
77	0xbd8f07bd	-0.06983898
78	0x3e349e03	0.17638402
79	0x3d7d301f	0.06181347
80	0xbdcc7f43	-0.09985211
81	0x3e78a65f	0.24282216
82	0xbe827b74	-0.25484812
83	0x3ece7edb	0.40331158
84	0xbc723e33	-0.014785337
85	0x3d4052fe	0.046954148
86	0x3cae7b99	0.02129917
87	0xbe593858	-0.212129
88	0xbecfbc83	-0.4057351
89	0x3d43c42e	0.047794513
90	0x3d85ae70	0.06527412
91	0xbe37af4c	-0.17937964
92	0x38ea48ed	0.00011171573
93	0xbe62ea69	-0.22159733
94	0xbd097d14	-0.03356655
95	0xbea1470a	-0.3149951
96	0x3ec88424	0.39163315
97	0x3dc30bdb	0.095237456
98	0xbd96b72e	-0.073591575
99	0x3e509c4d	0.20372124
100	0xbd2be524	-0.041966572
101	0x3cff08a5	0.031132052
102	0xbe81b256	-0.25331372
103	0xbda0aa48	-0.078449786
104	0xbde5bbe0	-0.11217475
105	0x3cfca900	0.030842304
106	0xbe40e1cd	-0.18836136
107	0xbd550c2c	-0.05201356
108	0x3dd9d040	0.10635424
109	0xbea48c33	-0.32138214
110	0xbe4fa621	-0.20278217
111	0x3e9f39c9	0.31098774
112	0x3d25468d	0.040350486
113	0xbdf4a96e	-0.11946379
114	0x3dc6d42a	0.09708436
115	0xbe212af2	-0.15739039
116	0x3dc5aff3	0.096527
117	0xbb79099a	-0.0038000108
118	0x3d2bd117	0.04194745
119	0x3da2a21e	0.07941078
120	0xbecb4eb9	-0.39708498
121	0x3b716873	0.0036835938
122	0x3e93dbf1	0.2887874
123	0xbd763781	-0.060111526
124	0xbe5c1f13	-0.21496229
125	0xbe154d5c	-0.14580292
126	0xbc72a760	-0.014810413
127	0x3e66601c	0.224976
128	0x3dd08327	0.10181265
129	0xbe219316	-0.15778765
130	0x3e293a2d	0.16526099
131	0x3e688ffa	0.22711173
132	0xbe2a7e92	-0.16649845
133	0x3d9947c4	0.07484391
134	0xbe2f4fe5	-0.17120321
135	0x3e1c8d84	0.15288359
136	0x3da1786d	0.078842975
137	0xbe4dd567	-0.20100938
138	0x3b9501fb	0.004547355
139	0xbe8e0a92	-0.2774244
140	0xbe1270df	-0.1430087
141	0xbcd68033	-0.026184177
142	0xbe738be0	-0.23783827
143	0xbe37b5d2	-0.17940453
144	0xbdfa08cb	-0.122087084
145	0x3e0fa865	0.14029081
146	0x3d8079b7	0.06273215
147	0xbdbe34c1	-0.09287406
148	0x3da77190	0.08175957
149	0xbe4be290	-0.19910645
150	0x3eac23e7	0.3362114
151	0x3e9f11ec	0.3106836
152	0xbdee4774	-0.11634722
153	0x3e542535	0.20717318
154	0xbd710f0c	-0.05885224
155	0xbe13652b	-0.14394061
156	0xbd261d80	-0.040555477
157	0x3d794974	0.060861066
158	0x3c9ee145	0.019394526
159	0xbcaaf6dc	-0.020869665
160	0xbe87e44d	-0.26541367
161	0xbe22c03c	-0.15893644
162	0xbdabf4bd	-0.083962895
163	0x3e5d731e	0.21625945
164	0x3e98a0d9	0.29810217
165	0x3e695eb4	0.22790033
166	0x3da54e88	0.08071619
167	0xbde987fd	-0.11402891
168	0xbddfed4e	-0.10933934
169	0x3d2a4514	0.041569784
170	0xbdf4cdf6	-0.119533464
171	0x3d74e4be	0.059788458
172	0xbe357b3c	-0.17722791
173	0xbcedd8d6	-0.02903406
174	0xbd5f3c2d	-0.054500747
175	0x3d62758a	0.055287875
176	0xbe283aa3	-0.16428618
177	0xbb86ccb7	-0.0041137594
178	0x3d0599d5	0.03261741
179	0x3ea85b1b	0.32882008
180	0x3e309121	0.17242862
181	0x3bdcdd48	0.006740246
182	0xbdb3160e	-0.08744441
183	0x3d141cb3	0.036160182
184	0x3d4b2c5d	0.049602855
185	0x3d31e9bd	0.0434358
186	0xbcb471c4	-0.022026904
187	0xbdf8ad45	-0.121424235
188	0x3ef1155b	0.47086605
189	0x3e7c830d	0.24659367
190	0xbe9f539c	-0.31118476
191	0xbecfe1ff	-0.4060211
192	0x3db553d9	0.08853883
193	0x3d0501bd	0.03247236
194	0xbc554ff0	-0.013019547
195	0x3e0d474a	0.13796726
196	0x3df453ee	0.11930071
197	0x3d923ea0	0.07140851
198	0xbe86a834	-0.26300204
199	0xbe91e726	-0.28496665
200	0x3e4a2418	0.19740331
201	0x3e6a486b	0.22879188
202	0x3e7370be	0.23773476
203	0xbe9ef2f3	-0.3104473
204	0x3d2f6074	0.042816594
205	0xbe49301a	-0.19647256
206	0x3ebce022	0.3688975
207	0xbdb9b4f1	-0.09067715
208	0xbe574c6a	-0.21025243
209	0x3c823b1b	0.015897324
210	0xbd442456	-0.047886215
211	0x3e766bb8	0.24064529
212	0xbcec788a	-0.028866071
213	0xbd7ad708	-0.061240226
214	0x3cab89d9	0.020939754
215	0xbddec650	-0.10877669
216	0xbe84fd7b	-0.2597464
217	0x3d01005e	0.03149449
218	0x3e82cbe9	0.25546196
219	0x3e0f67f7	0.14004503
220	0x3d599e08	0.053129226
221	0xbdd5af14	-0.10433784
222	0x3ea43131	0.3206878
223	0x3cead846	0.02866758
224	0x3e75ae32	0.23992231
225	0xbe80b7bd	-0.2514018
226	0x3d09c0d1	0.03363115
227	0x3db8264e	0.08991681
228	0x3da1736f	0.07883345
229	0xbe09e642	-0.13466743
230	0xbe1d8697	-0.15383373
231	0xbe071259	-0.13190593
232	0xbd9d09d3	-0.076678894
233	0xbd804d7d	-0.0626478
234	0x3b419333	0.00295372
235	0x3d8f8884	0.0700846
236	0x3d24cdab	0.040235203
237	0xbe91afd8	-0.2845447
238	0x3ce6e9fd	0.028187746
239	0x3e1a2382	0.15052608
240	0x3e90e303	0.28298196
241	0xbdd1460b	-0.10218438
242	0xbe04eb36	-0.12980351
243	0xbdb002fd	-0.0859432
244	0xbb9f0a71	-0.0048535396
245	0x3dc881c7	0.09790378
246	0xbe1f4edb	-0.15557425
247	0xbcbcb896	-0.023037236
248	0xbf13623b	-0.5757176
249	0xbdee958f	-0.1164962
250	0x3e4f2059	0.20227183
251	0x3e1e9c1e	0.15489241
252	0xbc9cfa47	-0.01916231
253	0x3d0b3adb	0.033991676
254	0x3e2ace58	0.16680276
255	0x3e45c6cc	0.19314116

actor.0.bias f4 [64]
0	0xbd425a86	-0.04744961
1	0x3c0c243d	0.008553562
2	0x3cbc15c6	0.022959601
3	0x3ccb450e	0.024813201
4	0xba37f6c6	-0.0007017668
5	0x3ce7b8ba	0.028286327
6	0xbd0aaa5d	-0.033853877
7	0xbc5a1e4c	-0.013312887
8	0x3cc66beb	0.024221381
9	0xbcaf1903	-0.021374231
10	0x3d697518	0.056996435
11	0xbda04979	-0.07826514
12	0x3b4e2cd9	0.0031459837
13	0x3d77cc26	0.060497425
14	0x3c596eb8	0.013271026
15	0xbc8060b0	-0.015671104
16	0xbca5e614	-0.020251311
17	0xbc01836d	-0.0079048695
18	0x3b99942a	0.004686852
19	0x3b8e45bf	0.0043418105
20	0xbd5b3e1c	-0.05352603
21	0x3cfff7a0	0.031246006
22	0x3cc1c550	0.023653656
23	0xbb10b85c	-0.0022082543
24	0x3ce36ab9	0.02776085
25	0xbd56e395	-0.052463133
26	0x3d0c65cb	0.034276765
27	0xbc0ecc8c	-0.00871576
28	0x3ce164f1	0.027513953
29	0x3c992773	0.018695569
30	0x3c958499	0.018251704
31	0x3d2ba5df	0.041906234
32	0x3d56d946	0.0524533
33	0x3d4bd0ac	0.049759552
34	0x3b3409b9	0.0027471615
35	0x3d0b4d66	0.03400936
36	0xbd80b567	-0.062846
37	0x3c631352	0.013859587
38	0x3c33f10a	0.010982761
39	0x3c104d2d	0.008807463
40	0x3d20e8d6	0.03928455
41	0xbd54a0d3	-0.051911186
42	0xbc4c1910	-0.012457147
43	0x3d488574	0.048955396
44	0xbd27d84c	-0.04097776
45	0x3c87158e	0.01648977
46	0x3c684fa2	0.014179142
47	0x3cacc4a2	0.021089856
48	0xbd016bd3	-0.03159697
49	0x3d829b37	0.06377261
50	0x3dd3809b	0.10327264
51	0x3d67ab86	0.056560062
52	0x3d54bbeb	0.051937025
53	0x3ce19a1d	0.027539307
54	0xbc9a426d	-0.018830502
55	0x3be3fc2b	0.006957551
56	0x3d1b3013	0.037887644
57	0x3c889e61	0.016677083
58	0xbc8b9a37	-0.017041309
59	0x3d1c0728	0.038092762
60	0xbd7de944	-0.061990038
61	0x3d15367a	0.036428906
62	0x3c2bd3df	0.010487526
63	0x3d17075f	0.036872264

actor.2.weight f4 [3, 64]
0	0xbdffdd5e	-0.12493394
1	0x3e15156c	0.14558953
2	0xbce10275	-0.027466992
3	0x3d9435d0	0.072368264
4	0x3dd8e2b8	0.10590118
5	0x3e400a14	0.18753844
6	0xbd6e4fe8	-0.058181673
7	0xbe8d24d1	-0.2756715
8	0x3d00416e	0.0313124
9	0xbc9d4a58	-0.019200489
10	0xbdbaeaa9	-0.09126789
11	0x3e1aae46	0.15105543
12	0xbd7b1b35	-0.061305244
13	0xbd302d6b	-0.043012064
14	0xbc74d503	-0.014943364
15	0xbdb8967f	-0.0901308
16	0x3d7ef761	0.062247638
17	0xbc86b6d9	-0.01644461
18	0x3e69fc73	0.22850208
19	0x3e273d44	0.16331965
20	0xbc80c3a2	-0.015718285
21	0xbd507ef3	-0.05090232
22	0xbdca42af	-0.09876
23	0xbc850091	-0.016235622
24	0x3d53818e	0.051637225
25	0xbe2bb95b	-0.16769926
26	0xbd0e9b15	-0.034815867
27	0xb8df5128	-0.00010648585
28	0x3d946d84	0.07247451
29	0xbd15f2bd	-0.036608446
30	0x3cdbbd29	0.026823597
31	0x3e2fb739	0.17159738
32	0xbe38d89d	-0.18051381
33	0x3e91ea1d	0.28498927
34	0xbbf7e07e	-0.0075646034
35	0xbe0cea39	-0.13761224
36	0x3df09930	0.11747968
37	0x3e1002a5	0.14063509
38	0x3e084bbd	0.13310142
39	0x3e0220b9	0.12707795
40	0xbdc05ae4	-0.09392336
41	0x3de7e9ff	0.11323928
42	0x3db8d056	0.09024112
43	0xbe2136a5	-0.15743501
44	0xbdb3e922	-0.08784701
45	0x3e4240dc	0.18970054
46	0xbd5abf92	-0.053405352
47	0x3e67aed2	0.22625282
48	0x3e37cbce	0.17948839
49	0x3e39436c	0.18092126
50	0x3e538259	0.20655192
51	0xbdf82966	-0.12117271
52	0x3d870156	0.06592052
53	0xbd865731	-0.06559599
54	0x3deb602b	0.11492952
55	0xbc2080e4	-0.009796355
56	0xbb9fbf8b	-0.0048751286
57	0x3de7e080	0.11322117
58	0x3e04fbdb	0.129867
59	0x3d2d9e4e	0.0423873
60	0x3d93239d	0.07184527
61	0x3db4dbc8	0.088309824
62	0x3cf52a38	0.029927358
63	0xbe0323ff	-0.128067
64	0x3d6b0729	0.057379875
65	0xbd5b3407	-0.053516414
66	0x3d50eb65	0.05100574
67	0x3cbe3b17	0.023221536
68	0x3da1add9	0.07894487
69	0xb9c86f6e	-0.00038229994
70	0x3d3d8a6d	0.04627459
71	0xbcdf3b8a	-0.02725007
72	0x3d9f3b20	0.07774949
73	0xbb6a9c20	-0.0035798624
74	0xbcde9798	-0.027171895
75	0x3e1e747f	0.15474127
76	0xbe99a5d8	-0.3000934
77	0xbda030bc	-0.07821795
78	0xbd0b0642	-0.033941515
79	0xbe06eb4d	-0.13175698
80	0xbe2fe644	-0.17177683
81	0x3d07b8a0	0.033135056
82	0x3d928322	0.07153918
83	0xbdbfff2a	-0.093748406
84	0x3b84e835	0.0040560015
85	0xbcfe1c2e	-0.031019296
86	0x3d7db1fc	0.061937317
87	0x3e548585	0.20754059
88	0x3cbb36d4	0.022853293
89	0x3dcf32a6	0.10117082
90	0xbd86aaa9	-0.065755196
91	0xbd3ab230	-0.04558009
92	0xbe157ab6	-0.14597592
93	0xbd5562f6	-0.05209633
94	0xbda1a82a	-0.07893403
95	0xbd1656f3	-0.036704015
96	0xbe40b33b	-0.18818371
97	0x3cc48a81	0.023991825
98	0x3ccd2d28	0.025045946
99	0xbdc5a3e6	-0.09650402
100	0x3dec4293	0.115361355
101	0xbd8cde4a	-0.06878336
102	0x3e09ce80	0.1345768
103	0x3da82aa9	0.08211262
104	0xbea7f3bc	-0.32803142
105	0x3d96713a	0.07345815
106	0x3cb22dbc	0.021750323
107	0xbe0f46ac	-0.13991803
108	0x3d3e6c5c	0.04649006
109	0xbe053001	-0.13006593
110	0xbcd07f5e	-0.025451358
111	0x3db1bddf	0.08678793
112	0x3e6bee05	0.23040016
113	0x3c3711c4	0.011173669
114	0x3e4a0cf8	0.1973151
115	0xbcf0b504	-0.02938319
116	0xbe523cec	-0.20531052
117	0x3cda5ffd	0.026657099
118	0x3d97a09b	0.0740368
119	0xbdde892b	-0.108660065
120	0x3d6c35fe	0.05766868
121	0xbe2548f9	-0.16141118
122	0x3d8c5391	0.068518765
123	0xbe316f37	-0.17327581
124	0xbcefeddb	-0.029288223
125	0x3d74bdd8	0.05975136
126	0xbe1813c6	-0.14851293
127	0xbcd4b28e	-0.025964048
128	0xbde12612	-0.109935895
129	0xbd8beb6b	-0.06832012
130	0x3caa4ce3	0.020788616
131	0xbbe6355b	-0.0070254034
132	0x3dda1cda	0.10650034
133	0xbe363a15	-0.17795594
134	0x3e8b3853	0.2719141
135	0xbcb409e7	-0.021977378
136	0x3c7cf973	0.015440333
137	0x3d4440e2	0.04791344
138	0xbd50fd6a	-0.051022924
139	0xbdda1d36	-0.10650103
140	0x3e90e37c	0.28298557
141	0xbd954b9d	-0.07289813
142	0xbd5ed60b	-0.054403346
143	0x3b2d61ec	0.002645607
144	0xbdc4aa63	-0.09602811
145	0x3c866623	0.016406124
146	0x3e07523b	0.13214962
147	0xbdcdecb5	-0.10054914
148	0xbd82b14e	-0.063814744
149	0xbbd0c0fb	-0.0063706613
150	0xbd20c5db	-0.03925119
151	0xbd893d59	-0.06701154
152	0x3c48547d	0.012227175
153	0x3d8f4ae2	0.06996705
154	0xbd5c196b	-0.053735178
155	0xbcb35015	-0.021888772
156	0x3f04ec67	0.5192322
157	0xbdac92c6	-0.08426432
158	0xbd041b9f	-0.032252904
159	0xbe33fc5c	-0.17576736
160	0x3c2a3bfa	0.010390276
161	0x3c38a797	0.011270425
162	0x3cdeeb92	0.027211938
163	0xbdfb7080	-0.12277317
164	0x3e06be13	0.13158445
165	0x3d2d1baa	0.04226271
166	0xbc3e323b	-0.011608656
167	0xbe5cd5b1	-0.21565892
168	0x3e31a55c	0.17348236
169	0x3e1e252c	0.15443867
170	0xbc1a45de	-0.009416072
171	0xbe3482fd	-0.17628093
172	0x3e208920	0.15677309
173	0xbc1995df	-0.009374111
174	0xbe5f1ad6	-0.21787581
175	0x3c9b50c1	0.018959405
176	0xbe3d59a7	-0.18491231
177	0xbca456a8	-0.020060852
178	0x3e5e199f	0.21689461
179	0xbd885253	-0.06656327
180	0x3e83eb10	0.25765276
181	0xbd0d3276	-0.03447195
182	0xbe865225	-0.26234546
183	0xbe2c04af	-0.16798662
184	0x3d634fef	0.055496152
185	0x3d8cb84c	0.06871089
186	0x3d925fbe	0.071471676
187	0xbe05e987	-0.13077365
188	0xbc9bc239	-0.019013511
189	0x3bc91457	0.006136458
190	0xbe6ed335	-0.23322757
191	0xbd5ad6fc	-0.05342768

actor.2.bias f4 [3]
0	0x3cf86af7	0.030324442
1	0xbd6c80af	-0.05773991
2	0x3d356b14	0.04429157

critic.0.weight f4 [64, 64]
0	0x3db2e9fc	0.08736035
1	0xbd9e1557	-0.07718914
2	0xbd096b08	-0.03354934
3	0xbe3daeed	-0.1852376
4	0xbd42ecfa	-0.04758928
5	0xbec44568	-0.38334203
6	0xbc016a49	-0.0078988755
7	0xbd0c0966	-0.03418865
8	0xbd660b46	-0.056163095
9	0xbe2364b2	-0.15956381
10	0xbd9bb28f	-0.07602417
11	0x3cbab723	0.022792405
12	0xbe5ae0c6	-0.21374807
13	0xbd7c0d3f	-0.06153607
14	0xba97b61e	-0.0011574661
15	0x3c78a66e	0.015176399
16	0xbe0afb13	-0.1357234
17	0xbe05b016	-0.13055453
18	0xbe9510e7	-0.29114458
19	0xbd3b738f	-0.045764502
20	0x3c222182	0.009895684
21	0xbe57224b	-0.21009175
22	0xbed35acd	-0.41280213
23	0xbe39096f	-0.18070005
24	0xbd912348	-0.070868075
25	0x3bb9b4c5	0.0056673014
26	0xbdb78db9	-0.08962578
27	0x3df7f0e7	0.12106495
28	0xbd6ac44e	-0.057316117
29	0x3cb5679a	0.022144128
30	0xbe82c725	-0.2554256
31	0xbdc9653a	-0.098337606
32	0x3c9f3ec8	0.019439116
33	0x3cf50d25	0.029913494
34	0xbe304655	-0.1721433
35	0xbd775842	-0.060386904
36	0xbddce08a	-0.10785015
37	0xbda819ec	-0.08208069
38	0x3e80623d	0.2507495
39	0x3deac61d	0.11463568
40	0xbd2f8a76	-0.042856656
41	0xbdcf531a	-0.10123272
42	0x3db1140b	0.08646401
43	0x3ddce84c	0.107864946
44	0xbe70fb93	-0.23533468
45	0xbef2e770	-0.47442198
46	0x3e196122	0.1497846
47	0xbe2379b8	-0.15964401
48	0xbdf1534b	-0.11783465
49	0xbdaee4fb	-0.08539768
50	0xbbb28b61	-0.005448744
51	0xbdf3e3cf	-0.119086854
52	0x3e66368c	0.22481745
53	0xbe03c5d1	-0.1286843
54	0x3d99ee4e	0.07516156
55	0xbdbcc253	-0.09216752
56	0x3e027cfc	0.1274299
57	0xbe8c5f17	-0.27416298
58	0xbe5edb51	-0.2176335
59	0xbcc5e472	-0.024156783
60	0xbdfa8201	-0.122318275
61	0x3c9c2586	0.019060861
62	0xbe4a48c8	-0.19754326
63	0x3d5afda6	0.053464554
64	0x3cb1b25c	0.021691494
65	0x3d8f7e09	0.07006461
66	0x3e5b3a6d	0.21409006
67	0xba273d15	-0.00063796464
68	0x3d04233b	0.03226016
69	0xbe129521	-0.143147
70	0xbd94e20a	-0.07269676
71	0xbd2ecb70	-0.042674482
72	0xbe42931d	-0.19001432
73	0xbe38f68c	-0.180628
74	0xbe1378f9	-0.14401616
75	0xbe277f10	-0.16357064
76	0xbe969a5b	-0.2941464
77	0x3d01679b	0.031592946
78	0xba66a7ff	-0.0008798837
79	0x3d5b2547	0.053502347
80	0x3e7d208e	0.2471945
81	0x3d165213	0.036699366
82	0x3e333bd5	0.17503293
83	0x3a1185c4	0.00055512437
84	0xbe3cac84	-0.18425184
85	0x3d9516e2	0.07279755
86	0xbdf56a49	-0.11983163
87	0xbdc67dda	-0.09691973
88	0x3dcd68cf	0.10029756
89	0x3d833e57	0.06408375
90	0x3e2d785a	0.16940442
91	0x3e4adf40	0.19811726
92	0x3e06ceec	0.13164872
93	0x3c808279	0.015687214
94	0xbdbb9a1f	-0.09160256
95	0xbdfbbe38	-0.12292141
96	0xbe164f6c	-0.14678735
97	0x3da691ff	0.08133315
98	0x3c0233a7	0.007946885
99	0xbe64dc33	-0.22349624
100	0xbe184ffa	-0.14874259
101	0x3d60522a	0.054765858
102	0xbe10c4ad	-0.14137526
103	0x3e2b3fe5	0.16723593
104	0xbd7952d1	-0.060869996
105	0xbe7fb3a6	-0.24970874
106	0xbe5637f0	-0.20919776
107	0x3d8afd16	0.067865536
108	0xbcc119b8	-0.023571834
109	0xbe3eafc2	-0.18621734
110	0x3c179a3e	0.009253083
111	0x3e31a39e	0.17347571
112	0x3cbe2df9	0.02321528
113	0x3d151e97	0.036406126
114	0xbd44098b	-0.047860663
115	0xbd40a3c4	-0.04703118
116	0xbd4a16f7	-0.049338307
117	0x3dbefea7	0.09325915
118	0xbd8a5017	-0.06753557
119	0xbceab428	-0.028650358
120	0x3e05ba49	0.13059343
121	0xbd802044	-0.06256154
122	0xbd8ffebc	-0.070310086
123	0x3cc69444	0.02424062
124	0xbd95dcad	-0.07317481
125	0xbe809869	-0.2511628
126	0xbe18e9fb	-0.14933006
127	0x3c2ba00a	0.010475168
128	0x3be3acd5	0.0069480934
129	0xbcbc4e74	-0.022986628
130	0x3d991be3	0.07476022
131	0x3e5ac629	0.21364655
132	0x3c7ca295	0.015419622
133	0x3db01755	0.085982
134	0x3e2ecb61	0.1706977
135	0x3e1fe84f	0.15615962
136	0x3e5bc682	0.21462443
137	0xbc8dbedd	-0.017302925
138	0x3e81bd72	0.25339848
139	0x3d448bce	0.04798489
140	0x3de78ac9	0.11305768
141	0x3e7ce29c	0.2469582
142	0xbd86eb25	-0.06587819
143	0x3e0ecbd8	0.13944948
144	0x3ce7cea9	0.028296785
145	0x3e6f651b	0.23378412
146	0x3e819438	0.25308394
147	0x3e1427e2	0.14468339
148	0xbdafc198	-0.08581847
149	0xbd5be2eb	-0.053683203
150	0x3cba3725	0.022731373
151	0x3d21a623	0.03946508
152	0x3e506bd0	0.20353627
153	0x3e22c4d2	0.15895393
154	0xbe14365d	-0.14473863
155	0xbd722fba	-0.059127547
156	0x3e04ba38	0.12961662
157	0x3e8c62c5	0.27419105
158	0xbc2b33da	-0.010449374
159	0xbc11e0cf	-0.008903696
160	0x3c926c6d	0.017873967
161	0xbeb7acc1	-0.35873988
162	0xbd42149f	-0.047382947
163	0xbc916008	-0.017745987
164	0x3d722b1a	0.059123136
165	0xbda7a6fd	-0.08186147
166	0xbde4c8b2	-0.11171092
167	0x3d5e0bed	0.054210592
168	0x3d059032	0.03260822
169	0xbe6e9645	-0.23299511
170	0x3df1a41a	0.11798878
171	0xbd153a95	-0.03643282
172	0xbd8e3d64	-0.06945303
173	0xbe5c8b88	-0.21537602
174	0xbcaed9a2	-0.02134401
175	0x3e4faea4	0.20281464
176	0x3ea7e34d	0.32790604
177	0x3d90788c	0.070542425
178	0xbd5d66aa	-0.054052986
179	0xbd7f3f35	-0.06231614
180	0x3e0872b5	0.13325007
181	0xbe60a4b5	-0.21937831
182	0xbe4cd4f4	-0.2000311
183	0xbe6dcb3b	-0.23222058
184	0xbe8ec8a4	-0.27887452
185	0xbde6bead	-0.11266837
186	0x3e714c40	0.23564243
187	0xbcaa5767	-0.02079363
188	0xbeaa80c5	-0.33301368
189	0xbdd7478d	-0.10511694
190	0x3dfded11	0.123987325
191	0xbdc64474	-0.09681025
192	0x3de137e2	0.10996987
193	0x3e19b15b	0.15009062
194	0xbe18d108	-0.14923489
195	0x3da35d46	0.07976775
196	0x3b8e8193	0.0043489425
197	0xbd24a719	-0.04019842
198	0xbd9f1ffd	-0.07769773
199	0xbd855451	-0.06510223
200	0x3d07f2b9	0.033190463
201	0x3bc77899	0.0060873744
202	0x3d16e012	0.036834784
203	0x3e17d46b	0.14827125
204	0xbe7d41e1	-0.24732162
205	0xbdc0856d	-0.09400449
206	0x3d90d8d3	0.07072606
207	0xbe05bf98	-0.13061368
208	0x3df2c4f4	0.11853972
209	0x3dc90770	0.09815872
210	0xbdfc6d97	-0.1232559
211	0xbcce564e	-0.025187638
212	0x3bfe38a5	0.0077582174
213	0x3e003fd5	0.1252435
214	0xbd3d0e44	-0.046156183
215	0x3d6c0f7c	0.057631955
216	0x3dafdea4	0.08587387
217	0x3e26b0dd	0.16278405
218	0xbdba9e1c	-0.09112188
219	0xbe1940d5	-0.14966138
220	0xbddb2222	-0.1069987
221	0xbe7a7b73	-0.24461155
222	0xbd54e156	-0.05197271
223	0x3c922b13	0.017842805
224	0x3ca762d6	0.02043287
225	0x3e25e566	0.1620079
226	0x3da971dc	0.0827367
227	0xbd8dd9bd	-0.06926296
228	0x3e5f5035	0.2180794
229	0x3dc244a9	0.09485752
230	0x3e112ed4	0.1417802
231	0x3d8268fc	0.063676804
232	0xbc98f70f	-0.018672494
233	0x3d39f679	0.04540107
234	0xbea5644e	-0.3230309
235	0x3d9b2600	0.07575607
236	0x3d91188c	0.0708476
237	0x3e2dfd73	0.16991214
238	0xbd0cd026	-0.034378193
239	0x3dba501a	0.090973094
240	0x3d37492e	0.044747524
241	0x3c52d3a7	0.012867845
242	0x3c86cccb	0.016455075
243	0xbc7cc5f5	-0.015428056
244	0x3dd6f949	0.10496766
245	0x3e2559a5	0.16147478
246	0xbd91253d	-0.07087181
247	0xbc855df8	-0.01628016
248	0x3e35abe8	0.17741358
249	0xbd18dd08	-0.037320167
250	0xbda23144	-0.07919553
251	0x3ca500d0	0.020141989
252	0xbdbb0113	-0.09131064
253	0xbd04a6c8	-0.032385617
254	0xbd83016c	-0.063967556
255	0x3d8b9978	0.06816381

critic.0.bias f4 [64]
0	0x3dc14784	0.09437469
1	0xbd0ed820	-0.03487408
2	0xbd857398	-0.065161884
3	0xbd152bbd	-0.036418665
4	0xbce66ef5	-0.02812908
5	0x3d233b53	0.039851498
6	0xbd2cf938	-0.04222986
7	0xbcad3d20	-0.02114731
8	0x3daf7a22	0.08568217
9	0xbc726dbd	-0.014796671
10	0xbcce9df8	-0.02522181
11	0xbd294d38	-0.041333407
12	0xb9857036	-0.0002545134
13	0xbe91b937	-0.2846162
14	0xbdbbf5e9	-0.09177763
15	0xbc61ad2a	-0.013774196
16	0xbd492f01	-0.049117092
17	0x3b434986	0.0029798462
18	0x3d1630ec	0.03666775
19	0xbd6d4684	-0.057928577
20	0x3cc4392b	0.023953041
21	0xbcfc132b	-0.030770859
22	0xbd54410c	-0.051819846
23	0xbc2495c5	-0.010045473
24	0xbd32489a	-0.04352627
25	0x3c543270	0.012951478
26	0x3e8f5e57	0.28001663
27	0x3e00b9a7	0.12570821
28	0xbdd605e8	-0.10450345
29	0xbb80160e	-0.003908879
30	0xbd54308e	-0.051804118
31	0x3d765545	0.060139913
32	0x3c9ec5b1	0.019381376
33	0xbd1961da	-0.037446834
34	0xbcdba9f2	-0.026814435
35	0x3dcb88ab	0.09938177
36	0x3cc18a6e	0.023625579
37	0xbe7545af	-0.23952363
38	0x3d81e48c	0.0634242
39	0xbb87c0dc	-0.0041428637
40	0xba93220c	-0.0011225357
41	0x3d562ed3	0.05229075
42	0x3cd54507	0.026033891
43	0xbc865f8c	-0.016402982
44	0x3e68312b	0.22675006
45	0xbd7d8d14	-0.06190212
46	0xbc00af19	-0.007854247
47	0x3c15734e	0.009121729
48	0xbe2082c2	-0.1567488
49	0x3bb4002f	0.005493186
50	0x3e0a11c0	0.13483334
51	0xbd4993dd	-0.04921328
52	0x3c989ed6	0.018630426
53	0xbdd7f730	-0.10545194
54	0xbd3ca512	-0.04605586
55	0xbd6872b4	-0.056750014
56	0x3ccbd68b	0.024882575
57	0x3d6e441b	0.05817042
58	0x3ce6f9ca	0.02819528
59	0x3da7d215	0.08194367
60	0x3dab41d4	0.08362165
61	0x3d472840	0.04862237
62	0x3b734420	0.0037119463
63	0x3d7879dd	0.060663093

critic.2.weight f4 [1, 64]
0	0xbbe5163a	-0.006991175
1	0xbc734c80	-0.014849782
2	0xbb5ca9b0	-0.0033670478
3	0xbb83be3f	-0.004020482
4	0xbc16fc35	-0.009215404
5	0xbc45787a	-0.01205265
6	0xbc5a035e	-0.013306467
7	0xbc0ff531	-0.0087864855
8	0xbc2d5026	-0.010578191
9	0x3c6aeddf	0.014338939
10	0xba6ebaa8	-0.00091067934
11	0x3ad802ac	0.0016480288
12	0xbbc27ba5	-0.0059351497
13	0xbe72e949	-0.23721804
14	0xbc80a6d0	-0.015704542
15	0xbc389038	-0.011264853
16	0xba5c20be	-0.0008397213
17	0xbb17d249	-0.0023166111
18	0xbac15d0a	-0.0014752459
19	0xbb8e1950	-0.0043365136
20	0x3a99e584	0.0011741375
21	0xbc84a7b3	-0.016193246
22	0xbc516304	-0.012779955
23	0x3b9aaede	0.004720553
24	0xbc2b2546	-0.010445898
25	0xbaae7725	-0.0013310654
26	0x3e6f8e59	0.23394145
27	0xbc90a4c3	-0.01765669
28	0xbc9018ac	-0.01758989
29	0xbc1eafb9	-0.00968545
30	0x3c42f9f6	0.011900416
31	0x3ca6bb2e	0.020352926
32	0x3bd75cae	0.0065723276
33	0xbbd2c73f	-0.0064324434
34	0x3a333ee2	0.00068376784
35	0x3c73fc5e	0.014891712
36	0x3abead45	0.0014547488
37	0xbdd651b8	-0.10464805
38	0x3bb09c2c	0.005389711
39	0x3b213074	0.002459553
40	0xbc81c9b5	-0.015843252
41	0xb873e5e4	-5.8149817e-05
42	0xbbb6b2d4	-0.005575517
43	0xbaebca22	-0.0017989317
44	0x3e1a08af	0.15042375
45	0xbc04b688	-0.0081001595
46	0xbb8b6940	-0.00425449
47	0xbb954277	-0.0045550424
48	0xbc8813da	-0.016611028
49	0x3c61eaa5	0.013788854
50	0x3c91a006	0.0177765
51	0xbc1d1e96	-0.009589812
52	0x3c2c81a5	0.010528957
53	0x3b68395e	0.0035434584
54	0xbca189d7	-0.019719047
55	0xbb7ea6b5	-0.003885669
56	0x3bccb1cf	0.0062467824
57	0x3b67c311	0.0035364071
58	0x3c37e221	0.011223347
59	0x3c85e17d	0.016342873
60	0x3b0f0d08	0.0021827836
61	0x3ab060fc	0.0013456638
62	0xbb244bcb	-0.002506959
63	0x3c6eca54	0.014574606

exp_avg f4 [16, 3, 2, 2]
0	0x00000004	6e-45
1	0x00000004	6e-45
2	0x80000004	-6e-45
3	0x364f023c	3.0846704e-06
4	0x00000004	6e-45
5	0x00000004	6e-45
6	0x80000004	-6e-45
7	0x3701616b	7.711681e-06
8	0x00000000	0.0
9	0x00000000	0.0
10	0x00000000	0.0
11	0x00000000	0.0
12	0x36f1dcd2	7.2080666e-06
13	0x367d8fce	3.7783643e-06
14	0x36abc785	5.1194243e-06
15	0x388cc3c4	6.7121844e-05
16	0xb7b579b0	-2.1633547e-05
17	0xb7d2abb7	-2.5113912e-05
18	0xb7893009	-1.635404e-05
19	0x370cc3c4	8.3902305e-06
20	0x00000000	0.0
21	0x00000000	0.0
22	0x00000000	0.0
23	0x00000000	0.0
24	0x00000004	6e-45
25	0x00000004	6e-45
26	0x361d7f7f	2.3469036e-06
27	0x00000004	6e-45
28	0x00000004	6e-45
29	0x00000004	6e-45
30	0x36c4df5f	5.867259e-06
31	0x00000004	6e-45
32	0x00000000	0.0
33	0x00000000	0.0
34	0x00000000	0.0
35	0x00000000	0.0
36	0x39019746	0.00012358752
37	0x38410888	4.602273e-05
38	0xb994ea8e	-0.00028403517
39	0xb8b9d266	-8.860677e-05
40	0x387a5a80	5.968893e-05
41	0x3a3e51a5	0.0007260091
42	0xba90589b	-0.0011012735
43	0xb9551bc9	-0.00020323614
44	0x00000000	0.0
45	0x00000000	0.0
46	0x00000000	0.0
47	0x00000000	0.0
48	0x35b83930	1.3725712e-06
49	0x362f3f6f	2.6113955e-06
50	0x36122ab2	2.1780547e-06
51	0x379c0924	1.8600906e-05
52	0xb6872355	-4.0274267e-06
53	0x80000004	-6e-45
54	0x243df322	4.1188784e-17
55	0x36abc5c2	5.119219e-06
56	0x00000000	0.0
57	0x00000000	0.0
58	0x00000000	0.0
59	0x00000000	0.0
60	0x36488030	2.9876937e-06
61	0x3683a06b	3.9227793e-06
62	0x381fb137	3.80736e-05
63	0x3683a06f	3.922781e-06
64	0x00000004	6e-45
65	0x2b4c0cbf	7.249305e-13
66	0x37b86b14	2.1984371e-05
67	0x2a252e4d	1.4671008e-13
68	0x00000000	0.0
69	0x00000000	0.0
70	0x00000000	0.0
71	0x00000000	0.0
72	0xb883f2a4	-6.291762e-05
73	0xb9d38a48	-0.00040348084
74	0xb85bbe4b	-5.2390893e-05
75	0xb892455f	-6.974744e-05
76	0x361fa529	2.3788982e-06
77	0x394d4856	0.0001957727
78	0x37f2195f	2.8860462e-05
79	0x34b0dcbe	3.2943166e-07
80	0x00000000	0.0
81	0x00000000	0.0
82	0x00000000	0.0
83	0x00000000	0.0
84	0xb9450219	-0.00018788165
85	0xb6c9f724	-6.0190378e-06
86	0xb8e6b0a8	-0.000110001594
87	0x37fcfd33	3.0158646e-05
88	0xb929b7b8	-0.00016185537
89	0x067f281b	4.7989634e-35
90	0xb98ac64c	-0.00026469154
91	0xb8f52381	-0.000116891235
92	0x00000000	0.0
93	0x00000000	0.0
94	0x00000000	0.0
95	0x00000000	0.0
96	0xb907a022	-0.00012934257
97	0x3a0302e6	0.00049976853
98	0x3a4be6da	0.0007778235
99	0x3a827cb2	0.0009955375
100	0xba50c161	-0.0007963386
101	0x3a65aefe	0.00087617326
102	0x3afee08a	0.001944558
103	0x3b231bdb	0.002488843
104	0x00000000	0.0
105	0x00000000	0.0
106	0x00000000	0.0
107	0x00000000	0.0
108	0x38ad5184	8.264466e-05
109	0x389af6a6	7.389234e-05
110	0x384b5eea	4.8487367e-05
111	0x38a78938	7.9887395e-05
112	0x39273a5c	0.00015948102
113	0x39144e95	0.00014143654
114	0xb79477d1	-1.7698769e-05
115	0x36a558a4	4.9277023e-06
116	0x00000000	0.0
117	0x00000000	0.0
118	0x00000000	0.0
119	0x00000000	0.0
120	0xb946ca70	-0.00018958165
121	0xb7c3d6b7	-2.3345796e-05
122	0xb7dbae84	-2.61881e-05
123	0xb80d2eb5	-3.366052e-05
124	0xb7c45de6	-2.3408746e-05
125	0xae502c3d	-4.7333016e-11
126	0xb48565cd	-2.484725e-07
127	0xb7d95d89	-2.5911972e-05
128	0x00000000	0.0
129	0x00000000	0.0
130	0x00000000	0.0
131	0x00000000	0.0
132	0xb7aeaccc	-2.0822881e-05
133	0xb9360339	-0.00017358073
134	0x00000004	6e-45
135	0x00000004	6e-45
136	0xb85a5802	-5.2057214e-05
137	0xb9e38403	-0.0004339517
138	0x80000004	-6e-45
139	0x00000004	6e-45
140	0x00000000	0.0
141	0x00000000	0.0
142	0x00000000	0.0
143	0x00000000	0.0
144	0x3a1deb4b	0.0006024136
145	0x3a429435	0.0007422597
146	0x3a19336c	0.0005844149
147	0x39c8ac6d	0.0003827544
148	0x3ae8f9ff	0.00177747
149	0x3aeaa4cc	0.0017901896
150	0x38171cb7	3.602795e-05
151	0x00000004	6e-45
152	0x00000000	0.0
153	0x00000000	0.0
154	0x00000000	0.0
155	0x00000000	0.0
156	0x39109d32	0.0001379147
157	0xb925b3bf	-0.00015802587
158	0x39ac8eb8	0.0003291273
159	0x397e03af	0.000242247
160	0xb8d86a9e	-0.000103195416
161	0xb8aa0bc8	-8.108426e-05
162	0xb80ead6b	-3.4016946e-05
163	0x2c12834a	2.0820728e-12
164	0x00000000	0.0
165	0x00000000	0.0
166	0x00000000	0.0
167	0x00000000	0.0
168	0x3670f05a	3.590269e-06
169	0xb86dadc2	-5.6667028e-05
170	0x372215ca	9.661026e-06
171	0x383a4b0b	4.4415745e-05
172	0x379b998d	1.8548943e-05
173	0xb76733a1	-1.3780694e-05
174	0x380d74dc	3.3725853e-05
175	0x36d6b397	6.398604e-06
176	0x00000000	0.0
177	0x00000000	0.0
178	0x00000000	0.0
179	0x00000000	0.0
180	0xba54aa7c	-0.00081125624
181	0xb9e6fae0	-0.00044055935
182	0xbac7c776	-0.0015241939
183	0xba73fb1c	-0.00093071326
184	0xbb060da7	-0.0020454915
185	0xb80b06ff	-3.3146698e-05
186	0xbb75c711	-0.0037502686
187	0xbae5b9fd	-0.0017526742
188	0x00000000	0.0
189	0x00000000	0.0
190	0x00000000	0.0
191	0x00000000	0.0
