storage/MiniGrid-ThrowLeftoversNavigation-8x8-N2-v0_22-07-20-17-07-52/status.pt (torch, 255933 bytes, 39 tensors)

image_conv.0.weight f4 [16, 3, 2, 2]
0.09914701 -0.033108063 0.11283966 0.027047412 0.16229138 0.10545379 0.0075716227 -0.19383278
0.0659087 -0.25557697 0.037939996 0.019184738 -0.026040824 0.27090508 0.054237828 0.1561123
0.1607955 -0.12877989 -0.074283 0.31814393 -0.28275076 -0.019606322 -0.022877425 0.20475999
-0.023313722 0.081053756 -0.008240833 -0.16547483 -0.17242335 -0.13299476 -0.27119938 -0.18734504
0.06793937 0.1899904 0.014220804 -0.13232572 0.15417016 -0.07082503 -0.028146185 -0.119643696
-0.04272496 -0.26146457 0.17142856 0.1483763 0.057340562 0.14173406 0.12234971 0.012771875
0.067592986 0.058850184 0.19024244 0.22421056 0.24688551 0.20162876 -0.029942963 0.019973392
-0.058665246 0.16793153 0.03205973 0.2671795 0.17934594 -0.21051627 0.11868031 0.31045997
0.2928802 0.02693661 0.13583909 -0.23754354 -0.0920299 0.14076933 -0.26297235 0.2514947
-0.15504919 0.1189167 0.025342718 0.07334726 0.030232638 -0.25353447 -0.055740606 -0.17803438
0.24541837 -0.035434753 -0.28743893 0.069916815 0.14821737 -0.09651188 -0.01699198 0.13678777
-0.16285655 -0.15211944 -0.016235868 -0.19942023 0.17741925 0.023611069 0.17271557 0.15454388
-0.22247083 -0.17992955 -0.19744864 -0.10567608 -0.10548894 -0.046514377 -0.27926448 0.1090108
0.16376731 0.091490716 0.18344066 0.21686155 -0.29590636 0.056640957 0.25919077 -0.2091233
-0.14322467 0.0007458855 -0.19404487 -0.05357293 -0.042657703 0.2572012 -0.018151551 0.15654042
0.23023213 0.14381652 -0.23310694 0.23671457 0.21528971 -0.18334152 -0.07547028 0.22304602
-0.28062254 -0.25301397 -0.19565198 0.08995092 -0.08628055 -0.2166798 0.14169458 0.17793234
0.1510235 -0.22171779 0.32132065 0.014838596 -0.27475384 -0.043457493 0.1885494 0.1329433
0.012011891 0.23374233 -0.23042522 0.22585315 0.31415775 -0.17943217 0.09291074 -0.055311028
-0.24369663 -0.0025307536 -0.09674166 -0.24657029 -0.18139976 0.044254683 0.30057064 0.14153168
-0.15325172 0.24501443 0.06578691 -0.2319585 0.013693392 0.18531257 -0.16974247 -0.013282388
-0.11077704 -0.19375485 -0.15657243 0.057495136 0.21973845 -0.02056551 -0.22050889 0.03452518
-0.25106835 0.016957343 0.2140302 0.123202085 -0.14791077 -0.03180977 0.13080756 0.107837126
-0.263251 -0.18727739 -0.074859574 0.13878621 0.25793207 0.12863758 0.10904983 -0.2449583
00000000: 960d cb3d 529c 07bd 7b18 e73d 8992 dd3c
00000010: b62f 263e 28f8 d73d 601b f83b 1a7c 46be
00000020: 24fb 863d fcda 82be f866 1b3d 5029 9d3c
00000030: 9153 d5bc 12b4 8a3e 7c28 5e3d e7db 1f3e
00000040: 93a7 243e e0de 03be af21 98bd c3e3 a23e
00000050: b5c4 90be 709d a0bc 7069 bbbc 9aac 513e
00000060: 6bfc bebc 83ff a53d 8f04 07bc 3c72 29be
00000070: bf8f 30be c72f 08be a5da 8abe 61d7 3fbe
00000080: cc23 8b3d d88c 423e 60fe 683c 6580 07be
00000090: c8de 1d3e b70c 91bd d492 e6bc c107 f5bd
000000a0: 5e00 2fbd afde 85be f88a 2f3e f5ef 173e
000000b0: f0dd 6a3d bc22 113e 7c92 fa3d 2041 513c
000000c0: 316e 8a3d e40c 713d eace 423e 7497 653e
000000d0: 8ecf 7c3e c577 4e3e f24a f5bc 3d9f a33c
000000e0: f84a 70bd 3ef6 2b3e 1051 033d c0cb 883e
000000f0: 76a6 373e 9491 57be aa0e f33d 9cf4 9e3e
00000100: 65f4 953e 2aaa dc3c 6719 0b3e 9d3e 73be
00000110: 2c7a bcbd d625 103e 50a4 86be eac3 803e
00000120: 37c5 1ebe 998a f33d 889b cf3c 1737 963d
00000130: 70aa f73c 45cf 81be 4350 64bd a54e 36be
00000140: f44e 7b3e 0824 11bd 322b 93be 8c30 8f3d
00000150: 4bc6 173e 05a8 c5bd c432 8bbc 1812 0c3e
00000160: dec3 26be 33c5 1bbe 1501 85bc d134 4cbe
00000170: 64ad 353e 006c c13c 5adc 303e c040 1e3e
00000180: 65cf 63be 743f 38be fa2f 4abe b36c d8bd
00000190: 960a d8bd dc85 3ebd c1fb 8ebe 0e41 df3d
000001a0: 9eb2 273e 7c5f bb3d ded7 3b3e f410 5e3e
000001b0: 0a81 97be 5900 683d a7b4 843e 6b24 56be
000001c0: 7da9 12be 8787 433a b3b3 46be 4a6f 5bbd
000001d0: d8b9 2ebd e0af 833e 90b2 94bc 224c 203e
000001e0: f9c1 6b3e a344 133e 96b3 6ebe 4e65 723e
000001f0: e874 5c3e e1bd 3bbe 2a90 9abd 2d66 643e
00000200: c2ad 8fbe 0c8b 81be fe58 48be 3038 b83d
00000210: dbb3 b0bd 4fe1 5dbe 6218 113e e533 363e
00000220: e8a5 1a3e fd09 63be 2484 a43e 951d 733c
00000230: 89ac 8cbe 7c00 32bd 1813 413e 4a22 083e
00000240: 86cd 443c 265a 6f3e 97f4 6bbe 0c46 673e
00000250: 49d9 a03e 11bd 37be fc47 be3d d18d 62bd
00000260: 9c8b 79be 00db 25bb 7e20 c6bd ec7c 7cbe
00000270: dcc0 39be 6644 353d 65e4 993e aeed 103e
00000280: 05ee 1cbe 10e5 7a3e 4abb 863d 8786 6dbe
00000290: 405a 603c 94c2 3d3e f8d0 2dbe 609e 59bc
000002a0: 13df e2bd ac67 46be 8654 20be 0580 6b3d
000002b0: 1e03 613e 0079 a8bc 15cd 61be 466a 0d3d
000002c0: 088c 80be 20ea 8a3c bc2a 5b3e 6051 fc3d
000002d0: ec75 17be f64a 02bd 6bf2 053e b6d9 dc3d
000002e0: d6c8 86be a5c5 3fbe fa4f 99bd f91d 0e3e
000002f0: ac0f 843e 92b9 033e 8455 df3d 59d6 7abe

image_conv.0.bias f4 [16]
0.23039944 0.14640969 -0.08806203 -0.098539814 0.12546557 -0.1178365 0.15275545 0.27042043
-0.20336978 -0.17933646 -0.098766625 -0.20575228 -0.015785044 0.22876403 0.15108322 -0.066278115
00000000: d5ed 6b3e 6cec 153e de59 b4bd 3ecf c9bd
00000010: 0c7a 003e 4354 f1bd ed6b 1c3e 8c74 8a3e
00000020: 2b40 50be faa3 37be 2846 cabd bab0 52be
00000030: a34f 81bc 1e41 6a3e 8fb5 1a3e d2bc 87bd

image_conv.3.weight f4 [32, 16, 2, 2]
0.02645942 -0.0056086443 -0.06252526 0.007550243 0.04721793 -0.021418963 -0.055728737 0.07409875
0.029131792 -0.0059615136 0.037917055 0.138365 0.03540974 -0.047877107 0.14469682 0.12788229
0.028264279 -0.011493563 -0.015330103 0.14880553 0.101677336 -0.018146412 0.03943534 0.06689354
0.07317272 0.03800843 -0.024428375 0.029015405 0.0021678866 0.00028539007 -0.021959404 -0.026027542
-0.04423049 0.08046622 -0.08220195 -0.09663492 0.12304003 0.07056412 0.07593916 0.081974536
-0.011792985 -0.037405625 -0.049508464 0.028193023 0.063690335 -0.074232884 -0.06150831 0.11055251
0.051655635 0.12517351 0.14559117 0.11342082 0.012971656 -0.011597542 0.07321842 0.13890465
-0.07659753 0.07979808 -0.056599535 -0.06544155 0.078005284 0.10060258 0.07503882 0.07035437
0.006731586 0.044227045 -0.07011871 -0.040119365 0.035585534 0.00020945964 0.003259212 0.098455004
0.05109151 -0.007792233 -0.049330596 -0.06305315 0.09957603 -0.06786204 0.06433572 0.023127284
0.14429069 -0.0434095 -0.05015397 0.043063127 0.03891737 -0.029802652 0.14919019 -0.08728245
0.09499258 0.09630507 -0.0049834037 0.08210015 0.010417665 -0.059418518 0.10823694 -0.0012063545
-0.020882279 0.13381903 0.10126019 -0.07282782 -0.013223101 0.08184458 0.09667538 -0.06664773
-0.060870886 0.07502064 -0.07368273 0.11508837 -0.060279254 -0.040741228 0.07176457 0.09199464
-0.018332792 -0.054969676 0.06271471 0.061296772 0.077764645 -0.07510872 -0.0032787432 -0.011957885
0.031070968 0.14787932 -0.06392936 0.033009447 0.06536664 0.08972063 -0.1160765 0.03263291
0.12540898 -0.043956514 0.105815396 0.017659442 0.14028305 -0.069194786 0.04888766 0.12472475
0.10539159 -0.036419366 -0.08478675 0.025370533 -0.036350433 0.11584892 -0.04464273 0.04559795
-0.08203473 0.036589753 0.13779534 0.101057075 0.07597395 -0.0371478 0.13035832 -0.028794775
0.15059642 -0.069893934 -0.027015846 -0.006499607 0.052445557 0.101072736 0.05560418 -0.016739154
-0.07621355 -0.014847404 -0.04013038 -0.0510908 0.09041686 0.043529328 -0.05256044 0.080378406
-0.059143793 -0.036368385 0.010749759 0.11307453 0.087629914 -0.047221676 -0.062723555 0.0732171
0.0137073435 0.049151707 0.026195947 -0.05641925 -6.8414425e-05 -0.005274936 0.0076635154 0.11097734
-0.08104344 0.049907215 0.15962309 -0.07361354 0.067999385 0.15237561 0.09375074 0.09110105
-0.0331952 0.10718101 0.01998146 0.16789053 -0.07887928 0.09509295 -0.04777759 -0.07579811
0.10007048 0.018679777 -0.05372605 -0.14406101 -0.022266675 0.026420942 -0.018402977 0.008037817
0.040012613 0.12200157 -0.101548985 -0.006096337 0.09778936 -0.091207415 0.08984023 0.022292051
0.0698324 -0.05240177 0.096341096 0.042076625 0.002655602 0.13629533 -0.09020373 0.13241947
0.10769406 -0.0049124053 -0.0073091723 0.12770301 0.0420176 -0.122956656 -0.116911836 -0.13097432
-0.037746206 0.006275332 0.0396695 0.11022488 -0.11734881 0.098635904 0.033360712 0.081415854
-0.11551374 -0.053932644 -0.027130727 0.10187844 -0.03060848 -0.0052639972 0.023242507 0.03956637
0.026319223 0.044379517 -0.022511614 0.14630258 0.0048417267 0.07327023 -0.114587285 -0.032691184
00000000: 6dc1 d83c b8c8 b7bb 3e0d 80bd 0768 f73b
00000010: 9767 413d d276 afbc d143 64bd 16c1 973d
00000020: cca5 ee3c cd58 c3bb ea4e 1b3d 8eaf 0d3e
00000030: ce09 113d c91a 44bd 672b 143e 93f3 023e
00000040: 7d8a e73c 7f4f 3cbc 1d2b 7bbc 7a60 183e
00000050: 353c d03d c9a7 94bc f386 213d 7bff 883d
00000060: 94db 953d baae 1b3d 041e c8bc b7b1 ed3c
00000070: 1a13 0e3b 68a0 9539 35e4 b3bc b637 d5bc
00000080: 082b 35bd 79cb a43d 7f59 a8bd 87e8 c5bd
00000090: 69fc fb3d ec83 903d fe85 9b3d 44e2 a73d
000000a0: 5d37 41bc a436 19bd 63c9 4abd 0ef5 e63c
000000b0: 1470 823d 6907 98bd 23f0 7bbd 5b69 e23d
000000c0: dc94 533d 7c2d 003e da15 153e 2d49 e83d
000000d0: 1287 543c 9e03 3ebc 8af3 953d 053d 0e3e
000000e0: 2adf 9cbd 2d6d a33d ead4 67bd 3806 86bd
000000f0: 3cc1 9f3d ba08 ce3d f4ad 993d f415 903d
00000100: a394 dc3b 6b27 353d 669a 8fbd 3454 24bd
00000110: 23c2 113d 65a2 5b39 8198 553b c7a2 c93d
00000120: 5545 513d fd55 ffbb e10e 4abd 0322 81bd
00000130: 85ee cb3d 41fb 8abd 72c2 833d 6e75 bd3c
00000140: f0c0 133e 29ce 31bd 406e 4dbd f662 303d
00000150: d267 1f3d b124 f4bc 50c5 183e 24c1 b2bd
00000160: 788b c23d 983b c53d d24b a3bb 2024 a83d
00000170: dbae 2a3c d560 73bd 54ab dd3d 8a1e 9eba
00000180: 5011 abbc db07 093e 8161 cf3d c126 95bd
00000190: b5a5 58bc 229e a73d befd c53d 9b7e 88bd
000001a0: c053 79bd 6ca4 993d f9e6 96bd 74b3 eb3d
000001b0: 61e7 76bd 46e0 26bd 4ef9 923d b067 bc3d
000001c0: a72e 96bc e227 61bd 9270 803d 5312 7b3d
000001d0: 1243 9f3d 9ad2 99bd 2fe0 56bb 01eb 43bc
000001e0: 8b88 fe3c ad6d 173e 65ed 82bd ea34 073d
000001f0: f2de 853d 73bf b73d 84b9 edbd 16aa 053d
00000200: 366b 003e bf0b 34bd beb5 d83d 89aa 903c
00000210: 5ca6 0f3e ffb5 8dbd 6d3e 483d b16f ff3d
00000220: 8cd7 d73d 792c 15bd ada4 adbd ddd5 cf3c
00000230: 31e4 14bd 3342 ed3d 4cdb 36bd ebc4 3a3d
00000240: d301 a8bd 23df 153d 391a 0d3e 03f7 ce3d
00000250: 3b98 9b3d 4b28 18bd a77c 053e 05e3 ebbc
00000260: f335 1a3e 8d24 8fbd 5650 ddbc a8fa d4bb
00000270: 27d1 563d 39ff ce3d 35c1 633d 8d20 89bc
00000280: da15 9cbd 8742 73bc c15f 24bd 9644 51bd
00000290: 7a2c b93d cf4b 323d 9e49 57bd 6f9d a43d
000002a0: c340 72bd 04f7 14bd c21f 303c 9f93 e73d
000002b0: 5077 b33d 846b 41bd 3575 80bd d9f2 953d
000002c0: c494 603c 4d53 493d e298 d63c df17 67bd
000002d0: b779 8fb8 5fd9 acbb 3a1e fb3b 1648 e33d
000002e0: 1afa a5bd 826b 4c3d 3c74 233e b2c2 96bd
000002f0: 4343 8b3d 5a08 1c3e 6300 c03d 3093 ba3d
00000300: b1f7 07bd b881 db3d 29b0 a33c 7feb 2b3e
00000310: 768b a1bd 18c0 c23d 6fb2 43bd 0a3c 9bbd
00000320: c0f1 cc3d 5506 993c d90f 5cbd bb84 13be
00000330: 9a68 b6bc bb70 d83c d7c1 96bc 0cb1 033c
00000340: 44e4 233d f6db f93d eaf8 cfbd c8c3 c7bb
00000350: ca45 c83d f4ca babd 28fe b73d d29d b63c
00000360: 4a04 8f3d 3da3 56bd 7b4e c53d 8a58 2c3d
00000370: 9c09 2e3b 0191 0b3e bcbc b8bd f898 073e
00000380: b48e dc3d 3ef8 a0bb c881 efbb 94c4 023e
00000390: a61a 2c3d b3d0 fbbd 796f efbd 221e 06be
000003a0: c49b 1abd 4da1 cd3b 7c7c 223d 95bd e13d
000003b0: 9354 f0bd 9f01 ca3d 3ea5 083d 5bbd a63d
000003c0: 7892 ecbd 7ae8 5cbd 4241 debc a5a5 d03d
000003d0: a3be fabc 9c7d acbb 1267 be3c 5910 223d
000003e0: 699b d73c 4cc7 353d 476a b8bc 58d0 153e
000003f0: 59a7 9e3b b40e 963d bdac eabd 31e7 05bd

image_conv.3.bias f4 [32]
0.026250312 -0.07065323 0.06297602 -0.02387705 -0.012185252 0.12621917 0.016963212 0.0666307
0.09646358 0.1091588 -0.08546586 -0.07654616 0.0388021 -0.044892605 -0.0031442526 -0.042883657
-0.055956885 0.13131033 0.15964344 -0.053373285 -0.06885047 0.008646686 -0.042201813 -0.067189865
-0.027970329 0.0049429955 -0.033517506 0.038370874 -0.007051621 0.1028638 0.011348512 0.026867812
00000000: e50a d73c a4b2 90bd 92f9 803d ce99 c3bc
00000010: a7a4 47bc 993f 013e 6ff6 8a3c ad75 883d
00000020: b38e c53d a68e df3d ba08 afbd 3cc4 9cbd
00000030: f3ee 1e3d 4fe1 37bd ce0f 4ebb c6a6 2fbd
00000040: 0c33 65bd 3776 063e 9279 233e f29d 5abd
00000050: 7a01 8dbd d4aa 0d3c cfdb 2cbd d79a 89bd
00000060: 0822 e5bc daf8 a13b a749 09bd c72a 1d3d
00000070: 4911 e7bb 42aa d23d 1cef 393c e319 dc3c

image_conv.5.weight f4 [64, 32, 2, 2]
0.1145756 0.062051564 0.010284043 -0.052214842 0.063482784 0.009930438 0.08556205 -0.10921082
0.06786781 0.09315115 -0.04709549 0.086584605 -0.030206706 0.14477433 0.031513453 -0.0059728217
-0.05405018 0.04049682 0.10055157 -0.032749727 -0.027622012 0.1021011 0.050512254 0.019094078
0.037634596 0.07748163 0.0989422 0.011219988 -0.025015747 0.10842606 0.014245736 0.122211285
0.03214726 0.08546226 0.0057275863 0.050063357 0.0020882443 -0.0075625875 0.10771432 0.002157415
-0.04130867 0.030945396 0.05431259 0.088033505 0.08770941 -0.012689566 0.008775898 0.082571864
-0.0052881073 -0.052599646 -0.052120484 0.097771816 -0.033892497 0.08576624 -0.040850118 0.07728584
0.04711342 0.072746605 -0.045710765 0.028245155 0.030285597 0.053422537 0.105316184 0.07609573
0.015388811 0.099314794 0.10104903 -0.008879165 0.101201214 -0.015160413 0.09279616 -0.048315253
0.0951012 -0.011048981 0.074733764 0.09420588 -0.024946982 0.01953659 0.116230235 -0.010043472
0.06557265 0.010243788 0.03920425 -0.01066404 -0.0071583968 0.07600132 0.050859053 0.05998172
-0.04766159 0.107309915 -0.003144365 0.09657248 0.074130274 0.09644896 0.055059694 0.014310704
-0.06824382 -0.05817337 -0.010604948 0.02074296 -0.05731965 0.12204085 -0.044067413 -0.0021730512
-0.022706417 0.122408964 0.04637839 0.12494164 -0.0033181042 0.1177291 0.08642592 0.03689809
-0.01840417 0.012933092 -0.06720261 -0.037748344 0.07464436 -0.03553013 0.032331135 0.09043431
0.03806146 0.06797898 0.06493436 0.020451095 0.016434709 0.049662217 0.0047901757 -0.0041659977
-0.022749633 -0.052832723 -0.06666123 0.027148064 0.051524363 0.010662742 -0.06695653 -0.024209948
-0.020380834 -0.026021127 0.044814624 0.07605537 -0.04436616 0.0369838 0.02026737 -0.09178281
0.005128107 0.055838354 0.055860545 -0.09489071 -0.043142036 -0.024935102 -0.03755197 0.0032670551
0.0022683004 -0.026502158 0.053964403 0.049173173 0.018515464 0.022746071 -0.07448792 0.05181092
-0.0229557 -0.06575277 0.04852614 0.05211259 0.0013863725 0.03734642 0.033132646 0.028223425
-0.009783909 0.016448438 -0.014263506 -0.0747287 0.06156357 -0.027837174 0.05592913 -0.07621047
-0.03248657 0.018950105 -0.065571815 0.013705301 0.020872679 -0.08367028 -0.03260049 -0.030141579
-0.054919906 0.0042541693 0.074314415 -0.09307551 -0.04174833 0.061343774 -0.07511152 0.03794331
-0.08387455 -0.06982541 0.0228749 0.061358448 -0.012790648 -0.05934521 0.0008679278 0.044405304
0.0114657385 0.07394326 0.014530622 -0.041910183 0.037387714 0.02494622 -0.050736245 0.019744705
-0.05196965 -0.06331347 -0.021440819 0.008697675 0.07791201 -0.034896478 0.0699478 0.007131917
-0.08962126 -0.055455003 0.046577852 -0.09927219 0.03937977 -0.040642183 -0.039789382 -0.04092427
-0.04201634 -0.046777017 0.061455987 -0.08250075 0.02555498 0.049293093 -0.05429504 -0.05206682
-0.057234116 0.023300365 0.019939598 -0.054831605 0.013059902 -0.04530133 0.071472675 -0.05769461
0.0266257 0.08598701 0.056273244 0.05732674 -0.0020739653 0.028568981 -0.08221808 -0.0359332
-0.08774361 -0.014545929 0.05716707 -0.08331208 -0.009253288 0.009544508 -0.086923614 -0.03898539
00000000: 9da6 ea3d c829 7e3d 677e 283c 3bdf 55bd
00000010: 4303 823d 47b3 223c 283b af3d eca9 dfbd
00000020: 47fe 8a3d 08c6 be3d 33e7 40bd 4553 b13d
00000030: 0e74 f7bc b93f 143e 4014 013d a9b7 c3bb
00000040: b963 5dbd fedf 253d fbed cd3d 9424 06bd
00000050: 8f47 e2bc 621a d13d f0e5 4e3d 2f6b 9c3c
00000060: bc26 1a3d b0ae 9e3d 35a2 ca3d 0ad4 373c
00000070: d3ed ccbc 7b0e de3d f366 693c e949 fa3d
00000080: d8ac 033d d606 af3d 7aae bb3b 3c0f 4d3d
00000090: edda 083b 95cf f7bb 5399 dc3d 6b63 0d3b
000000a0: 4833 29bd 3381 fd3c e176 5e3d e94a b43d
000000b0: fea0 b33d e6e7 4fbc c9c8 0f3c 701b a93d
000000c0: dc47 adbb ba72 57bd 4a7c 55bd 973c c83d
000000d0: dcd2 0abd 36a6 af3d 7452 27bd 0a48 9e3d
000000e0: 00fa 403d 2cfc 943d 363b 3bbd 6262 e73c
000000f0: 8019 f83c 97d1 5a3d 03b0 d73d 14d8 9b3d
00000100: 5a21 7c3c 8e65 cb3d cbf2 ce3d eb79 11bc
00000110: 9542 cf3d 6263 78bc ea0b be3d 37e6 45bd
00000120: 6bc4 c23d c906 35bc 040e 993d 03ef c03d
00000130: 9d5d ccbc 330b a03c 1e0a ee3d 608d 24bc
00000140: f44a 863d 90d5 273c a394 203d 3ab8 2ebc
00000150: fc90 eabb 94a6 9b3d 9551 503d 64af 753d
00000160: cd38 43bd 4dc5 db3d b111 4ebb cbc7 c53d
00000170: 9dd1 973d 0887 c53d 4686 613d 7177 6a3c
00000180: 6ac3 8bbd 3347 6ebd 60c0 2dbc 24ed a93c
00000190: 02c8 6abd 8ef0 f93d 0880 34bd c069 0ebb
000001a0: cf02 babc 8db1 fa3d 44f7 3d3d 67e1 ff3d
000001b0: 8d74 59bb f41b f13d 1300 b13d 7422 173d
000001c0: 58c4 96bc 52e5 533c 86a1 89bd 029e 1abd
000001d0: 24df 983d 0b88 11bd a76d 043d a035 b93d
000001e0: 55e6 1b3d 9038 8b3d 4efc 843d 0e89 a73c
000001f0: 15a2 863c 9c6a 4b3d e8f6 9c3b ec82 88bb
00000200: 705d babc 2067 58bd af85 88bd 9e65 de3c
00000210: 360b 533d c8b2 2e3c 8120 89bd f153 c6bc
00000220: b5f5 a6bc 422a d5bc 8a8f 373d ebc2 9b3d
00000230: 4ab9 35bd 537c 173d c107 a63c a0f8 bbbd
00000240: ae09 a83b c2b6 643d 07ce 643d 1056 c2bd
00000250: b4b5 30bd b344 ccbc 18d0 19bd 171c 563b
00000260: c4a7 143b 0e1b d9bc c709 5d3d cf69 493d
00000270: bead 973c f855 ba3c 1f8d 98bd b037 543d
00000280: 980d bcbc 63a9 86bd 59c3 463d 0374 553d
00000290: f1b6 b53a 8ff8 183d 19b6 073d d034 e73c
000002a0: b04c 20bc e0be 863c 7bb1 69bc 5c0b 99bd
000002b0: 152a 7c3d c90a e4bc f215 653d 3c14 9cbd
000002c0: a310 05bd 403d 9b3c 844a 86bd 338c 603c
000002d0: 2efd aa3c 535b abbd 1788 05bd 79eb f6bc
000002e0: b2f3 60bd 8f66 8b3b 2832 983d 5f9e bebd
000002f0: 4c00 2bbd 9c43 7b3d 12d4 99bd 726a 1b3d
00000300: 6cc6 abbd a000 8fbd 2464 bb3c ff52 7b3d
00000310: de8f 51bc f713 73bd a685 633a 56e2 353d
00000320: cbda 3b3c 906f 973d d911 6e3c 03aa 2bbd
00000330: dc23 193d 045c cc3c cfd0 4fbd a6bf a13c
00000340: 21de 54bd 7eaa 81bd a8a4 afbc b180 0e3c
00000350: 5590 9f3d 9cef 0ebd cb40 8f3d dbb2 e93b
00000360: 5a8b b7bd c924 63bd 6bc8 3e3d 384f cbbd
00000370: af4c 213d 6b78 26bd 31fa 22bd 35a0 27bd
00000380: 5319 2cbd 4299 3fbd 46b9 7b3d 27f6 a8bd
00000390: ad58 d13c 8ee7 493d 7a64 5ebd 0544 55bd
000003a0: 526e 6abd 68e0 be3c 5e58 a33c 1b97 60bd
000003b0: 33f9 553c e38d 39bd 4460 923d 2f51 6cbd
000003c0: 241e da3c f519 b03d c67e 663d 72cf 6a3d
000003d0: 5deb 07bb 7f09 ea3c f461 a8bd b12e 13bd
000003e0: ecb2 b3bd 0c52 6ebc 0528 6a3d 869f aabd
000003f0: 1a9b 17bc 9160 1c3c 0205 b2bd 25af 1fbd

image_conv.5.bias f4 [64]
0.0066622584 0.032812875 -0.008715046 0.07860554 -0.06350094 0.0052125007 0.026598357 -0.018758258
-0.011684506 -0.08641912 0.023359526 0.113167554 0.03951025 0.08293117 -0.04811923 -0.030172516
0.047630586 0.100795284 0.00843845 -0.059170324 -0.0012054195 -0.020194558 0.03459927 -0.05592208
-0.020279406 -0.059764575 -0.06540129 -0.07082242 0.0820378 0.035411924 0.109833896 0.055256657
0.052431967 0.05203968 -0.075911224 -0.07094702 0.04070165 -0.08605786 0.039960004 0.009789547
0.0389268 0.07457514 -0.01910352 0.00069308764 -0.017441893 0.06585721 -0.03582304 0.05951512
-0.04757605 -0.05129696 -0.0502985 0.09656603 0.081777506 -0.04599813 -0.003676283 0.06973381
-0.0006210652 -0.05554961 -0.049002595 0.055392124 0.002502296 -0.028518941 -0.059659828 -0.03571492
00000000: 134f da3b cb66 063d 8dc9 0ebc f1fb a03d
00000010: c80c 82bd a0cd aa3b cce4 d93c ebaa 99bc
00000020: 5f70 3fbc 82fc b0bd 7a5c bf3c 64c4 e73d
00000030: 80d5 213d d1d7 a93d ab18 45bd 5a2c f7bc
00000040: 4a18 433d c26d ce3d 6d41 0a3c 955c 72bd
00000050: 2bff 9dba 0f6f a5bc f7b7 0d3d 8d0e 65bd
00000060: ff20 a6bc b3cb 74bd 1df1 85bd 580b 91bd
00000070: 6f03 a83d 180c 113d 98f0 e03d ce54 623d
00000080: e7c2 563d 8f27 553d 5877 9bbd ac4c 91bd
00000090: c6b6 263d 1a3f b0bd 1aad 233d 5664 203c
000000a0: b571 1f3d daba 983d fc7e 9cbc 53b0 353a
000000b0: 4de2 8ebc 25e0 863d 2ebb 12bd 20c6 733d
000000c0: 1bdf 42bd c31c 52bd cd05 4ebd 69c4 c53d
000000d0: f77a a73d 8968 3cbd cbed 70bb 9ad0 8e3d
000000e0: fbce 22ba fd87 63bd f2b6 48bd dae2 623d
000000f0: 8ffd 233b 8ea0 e9bc dd5d 74bd cf49 12bd

actor.0.weight f4 [64, 64]
0.040805098 0.1703813 -0.049133025 0.08734179 0.11533038 -0.17687392 0.13000502 -0.025786208
0.19074854 0.26314035 0.15901327 -0.017459257 -0.13376462 -0.03658265 -0.0648693 0.07516935
-0.019016024 -0.18700926 0.09547647 -0.0004663686 -0.21344347 -0.14259848 -0.07120728 -0.055163715
-0.099988334 -0.07647289 -0.08672047 -0.11548755 -0.00013137898 -0.10417169 -0.0579458 -0.019990047
0.11594697 -0.02313953 0.06199659 0.122826286 -0.1052364 -0.05682752 -0.02038006 -0.011807925
0.007502415 -0.031682495 -0.028606849 -0.027326914 -0.06459578 -0.27703565 0.2981267 -0.2079619
0.020653997 -0.025131682 -0.013524148 0.04056396 -0.094378926 -0.105805784 0.0644745 -0.058077857
-0.15615648 -0.07689857 0.30506316 -0.17641594 0.06081825 0.039616976 -0.14910297 0.28744012
0.007849267 -0.022307457 0.21200821 -0.09705343 0.002076636 -0.21918829 0.10371141 0.105462596
-0.018124687 0.21596418 -0.27349827 0.12903537 -0.14587033 -0.011906689 0.044307135 -0.030307021
0.1485718 0.06995869 0.18820365 -0.2520331 0.12471841 -0.07627523 0.053864025 -0.13136901
-0.14957644 0.10251199 0.109201424 0.045413844 0.043005146 0.24213405 0.035541333 0.15314199
-0.09490962 -0.20963608 0.082676224 -0.124202415 0.12464543 0.18373433 -0.0701408 0.0794891
-0.14849304 0.16464932 -0.15331452 0.087561436 -0.080871016 0.06824031 0.1602368 -0.039966937
-0.09991958 -0.016497646 -0.02251677 0.07730688 -0.07983827 0.032962568 0.20505272 -0.12482713
-0.11955651 -0.24177523 -0.06316974 0.10637747 0.006109601 -0.000503209 0.018442782 0.049525373
-0.15216729 0.14069621 -0.13277623 -0.20659275 0.08019043 -0.12473612 0.009263521 -0.1278831
-0.027177038 -0.022184044 -0.19060569 0.099845484 0.05875407 0.053581767 -0.092725985 0.05799582
0.030522574 0.07219427 0.07506139 -0.06975753 0.1958766 -0.08816293 0.15630852 0.018614192
-0.16114987 -0.30422428 -0.026273312 0.1313567 -0.021970969 -0.0038501709 0.005613759 -0.07249312
-0.06974246 -0.030211015 -0.01762211 0.13568176 -0.12714574 0.020113308 -0.1900818 -0.044832513
-0.16973254 -0.01769522 -0.06262504 0.11685464 0.074198544 0.079594076 0.03461093 -0.12373064
-0.27383173 0.02765355 -0.15250894 -0.17708734 0.049415626 -0.18426575 -0.20137376 -0.10941227
-0.18177037 0.36488953 0.110305816 0.11623761 0.0811175 -0.009807246 0.06617199 -0.01986075
-0.08864755 0.13894762 -0.13002266 -0.07028519 -0.109156966 0.24358512 -0.0029990217 -0.0059666685
0.068099454 -0.14830072 0.074470654 -0.10628684 -0.13503088 0.1321043 0.21612282 0.18238933
-0.1858491 0.05921633 0.068073995 0.18026716 -0.063970625 0.0506303 0.023723235 -0.05470788
-0.21434133 -0.14166585 0.06651671 0.0070352065 0.023265334 0.028240724 -0.040365607 0.11399089
0.08352517 -0.011300434 0.12479188 -0.023001732 -0.048267942 0.008325008 0.03152508 -0.21197118
0.034869134 0.13453716 0.17492361 -0.11004346 -0.07839736 -0.20025972 0.112739906 0.033266746
-0.106336065 -0.14203362 0.053417005 0.008446172 0.18546301 -0.20674004 0.09345761 -0.31508756
-0.19967903 0.15307593 -0.04203299 -0.022031438 -0.22604425 0.013210573 0.1257677 0.059608042
00000000: 3f23 273d 6f78 2e3e b63f 49bd 41e0 b23d
00000010: 5632 ec3d 701e 35be 0920 053e 993d d3bc
00000020: 9653 433e 55ba 863e 60d4 223e b706 8fbc
00000030: 98f9 08be b0d7 15bd 32da 84bd 63f2 993d
00000040: 7ec7 9bbc 5b7f 3fbe 2b89 c33d ef82 f4b9
00000050: ed90 5abe 5605 12be 1fd5 91bd 59f3 61bd
00000060: afc6 ccbd d29d 9cbd 809a b1bd bd84 ecbd
00000070: c7c2 09b9 f857 d5bd 9358 6dbd 2bc2 a3bc
00000080: 9b75 ed3d 1d8f bdbc 23f0 7d3d 598c fb3d
00000090: 2f86 d7bd f9c3 68bd 15f4 a6bc 0776 41bc
000000a0: d2d6 f53b 81c5 01bd e958 eabc b1dc dfbc
000000b0: cb4a 84bd 9ed7 8dbe 10a4 983e f7f3 54be
000000c0: 9232 a93c f5e0 cdbc 6394 5dbc 6526 263d
000000d0: bd49 c1bd b4b0 d8bd 350b 843d 0ce3 6dbd
000000e0: 7ce7 1fbe ff7c 9dbd 3d31 9c3e 61a6 34be
000000f0: 8f1c 793d 6945 223d 73ae 18be 5a2b 933e
00000100: 369a 003c 21be b6bc ae18 593e f3c3 c6bd
00000110: 2c18 083b e572 60be a666 d43d c6fc d73d
00000120: 397a 94bc b725 5d3e f707 8cbe d921 043e
00000130: 085f 15be 4614 43bc 667b 353d 6e46 f8bc
00000140: 3523 183e 8046 8f3d 75b8 403e 7c0a 81be
00000150: 5e6c ff3d 3036 9cbd 86a0 5c3d 9985 06be
00000160: 912a 19be cef1 d13d ffa4 df3d de03 3a3d
00000170: 2a26 303d fdf1 773e ca93 113d 41d1 1c3e
00000180: fa5f c2bd d7aa 56be 2752 a93d d65d febd
00000190: 1a46 ff3d da24 3c3e fba5 8fbd 2ecb a23d
000001a0: 8f0e 18be d599 283e 7bfe 1cbe 6953 b33d
000001b0: b49f a5bd 93c1 8b3d 1e15 243e 5fb4 23bd
000001c0: a3a2 ccbd 1226 87bc 1775 b8bc 1253 9e3d
000001d0: 3f82 a3bd c203 073d 57f9 513e 5ea5 ffbd
000001e0: 0bda f4bd ed93 77be 235f 81bd 6edc d93d
000001f0: 0c33 c83b c9e9 03ba 5115 973c 1edb 4a3d
00000200: bed1 1bbe ab12 103e 7ef6 07be 0d8d 53be
00000210: e13a a43d a775 ffbd 06c6 173c caf3 02be
00000220: 61a2 debc 50bb b5bc 232e 43be ca7b cc3d
00000230: 1ca8 703d 8e78 5b3d 1fe7 bdbd 068d 6d3d
00000240: 7a0a fa3c 97da 933d c9b9 993d 09dd 8ebd
00000250: e093 483e c48e b4bd 570f 203e ca7c 983c
00000260: 7904 25be 49c3 9bbe 213b d7bc 5f82 063e
00000270: 76fc b3bc 2653 7cbb a0f3 b73b 4677 94bd
00000280: 23d5 8ebd 177d f7bc 3e5c 90bc 29f0 0a3e
00000290: 7e32 02be aac4 a43c cea4 42be 4ca2 37bd
000002a0: 5ece 2dbe 91f5 90bc 8f41 80bd 7c51 ef3d
000002b0: 68f5 973d 3802 a33d 31c4 0d3d 7d66 fdbd
000002c0: ac33 8cbe b389 e23c 4e2b 1cbe 6256 35be
000002d0: 0a68 4a3d 29b0 3cbe ec34 4ebe 8a13 e0bd
000002e0: 0322 3abe cdd2 ba3e 04e8 e13d fc0d ee3d
000002f0: ef20 a63d 92ae 20bc 2e85 873d 03b3 a2bc
00000300: d98c b5bd 4948 0e3e a924 05be aff1 8fbd
00000310: b08d dfbd 616e 793e 3c8b 44bb 0b84 c3bb
00000320: ba77 8b3d 25dc 17be 1284 983d eaac d9bd
00000330: 8945 0abe 5a46 073e 4d4f 5d3e 45c4 3a3e
00000340: 3a4f 3ebe d38c 723d 616a 8b3d f497 383e
00000350: 0803 83bd b861 4f3d 3b57 c23c 5f15 60bd
00000360: 4b7c 5bbe da10 11be ea39 883d 9787 e63b
00000370: f196 be3c 1759 e73c 6856 25bd 0e74 e93d
00000380: 3f0f ab3d 7525 39bc e392 ff3d 216e bcbc
00000390: 9bb4 45bd 9d65 083c 7120 013d f90e 59be
000003a0: f0d2 0e3d 1cc4 093e 2d1f 333e 775e e1bd
000003b0: cc8e a0bd e210 4dbe 2ee4 e63d b642 083d
000003c0: b9c6 d9bd 4371 11be cacb 5a3d d061 0a3c
000003d0: 04ea 3d3e a9b3 53be b466 bf3d 2853 a1be
000003e0: a978 4cbe f0bf 1c3e c92a 2cbd 467b b4bc
000003f0: 2578 67be 2971 583c 3fc9 003e 9027 743d

actor.0.bias f4 [64]
-0.009240902 0.018370947 0.0016538816 -0.00060326234 -0.005943678 0.008396683 0.015164994 0.0021979494
-0.016593441 -0.00529549 -0.0017115233 -0.003923876 -0.009769623 0.008883897 -0.007281302 0.00022335211
0.002291442 -0.0093026515 -0.0015176516 -0.011008641 -0.002086157 0.0011721868 0.0054946644 -0.0024959836
0.0005023949 0.013645035 -0.007756469 -0.002243668 0.009994234 -0.004082394 0.008508474 0.017496536
-0.020715738 0.007228045 -0.0029856658 0.017387753 -0.002450135 -0.0014674987 -0.015364408 0.0131570045
0.0068728104 -0.004214737 0.016766516 0.016684819 0.0102803325 -0.0059361183 0.0083862385 0.011296665
0.0048946175 -0.005187747 -0.007362124 0.015619434 -0.0054338104 0.0107690925 0.010026237 -0.010021881
0.0032890856 -0.0071329465 -0.013037398 0.0010618783 0.021344945 -0.008525212 0.00072433794 0.009806364
00000000: 2767 17bc ab7e 963c 0fc7 d83a 4024 1eba
00000010: 2fc3 c2bb 3e92 093c 9876 783c 790b 103b
00000020: f8ee 87bc ca85 adbb 3155 e0ba dc93 80bb
00000030: c510 20bc c48d 113c fd97 eebb a033 6a39
00000040: 042c 163b 266a 18bc f0eb c6ba 965d 34bc
00000050: e8b7 08bb 10a4 993a 960c b43b a893 23bb
00000060: 27b3 033a 6d8f 5f3c fa29 febb 810a 13bb
00000070: dbbe 233c 9ac5 85bb 2067 0b3c e554 8f3c
00000080: 0db4 a9bc 3cd9 ec3b 29ab 43bb c370 8e3c
00000090: 7292 20bb 1659 c0ba ffba 7bbc 7a90 573c
000000a0: 5035 e13b c71b 8abb ef59 893c 9aae 883c
000000b0: d76e 283c c583 c2bb 6f66 093c a615 393c
000000c0: 0763 a03b fafd a9bb f93d f1bb a8e8 7f3c
000000d0: 1b0e b2bb d970 303c 1645 243c d132 24bc
000000e0: b38d 573b 7ebb e9bb d09a 55bc b92e 8b3a
000000f0: 98db ae3c 55ad 0bbc 7fe1 3d3a dfaa 203c

actor.2.weight f4 [17, 64]
-0.10426881 -0.019019734 0.023367492 0.16701055 0.03019961 0.0665796 0.087120354 0.27130494
0.15949433 0.11132979 -0.0507356 -0.038633153 -0.0599411 0.09682683 0.030614955 -0.1635546
-0.0679848 -0.0075492114 0.07712296 0.0715024 0.22839606 0.27346972 0.1708769 0.15231799
0.06826017 -0.026514255 -0.17313647 0.12766734 -0.19235614 0.008821934 0.21616706 -0.12060766
0.10909422 -0.024337132 -0.008686369 0.051785834 -0.05813904 -0.025635706 0.15006623 0.051134966
-0.10551643 0.031166798 0.15358707 -0.05422269 -0.03441408 0.023685427 -0.04913464 -0.20166273
0.028148763 0.17760397 -0.09278206 -0.06938022 0.05681318 0.013201189 0.1708952 0.0679883
0.20652972 0.10123474 0.18537934 -0.096501596 0.06877262 -0.046007678 -0.27370873 0.12545411
0.033241436 -0.08072908 -0.07605861 0.1553127 0.12442333 -0.04211986 -0.17641532 0.19434595
-0.16955532 -0.04684675 -0.02944497 0.004421617 -0.15852179 -0.12579848 0.015691765 -0.23163942
0.029144963 0.009297828 0.01075097 -0.17097352 -0.23782073 0.07492423 -0.21952417 -0.031077232
0.06431256 -0.10196683 -0.018042183 -0.074671514 -0.024939748 0.0008265018 -0.021402884 0.04888949
0.19048937 -0.16581996 0.113714084 -0.08740452 0.052349992 -0.1439115 -0.021338366 -0.08765116
0.0042706244 0.16521977 0.03637069 -0.09145391 -0.20586284 0.097395055 0.20546089 -0.04912218
-0.051581018 0.07741509 -0.19520842 -0.23905012 0.1390844 0.18455382 0.01010597 0.10714985
-0.024745105 -0.045870744 0.056411173 -0.30387574 -0.15332673 -0.20237401 -0.047080237 -0.06956393
0.12022772 -0.038921174 -0.1092202 0.031052694 -0.08827783 0.06783723 0.07046032 -0.04046803
0.06881467 -0.2490801 0.14299448 0.040408947 0.14852042 0.037624285 -0.12246201 -0.12100776
0.079255134 0.1326718 -0.031947523 0.117857136 0.0030793669 -0.06563004 -0.02207342 -0.018631553
0.28755748 -0.11741257 -0.15217902 0.2223704 -0.12659377 0.03715893 0.23881601 0.02664533
-0.059439458 -0.30698633 0.18729684 0.053984202 0.21676144 0.02632111 -0.04603617 -0.18199138
-0.035951056 -0.022959327 0.0005330516 0.03777204 0.051895037 0.053375848 0.04441679 -0.14602649
0.07540209 0.057142857 0.268543 0.045144796 0.046251234 0.044423923 -0.17840534 0.20610237
-0.2142765 0.106667 0.07130568 0.14332041 -0.030367102 -0.062808245 -0.093399175 0.09274715
0.01834703 -0.1639808 0.03514378 -0.056712635 -0.027948707 0.017116414 -0.034345865 -0.100500934
0.19554558 -0.000677029 0.0120753 -0.06389149 0.02024891 0.22203046 -0.15007079 0.19101022
0.06281548 -0.0034813697 -0.28113455 0.061822843 0.11653133 0.025433687 0.20026354 0.10806929
-0.0695348 -0.045208305 0.06788939 -0.0803737 0.11522744 0.0153082935 -0.17951596 0.08758203
0.09787929 0.040186815 -0.010077754 -0.048532832 0.2202769 0.061240003 -0.0026522344 -0.022176433
0.13960195 -0.2034116 0.1258695 0.0067565376 -0.090865746 -0.12911695 0.16294406 0.07737994
0.11047971 0.22185972 -0.10375544 0.1397369 0.23756023 0.13045226 0.119731136 -0.17693593
-0.24625935 -0.119542204 -0.22135247 -0.013117832 0.17258525 0.021783566 -0.06350743 -0.15190913
00000000: e38a d5bd 46cf 9bbc 2f6d bf3c d004 2b3e
00000010: 2c65 f73c e35a 883d 286c b23d 7be8 8a3e
00000020: 7b52 233e df00 e43d 22d0 4fbd cc3d 1ebd
00000030: cd84 75bd 254d c63d 37cc fa3c db7a 27be
00000040: 9d3b 8bbd 605f f7bb a4f2 9d3d da6f 923d
00000050: a8e0 693e 3904 8c3e 5bfa 2e3e 3ff9 1b3e
00000060: fdcb 8b3d 6c34 d9bc b04a 31be 3abb 023e
00000070: 02f9 44be e089 103c e65a 5d3e 2601 f7bd
00000080: ca6c df3d aa5e c7bc 4651 0ebc 621d 543d
00000090: 3423 6ebd f901 d2bc f6aa 193e e672 513d
000000a0: 0019 d8bd 8351 ff3c ee45 1d3e 9d18 5ebd
000000b0: c7f5 0cbd f107 c23c 6741 49bd ad80 4ebe
000000c0: 3c98 e63c d1dd 353e 8504 bebd 3717 8ebd
000000d0: f0b4 683d cd49 583c 27ff 2e3e 733d 8b3d
000000e0: 877c 533e 2954 cf3d 15d4 3d3e a1a2 c5bd
000000f0: a9d8 8c3d 8c72 3cbd 8d23 8cbe 0b77 003e
00000100: 2c28 083d 4a55 a5bd 9ec4 9bbd 4b0a 1f3e
00000110: a9d1 fe3d e085 2cbd 38a6 34be a002 473e
00000120: e99f 2dbe 61e2 3fbd 9436 f1bc 36e3 903b
00000130: 8953 22be 51d1 00be 048c 803c e232 6dbe
00000140: 6bc1 ee3c eb55 183c d624 303c af13 2fbe
00000150: 4787 73be e071 993d f2ca 60be ae95 febc
00000160: 4eb6 833d fcd3 d0bd 33cd 93bc 61ed 98bd
00000170: 714e ccbc 99a9 583a 1a55 afbc 5940 483d
00000180: a50f 433e b5cc 29be eee2 e83d 2401 b3bd
00000190: f26c 563d 895d 13be cccd aebc 7482 b3bd
000001a0: 98f0 8b3b 5f2f 293e 6ff9 143d 304c bbbd
000001b0: b5cd 52be 0f77 c73d 5764 523e 5734 49bd
000001c0: 9e46 53bd cd8b 9e3d b7e4 47be 8ec9 74be
000001d0: 246c 0e3e adfb 3c3e 8393 253c 6171 db3d
000001e0: 3fb6 cabc f6e2 3bbd 670f 673d 9a95 9bbe
000001f0: af01 1dbe 223b 4fbe 35d7 40bd 8977 8ebd
00000200: f339 f63d cf6b 1fbd d7ae dfbd 3862 fe3c
00000210: 02cb b4bd 3fee 8a3d 804d 903d cec1 25bd
00000220: b5ee 8c3d db0e 7fbe 256d 123e da83 253d
00000230: bd15 183e ec1b 1a3d 5dcd fabd ebd2 f7bd
00000240: 8450 a23d 1edb 073e 68db 02bd 155f f13d
00000250: 34cf 493b 0b69 86bd 51d3 b4bc 33a1 98bc
00000260: bc3a 933e 0076 f0bd d1d4 1bbe 11b5 633e
00000270: cca1 01be f633 183d 2f8c 743e 4f47 da3c
00000280: ca76 73bd 502d 9dbe beca 3f3e 8a1e 5d3d
00000290: b6f6 5d3e 5e9f d73c 6c90 3cbd f35b 3abe
000002a0: 6a41 13bd 3315 bcbc 7dbc 0b3a dbb6 1a3d
000002b0: e48f 543d a2a0 5a3d 61ee 353d f887 15be
000002c0: 696c 9a3d a10e 6a3d 787e 893e c0e9 383d
000002d0: ef71 3d3d dcf5 353d e4af 36be 800c 533e
000002e0: 4c6b 5bbe 3a74 da3d b608 923d 96c2 123e
000002f0: 6ec4 f8bc 9ca1 80bd 1148 bfbd 38f2 bd3d
00000300: 834c 963c 95ea 27be edf2 0f3d 824b 68bd
00000310: b0f4 e4bc b937 8c3c 40ae 0cbd 6fd3 cdbd
00000320: 1a3d 483e a67a 31ba 7bd7 453c 8bd9 82bd
00000330: 0be1 a53c f45b 633e 28ac 19be 2f98 433e
00000340: 67a5 803d b127 64bb def0 8fbe f339 7d3d
00000350: faa7 ee3d 4f5a d03c e311 4d3e 6f53 dd3d
00000360: 4368 8ebd 582c 39bd 9809 8b3d f79a a4bd
00000370: 5dfc eb3d a3cf 7a3c 08d3 37be 355e b33d
00000380: f074 c83d ee9a 243d 2a1d 25bc 5dca 46bd
00000390: 4590 613e ccd6 7a3d 1cd1 2dbb 5aab b5bc
000003a0: d0f3 0e3e 214b 50be efe3 003e f265 dd3b
000003b0: d217 babd 3c37 04be cfda 263e 6079 9e3d
000003c0: 3043 e23d 322f 633e bb7d d4bd 3117 0f3e
000003d0: fd42 733e 4795 053e 9935 f53d b12e 35be
000003e0: 692b 7cbe 8bd2 f4bd 39aa 62be 2dec 56bc
000003f0: 30ba 303e 7373 b23c 2f10 82bd 118e 1bbe

actor.2.bias f4 [17]
0.006480478 -0.009617264 -0.023709789 -0.012349277 -0.028451284 -0.005941025 -0.017535515 -0.023418339
-0.00086300523 -0.025170289 0.0031320928 -0.011879567 0.03842941 0.009972541 0.04288755 -0.018568711
0.03783622
00000000: 315a d43b bb91 1dbc 083b c2bc 9f54 4abc
00000010: ab12 e9bc eeac c2bb a4a6 8fbc d1d7 bfbc
00000020: 4d3b 62ba ec31 cebc cc43 4d3b 84a2 42bc
00000030: 2868 1d3d de63 233c dbaa 2f3d 691d 98bc
00000040: 27fa 1a3d

critic.0.weight f4 [64, 64]
-0.0026376795 -0.09576803 -0.15103674 -0.06570362 -0.041130617 0.012070056 -0.12945767 -0.2854634
-0.08742354 -0.048563235 0.07935772 -0.1166134 -0.106876574 -0.080606736 0.07091888 0.021044865
-0.06394449 -0.013576442 0.087166175 -0.09981134 -0.03808898 0.04321006 0.06465624 -0.22260632
-0.03423047 0.051919796 0.1845675 -0.095524214 0.06886689 -0.21566851 0.045081295 -0.17728764
-0.18686442 -0.22060314 -0.10624719 0.039174214 -0.1927525 0.11576478 0.03652524 -0.061660383
-0.03498248 -0.09826261 -0.05536451 0.07966861 -0.19693616 -0.062172763 -0.13566263 0.015548763
-0.19936697 -0.21618517 0.16952991 -0.13275811 -0.13510248 0.25282875 0.014364563 -0.05296369
0.077048734 -0.16237555 -0.038118407 0.25872487 -0.09931546 0.30819052 0.15478528 0.018472422
0.09958353 -0.067410424 0.1564562 0.05509558 -0.10568945 0.097357705 -0.3794718 -0.10743864
0.017621068 0.20635533 0.21376987 0.00766912 0.07347015 -0.16024712 0.004308895 0.07611817
0.02034542 0.06448278 -0.08115474 -0.22426276 0.0032231344 -0.17018564 0.054365113 -0.28178978
-0.12584862 0.20790006 0.19111948 0.029208815 -0.049057975 -0.021749545 -0.11543099 0.039178446
0.028349891 0.051558662 0.049643535 -0.04538861 -0.06532621 0.05854132 -0.2985964 0.15764725
0.04045255 0.027140534 -0.22720756 0.18720762 0.025938828 -0.027200881 -0.13643494 -0.19267204
0.074541256 0.01830147 -0.089977205 0.10810096 -0.13107058 -0.11597137 -0.05976018 -0.02740137
0.049317215 0.020603808 -0.08043174 -0.025690868 -0.08336866 0.233426 0.042497024 -0.09170007
0.044787772 -0.17112043 0.011171222 -0.10667734 -0.0055342973 -0.26607716 -0.015825579 0.019422777
0.22288166 -0.038272686 0.108904414 -0.11586135 -0.23148748 -0.15520057 0.006818699 0.3551992
-0.1947957 0.037996605 -0.08347001 -0.05385081 -0.011182425 -0.04258486 -0.09078826 0.060064487
0.00017307297 0.10756529 0.09224205 -0.028762795 0.0072096162 -0.06461674 0.000303325 -0.2938158
-0.06281943 -0.0064098598 -0.013219057 0.11794605 -0.27451098 -0.06242076 -0.1830686 -0.004008604
-0.2625105 -0.08428151 0.23981743 -0.0007607446 0.04890771 -0.0044772914 -0.038885888 0.031971786
0.2989531 -0.09070962 -0.09125612 0.096785754 0.012981883 0.036782436 0.09459364 -0.14394984
0.26396555 -0.11484058 0.0828126 0.045307755 -0.121404454 0.098089755 -3.9448885e-05 0.10199136
-0.044544518 0.018725375 0.028151587 -0.076370634 0.22230358 0.32584602 -0.0040969355 0.19242685
-0.14334337 -0.04439818 -0.01590617 -0.2745952 -0.11439965 0.18250431 0.035958417 0.13961208
0.14952132 0.17571726 0.052506667 0.16697389 0.10898003 -0.105630375 -0.16153038 -0.09294508
0.09493896 0.05055263 0.050813444 0.20534818 0.1213128 -0.10646441 0.29232374 0.14212604
-0.019774588 0.028865915 -0.10722561 0.19153099 0.1286278 -0.09886659 0.027501998 0.0127751045
0.0073524117 -0.11988563 0.067583725 0.13745384 -0.007845853 0.19331516 -0.07084314 0.14697249
-0.003638841 -0.032569062 -0.08528862 0.1620251 -0.15735719 -0.17251764 -0.10222802 0.20400222
-0.05428616 0.20596492 0.090214476 0.13293368 0.21570668 0.1680976 0.07531614 0.06414126
00000000: ebdc 2cbb 0722 c4bd 60a9 1abe 9f8f 86bd
00000010: 9478 28bd 7cc1 453c 8d90 04be 4228 92be
00000020: 1d0b b3bd 3eea 46bd 4d86 a23d 02d3 eebd
00000030: 1be2 dabd 2515 a5bd eb3d 913d 4866 ac3c
00000040: 54f5 82bd ba6f 5ebc 2e84 b23d e369 ccbd
00000050: 3103 1cbd 08fd 303d 7e6a 843d e9f2 63be
00000060: 4035 0cbd daa9 543d 43ff 3c3e 33a2 c3bd
00000070: 160a 8d3d 35d8 5cbe 2aa7 383d e48a 35be
00000080: 6359 3fbe cae5 61be 2098 d9bd 2475 203d
00000090: e960 45be 1616 ed3d 7d9b 153d 998f 7cbd
000000a0: ca49 0fbd e83d c9bd e5c5 62bd 4c29 a33d
000000b0: a2a9 49be dea8 7ebd 25eb 0abe 3dc0 7e3c
000000c0: db26 4cbe a55f 5dbe 4099 2d3e bef1 07be
000000d0: 4e58 0abe c572 813e 5859 6b3c 74f0 58bd
000000e0: bacb 9d3d c745 26be 0c22 1cbd 9677 843e
000000f0: e765 cbbd 26cb 9d3e 0880 1e3e 7a53 973c
00000100: 73f2 cb3d 7a0e 8abd 0e36 203e e7ab 613d
00000110: b673 d8bd 7a63 c73d 214a c2be ca08 dcbd
00000120: 0f5a 903c d04e 533e 7de6 5a3e 3e4d fb3b
00000130: 8577 963d d217 24be a231 8d3b d8e3 9b3d
00000140: 70ab a63c 8c0f 843d 7534 a6bd 23a5 65be
00000150: 393b 533b 2545 2ebe f4ad 5e3d c046 90be
00000160: 76de 00be c1e3 543e d3b4 433e 5347 ef3c
00000170: 04f1 48bd 1a2c b2bc 1567 ecbd 9479 203d
00000180: 083e e83c 2d2f 533d 0557 4b3d 68e9 39bd
00000190: bfc9 85bd 06c9 6f3d a1e1 98be 486e 213e
000001a0: 93b1 253d d355 de3c 19a9 68be 5bb3 3f3e
000001b0: aa7d d43c 62d4 debc 9ab5 0bbe d24b 45be
000001c0: 16a9 983d f7ec 953c f845 b8bd 0964 dd3d
000001d0: 5e37 06be 6682 edbd 17c7 74bd d778 e0bc
000001e0: d900 4a3d 51c9 a83c 65b9 a4bd a875 d2bc
000001f0: 30bd aabd 3a07 6f3e 5c11 2e3d 3fcd bbbd
00000200: 6273 373d 323a 2fbe 8007 373c a679 dabd
00000210: 0d59 b5bb 443b 88be a5a4 81bc 841c 9f3c
00000220: 173b 643e d2c3 1cbd 4709 df3d b748 edbd
00000230: 0e0b 6dbe e6ec 1ebe 656f df3b abdc b53e
00000240: 8678 47be 54a2 1b3d 53f2 aabd ab92 5cbd
00000250: 7d36 37bc 766d 2ebd 32ef b9bd 2e06 763d
00000260: ec7a 3539 314b dc3d 66e9 bc3d f49f ebbc
00000270: a53e ec3b c855 84bd 9807 9f39 066f 96be
00000280: 79a7 80bd cd09 d2bb be94 58bc b38d f13d
00000290: b48c 8cbe e9ac 7fbd 5676 3bbe 9c5a 83bb
000002a0: c767 86be c99b acbd b392 753e b56c 47ba
000002b0: 7353 483d 3eb6 92bb cf46 1fbd d9f4 023d
000002c0: 6110 993e f7c5 b9bd 7de4 babd 9c37 c63d
000002d0: f7b1 543c 2ea9 163d 4fba c13d 9667 13be
000002e0: 7e26 873e 8a31 ebbd a799 a93d a094 393d
000002f0: e6a2 f8bd 48e3 c83d eb75 25b8 d9e0 d03d
00000300: 5074 36bd f565 993c 289e e63c 3568 9cbd
00000310: 8da3 633e 4ad5 a63e 963f 86bb 8b0b 453e
00000320: 9bc8 12be deda 35bd a84d 82bc be97 8cbe
00000330: 5d4a eabd 69e2 3a3e 2249 133d 78f6 0e3e
00000340: 1e1c 193e 3aef 333e 3b11 573d 34fb 2a3e
00000350: ec30 df3d bd54 d8bd 3868 25be fd59 bebd
00000360: 5c6f c23d 4610 4f3d c221 503d cb46 523e
00000370: d872 f83d 030a dabd 75ab 953e 7d89 113e
00000380: 51fe a1bc 3678 ec3c 1a99 dbbd b320 443e
00000390: 02b7 033e 917a cabd df4b e13c ac4e 513c
000003a0: 80ec f03b 9986 f5bd 5669 8a3d b3c0 0c3e
000003b0: e58b 00bc 69f4 453e 3516 91bd f57f 163e
000003c0: 9f79 6ebb 2367 05bd cdab aebd e8e9 253e
000003d0: 3e22 21be 77a8 30be ed5c d1bd f5e5 503e
000003e0: 2a5b 5ebd 78e8 523e 5ec2 b83d c41f 083e
000003f0: 36e2 5c3e c721 2c3e 593f 9a3d 7e5c 833d

critic.0.bias f4 [64]
-0.021762641 -0.030494854 -0.024585122 0.029863277 0.031847503 0.027735047 -0.03395564 0.031603847
-0.025647907 0.027603978 0.03382254 0.03421608 -0.026277246 0.02373571 0.03535728 0.028040541
-0.01137921 0.019446922 -0.024222786 0.03000139 -0.027417513 0.026435046 0.029362803 -0.02383453
0.034083992 0.018196078 0.026343772 0.022239683 -0.028794536 -0.021367695 -0.02751604 -0.027067922
-0.024085786 0.02813949 0.027556159 0.026585918 -0.030112538 -0.02671176 -0.026708445 -0.024539469
0.026881978 -0.008064112 0.029416554 -0.031591564 -0.031940974 0.019340323 -0.02474865 -0.019368129
0.030408522 0.032866307 0.022077424 -0.025742982 0.02387875 -0.03467992 0.019784773 -0.031817783
-0.026640214 -0.026125781 0.027745439 0.032471284 0.02638732 -0.032315817 -0.025926221 -0.027110487
00000000: 9147 b2bc 58d0 f9bc bd66 c9bc d5a3 f43c
00000010: 8772 023d 9c34 e33c 1215 0bbd 0973 013d
00000020: 8f1b d2bc bd21 e23c 8189 0a3d 2926 0c3d
00000030: 6143 d7bc 6471 c23c ccd2 103d 47b5 e53c
00000040: de6f 3abc 274f 9f3c dd6e c6bc 7ac5 f53c
00000050: b19a e0bc 4f8e d83c 438a f03c a240 c3bc
00000060: a89b 0b3d f10f 953c e5ce d73c ff2f b63c
00000070: 85e2 ebbc 4e0b afbc 5169 e1bc 8cbd ddbc
00000080: 8e4f c5bc ca84 e63c 74bd e13c b6ca d93c
00000090: 92ae f6bc 9fd2 dabc abcb dabc ff06 c9bc
000000a0: 9837 dc3c 561f 04bc fcfa f03c 2866 01bd
000000b0: 8ad4 02bd 996f 9e3c aebd cabc e9a9 9ebc
000000c0: 4b1b f93c d29e 063d b7db b43c f2e2 d2bc
000000d0: 5e9d c33c 880c 0ebd ad13 a23c 5d53 02bd
000000e0: 943c dabc bc05 d6bc 674a e33c 9c00 053d
000000f0: 392a d83c 975d 04bd 3a63 d4bc d016 debc

critic.2.weight f4 [1, 64]
0.87871724 0.8484814 1.0217106 -0.9001099 -0.84600484 -0.91907305 0.8160665 -0.96297276
0.87378657 -0.85233575 -0.7674319 -0.85041344 0.9551697 -0.8509691 -0.84893936 -0.8894093
0.8069885 -0.8099691 0.9625334 -0.88742864 0.8983424 -0.96568936 -0.8629809 1.0314965
-0.84752965 -0.9582517 -0.94911176 -0.893311 0.9358812 0.88297296 1.0517532 0.9874927
0.8948274 -0.8972383 -0.81796426 -0.84787554 0.8865359 0.9061094 0.87954414 0.95053166
-0.8469805 -0.7881724 -0.9763379 0.85786045 0.85189426 -1.089409 0.90849674 0.9728414
-0.91008806 -0.9118771 -1.0989268 0.8472288 -0.8497119 0.835375 -0.8276218 0.8778275
0.92704743 0.91749275 -0.8864184 -0.82663363 -1.095414 0.89497155 0.83958966 0.9437615
00000000: 9df3 603f 1436 593f 6ac7 823f 9a6d 66bf
00000010: c693 58bf 5f48 6bbf bce9 503f 6285 76bf
00000020: 7ab0 5f3f ad32 5abf 6b76 44bf b2b4 59bf
00000030: 0086 743f 1cd9 59bf 1754 59bf 54b0 63bf
00000040: cc96 4e3f 235a 4fbf 9768 763f 862e 63bf
00000050: c4f9 653f 6b37 77bf 51ec 5cbf 1408 843f
00000060: b4f7 58bf fc4f 75bf fdf8 72bf 08b0 64bf
00000070: e995 6f3f 840a 623f d99f 863f 52cc 7c3f
00000080: 6913 653f 69b1 65bf 1b66 51bf 5f0e 59bf
00000090: 04f4 623f c9f6 673f ce29 613f 0b56 733f
000000a0: b7d3 58bf abc5 49bf 48f1 79bf be9c 5b3f
000000b0: be15 5a3f c171 8bbf 3e93 683f 220c 793f
000000c0: 88fb 68bf c770 69bf a2a9 8cbf fde3 583f
000000d0: b886 59bf 23db 553f 06df 53bf 4eb9 603f
000000e0: fb52 6d3f cee0 6a3f 51ec 62bf 439e 53bf
000000f0: 8736 8cbf db1c 653f 59ef 563f 5b9a 713f

exp_avg f4 [16, 3, 2, 2]
-2.1774204e-06 -1.6144975e-06 -1.8557506e-06 -1.3179559e-06 -5.512893e-06 -2.1806475e-06 -4.9282094e-06 -1.1684024e-06
0.0 0.0 0.0 0.0 -1.6015586e-06 -4.0659597e-06 -1.3524759e-06 -3.239298e-06
-3.6009637e-06 -7.9746615e-06 -2.9965404e-06 -7.591262e-06 0.0 0.0 0.0 0.0
-2.6246182e-08 -3.436922e-07 -1.4176087e-08 -1.4176087e-08 -3.6210295e-09 -1.14494604e-07 3.1199305e-38 0.0
0.0 0.0 0.0 0.0 -1.7205474e-06 -9.30077e-07 -1.7231894e-06 -1.0983722e-06
-4.2095853e-06 -2.6508064e-07 -4.5190072e-06 -9.421456e-07 0.0 0.0 0.0 0.0
-2.4259168e-06 -3.964139e-06 -2.4974402e-06 -3.447583e-06 -5.713803e-06 -8.012075e-06 -5.4340235e-06 -6.9723988e-06
0.0 0.0 0.0 0.0 -1.8075369e-06 -1.1321752e-06 -1.6043272e-06 -1.1942503e-06
-4.7972626e-06 -1.4181967e-06 -4.0758205e-06 -6.94861e-07 0.0 0.0 0.0 0.0
-1.4257503e-07 -1.1867306e-06 -1.8518229e-07 -1.3991774e-07 1.8394427e-08 -3.871349e-07 7.2976087e-09 -3.7814925e-09
0.0 0.0 0.0 0.0 8.5877375e-08 -1.1473696e-07 1.8068145e-07 -2.7004026e-07
-1.4324092e-08 -2.0089306e-08 5.812777e-10 -2.4491856e-08 0.0 0.0 0.0 0.0
0.0 0.0 0.0 -2.2995396e-08 0.0 0.0 0.0 -5.7488524e-08
0.0 0.0 0.0 0.0 3.622719e-09 9.1074114e-08 -9.557198e-08 -1.6482979e-08
-1.0147957e-08 3.0538484e-08 -2.5267155e-08 -2.1634645e-09 0.0 0.0 0.0 0.0
-1.7142919e-06 -2.1707503e-06 -1.2723871e-06 -1.9250242e-06 -3.9459755e-06 -3.948311e-06 -3.1012228e-06 -3.721232e-06
0.0 0.0 0.0 0.0 -9.632304e-07 -4.878205e-07 -1.0404733e-06 -5.8558254e-07
-2.418354e-06 -8.264507e-08 -2.610523e-06 -2.2478226e-07 0.0 0.0 0.0 0.0
-1.3813042e-06 -8.4433174e-07 -1.0315401e-06 -5.294518e-07 -3.3958352e-06 -5.665878e-07 -2.569366e-06 3.397388e-07
0.0 0.0 0.0 0.0 -1.2747305e-06 -4.0859327e-06 -1.5160136e-06 -3.2041012e-06
-2.9504524e-06 -9.5317655e-06 -3.0688805e-06 -8.226666e-06 0.0 0.0 0.0 0.0
-4.0275512e-07 -2.5738376e-07 -1.7049254e-07 -1.8254744e-07 -1.0155754e-06 -6.3203606e-07 -3.9380814e-07 -2.5847828e-07
0.0 0.0 0.0 0.0 4.6921436e-08 -1.2541746e-07 1.3124061e-07 -9.507098e-08
-4.615945e-08 -3.8287226e-08 -5.63081e-08 4.5962707e-08 0.0 0.0 0.0 0.0
00000000: cc1f 12b6 b6b1 d8b5 1b13 f9b5 9fe4 b0b5
00000010: 64fb b8b6 3d57 12b6 ff5c a5b6 00d2 9cb5
00000020: 0000 0000 0000 0000 0000 0000 0000 0000
00000030: 22f5 d6b5 546e 88b6 b886 b5b5 b762 59b6
00000040: 16a8 71b6 e9ca 05b7 2c18 49b6 72b8 feb6
00000050: 0000 0000 0000 0000 0000 0000 0000 0000
00000060: f773 e1b2 b284 b8b4 178b 73b2 178b 73b2
00000070: d3d5 78b1 13e0 f5b3 7cdd 2901 0000 0000
00000080: 0000 0000 0000 0000 0000 0000 0000 0000
00000090: 8fed e6b5 68aa 79b5 5648 e7b5 c86b 93b5
000000a0: 1040 8db6 6850 8eb4 faa1 97b6 c1e7 7cb5
000000b0: 0000 0000 0000 0000 0000 0000 0000 0000
000000c0: efcc 22b6 b203 85b6 b299 27b6 065d 67b6
000000d0: 32b9 bfb6 9a6b 06b7 e855 b6b6 73f4 e9b6
000000e0: 0000 0000 0000 0000 0000 0000 0000 0000
000000f0: 7f9a f2b5 3ef5 97b5 4354 d7b5 214a a0b5
00000100: 2cf8 a0b6 de58 beb5 08c3 88b6 7c86 3ab5
00000110: 0000 0000 0000 0000 0000 0000 0000 0000
00000120: ba16 19b4 c147 9fb5 85d6 46b4 4c3c 16b4
00000130: c601 9e32 6ad7 cfb4 72be fa31 5cee 81b1
00000140: 0000 0000 0000 0000 0000 0000 0000 0000
00000150: 966b b833 5065 f6b3 5701 4234 0dfa 90b4
00000160: 0616 76b2 da90 acb2 c8c7 1f30 2962 d2b2
00000170: 0000 0000 0000 0000 0000 0000 0000 0000
00000180: 0000 0000 0000 0000 0000 0000 6987 c5b2
00000190: 0000 0000 0000 0000 0000 0000 4de9 76b3
000001a0: 0000 0000 0000 0000 0000 0000 0000 0000
000001b0: 8cf3 7831 8694 c333 403d cdb3 7496 8db2
000001c0: 3057 2eb2 6b29 0333 100b d9b2 12ac 14b1
000001d0: 0000 0000 0000 0000 0000 0000 0000 0000
000001e0: 9f16 e6b5 35ad 11b6 e3c6 aab5 aa2f 01b6
000001f0: ac67 84b6 bc7b 84b6 9a1e 50b6 47ba 79b6
00000200: 0000 0000 0000 0000 0000 0000 0000 0000
00000210: 5848 81b5 c5f2 02b5 64a6 8bb5 ed30 1db5
00000220: 014b 22b6 9c7a b1b3 7230 2fb6 ad5b 71b4
00000230: 0000 0000 0000 0000 0000 0000 0000 0000
00000240: 4065 b9b5 09a6 62b5 7373 8ab5 a71f 0eb5
00000250: 01e4 63b6 9e17 18b5 5f6d 2cb6 5865 b634
00000260: 0000 0000 0000 0000 0000 0000 0000 0000
00000270: 6817 abb5 e519 89b6 d579 cbb5 0a06 57b6
00000280: 6300 46b6 9fea 1fb7 f7f2 4db6 4305 0ab7
00000290: 0000 0000 0000 0000 0000 0000 0000 0000
000002a0: 3e3a d8b4 8e2e 8ab4 a210 37b4 4202 44b4
000002b0: e84e 88b5 30a9 29b5 946c d3b4 fcc4 8ab4
000002c0: 0000 0000 0000 0000 0000 0000 0000 0000
000002d0: aa86 4933 7daa 06b4 25eb 0c34 d329 ccb3
000002e0: da40 46b3 4071 24b3 69d7 71b3 8868 4533
000002f0: 0000 0000 0000 0000 0000 0000 0000 0000
