storage/MiniGrid-NavigationMulti-8x8-N2-v0_22-07-21-11-04-58/status.pt (torch, 244989 bytes, 39 tensors)

image_conv.0.weight f4 [16, 3, 2, 2]
000000 1f cc 2a 3d a8 2b 2a bd 7b 5b a6 be 8b 8b 07 be
       0.04169857 -0.04154554 -0.3249167 -0.13236825
000010 8f 2e 9c be d9 28 b6 3c 27 64 27 be 4f 59 94 3d
       -0.3050427 0.022236275 -0.16346799 0.07243597
000020 74 48 8b 3d da 93 c8 bd f0 bf e2 3c 10 84 04 bd
       0.06800929 -0.097938254 0.027679414 -0.032352507
000030 57 09 03 bf f1 44 29 bf 32 6c 47 be bd de 6a 3e
       -0.51186126 -0.6612082 -0.19474867 0.2293653
000040 47 b1 ce be c8 f3 dd 3b e7 c6 b6 3d 86 dd 13 be
       -0.40369627 0.0067734458 0.08924656 -0.14439973
000050 d0 7d e2 bc a4 cc 82 be 63 fd 7e be 34 00 85 be
       -0.027647883 -0.25546753 -0.24901347 -0.25976717
000060 0a 03 7c be 9d e1 8c be 59 df 9d be e4 4c fe be
       -0.24610534 -0.2751588 -0.30834463 -0.49668038
000070 05 a5 31 bf 3b 03 4e bc aa f9 b5 3d f8 1f d1 bd
       -0.69392425 -0.012574012 0.0888551 -0.10211176
000080 5a 3f 1f 3e 5c 54 c8 3d 10 3a 02 3e 5e 79 23 be
       0.1555151 0.09781715 0.12717462 -0.15964267
000090 ef c9 41 bd 4e 77 bd be 24 a2 1a 3e 40 ea 0e be
       -0.04731172 -0.37005085 0.15100914 -0.13956547
0000a0 5f 8f af bd 9e 24 62 bc d1 d7 80 be c4 61 d9 bd
       -0.08572268 -0.0138026755 -0.25164655 -0.106143504
0000b0 78 ea 31 3d a0 02 49 bc d0 f1 38 3d 72 f5 15 3e
       0.043436497 -0.012268692 0.045152485 0.14644411
0000c0 55 7a ce be e4 96 f7 bd 17 d6 ef be 58 e4 e3 3d
       -0.40327707 -0.12089327 -0.46843025 0.111275375
0000d0 6f 8c 6a be fd 0d cb bc 9a f8 4a be 62 c0 f9 bc
       -0.22905134 -0.024786944 -0.19821396 -0.030487243
0000e0 00 32 7e 3a 90 d7 ed bc 5e 5d 58 3e b6 ff 86 3e
       0.00096967816 -0.029033452 0.21129367 0.26366967
0000f0 13 c8 ed be c5 d2 0a bf fd 83 cc bd c2 45 0e be
       -0.46441707 -0.5422786 -0.09986112 -0.13893798
000100 07 02 13 be 04 d0 ad 3d a2 cb 5b 3d 2c 80 6e bd
       -0.14356242 0.084869415 0.053660996 -0.058227703
000110 d3 6e 4a be c0 55 65 3e 4e a8 8d 3e 1f 46 0c be
       -0.19768839 0.22395992 0.2766747 -0.13698624
000120 97 8a 7d be 03 2e df 3d b4 43 59 be d7 fc b8 be
       -0.24759899 0.10897448 -0.21217233 -0.36130401
000130 56 09 b8 be dc fd 32 be 97 cf 22 be 71 bd 5b be
       -0.35944623 -0.17479652 -0.15899502 -0.21458985
000140 b1 f8 3b be 94 07 d0 bd 28 65 0c 3e 70 e6 85 3c
       -0.18356587 -0.101576954 0.13710463 0.016345233
000150 0d 58 5b 3e 8e b7 1e bf e9 69 16 bf 50 6f 07 be
       0.21420307 -0.6199883 -0.58755356 -0.13226056
000160 bc c7 25 be 00 78 0b bf b1 f6 b2 be ac 4e c6 bd
       -0.16189474 -0.5447998 -0.34953836 -0.09682974
000170 7a 60 1d 3e 2a 17 c6 bd 8a fb fa bd 38 50 b5 3d
       0.15368834 -0.09672387 -0.122550085 0.08853191
000180 c3 2c 6d be 6a ac ad bc c3 9f 87 be 61 4a 7a be
       -0.23161606 -0.021200377 -0.26489076 -0.24442436
000190 07 a6 33 be 9d 67 50 3d 15 be 01 3e db b4 e0 3b
       -0.17543803 0.050880063 0.12670167 0.006857497
0001a0 74 8f 2f be 64 89 1a 3e c8 78 e6 3d a4 33 fc 3d
       -0.17144567 0.15091473 0.11253506 0.12314537
0001b0 1b 5a 05 bf 71 e5 ef be 6f ce 11 be af c7 91 3e
       -0.52090615 -0.46854737 -0.14238904 0.2847266
0001c0 54 fe 43 be 67 de 8b be f7 37 7c 3d 38 4e 1d be
       -0.19139987 -0.27318117 0.06157681 -0.1536187
0001d0 40 75 ed bb 1c 22 0b be 4a 42 af bd ce 48 47 3e
       -0.0072466433 -0.1358723 -0.085575655 0.19461367
0001e0 ab fb a9 3d 5e 70 10 be 0c 7c cf be 98 eb a2 be
       0.08299955 -0.14105365 -0.40524328 -0.3182037
0001f0 1c 8d 1a be 5c 3e 81 be 22 d2 b5 be 55 bd 0b bc
       -0.15092891 -0.2524289 -0.3551188 -0.008529027
000200 7e 35 83 be 00 0e e4 ba 08 5d 11 bd 00 57 35 3b
       -0.2562675 -0.0017399192 -0.035489112 0.0027670264
000210 97 4d ab be 18 c3 69 be 0a f9 d7 be 9f d2 c8 be
       -0.33457634 -0.22828329 -0.4218219 -0.3922319
000220 6b d4 34 be df c7 97 3d 73 39 a4 be 71 30 71 be
       -0.17659156 0.07411169 -0.3207508 -0.23553635
000230 1c e3 1f be bc de 8d 3e 5a 05 85 3e fa d1 8f be
       -0.15613979 0.27708995 0.25980645 -0.28089887
000240 a3 ed b2 be 57 e0 7d be 3f a8 6a 3e 2a 43 f7 be
       -0.34946927 -0.2479261 0.22915743 -0.4829343
000250 bb 19 c9 bd 4d 3c 15 bd 17 95 00 bf 0c d8 5c be
       -0.09819361 -0.03643446 -0.50227493 -0.2156679
000260 6e e7 0e be 90 3f 94 bc ea 8c 82 bd 8e 17 6f be
       -0.13955471 -0.018096715 -0.063745335 -0.23348829
000270 c1 1f 78 3d 84 7a 86 3e 95 35 59 3e 79 ba 46 bf
       0.060577158 0.26265347 0.21211846 -0.77628285
000280 7d 22 46 bd bc 32 0b be 8a aa 94 bd 5e c4 a7 be
       -0.048372734 -0.13593572 -0.0725909 -0.32767004
000290 63 26 86 be 8a 36 37 3e 79 65 5c be a0 d3 04 bc
       -0.26201162 0.17891899 -0.21523084 -0.008107096
0002a0 99 dd ae be 41 73 5a bd 59 31 95 be 3f e5 86 bd
       -0.3415344 -0.05333257 -0.29139212 -0.06586694
0002b0 b6 b4 0f be d2 e5 db be d3 c6 cc 3b 50 9c d5 be
       -0.1403378 -0.42948776 0.0062492876 -0.4172082
0002c0 48 e6 0d 3e ac db 4d be 6a 81 1f 3e fc 93 93 3d
       0.13857377 -0.2010333 0.15576711 0.0720596
0002d0 53 d5 f7 be 18 46 3c bf 36 dd 9d bd 01 c6 24 3e
       -0.4840494 -0.73544455 -0.07708208 0.16091157
0002e0 b2 c1 7d be cb e9 79 be c3 08 c1 3d 95 c1 1e be
       -0.2478092 -0.24405591 0.09425499 -0.15503533
0002f0 5a 84 89 3e 5c 56 86 3e f0 6c 09 3e 90 8a 08 3d
       0.2685879 0.26237762 0.13420463 0.03333527

image_conv.0.bias f4 [16]
000000 0a d9 a1 be 40 52 27 bf 32 ca f8 bb cb 1d cf be
       -0.316109 -0.6535988 -0.007592463 -0.40452418
000010 a9 b9 97 bd 39 27 8e bd 53 7e a8 be cf c2 04 bf
       -0.07408459 -0.06941075 -0.32908878 -0.51859754
000020 f8 c9 c4 be 0c 6b 59 bd 16 da 75 bc 93 b0 df bc
       -0.3843534 -0.053080603 -0.015005609 -0.027305877
000030 13 91 86 be 04 1c bf be 6c 8a ea ba 7e c7 17 bf
       -0.26282558 -0.37326062 -0.0017894036 -0.59288776

image_conv.3.weight f4 [32, 16, 2, 2]
000000 f7 11 85 be 20 e5 14 3d 73 e3 14 bd 16 a0 28 be
       -0.2599027 0.036351323 -0.036349725 -0.16467318
000010 c0 4a d8 3c cc 05 03 3f cb bd da 3d 0a 7f 3e be
       0.026402831 0.5118072 0.106807314 -0.18603149
000020 3e 67 84 bc 63 40 d0 3c 3d 48 58 bd 1d aa dd bd
       -0.016162511 0.025421327 -0.052803267 -0.10823462
000030 41 d0 cf bc d4 0b 60 3d 9f ef d8 bd 7e f9 ac bd
       -0.025367858 0.05469878 -0.10592579 -0.08446024
000040 2c a4 15 be 9b 18 85 bd 4f 92 33 bd ab 03 21 3d
       -0.14613408 -0.06498834 -0.043840703 0.03931014
000050 35 88 f8 3d 5f 9d 16 3e 81 52 4a bd f2 51 9b be
       0.121353544 0.1470847 -0.049395088 -0.30335957
000060 5e 9f 03 be 3a 09 02 be 17 2e 70 bd c0 53 52 3e
       -0.12853763 -0.12698832 -0.058637705 0.2053976
000070 a6 8d 00 be 04 c1 a5 be 1a e2 95 bd 65 11 3f 3e
       -0.12554035 -0.32373822 -0.07318516 0.18658979
000080 ba bc 27 be 3e 65 72 3d de 00 a5 3c a0 6e 3a 3c
       -0.16380587 0.059178583 0.020142015 0.011378914
000090 f4 91 80 bd 5d 29 fc 3e 68 2a 7b bd f9 93 b0 be
       -0.06277838 0.49250308 -0.06131974 -0.34487894
0000a0 2f c6 18 be 75 a2 78 3c 71 57 11 be f9 d2 a0 3b
       -0.14919351 0.0151754515 -0.14193512 0.0049079624
0000b0 69 ce d1 bc b1 ef 09 bd a9 49 35 be 72 de 04 3d
       -0.02561112 -0.033675853 -0.1770388 0.032438703
0000c0 7d 22 6b bc eb dc dd 3d b6 d0 32 3d cf a3 0a bd
       -0.014351484 0.108331524 0.043656074 -0.033847626
0000d0 95 29 76 be 5a cf cf be ef 08 95 bd 74 ea 3a 3c
       -0.240393 -0.40587884 -0.072770946 0.011408437
0000e0 28 a3 dc bc de 78 37 3e 9d 85 98 3e 03 63 a5 bd
       -0.026933268 0.17917201 0.2978944 -0.080755256
0000f0 f9 4b 45 be e2 bd 4f 3e 2c 5d 31 bd b0 fe 72 be
       -0.19267263 0.20287278 -0.043301746 -0.23729968
000100 03 f9 44 be bb 1f e6 bd ef 01 23 bc 24 2f fe bc
       -0.19235615 -0.11236521 -0.0099491915 -0.031028338
000110 c2 74 14 3e 4c d2 bb 3d 34 88 1a be 17 8a fa bc
       0.14497665 0.0917097 -0.1509102 -0.030583424
000120 26 37 fc 3d 14 20 47 3e 51 70 76 bd c4 3c d1 be
       0.12315206 0.1944583 -0.060165707 -0.40866673
000130 66 bb 72 be 7d 46 b0 bd a6 0f 28 bd 5f f5 16 bd
       -0.237043 -0.086071946 -0.04103055 -0.036855098
000140 89 39 61 bd 06 fd f4 3c d5 45 48 3c 3a 5b f0 bd
       -0.05498651 0.029905807 0.0122236805 -0.1173615
000150 82 2d a5 bc 50 9e 2c be fd ae 97 3b ab ed 2c be
       -0.020163301 -0.16857266 0.0046290145 -0.16887538
000160 c8 d3 11 3e 98 4b 88 3d 66 fa 97 3e d6 9f 83 be
       0.14240944 0.06655043 0.29683226 -0.25707883
000170 19 71 9a be 73 60 03 bf 94 ba 85 3e 59 00 2a be
       -0.30164412 -0.51319045 0.2611891 -0.16601695
000180 bb d8 a2 3d 3f 9f e7 bb ee 8e bc 3c 07 d5 02 3d
       0.07951494 -0.007068544 0.023017373 0.03194144
000190 4c ef 07 3e e6 a2 7c be 94 71 14 3e a5 23 86 be
       0.13274878 -0.24671516 0.14496452 -0.2619907
0001a0 39 ef af 3b 66 08 a2 3d 21 47 0e 3e da ad 35 bd
       0.0053690937 0.07911758 0.13894321 -0.04435525
0001b0 6b a8 32 be 91 11 28 be d3 71 67 3c d7 09 2c 3d
       -0.17447059 -0.16412951 0.014126259 0.04200157
0001c0 ad 84 21 3d 11 bb 3c 3c 62 d0 b9 be 2a 06 74 3e
       0.03943317 0.0115192095 -0.36291796 0.23830476
0001d0 f3 2f 5e 3e 4f ce db be a3 75 d0 3b 8e 42 70 be
       0.21697979 -0.42930838 0.0063616796 -0.23462889
0001e0 ef ee 3b be 29 7d 38 3e e1 e8 6f be f8 4e f0 bd
       -0.18352865 0.18016495 -0.2342868 -0.11733812
0001f0 fd 08 d9 3e 55 87 90 be 3e 27 52 be 94 af 0e 3e
       0.4238967 -0.2822825 -0.20522782 0.13934165
000200 38 18 69 3b 65 70 48 be 27 a0 40 be a7 ea 79 bd
       0.0035567414 -0.19574125 -0.18811093 -0.061014798
000210 2d 33 b9 bd 62 b0 8f 3c 87 54 fc bd 46 df a0 bb
       -0.09042964 0.01754016 -0.1232081 -0.004909429
000220 4a 7b 69 bd 6f ab 5b be 52 7c 34 bd 28 35 72 be
       -0.057002343 -0.21452115 -0.044063874 -0.2365309
000230 bc 24 cb bc a4 76 82 be 8d 8c 07 be e0 3f 6a be
       -0.02479779 -0.2548114 -0.1323721 -0.22875929
000240 1d 8c 04 bd f9 03 80 3d 34 3f 0d be a1 47 4b 3d
       -0.032360185 0.06250758 -0.13793641 0.049628858
000250 06 9c 0e 3e b3 35 4d be f8 d6 7f 3e 92 75 90 3d
       0.13926706 -0.20040016 0.24984348 0.07053675
000260 c8 51 c6 3e d7 4d 09 3e 31 b8 5f be 85 9e 2c b9
       0.3873427 0.134086 -0.21847607 -0.00016462251
000270 47 68 ee 3d d1 0c 22 3d d4 8a 74 bd 97 c6 8c 3d
       0.11640983 0.039563004 -0.05970271 0.068738155
000280 5b 05 82 bd b2 dc f0 bb e3 17 06 be 6e 13 ad 3b
       -0.06348678 -0.0073505277 -0.1309505 0.005281857
000290 85 d9 03 3d 60 86 9e 3d 2f fb 7d bb c6 67 5e bd
       0.032189865 0.07740474 -0.0038754453 -0.054298185
0002a0 d4 bc 83 3d 13 57 a2 3d 85 24 30 bc 8d f9 94 bd
       0.064325005 0.07926764 -0.010750894 -0.072741605
0002b0 39 b3 44 3d 33 9c 9e bd 6f 68 ec bd c6 9b 6e bd
       0.048022483 -0.077446364 -0.115433566 -0.058254026
0002c0 dc de 1a 3e a1 96 87 3e 76 8f 9a be e1 5d 67 be
       0.15124077 0.26482108 -0.30187577 -0.22594406
0002d0 f9 fa a1 bd 58 0e 28 3d ad 64 ba be 01 58 87 be
       -0.07909197 0.041029304 -0.36404935 -0.2643433
0002e0 d1 f6 62 3c 8d f5 79 be 6c bb 8b 3e fa 42 cc 3d
       0.013852791 -0.24410076 0.2729143 0.09973712
0002f0 d8 0e 2d 3d a8 af 1c be 06 13 08 bd 2d 5f bf 3d
       0.042250484 -0.15301383 -0.033221267 0.09344325
000300 47 e2 ac bd 02 52 9c bd bb 35 27 3c 3b e7 23 bd
       -0.084415965 -0.07632829 0.010205681 -0.04001544
000310 50 8f fe 3b 4e 95 0e be ac 18 c1 bd 77 13 27 bc
       0.007768549 -0.13924143 -0.09428534 -0.010197512
000320 7b 6d 68 be 2a 6e 16 be e2 c3 b0 bd 08 4a d1 bd
       -0.22698013 -0.14690462 -0.08631112 -0.102191985
000330 2e ca 9c bd cc e0 87 bd c7 f9 57 bd 8d a9 b0 ba
       -0.0765575 -0.066346735 -0.05272844 -0.0013478264
000340 48 b3 19 3e 54 ee ce bd e1 33 11 3e 24 40 1f bc
       0.15009797 -0.10104051 0.14179946 -0.009719882
000350 97 25 d1 3d 04 5c fe 3d f7 55 1a be 80 a9 8c bd
       0.10212248 0.12419894 -0.15071855 -0.06868267
000360 4f df cc 3d 09 ca 84 bd 46 45 5c bc 7f b9 5b be
       0.1000353 -0.06483848 -0.01344425 -0.2145748
000370 a0 ba f1 bb c0 80 a5 bd 4b 2c b3 bc 18 22 1d bd
       -0.0073769838 -0.08081198 -0.021871706 -0.038362592
000380 36 2b 03 3d ef 16 83 bd 00 fe a5 3c 6b 96 91 bd
       0.03202363 -0.064008586 0.020262718 -0.07108768
000390 ce 65 b2 bd d7 0a 49 3d 7a 3f 96 3c 6c 89 4b bb
       -0.08710824 0.049082603 0.018340815 -0.0031057252
0003a0 98 b7 1a 3e 4f 96 c5 3a 1d 5a fe 3d 6d 73 ee bc
       0.15109098 0.0015074703 0.124195315 -0.029107774
0003b0 38 4b 7a 3d 52 cf 6e bd 1e 67 90 bd a8 88 43 3d
       0.06110689 -0.058303185 -0.07050918 0.047737747
0003c0 9c d6 cc bd 2d d1 a0 bd e3 63 0e be 61 13 3b be
       -0.10001871 -0.07852397 -0.13905291 -0.18269111
0003d0 8e f9 0e be 09 b0 1a be 54 11 f3 bd f1 8b 2d be
       -0.13962385 -0.15106215 -0.118685395 -0.16947915
0003e0 64 18 1b be 1c 7c 1e be 53 fe 61 bd 59 7a c4 bc
       -0.15146023 -0.15477031 -0.055174183 -0.023984121
0003f0 a7 3d eb bd 42 72 4c 3d ce 38 cb bd 56 f1 b3 3c
       -0.114863686 0.049913652 -0.09922944 0.021965664

image_conv.3.bias f4 [32]
000000 13 53 e5 bd 20 0f cf bd 94 ea 92 be f8 a5 78 be
       -0.11197486 -0.10110307 -0.28694594 -0.24282062
000010 43 49 4c 3e cf f6 0c bf 2c 2a 21 be 1c 9e 81 be
       0.19949822 -0.550641 -0.15738744 -0.2531594
000020 cf 00 e7 be 4a 98 e2 bd f2 28 05 be 28 52 b2 be
       -0.45117804 -0.11064203 -0.130039 -0.34828305
000030 24 e1 a9 bc b4 14 16 be e2 3f 9c be 05 f3 6f bc
       -0.020737238 -0.14656335 -0.3051749 -0.014645343
000040 aa 1e 3a bc 11 0b c2 bd 26 de 22 be c4 56 00 3e
       -0.01135985 -0.09474767 -0.15905055 0.12533098
000050 03 e9 98 be a1 03 06 bf 81 40 f7 be 2d 32 82 be
       -0.29865274 -0.5234929 -0.482914 -0.25428906
000060 c2 1d ce be e0 ae a7 be 78 44 b2 be 35 e3 69 be
       -0.40257078 -0.32750607 -0.34817863 -0.22840579
000070 1f d7 90 be e4 35 8a be 05 38 a9 be d5 93 b1 be
       -0.28289124 -0.2699424 -0.33050552 -0.346831

image_conv.5.weight f4 [64, 32, 2, 2]
000000 65 60 16 3b 55 e5 58 3c 21 9a 01 bd fa e3 eb 3c
       0.002294564 0.013238271 -0.03164113 0.028795231
000010 4a a1 0a be 79 b7 d9 3c b9 a0 f0 bd 00 9a 9c bd
       -0.1353809 0.026576744 -0.117494054 -0.07646561
000020 e7 c9 12 3d 0d 53 6b 3d 29 cb dd 3c 44 c1 2e 3d
       0.03583708 0.05745225 0.027074413 0.04266478
000030 2a 8e 63 bd 3b fb 38 3d 0a b2 87 bd a5 e4 89 3d
       -0.0555555 0.045161467 -0.06625755 0.067330636
000040 3f de 79 be fd 1b 8e be 2c 52 5b be 6e 9e 9d be
       -0.24401186 -0.27755728 -0.21418065 -0.30784935
000050 25 87 d8 39 14 b3 78 bd 84 ac 9f bb b0 6c 50 3d
       0.0004129942 -0.060717657 -0.0048728604 0.050884902
000060 d8 53 a6 3a 8d 72 c5 bd 82 eb e6 bd 22 b9 5f bd
       0.0012689782 -0.096409895 -0.11275388 -0.054619916
000070 de a6 28 be 18 ed df bd 61 f2 06 be bd e0 8a bd
       -0.16469905 -0.10933894 -0.13178398 -0.06781147
000080 c8 2b a9 3b 12 cf b5 bd 3d f8 93 be 61 6f 27 be
       0.00516269 -0.08877386 -0.28900328 -0.16351081
000090 27 81 40 bd 6c 2e 15 3c 36 11 de bd a1 12 05 bd
       -0.04699817 0.009105306 -0.108431265 -0.03248847
0000a0 ae f2 c1 bd b0 6f d5 bd 3e 59 02 be 14 8c 82 be
       -0.094701156 -0.10421693 -0.12729356 -0.25497496
0000b0 5d 66 35 be 39 60 15 be 53 f5 21 3e db 88 4d be
       -0.1771483 -0.14587487 0.1581624 -0.20071737
0000c0 01 5c 77 be b0 a4 f0 bd 4f e1 59 bd 05 4f ab 3d
       -0.2415619 -0.11750162 -0.053193387 0.08364681
0000d0 80 d2 97 3d 64 1f 2e 3d 62 f8 c5 bd 9e e8 15 3d
       0.074131966 0.042510405 -0.09666516 0.036598794
0000e0 37 d4 8a bc 17 a3 83 bd c8 5a 3c be 84 8d a3 bc
       -0.016946895 -0.06427591 -0.18394005 -0.01996494
0000f0 af 8f ef bc 2e 41 1a 3d bc 87 d2 3b 01 db 7e bd
       -0.029243318 0.037659816 0.006424872 -0.062220577
000100 4a 50 5f 3d b3 18 5b bd 2f 5d a2 bd 21 20 2e 3d
       0.05451993 -0.053490352 -0.079279296 0.04251111
000110 a9 42 0d be 1b 32 d3 3c c4 e5 23 bd a4 f2 e4 bd
       -0.1379496 0.025780728 -0.040014043 -0.111790925
000120 fd d9 99 3c 8c 31 07 3d 43 d4 31 bb 48 e7 40 bd
       0.018780703 0.033006236 -0.0027134574 -0.047095567
000130 3e 9b e1 bd 45 6b 4a be 55 50 62 be c2 0c ab 3b
       -0.11015938 -0.19767483 -0.22100957 0.0052200267
000140 a0 80 9d bd 84 b2 f9 bd 9a 34 17 be 48 ab 43 bd
       -0.07690549 -0.12192252 -0.1476616 -0.04777077
000150 30 fe 18 be 54 a9 a9 3c 81 5f e3 3c 7a 91 27 bd
       -0.14940715 0.020710625 0.0277555 -0.04091022
000160 85 8b c4 bc 6f c2 d8 3c db 0f 14 be 39 b8 d5 bd
       -0.02399231 0.0264599 -0.14459173 -0.10435528
000170 00 15 d3 bb b5 3d 83 bd e9 88 e1 bd 20 6b ab bd
       -0.0064417124 -0.06408254 -0.11012442 -0.08370042
000180 44 fe 87 bd ed 6a fa 3c d8 16 0e bd 28 42 14 bd
       -0.06640294 0.030568564 -0.034689754 -0.036195904
000190 fd f2 cb 3b cf 89 40 bc 31 b1 9b 3d 51 d7 59 be
       0.006224035 -0.011751606 0.07602156 -0.21273543
0001a0 f3 d5 07 be 71 1c 26 be 9b f8 4f 3d 3f e2 cc bd
       -0.13265209 -0.16221787 0.050774198 -0.100040905
0001b0 34 c3 15 be 0e c3 8f 3d e9 d3 0c 3d 83 4b 4f be
       -0.14625245 0.070196256 0.03438178 -0.20243649
0001c0 46 b6 69 bd 63 44 08 be 21 9f 7c 3d 11 07 c9 bd
       -0.057058595 -0.13307337 0.061675195 -0.09815801
0001d0 a2 41 87 bd 0d 16 28 be 80 e9 59 3c c0 56 12 be
       -0.06604315 -0.16414662 0.0133003 -0.14290905
0001e0 11 4e 89 bd be bf 74 bd 27 f9 e6 bd 9c 4e d1 3c
       -0.06704343 -0.059753172 -0.11277991 0.02555018
0001f0 d5 88 ce bd f0 e1 30 be 93 94 b4 bd 23 01 86 bd
       -0.100846924 -0.17273688 -0.08817401 -0.065431856
000200 0f 76 c4 bb 84 a9 7f bd 78 93 49 3d fb 82 bb bc
       -0.005995519 -0.062417522 0.049212903 -0.022889605
000210 fa c1 f7 bd a5 d5 db bd fc b8 68 bd 06 b5 ae bd
       -0.12097545 -0.10734109 -0.05681704 -0.08530621
000220 eb 56 44 be 56 da 80 be 8a d5 d4 bd 56 89 8c bc
       -0.19173782 -0.25166577 -0.10392292 -0.01715533
000230 34 ba 14 3d 47 da ec 3c ea 8e f1 bd 63 d3 90 bd
       0.03631039 0.028912676 -0.11794837 -0.07071569
000240 c6 36 ec 3d 4f 7c 2f 3e f1 f8 fa bc 1a 69 ad bc
       0.11533885 0.17137264 -0.030636283 -0.02116828
000250 93 b3 08 3e 61 55 43 bc 15 cc c2 bd 47 2b d7 bd
       0.13349752 -0.011922211 -0.09511582 -0.105063014
000260 83 0d a5 bd 00 94 32 bc 70 36 2c bd b0 19 a2 3d
       -0.08059218 -0.010899544 -0.042044103 0.07915056
000270 b5 70 65 be 4f 43 11 3e 02 34 b0 be c5 23 7b be
       -0.22406276 0.14185832 -0.3441468 -0.24525364
000280 a0 e8 8e 3d 66 6d 22 be 90 86 6a bd b0 54 d8 bd
       0.069779634 -0.15862045 -0.057257235 -0.10563028
000290 51 b4 37 bd f8 be 10 be 1d 87 b1 bd 96 5e af bd
       -0.044849698 -0.14135349 -0.08668349 -0.08562963
0002a0 ce af 33 bd 52 5d a2 be 83 46 45 bd b2 ec 7f be
       -0.043868832 -0.31711823 -0.04816295 -0.24992636
0002b0 03 92 3b be ee 6f a7 bd 6f 07 b2 bd 0b 45 64 be
       -0.18317418 -0.08175646 -0.08692824 -0.22291963
0002c0 15 13 94 bd 48 13 ca bd 0d 77 b4 be de 95 bf 3d
       -0.07230202 -0.09866959 -0.3524708 0.09354757
0002d0 a3 6a 3d 3d 9c 04 48 be db e1 18 3e 41 e8 56 be
       0.046244275 -0.19533008 0.14929907 -0.20987035
0002e0 e6 75 3f be c1 0e a5 bd 5e 92 92 3d d3 a5 6b 3d
       -0.18697318 -0.08059455 0.071568236 0.05753119
0002f0 aa a0 27 be 40 a4 57 bd 19 20 a1 3c 77 cb 47 bc
       -0.16369882 -0.052646875 0.019668626 -0.012194506
000300 6a c1 10 be b5 6a 04 bd 16 a3 cb 3c 9d 41 e2 3d
       -0.14136282 -0.032328326 0.024858039 0.11047671
000310 97 92 ae bc ad 98 13 3d 28 09 e6 3c 50 fb 1c bd
       -0.021310134 0.036034275 0.028080538 -0.038325608
000320 8e 5f a0 3d 61 33 2c bd c9 fe ae bd d2 66 30 3d
       0.078307256 -0.042041186 -0.0854469 0.043066807
000330 d2 bb 5a 3c b9 b4 20 be 3e 37 e7 bc fe 43 19 be
       0.013350444 -0.1569394 -0.028224584 -0.14967343
000340 f0 4a c1 bc a5 b5 c4 bd 0c 21 32 be c6 a6 03 be
       -0.023595303 -0.096049584 -0.17395419 -0.12856588
000350 c6 3c 05 be 1c 9d 8a bd 6b d9 05 be 31 6d 77 3d
       -0.13011464 -0.067682475 -0.1307122 0.060406867
000360 d5 da 81 bc 9b 03 17 3c 18 0e b5 bb bf fc ce bd
       -0.015851418 0.009217168 -0.0055253617 -0.10106801
000370 c8 d1 16 3d 16 37 c9 bd ff d1 35 be 13 02 41 bd
       0.036821157 -0.0982496 -0.17755888 -0.04712112
000380 48 3f 37 be 2e 0e 18 be 25 c3 04 be 3e ab 2f 3c
       -0.17895234 -0.14849159 -0.12965067 0.01072198
000390 a4 04 86 3c 0c 16 db bd 90 cb 47 bd d7 22 a3 bd
       0.016359635 -0.106975645 -0.048778117 -0.079656295
0003a0 5d c7 2b bd 67 51 a6 bd 1c 3f df bd 66 8e e1 bd
       -0.041938175 -0.08120995 -0.10900709 -0.110134885
0003b0 cf 4b 21 bd 20 36 c7 bd 1d c6 91 be 8c 41 c3 bd
       -0.039378937 -0.097271204 -0.2847146 -0.095339864
0003c0 27 e7 53 bd 34 b4 af bc 50 46 b7 bb 53 4b ab bc
       -0.051734116 -0.021448232 -0.0055930987 -0.02090994
0003d0 f9 71 f8 bb d8 ce 1e be 04 62 54 bd 52 e3 d8 3c
       -0.007581946 -0.15508592 -0.051851287 0.026475582
0003e0 89 2f e1 3c a5 29 01 bd e0 45 83 bd 36 e5 85 3d
       0.027488487 -0.031533856 -0.06409812 0.06537859
0003f0 12 60 84 bd 32 e7 bb be fe b8 1d be f4 0c c8 bd
       -0.064636365 -0.36699826 -0.154026 -0.097680956

image_conv.5.bias f4 [64]
000000 13 bb 42 be ce c7 5c be f6 cd 42 be 07 bd 6f bd
       -0.19016676 -0.21560594 -0.1902388 -0.05852988
000010 a4 48 c6 bd 7f a4 26 be 69 8f 22 3d e1 f6 b6 3c
       -0.09681824 -0.16273688 0.039687548 0.022334518
000020 da f2 76 3d 76 36 8c be 26 bc 98 be ce 79 19 be
       0.060290195 -0.273853 -0.29831046 -0.14987871
000030 05 32 56 be 03 6a 53 bd 02 12 03 be 91 5a 3f be
       -0.20917518 -0.051614773 -0.12799838 -0.18686892
000040 57 c8 a3 be 75 2b 23 be de 6c c5 bd 6b d7 9f be
       -0.31988785 -0.15934546 -0.096399054 -0.31219038
000050 20 93 41 be c5 1b 2b be 09 c3 cf bd 15 46 0e be
       -0.1890378 -0.16709812 -0.10144622 -0.13893922
000060 d4 f2 74 be 29 34 8d be 30 2b 33 be 15 6c 53 be
       -0.23920757 -0.27578858 -0.17496943 -0.20646699
000070 3d 6f ed bd c8 0d bf 3c 05 36 8c be cd ce 34 be
       -0.11593483 0.023322001 -0.27384964 -0.17657013
000080 9c 0b ac be 25 2e 8b bd 77 15 d3 bd 85 a1 3b be
       -0.33602607 -0.06795911 -0.103068285 -0.18323334
000090 c5 70 bd bc 0e 17 f1 bc 62 d7 cd be e9 9a b3 be
       -0.023125062 -0.029429939 -0.40203387 -0.35079125
0000a0 6e 7e 05 3e 43 c3 6c be be 04 22 be f0 e2 87 be
       0.1303651 -0.23121361 -0.15822122 -0.26540327
0000b0 e9 a5 22 be 16 e6 9d be 1d 3e 3a be e3 a0 43 3d
       -0.15883602 -0.30839604 -0.18187757 0.047760855
0000c0 2d ba 88 3d 5b 89 2f be 9f cb 14 be 1b af 1d be
       0.06676135 -0.1714224 -0.145308 -0.15398829
0000d0 21 29 01 bd d1 ce a3 be ca f1 85 be 43 cd 00 be
       -0.031533364 -0.31993726 -0.26161033 -0.12578301
0000e0 70 9e 30 be 56 03 15 be 76 f0 58 be c5 08 cb 3d
       -0.17247939 -0.14552054 -0.21185479 0.09913782
0000f0 9e a0 0d be 31 37 09 be 4f ed 70 be fa 42 f8 bc
       -0.13830802 -0.1339996 -0.23528026 -0.030305374

actor.0.weight f4 [64, 64]
000000 5b 31 17 3e 99 0f 0e 3d ea 70 f6 bc 87 36 8b bd
       0.14764921 0.034682844 -0.030083138 -0.0679751
000010 d2 e4 18 bd 94 8f f9 3d a1 77 a0 3e 4e a5 2d bd
       -0.037327595 0.121855885 0.3134127 -0.042393975
000020 03 e3 1c bf f7 ec 4a be 27 fe 66 3f 76 c9 ba bd
       -0.6128389 -0.19816957 0.90231556 -0.09120457
000030 d0 0e 10 be 27 40 ef bc 13 4f 81 3d 62 da 70 3e
       -0.1406815 -0.029205395 0.0631391 0.23520806
000040 1a 3b 1e 3d 80 16 aa 3e 3b a1 f5 bd 58 9f af bd
       0.038630582 0.3322029 -0.11993643 -0.08575314
000050 db 76 81 3e 29 93 99 3e 67 06 12 3e 7b ff 81 bd
       0.25285992 0.29995087 0.14260255 -0.06347557
000060 e9 49 0d be 91 57 8c be 5e 58 ce be b4 bc 05 3e
       -0.13797726 -0.27410558 -0.40301794 0.13060266
000070 0c d0 0f be 1a f5 f9 bd 8b b1 00 bd a3 28 22 be
       -0.14044207 -0.122049525 -0.03141932 -0.15835814
000080 90 6b d6 3e 9a ba 2e 3e d2 ea 2f be 79 27 6e 3e
       0.4187894 0.1706337 -0.1717942 0.23257245
000090 f7 d4 5a 3f 94 48 5a 3b 38 91 fa 3d 07 c0 65 bd
       0.8548121 0.003330742 0.122347295 -0.056091335
0000a0 7a 40 02 3d 50 61 b1 bd 75 82 21 3d 2b 82 8d bc
       0.03179977 -0.08661139 0.039431054 -0.017273983
0000b0 e8 ee a3 bd 15 c7 ab 3e 0a ac eb 3e c5 4a 3a 3f
       -0.08004552 0.33550325 0.46029693 0.7277034
0000c0 a7 41 b7 bd e4 83 8f be 88 cc 94 3e c3 9e 78 be
       -0.08948069 -0.28030312 0.29062295 -0.24279313
0000d0 a2 25 d0 be e8 c3 0a be 11 f2 d7 3b db f2 9d be
       -0.40653712 -0.13551295 0.006590136 -0.30849347
0000e0 07 10 71 3e ac 50 0b 3d fa 37 b9 bd 44 30 0c bf
       0.2354127 0.03401248 -0.0904388 -0.5476115
0000f0 93 6e a5 3e df a0 9f 3d a6 41 1b bd d9 d6 26 3f
       0.32310924 0.077943556 -0.037904404 0.6517158
000100 88 6a a1 bd 9e cf 63 3e 2c 32 ca 3d 87 d5 1a be
       -0.07881647 0.22247168 0.09872851 -0.15120517
000110 76 ec d0 bd 66 dd 3b 3d da 64 ca be a5 ca 2d be
       -0.10201351 0.04586544 -0.3953007 -0.16971834
000120 12 57 21 be a0 67 2a 3e 54 13 59 bd 71 b5 2c be
       -0.15755871 0.16641092 -0.05299695 -0.1686609
000130 6b 79 e8 bd 6f b0 57 3c 0a 49 79 3c 42 a8 51 3e
       -0.11351284 0.013164624 0.015215168 0.20474342
000140 f6 7b 5c be 69 55 ac 3e b5 4f 80 bd 39 81 1c 3e
       -0.21531662 0.33658913 -0.06265203 0.1528367
000150 fc b3 3a 3e da 01 73 bd 12 dc 83 be 6b 34 81 bd
       0.18232721 -0.059327938 -0.25753838 -0.06308826
000160 78 4d 07 be 19 1d 86 3e 82 82 b5 3e a3 7c d4 be
       -0.13213146 0.26194075 0.35451132 -0.4150134
000170 2b 7a a6 3d 4a 27 1f 3e 6d 0b 96 be 51 0d 2e be
       0.081287704 0.15542331 -0.29305592 -0.16997267
000180 8f a2 6d 3d 40 fb f1 bb 20 5f 98 bd c4 31 35 3e
       0.058016356 -0.0073846877 -0.07440019 0.17694765
000190 05 f3 0c be 47 ab bf 3d 98 c3 3e bd 8c 1c 01 be
       -0.1376458 0.093588404 -0.04657325 -0.12608546
0001a0 2f 0f 7d be f6 3d 22 be dc 5f 34 be 67 57 7c 3d
       -0.24712823 -0.15843949 -0.17614692 0.06160679
0001b0 4c a5 e5 3d 8d 27 d3 3d e8 8d d4 be 35 72 57 3d
       0.112131685 0.10310278 -0.41514516 0.05259915
0001c0 48 ec ce 3d 5c 9e 8d 3d ae 74 e6 3d 91 fd a2 3e
       0.10103661 0.0691497 0.11252724 0.3183408
0001d0 b8 a3 bc 3e 35 e3 22 be 47 a0 a6 3d 7e 39 3e 3d
       0.36843657 -0.15906985 0.08136039 0.046441548
0001e0 04 f6 d5 bd cc 3b ea bc 1f 4b 5b 3e e4 ab 80 3e
       -0.104473144 -0.028592966 0.21415375 0.25131142
0001f0 5f 67 bf 3d 69 d5 b6 3d 88 77 5b be 0e 9e 68 be
       0.09345888 0.089274235 -0.21432316 -0.22716543
000200 1b f7 6a 3d 37 94 9f bd db 8a 8e bc 51 89 41 3e
       0.057364564 -0.077919416 -0.017400196 0.18900038
000210 b3 36 27 3d 27 e3 2c 3e c2 b5 e8 3e 57 5e 14 3e
       0.04082365 0.16883527 0.4545117 0.14489113
000220 ff 45 56 be ae b5 ae 3d b5 1e a0 3e 01 b2 53 be
       -0.20925139 0.085307464 0.31273428 -0.20673372
000230 76 42 58 3c 4f 85 d8 bd 40 7c 77 be d8 b8 8a bd
       0.013199439 -0.105723016 -0.24168491 -0.067735374
000240 4a 16 21 bd 06 49 aa 3d f5 24 99 be 2c df 20 3e
       -0.039327897 0.08314709 -0.29911008 0.15710133
000250 ea 7b b4 bd 4d 86 b0 be a7 a6 e8 3e 5a d9 b3 3e
       -0.08812697 -0.34477463 0.45439646 0.35126764
000260 0b da 1c be be e2 b0 bb e4 2d ae be 08 27 20 3e
       -0.15317552 -0.0053981235 -0.34019387 0.15639889
000270 85 23 fd bd 1f 69 91 be 77 1e 3a 3e c0 36 9c bb
       -0.123602904 -0.28400514 0.18175684 -0.004767269
000280 97 6e 39 be 0e 21 0d bc cc 29 2a be 90 38 2c bd
       -0.18108593 -0.008613838 -0.16617507 -0.04204613
000290 22 f1 bc 3e 0c b5 3e 3d c3 9e 00 3e 15 85 10 bd
       0.3690272 0.04655938 0.12560563 -0.035283167
0002a0 55 d9 32 3e ce 3b 03 3e 21 39 35 3d 9d 23 55 bd
       0.17465718 0.12815782 0.044243935 -0.052035917
0002b0 96 59 b7 bd f8 49 c4 be 60 9b e1 3d 5d 38 04 3e
       -0.08952634 -0.38337684 0.110159636 0.12912126
0002c0 28 c1 53 3e 7b 54 a3 bd f6 7c a4 be db 1f 19 be
       0.20679152 -0.07975098 -0.32126588 -0.14953558
0002d0 f3 00 04 3d 89 39 a9 3e 66 77 0a 3e 58 cb 0f 3e
       0.032227468 0.33051708 0.1352211 0.14042413
0002e0 85 9d b9 ba 1c 77 ba 3d a5 c4 ec bb ab 3e 26 be
       -0.0014161324 0.091047496 -0.0072255903 -0.16234843
0002f0 24 4f 0f be ca ca 46 3d e2 f5 25 be e8 65 e9 3a
       -0.13995034 0.04853324 -0.16207078 0.001780686
000300 b9 4e 3c be 6a e9 7c 3d 99 39 88 3e e4 d0 b1 bc
       -0.18389405 0.06174604 0.26606444 -0.021706052
000310 88 8f 19 bc 27 09 c4 bd 6b 53 9f bd 07 b4 e8 3e
       -0.009372599 -0.09572058 -0.077795826 0.4544985
000320 42 ae 21 3e ba 54 b3 3d 28 c6 1b 3d 4b 0c 8c be
       0.1578913 0.08756395 0.038030773 -0.2735313
000330 c3 ba 48 3c 5a d5 b5 bc cf c3 45 3e 7a 3f 78 bd
       0.012251559 -0.02219646 0.19312976 -0.06060741
000340 f0 4f 8f be 84 e3 2e 3d f5 46 0c 3c fa 61 2b 3e
       -0.27990675 0.042697445 0.008561839 0.16736594
000350 62 6f 67 bd fc 42 00 bf 1d 4c b7 bd b1 40 87 3b
       -0.056502707 -0.5010221 -0.08950064 0.004127585
000360 7e 90 60 bd e0 d4 fe 3c e1 0a dc bd 51 82 b6 3d
       -0.0548253 0.031107366 -0.107442625 0.08911575
000370 ac b9 16 3e db 1b 1b bd f6 dc 0f 3e 78 b7 3a 3e
       0.14719266 -0.037868362 0.14049134 0.1823405
000380 e5 c1 4b be f3 3e 9b bd c5 1e bb bd 9e 96 1a 3c
       -0.19898184 -0.07580366 -0.09136728 0.009435324
000390 0a 1b 15 be 6f 7d 1e be 63 cf a4 be 92 67 3c be
       -0.14561096 -0.15477537 -0.32189474 -0.18398884
0003a0 28 da 49 be ac ba 61 3c 3e 3b 3e bd ff fc 39 3e
       -0.19712126 0.013777416 -0.046443217 0.18162917
0003b0 e1 ff bf 3d 53 af 59 be 09 0d 06 be 93 6e 89 bd
       0.09374977 -0.21258287 -0.1309091 -0.067105435
0003c0 fb 65 f7 3e 76 7c 3f 3e 88 e6 d7 be ba de 0d bf
       0.48319992 0.18699822 -0.4216807 -0.5541798
0003d0 01 92 ae 3e 5c 02 d7 3e b9 8d f4 3c 05 5d b3 3a
       0.34095767 0.41993988 0.029852735 0.0013684338
0003e0 4b 81 8d be 7f 9b 80 3e 5c 1b ea 3d 38 0c 85 3e
       -0.27637705 0.25118634 0.11431 0.25985885
0003f0 b5 a9 49 be 20 43 10 3e 89 dc 79 bb 7a 06 b1 bd
       -0.19693644 0.14088106 -0.0038125834 -0.086438134

actor.0.bias f4 [64]
000000 14 e8 9d bb d3 cc 1b 3e 70 22 2c bd 83 d9 a7 3d
       -0.0048189256 0.15214853 -0.04202503 0.08195784
000010 25 12 80 bb 1f cd 3d ba c0 d5 c6 3c 6a b1 55 3d
       -0.003908413 -0.0007240343 0.024271846 0.05217115
000020 74 8e 44 3c 04 f7 b0 3c c4 78 be 3d f1 0e d8 bc
       0.011996854 0.021602161 0.09300378 -0.026374312
000030 3d 6e 9b bd 11 0d 03 bc 28 7c 12 3d 90 5b 6c 3d
       -0.07589386 -0.007998721 0.035762936 0.05770451
000040 06 89 4d 3d f3 ed c3 bb b9 f8 89 bd 1f 6e 4a 3d
       0.050179504 -0.0059792935 -0.06736893 0.049421426
000050 69 68 8d 39 40 b1 d5 bc ab 07 16 bc 9e 28 a9 bb
       0.00026971407 -0.026085496 -0.009157102 -0.0051623126
000060 34 ba ab 3b 74 dd 47 bd 24 95 cb 3c 44 9d 4c 3d
       0.005240703 -0.04879518 0.02485139 0.049954668
000070 c7 a4 8c 3c 67 df 35 3d f8 cc b6 3d 3e d0 d9 bc
       0.017168416 0.044402506 0.089258134 -0.026588555
000080 1d 13 66 3d 24 0a e1 bc 57 44 19 3b c2 8f 67 bc
       0.05617057 -0.027470656 0.002338668 -0.014133396
000090 70 7f 65 bc 36 3b b2 bc 2a eb 38 3d e8 e9 d7 3c
       -0.014007434 -0.02175675 0.045146145 0.026356652
0000a0 76 36 66 bc ab b1 0b 3d e2 ae 15 bc cb 5a bb 3c
       -0.01405107 0.034104984 -0.009135934 0.022870442
0000b0 ce ae 36 bc 30 a0 09 bd 77 75 2e bd 7e 14 fc 3c
       -0.011150075 -0.033600032 -0.042592492 0.03077149
0000c0 0f 55 1c bd 66 c4 80 bd 28 34 80 bc 35 48 b0 3c
       -0.038167056 -0.0628746 -0.01564987 0.021518806
0000d0 ee 70 a8 bb eb 53 24 bd 3a d0 8f bc f2 e7 8d 3c
       -0.0051404154 -0.040119093 -0.017555345 0.017322514
0000e0 a3 42 22 bd 52 1f 91 bb 67 c5 d7 bb 31 c7 92 bd
       -0.03961433 -0.0044287825 -0.0065848115 -0.07166899
0000f0 59 1a 71 bd a0 87 29 bd f9 be 61 3d 6a 83 de 3c
       -0.058863018 -0.041389108 0.055113766 0.027162272

actor.2.weight f4 [3, 64]
000000 1d d3 f0 bd 8f 22 ac 3d ee 42 63 3d 19 57 37 3d
       -0.11759017 0.08405029 0.05548375 0.044760797
000010 78 ac a4 ba a7 f7 03 3e eb da 58 bd d1 b6 86 bd
       -0.0012563607 0.1288744 -0.05294315 -0.06577838
000020 40 e0 9d 3d d5 36 19 be b9 cc 3d bd 0a 6d f4 3c
       0.07708788 -0.14962323 -0.046337817 0.02983715
000030 42 0b 00 bd d7 49 d3 bd 53 6c b0 bd 5b 4e 21 bc
       -0.031260736 -0.10316818 -0.08614411 -0.009845342
000040 19 82 9b bd 95 91 26 3d 04 f8 d6 3d 3c d9 00 3c
       -0.075931735 0.04066618 0.10496524 0.007864293
000050 d2 d0 26 be d7 a2 21 be fc fc cb 3d 18 87 22 3c
       -0.16290596 -0.15784775 0.09960362 0.009919904
000060 be c7 26 bd 4e 63 20 be 4c a2 90 3c db 4b 8f bb
       -0.040717833 -0.15662882 0.017655514 -0.0043730563
000070 66 50 39 3e 56 4f 1c bd 73 cd 82 bc f0 d9 6b bd
       0.18097076 -0.0381616 -0.015967106 -0.05758089
000080 76 01 71 bd 4e 95 5f 3e 52 f6 1a bd 75 33 b8 bb
       -0.058839284 0.21834299 -0.037832566 -0.0056213685
000090 75 8b 12 3e 2a 54 50 3b b1 5d 58 3e b9 26 b8 3d
       0.14311011 0.0031788447 0.2112949 0.08991761
0000a0 89 d8 ef bd b2 58 77 3c a2 b2 ab bd 8b 07 26 be
       -0.11711223 0.01509683 -0.08383681 -0.16213815
0000b0 ee 6c 20 bd 55 4d 96 3c bc ac 12 be cc e4 7a bc
       -0.039166383 0.018347422 -0.14323705 -0.0153133385
0000c0 7c a2 41 bd e6 27 70 3d 17 2c 87 3e 2c 32 15 be
       -0.047274098 0.0586318 0.26400825 -0.1456992
0000d0 8b 40 68 3e 78 cd 0d be 41 33 cd bd 74 80 58 be
       0.22680871 -0.13847911 -0.100195415 -0.21142751
0000e0 f1 d8 10 be 69 50 a1 3d 83 72 11 3e c0 44 25 bd
       -0.14145257 0.07876665 0.14203839 -0.04034877
0000f0 ca 05 98 3d 57 3a c1 bb 1a 61 28 bd f1 80 08 bd
       0.07422979 -0.005896847 -0.04110823 -0.033326093
000100 2d ba 8f 3e f8 1d 80 bd ed b1 fa 3d e5 83 88 3d
       0.28071728 -0.06255716 0.12240968 0.06665782
000110 f6 84 a3 3c 84 24 b6 bd 23 c9 44 3e 2f d6 5e be
       0.019960862 -0.088936836 0.19217353 -0.21761392
000120 ef 60 dd 3d dd 35 b0 3d 18 b3 e7 bc 7b 59 e7 3d
       0.10809504 0.086040236 -0.02828364 0.11296364
000130 03 31 d3 3c 8c e4 3c be cc 01 a9 bc 15 8d 89 bd
       0.025780207 -0.18446559 -0.02063074 -0.067163624
000140 91 5f 59 be b2 64 91 bd 63 0a 9d 3d 8c 02 30 be
       -0.21227862 -0.07099284 0.07667997 -0.17188472
000150 4b 00 56 bd d8 bd 8f bd a1 d0 79 bd 0d d5 5f 3e
       -0.052246373 -0.07018632 -0.06098998 0.21858616
000160 e6 19 f4 bc ca b7 46 3e cd 60 e2 bd 48 44 02 be
       -0.029797506 0.19406047 -0.110536195 -0.1272136
000170 31 e1 b2 3d 85 4a 89 bd 09 03 6d bc 59 e8 30 3c
       0.08734358 -0.067036666 -0.014466056 0.0107975835
000180 c7 41 f4 bd ef 1c 13 be 8d 67 37 3c dd 7b 74 bd
       -0.119266085 -0.14366506 0.011194122 -0.059688438
000190 9b d5 2b 3e cc bb b3 bd e3 24 5d bd 75 89 89 bb
       0.16780703 -0.08776054 -0.053990256 -0.0041972944
0001a0 77 b9 90 bd c2 78 97 3d 4a 9b 2b 3e c5 47 a0 be
       -0.070666246 0.073960796 0.16758457 -0.31304756
0001b0 ae 72 66 3d bb 4c a0 bd c9 5c 26 be 39 65 8b bc
       0.05626171 -0.07827135 -0.16246332 -0.01701604
0001c0 5e 9f 23 3e 9f ba 5f 3d 14 cb e7 3d 03 18 13 be
       0.15978763 0.054621335 0.11318031 -0.14364628
0001d0 45 7f 8e be bd 9b 7c 3d e2 18 92 bd 11 10 1a be
       -0.27831474 0.06167196 -0.07133652 -0.15045191
0001e0 f1 85 5e 3e 0e bd 95 bd 4b df 10 3d 2e 0b 0f bd
       0.21730782 -0.0731145 0.0353692 -0.03492277
0001f0 b2 c2 fe 3d 49 cc bd 3b d2 fd 90 bd 66 0e 90 bd
       0.12439479 0.005792175 -0.070796624 -0.07033996
000200 df 84 a4 bd 28 55 cd bd 25 85 91 3d 17 50 00 3e
       -0.08033156 -0.10026008 0.071054734 0.12530552
000210 ae 60 47 bc 7b 56 1b be b3 ed 91 3e b9 5f c0 bd
       -0.012169046 -0.15169708 0.28501663 -0.09393258
000220 11 e6 8d bd 0a 70 6e 3c 6e 3c 0b 3d 79 b0 a6 bd
       -0.06928647 0.014553079 0.033993177 -0.08139128
000230 73 6a 21 3e fe 1b 3a be ca 03 f7 bd 8b 93 30 3b
       0.15763263 -0.1817474 -0.120612696 0.0026943411
000240 df 9d aa bd d7 c5 7d bd 8e db 7e bd 59 47 95 bd
       -0.08330893 -0.061956253 -0.062221102 -0.07288999
000250 e5 4c b8 bd ed 0a ee bb 81 9c 8d be 87 a9 da 3c
       -0.089990415 -0.007264486 -0.27658466 0.026692165
000260 ad 19 0a bd 2f d8 60 3d 10 62 0c 3d 11 7f da bd
       -0.033715893 0.05489367 0.034273207 -0.10668767
000270 e3 53 b4 3e 6c 95 36 3b 3e 09 1e 3d 81 93 30 be
       0.3522025 0.0027860058 0.038583033 -0.17243768
000280 ef 8e af 3b c5 35 70 3e 41 89 d6 bd 7c 0b ef bd
       0.005357615 0.23458011 -0.10475398 -0.11672112
000290 96 7d 28 3e 07 01 a7 3d 9f 2d 03 3d 5d f9 da bd
       0.16454157 0.08154493 0.03202593 -0.106920935
0002a0 f5 bd b2 bd 83 27 16 3e d3 29 58 3e 1f 99 3c be
       -0.08727638 0.1466351 0.21109705 -0.18417786
0002b0 69 b7 e1 3c 71 df 14 3e d3 75 5a be 7c 1c e9 3d
       0.027553277 0.14538361 -0.21334009 0.11382386
0002c0 26 56 a5 bc 47 6b 1a bd 4a 61 c7 b9 6e f7 32 be
       -0.02018268 -0.037699964 -0.00038028724 -0.174772
0002d0 d9 75 72 3e 7b 2a e0 bd 08 a2 06 be 4c 7e 4c be
       0.23677768 -0.109456025 -0.13147748 -0.19970053
0002e0 02 ad de bd 5d ef 0a 3e 9e 4e aa 3d ec 94 31 be
       -0.10872842 0.13567872 0.08315776 -0.17341965
0002f0 b1 87 87 3d 31 9c e3 bc 80 7a 06 bd 66 5a a6 bd
       0.06617678 -0.027784439 -0.03283167 -0.08122711

actor.2.bias f4 [3]
000000 6f 17 9b bd 09 fb d3 3c 58 24 ec 3d
       -0.07572829 0.025876539 0.115303695

critic.0.weight f4 [64, 64]
000000 6a f2 3b 3e 27 b7 ae bd 89 9b 6b 3d 81 e2 53 bb
       0.18354192 -0.08531027 0.057521377 -0.0032331052
000010 35 c3 22 bd 9e e0 09 be 85 4d 07 be 34 53 e3 3d
       -0.039736945 -0.13464591 -0.13213165 0.11099854
000020 da 10 e5 3e 3c 4a e9 3d 79 ba 89 3d 6d d3 3f 3e
       0.4473942 0.11391112 0.0672502 0.18732996
000030 54 7f 9a bd 8e 0a b9 3d bc 04 1f bc 0b c7 84 be
       -0.07543817 0.09035216 -0.009705719 -0.25933108
000040 08 47 84 3c 33 67 4f be 0e 9f 96 be 30 78 6b 3e
       0.016147152 -0.20254211 -0.29418224 0.22995067
000050 4b 6e 6d 3e 7f 2d 2f be c2 1e 29 bf 71 3b d7 bd
       0.23186605 -0.17107199 -0.6606256 -0.105093844
000060 73 01 da bc ce 6f 0c bd f0 00 59 3e 5f 09 07 3e
       -0.02661202 -0.034286313 0.21191764 0.13187169
000070 1d 83 6d 3d e1 e8 4c 3e 37 b6 c2 be f6 fd 0a 3d
       0.057986367 0.20010711 -0.38029644 0.033933602
000080 b6 6a d3 3e 2b ea 36 3e 90 0f 19 3d 23 92 ac 3d
       0.4129235 0.17862765 0.037368357 0.08426311
000090 c8 dd 80 3b 18 ca 84 be 4d 9f 08 3f 27 1b 7f bd
       0.0039326884 -0.25935435 0.53368074 -0.062281754
0000a0 b5 40 e4 bd a9 04 b6 3c 68 9e 2c 3d f4 17 19 3e
       -0.111451544 0.022219019 0.042143255 0.14950544
0000b0 12 99 7a 3e 83 9c 60 be a0 4d 98 bc af 87 56 3d
       0.24472454 -0.21934704 -0.018591702 0.05237549
0000c0 d5 68 d7 bc cb 61 d1 3d 98 41 0c bb f8 8d 91 be
       -0.026295105 0.10223731 -0.0021401402 -0.28428626
0000d0 02 81 e1 3d 61 5c 99 3d 59 21 c0 3d 84 21 d9 3e
       0.110109344 0.07488323 0.093813606 0.42408383
0000e0 93 b7 82 bd c8 09 cb bd b7 f6 e4 3d 3d e2 e0 bd
       -0.0638267 -0.09913975 0.111798696 -0.109806515
0000f0 26 b3 0d 3e 8d 5b a0 3d 46 f8 92 bd 77 f2 29 3e
       0.13837871 0.07829962 -0.07176261 0.16596399
000100 e8 ba 87 3d 25 2e 04 bd ec f2 42 3e 28 2f 39 3d
       0.066274464 -0.03227057 0.1903798 0.045210987
000110 d2 7a 9f 3d c6 ce e3 3d a6 9f e8 bd 3b c0 2b bd
       0.07787098 0.11123423 -0.113585755 -0.041931372
000120 70 a8 ac be 45 75 90 be 17 73 85 bc 90 1a f9 3b
       -0.33722258 -0.2821447 -0.01629023 0.0076020434
000130 1a f1 02 be df b0 3f 3e d1 0e 84 3d 82 a4 22 3f
       -0.12787285 0.18719815 0.064481385 0.6353227
000140 c3 8b 23 3e 73 b1 64 3c 43 ec 67 3e 9d db 36 3d
       0.15971284 0.013958323 0.2264872 0.044643033
000150 d2 07 6e bd 5d f0 5a 3d 25 57 4a be bb bc 84 bd
       -0.058112927 0.053451885 -0.19759806 -0.0648131
000160 75 4d 49 3d 41 51 98 3d bb e9 15 3f 30 5b 9c 3e
       0.049146134 0.07437373 0.5855977 0.3053832
000170 c9 58 f3 3e 93 7c ad 3e ab 79 17 be 7c a4 dd 3c
       0.47528675 0.33884105 -0.14792506 0.027055971
000180 68 db 32 be fa 5f 32 be cd c9 82 bd 85 42 05 3e
       -0.1746651 -0.17419425 -0.06386147 0.13013656
000190 40 34 79 3e 19 05 fc 3d 71 f8 73 3d d8 ff 5e 3d
       0.24336338 0.1230566 0.059563104 0.05444321
0001a0 c4 52 59 3e 97 85 54 bd 7b ee 81 be d0 a2 92 bd
       0.21222979 -0.051885214 -0.2537726 -0.0715996
0001b0 1a cf 2f 3d f5 e3 34 bd f7 c6 52 3c ec ce bd be
       0.042922117 -0.04416271 0.01286482 -0.3707193
0001c0 89 c6 0c 3d 02 d6 54 3d a3 25 33 3e 90 80 59 be
       0.034369025 0.051961906 0.17494826 -0.21240449
0001d0 96 24 83 be 2e 77 0c 3e a9 9e 8c bb 5d 91 a1 bd
       -0.2561385 0.13717338 -0.0042913747 -0.07889054
0001e0 6a cd f1 3d 31 cb a1 bc 70 8b 77 bc b9 7f 8e 3e
       0.11806758 -0.01975021 -0.015108928 0.2783182
0001f0 37 2d 7b 3d 72 10 c1 bd e3 92 19 be 13 24 ab bd
       0.061322417 -0.09426965 -0.14997439 -0.0835649
000200 88 44 99 3d 99 c8 6b 3e 31 a2 95 bc 32 08 f3 bd
       0.074837744 0.2302574 -0.018265815 -0.118667975
000210 34 9c e9 3c e4 e2 08 3d 15 08 8a bd b4 92 3b 3e
       0.028516866 0.033419505 -0.06739823 0.18317682
000220 2e c2 00 be 3e 45 b4 bd 96 7a fa bd af 4c a6 bd
       -0.12574074 -0.088022694 -0.12230413 -0.08120095
000230 90 a0 07 3e 16 a6 91 3e c7 a2 09 bd 2b a4 b8 bd
       0.13244843 0.28447026 -0.033602502 -0.090156876
000240 2b a9 3a bd bf 48 9d bb 7f 66 0f 3d a4 e0 0c 3e
       -0.045571487 -0.004799932 0.035009857 0.13757569
000250 bc 19 bd bd 72 a6 a4 be 9e 59 cd 3c 04 99 23 3b
       -0.09233424 -0.32158238 0.025067147 0.002496303
000260 be e5 d8 bd a0 4a 9f 3d 2c 39 d1 bd 71 92 09 3e
       -0.10590695 0.077779055 -0.10215983 0.13434769
000270 6e c8 8b bd 61 14 1e 3f 07 49 0e 3d 1b eb 5a be
       -0.06825338 0.61749846 0.034737613 -0.21378748
000280 67 77 84 be cd f1 0f bf 99 18 af 3d 32 59 bc 3e
       -0.25872347 -0.56228334 0.085496135 0.367868
000290 7f 87 f8 bc 89 45 6b be 3b ff 21 3e 27 d0 03 3e
       -0.030338047 -0.22975744 0.15820019 0.12872373
0002a0 52 89 d7 3c 73 f5 02 3e d4 f9 ed 3d d4 6b 3f be
       0.026310597 0.12788944 0.116199166 -0.18693477
0002b0 19 90 26 3c 3e fb 7f be 1a d9 cd 3d d0 84 69 3d
       0.0101661915 -0.24998185 0.100511745 0.057011425
0002c0 63 93 7f 3e ba fe 03 be 0a 8d ae 3d a7 60 c8 3d
       0.24958567 -0.12890139 0.08522995 0.0978406
0002d0 3c 79 f4 bd 81 a5 38 bf a5 6f 4e be b3 f7 1f 3e
       -0.11937186 -0.7212754 -0.20159777 0.15621834
0002e0 e7 da 2a be 62 52 be 3b 1d 1c e3 3d c9 88 2b 3e
       -0.16685067 0.0058081606 0.110893466 0.16751398
0002f0 74 de b4 bd a1 a7 20 bd 64 54 0e 3e 1a ec c9 bc
       -0.08831492 -0.039222363 0.1389938 -0.024648715
000300 6a bc 1c 3e fd 25 01 be e3 e8 81 be 28 f5 11 3e
       0.1530625 -0.12612148 -0.2537299 0.14253676
000310 f0 36 31 3c 09 ae 6a be 06 96 d5 3c 34 54 96 be
       0.010816321 -0.22917952 0.026072513 -0.29361117
000320 fe 52 39 3e 41 6a 44 bd 48 69 08 bd 55 8b 63 3e
       0.18098065 -0.047952894 -0.03330353 0.2222112
000330 23 1e c3 be e8 70 8a be 70 8d 7d bc 89 88 92 be
       -0.3810893 -0.27039266 -0.015475616 -0.28619793
000340 c5 f4 d5 3e 70 0e cd 3d f3 c9 8c bd 81 58 42 be
       0.41788307 0.10012519 -0.06874456 -0.18979074
000350 f8 c4 c7 bd 1a 3c 51 bd c0 cb 55 be 27 cc 3d 3d
       -0.09754366 -0.051082708 -0.20878506 0.046337273
000360 2d 7b fc 3d 53 b9 d6 3d 9c 82 56 be db 29 66 bd
       0.123281814 0.104845665 -0.20948261 -0.05619226
000370 cd 59 6c 3d d4 37 0a bf a2 d9 7c 3d 32 f9 04 3e
       0.05770283 -0.53991437 0.06173099 0.12985685
000380 59 68 c7 3c 36 75 79 3e ce a7 2a 3d fe 14 be bd
       0.024341749 0.24361119 0.041663937 -0.09281348
000390 65 de 0e bd 48 64 2a 3e 2a 48 8e 3e 52 b6 27 be
       -0.03488006 0.16639817 0.27789432 -0.16378143
0003a0 67 9e 11 bd 6e 21 d7 3d 89 de 72 be 59 09 f4 3d
       -0.035551455 0.10504423 -0.23717703 0.119158454
0003b0 3c da 22 bd 8e 66 21 3e f6 90 ae be ca 78 a6 bd
       -0.039758906 0.15761778 -0.3409497 -0.081285074
0003c0 41 26 f9 bd 5c a4 b8 3e 37 32 87 3e 8d 20 1c be
       -0.121654995 0.36062896 0.26405498 -0.15246792
0003d0 37 5a 27 3d 20 66 5d 3e 45 0e d1 bc a0 ce 51 bd
       0.04085752 0.21620989 -0.0255195 -0.051222444
0003e0 7c 3e 19 3e 73 c5 d4 3d 95 9a 30 bd 8f 2e ba 3c
       0.14965242 0.10389223 -0.04311617 0.022727279
0003f0 49 e6 c1 3d b2 e2 39 3d f4 58 5a be 9a a4 26 be
       0.094677515 0.04538221 -0.21322995 -0.16273728

critic.0.bias f4 [64]
000000 28 d7 2f bc 34 a1 a7 bc 4c 94 b2 bc b7 e1 41 3d
       -0.01073245 -0.02046261 -0.02179923 0.0473344
000010 08 70 9f bd a9 a4 88 bd 21 0b f3 3a 5e 57 00 3c
       -0.0778504 -0.066720314 0.0018542745 0.00783333
000020 86 b3 28 3d aa fc 14 3d 3a 70 8c 3b 8f 16 8e bc
       0.041186832 0.03637377 0.0042858394 -0.017344741
000030 b1 4b 05 bd bb 5c 4a 3d f1 90 e8 3b 02 58 b2 bd
       -0.032542888 0.04940484 0.0070973565 -0.087081924
000040 a7 4e ea bb 2b 3f b1 bb 78 c2 e0 3b d8 21 f5 3c
       -0.0071504894 -0.0054091415 0.00685912 0.029923365
000050 0a ad 2f bd 16 bd 47 3c dc e8 47 3d 79 a1 4a bc
       -0.042889632 0.012191078 0.048806056 -0.0123676
000060 46 b6 bc bb 72 d6 d5 3c 05 98 25 3d 77 2e 24 3d
       -0.0057590334 0.026103232 0.04042818 0.040083375
000070 be 9d 69 bd 45 70 f0 bc b1 dd f6 3b 20 89 83 bd
       -0.0570352 -0.02935041 0.007533752 -0.06422639
000080 08 b8 7a 3b 9c 8d 59 bd 9b 21 86 3d 25 1f 2c 3b
       0.0038256664 -0.053113565 0.065493785 0.002626368
000090 61 a0 60 bc 06 02 ff 3b 5d 6f 39 3d c8 af 7d 3d
       -0.013710112 0.0077822236 0.04527222 0.061935216
0000a0 ae 47 15 3d c8 c7 18 bc 8f 2a 10 3d 0b bc 07 3d
       0.036445312 -0.009324975 0.035196837 0.033138316
0000b0 92 13 ad 3b 61 00 b5 bd 35 f6 68 bd 2d c9 2d bd
       0.005281874 -0.08837963 -0.056875426 -0.042428184
0000c0 a1 ce 25 3d 34 8b 85 3d 3b ae 05 bb e7 ad 92 3d
       0.04048026 0.065206915 -0.002039804 0.071620755
0000d0 1d b6 f5 3c 13 4a 80 bb be d1 4c bc fe 52 d8 bc
       0.029994065 -0.0039150803 -0.012501178 -0.026406761
0000e0 db 4c 79 bd ca eb 9c bc 93 97 e7 3b c2 ec 35 3d
       -0.06086431 -0.019155402 0.0070676296 0.044415243
0000f0 50 7e 28 bc 21 a2 cc 3c 65 79 a8 3c 1f f7 1d 3c
       -0.0102840215 0.024979653 0.020565698 0.009641438

critic.2.weight f4 [1, 64]
000000 e7 66 bd 3c 5a 9d 0a bd fe 3b 01 3c f0 53 35 3b
       0.023120357 -0.03384147 0.007887838 0.002766844
000010 50 d4 67 3c e2 04 c7 3b f6 8f 1f bc c8 ae e0 3b
       0.01414974 0.00607358 -0.009738913 0.006856773
000020 43 99 8a bb ab 6e 42 bc 6d 23 0d 3c 5b 95 1b 3c
       -0.004229696 -0.011867206 0.008614403 0.009496058
000030 ea aa cf bc a5 b6 96 bd 77 a7 a8 bb 56 2c 3f 3d
       -0.025350053 -0.073590554 -0.0051469165 0.04667314
000040 ff 88 78 3b c2 44 80 3b 2b 31 90 3b 23 d9 6c 3a
       0.0037923453 0.0039144466 0.0044003925 0.00090350414
000050 ac a0 da 3a 21 2a f5 3c 65 c6 57 bd 97 2a 06 3c
       0.0016679964 0.029927315 -0.05267944 0.008188865
000060 fa 93 cf 3b f1 6d 3e 3b 25 d8 85 3a 6b 1d ab bc
       0.006334779 0.002905723 0.0010211511 -0.020888051
000070 55 c1 1e 3d 59 68 30 bb 77 db bc bb 2f c8 86 3c
       0.038758595 -0.0026917665 -0.005763467 0.016452877
000080 e6 ab a1 bb 5f c3 a1 3b b1 a3 ee 3b 57 5e c0 b9
       -0.004933822 0.00493662 0.007282697 -0.00036691382
000090 a3 56 f5 bb 99 8d 59 3b 43 3f f2 3b 80 84 f6 ba
       -0.0074871345 0.003319597 0.0073927953 -0.0018807799
0000a0 0e dc 2c bb 2f 83 17 bb f7 b9 a4 3b 27 1c 94 bb
       -0.002637628 -0.0023118963 0.0050270515 -0.0045199576
0000b0 bc e1 8f 3e 77 15 08 3d e4 1f 15 3c 00 0b 76 3c
       0.2810191 0.033223595 0.009101842 0.015017271
0000c0 e0 bf 7b bc 43 21 1f 3d a1 87 00 3c 78 fb 94 bc
       -0.015365571 0.03885008 0.007844836 -0.018186316
0000d0 11 42 73 bb 5b aa 91 3b 6c ca 3c bc 80 88 e8 3b
       -0.0037118236 0.004445357 -0.0115228705 0.00709635
0000e0 7f 56 dd 3b d8 5d 1a 3c 0d 59 fe bc 33 d8 35 3c
       0.006754696 0.009421788 -0.031048322 0.011098909
0000f0 73 3e 8e bc 24 24 6d ba 82 52 2c bd a4 d0 dd 39
       -0.017363762 -0.0009046218 -0.042070873 0.00042307854
