storage/MiniGrid-ThrowLeftoversNavigation-8x8-N2-v0_22-07-20-17-12-03/status.pt (torch, 255933 bytes, 39 tensors)

image_conv.0.weight f4 [16, 3, 2, 2]
000000 15 9b cb 3d 71 93 03 bd 26 cc e6 3d 73 6a c0 3c
       0.09941689 -0.032123033 0.11269407 0.023488259
000010 cd 67 27 3e a4 fb d7 3d 87 2e 0d 3c 3b f1 4f be
       0.1634819 0.105460435 0.00861705 -0.20306866
000020 24 fb 86 3d fc da 82 be f8 66 1b 3d 50 29 9d 3c
       0.0659087 -0.25557697 0.037939996 0.019184738
000030 46 20 d0 bc 6f bf 89 3e 80 81 65 3d bd fc 1f 3e
       -0.025406014 0.26903865 0.056031704 0.15623756
000040 25 76 25 3e 76 6a 03 be 70 76 94 bd f4 d4 a3 3e
       0.1615835 -0.1283358 -0.07249153 0.31998408
000050 b5 c4 90 be 70 9d a0 bc 70 69 bb bc 9a ac 51 3e
       -0.28275076 -0.019606322 -0.022877425 0.20475999
000060 98 f4 86 bc 85 29 ab 3d 51 bd b6 bb 73 d0 24 be
       -0.016474053 0.083575286 -0.0055767675 -0.16095142
000070 61 5a 0e be 39 04 09 be 81 43 86 be 61 d7 3f be
       -0.13901664 -0.13380517 -0.26223376 -0.18734504
000080 cc 23 8b 3d d8 8c 42 3e 60 fe 68 3c 65 80 07 be
       0.06793937 0.1899904 0.014220804 -0.13232572
000090 9f 0e 19 3e 63 5a 97 bd f0 76 03 bd 9c 8f ee bd
       0.14946984 -0.07390287 -0.03209585 -0.11648485
0000a0 14 92 38 bd c8 bb 85 be 99 66 2e 3e 69 5e 1c 3e
       -0.045061186 -0.26119828 0.17031325 0.1527039
0000b0 f0 dd 6a 3d bc 22 11 3e 7c 92 fa 3d 20 41 51 3c
       0.057340562 0.14173406 0.12234971 0.012771875
0000c0 e0 78 89 3d 8b 45 71 3d bd 7a 43 3e c4 ed 64 3e
       0.06712508 0.058904212 0.1908979 0.22356325
0000d0 96 9b 7c 3e 92 05 4f 3e e9 d4 f0 bc 12 3d a9 3c
       0.24668726 0.20216969 -0.029398398 0.020659003
0000e0 f8 4a 70 bd 3e f6 2b 3e 10 51 03 3d c0 cb 88 3e
       -0.058665246 0.16793153 0.03205973 0.2671795
0000f0 e4 a1 38 3e aa 56 55 be 1d 55 f4 3d 79 b2 9e 3e
       0.18030506 -0.20833841 0.119302966 0.3099554
000100 a3 af 96 3e d0 4e f1 3c a4 bf 0c 3e ed a4 70 be
       0.29430875 0.029456526 0.1374498 -0.23500414
000110 2c 7a bc bd d6 25 10 3e 50 a4 86 be ea c3 80 3e
       -0.0920299 0.14076933 -0.26297235 0.2514947
000120 53 39 22 be ff 05 e1 3d c9 50 a0 3c 20 bc 80 3d
       -0.1584218 0.10987472 0.019569771 0.06285882
000130 70 62 28 3c 3f 4b 87 be f4 e8 a6 bd 1e b4 3f be
       0.010277376 -0.26424596 -0.08149901 -0.18721053
000140 f4 4e 7b 3e 08 24 11 bd 32 2b 93 be 8c 30 8f 3d
       0.24541837 -0.035434753 -0.28743893 0.069916815
000150 3c 14 17 3e fe 68 c4 bd 86 bb 7b bc b4 0e 0d 3e
       0.14753813 -0.09590338 -0.015364533 0.1377514
000160 4d 66 29 be 9b 88 1b be 16 e2 8c bc 5e 2d 46 be
       -0.16542931 -0.1518883 -0.01719765 -0.19353244
000170 64 ad 35 3e 00 6c c1 3c 5a dc 30 3e c0 40 1e 3e
       0.17741925 0.023611069 0.17271557 0.15454388
000180 65 cf 63 be 74 3f 38 be fa 2f 4a be be 51 bb bd
       -0.22247083 -0.17992955 -0.19744864 -0.091464505
000190 96 0a d8 bd dc 85 3e bd c1 fb 8e be 5a 5c fc 3d
       -0.10548894 -0.046514377 -0.27926448 0.12322302
0001a0 9e b2 27 3e 7c 5f bb 3d de d7 3b 3e f4 10 5e 3e
       0.16376731 0.091490716 0.18344066 0.21686155
0001b0 8b a3 96 be 12 f0 39 3d 49 71 86 3e bf a2 4a be
       -0.29421648 0.045394965 0.26258305 -0.19788645
0001c0 16 d3 0d be e3 cb 3f bc 9b 01 3f be b5 ad 25 bd
       -0.13850054 -0.011706325 -0.18652956 -0.040448863
0001d0 d8 b9 2e bd e0 af 83 3e 90 b2 94 bc 22 4c 20 3e
       -0.042657703 0.2572012 -0.018151551 0.15654042
0001e0 81 f7 6a 3e 89 54 14 3e 66 a8 75 be 72 75 75 3e
       0.22945978 0.14485373 -0.2399002 0.23970583
0001f0 4c ef 56 3e 7d bf 34 be ce 2c ae bd 29 b4 6b 3e
       0.20989722 -0.17651172 -0.085046396 0.23017944
000200 c2 ad 8f be 0c 8b 81 be fe 58 48 be 30 38 b8 3d
       -0.28062254 -0.25301397 -0.19565198 0.08995092
000210 8d 3a ba bd c2 79 5a be 36 a8 10 3e 16 e2 38 3e
       -0.09093199 -0.2133551 0.14126667 0.18054995
000220 b3 80 1c 3e f2 72 63 be 83 c6 a5 3e 96 9c a0 3c
       0.1528347 -0.22211817 0.32378015 0.019605916
000230 89 ac 8c be 7c 00 32 bd 18 13 41 3e 4a 22 08 3e
       -0.27475384 -0.043457493 0.1885494 0.1329433
000240 d9 f9 fc 3a 7c df 67 3e 3f f5 6f be 30 29 5c 3e
       0.0019300535 0.22643846 -0.23433398 0.21500087
000250 b0 47 9f 3e 28 8f 34 be 45 8b b8 3d 07 a4 5e bd
       0.3110938 -0.17632735 0.090109386 -0.054355647
000260 9c 8b 79 be 00 db 25 bb 7e 20 c6 bd ec 7c 7c be
       -0.24369663 -0.0025307536 -0.09674166 -0.24657029
000270 d6 44 3b be 75 50 34 3d e4 8b 99 3e ce b4 13 3e
       -0.18287978 0.044022042 0.2998954 0.1442444
000280 58 e9 21 be 10 8a 7b 3e 15 b8 87 3d 6c 70 6d be
       -0.1581167 0.24564385 0.06626908 -0.23187417
000290 40 5a 60 3c 94 c2 3d 3e f8 d0 2d be 60 9e 59 bc
       0.013693392 0.18531257 -0.16974247 -0.013282388
0002a0 fe 07 dd bd a1 54 42 be 21 35 25 be 84 e0 65 3d
       -0.1079254 -0.18977596 -0.16133548 0.056122318
0002b0 5b 82 63 3e ad 24 80 bc f4 36 89 be c9 d6 16 3d
       0.22217695 -0.015642488 -0.26799738 0.03682593
0002c0 08 8c 80 be 20 ea 8a 3c bc 2a 5b 3e 60 51 fc 3d
       -0.25106835 0.016957343 0.2140302 0.123202085
0002d0 c2 b8 19 be 2d 4b 2a bd 40 67 04 3e 05 30 dd 3d
       -0.15011886 -0.0415756 0.12930012 0.108001746
0002e0 83 49 91 be ac 1f 3a be f2 e7 99 bd 6e 83 10 3e
       -0.28376397 -0.18176144 -0.07514943 0.14112636
0002f0 ac 0f 84 3e 92 b9 03 3e 84 55 df 3d 59 d6 7a be
       0.25793207 0.12863758 0.10904983 -0.2449583

image_conv.0.bias f4 [16]
000000 0c 89 6c 3e 8d ca 16 3e 98 70 ae bd 58 7c c8 bd
       0.23099154 0.14725704 -0.08517569 -0.09789342
000010 bc 04 01 3e 0a 38 f0 bd fd 9a 17 3e 9c ed 89 3e
       0.12599462 -0.117294386 0.14805217 0.26939094
000020 fe b2 41 be ee ac 3a be ed b9 c6 bd 4e a5 4f be
       -0.18915936 -0.1823003 -0.09703431 -0.20277902
000030 85 09 b3 bc 89 bf 69 3e 79 76 1a 3e 86 f0 83 bd
       -0.021855125 0.22826971 0.15084256 -0.064423606

image_conv.3.weight f4 [32, 16, 2, 2]
000000 23 9d b2 3c 2a c2 2c bc b6 cb 84 bd e7 e3 e7 3b
       0.021803444 -0.010544339 -0.06484167 0.0070767286
000010 80 0e 3f 3d ee 8f bb bc a2 80 6e bd 81 39 95 3d
       0.046644688 -0.02289578 -0.058228143 0.072863586
000020 08 e2 bb 3c 38 26 e6 bc aa 77 67 3d 71 c6 08 3e
       0.022934929 -0.028094396 0.056510605 0.1335695
000030 7e a2 0c 3d e9 78 4b bd f7 df 0d 3e a5 77 00 3e
       0.034334652 -0.049675856 0.13854967 0.12545641
000040 f0 e7 db 3c 9b bc 64 bc b5 4f 88 bc 48 88 17 3e
       0.026843995 -0.013960983 -0.01663957 0.14798081
000050 0c bd cb 3d e9 1e bd bc 6a c7 1b 3d da bd 84 3d
       0.09948167 -0.023086028 0.038031973 0.06481524
000060 97 4b 92 3d 72 48 09 3d ab 09 d5 bc a8 52 da 3c
       0.07143324 0.033516355 -0.026005587 0.026650742
000070 32 eb 66 3a 26 ab 73 bb 85 00 ce bc 2b cc e2 bc
       0.00088088505 -0.003718087 -0.025146732 -0.027685245
000080 b5 bd 31 bd 73 4c a9 3d 7a 41 9e bd 56 63 bf bd
       -0.04339381 0.08266535 -0.077273324 -0.09345119
000090 26 cd ea 3d 80 f3 8b 3d d7 4d a4 3d 98 22 a6 3d
       0.1146491 0.06833553 0.08022659 0.08112067
0000a0 0a 6a 3f bc a9 12 20 bd 13 b9 54 bd 82 86 db 3c
       -0.0116829965 -0.039080296 -0.051934313 0.026797537
0000b0 68 80 7f 3d a1 6d 99 bd 67 cf 82 bd ba 1a de 3d
       0.062378317 -0.07491613 -0.06387215 0.108449414
0000c0 a1 aa 4f 3d 28 96 f8 3d 31 fd 13 3e 34 b3 e2 3d
       0.050699834 0.12138015 0.14452054 0.110693365
0000d0 15 11 02 3c 30 46 9f bc 3f ec 8e 3d 3f 9d 0c 3e
       0.007938643 -0.019442648 0.06978654 0.1373186
0000e0 f6 5e 9f bd fc 57 a0 3d d1 fe 66 bd 62 0e 81 bd
       -0.07781784 0.07829282 -0.056395356 -0.063015714
0000f0 a9 82 93 3d c0 01 d1 3d c0 fd 96 3d 33 ab 8e 3d
       0.07202656 0.10205412 0.07372618 0.069662474
000100 35 65 7c bc 20 27 d1 3c 05 41 af bd 06 05 81 bd
       -0.015404989 0.025531352 -0.08557323 -0.06299786
000110 63 ed 03 3c de 83 3c bc 82 ca 5b bc 70 83 b4 3d
       0.008052203 -0.011506049 -0.013414981 0.08814132
000120 0c 73 2a 3d 30 8c 16 bd 98 21 da bc 07 9e 9b bd
       0.041613623 -0.036754787 -0.026627347 -0.07598501
000130 f5 4b 9d 3d f1 60 99 bd 7e 02 7f 3d ff 96 61 3c
       0.07680503 -0.07489193 0.062258236 0.01376891
000140 a7 11 ee 3d 40 12 83 bd d5 84 78 bd 0f 00 dd 3c
       0.11624461 -0.06399965 -0.060673553 0.026977567
000150 43 0b a5 3c c7 2b 78 bd 00 d0 12 3e 0e 23 e4 bd
       0.020146972 -0.060588624 0.14337158 -0.11139499
000160 05 1e a8 3d 8b f4 b0 3d 07 ed fa bb d8 fe 8b 3d
       0.08208851 0.08640393 -0.0076576504 0.06835717
000170 40 fa 79 ba d0 8c 8c bd a8 7c c7 3d 5d 55 90 bc
       -0.00095358863 -0.06862795 0.09740573 -0.01761883
000180 f5 bd c8 bc 79 df 0e 3e 26 18 f2 3d d8 ac 94 bd
       -0.024504641 0.13952436 0.11821012 -0.0725953
000190 fd e9 bd bc bc 76 87 3d 4b 4e 9b 3d 7a fe be bd
       -0.023182863 0.06614444 0.075832926 -0.09325881
0001a0 45 61 b3 bd 53 da 6f 3d 08 60 b7 bd 8d d8 d0 3d
       -0.08758787 0.05855782 -0.089538634 0.10197554
0001b0 bf a9 9a bd 5d 8c 82 bd 2e 93 8a 3d 3e b3 8f 3d
       -0.07551908 -0.063744284 0.067663535 0.070166096
0001c0 39 10 15 bd f8 22 a5 bd 84 bb 43 3d 89 51 11 3d
       -0.036392424 -0.080633104 0.04778625 0.03547815
0001d0 3b 9f 3f 3d 40 b3 bb bd 95 2e 2d bc 37 19 21 bd
       0.046782713 -0.091650486 -0.010570188 -0.039330687
0001e0 56 71 d9 3c a2 e0 10 3e 8d 7c 90 bd 76 4b fb 3c
       0.0265433 0.1414819 -0.07055006 0.030675631
0001f0 d9 1e 57 3d 27 1e ad 3d 87 91 01 be f6 f9 ae 3c
       0.052519653 0.08453017 -0.1265317 0.021359425
000200 34 71 01 3e 83 39 2e bd c1 ee d8 3d 4d 37 92 3c
       0.1264084 -0.042535316 0.10592414 0.017848635
000210 71 49 10 3e 77 e9 8d bd 15 3c 4a 3d 98 04 ff 3d
       0.14090516 -0.069292955 0.049373705 0.12452048
000220 0b 8c db 3d d6 71 2b bd 1c bd a4 bd 5e 45 af 3c
       0.107200705 -0.04185661 -0.08043882 0.021395382
000230 49 be 14 bd 09 28 e8 3d dd e1 34 bd 7d 1a 48 3d
       -0.036314283 0.11335761 -0.044160713 0.048853386
000240 19 32 a6 bd af ab 1a 3d 81 4c 0d 3e 2a 8a cc 3d
       -0.08115024 0.037761386 0.13798715 0.0998729
000250 15 f6 9d 3d 3a 31 15 bd 72 44 06 3e f7 f4 fa bc
       0.07712952 -0.0364239 0.13112047 -0.030634386
000260 45 c6 16 3e a5 f5 94 bd 90 91 c8 bc 91 85 1f bc
       0.14724071 -0.072734155 -0.024483472 -0.009736435
000270 ca a0 52 3d cf c6 cc 3d 8f bb 66 3d 81 23 9b bc
       0.05142287 0.09998857 0.056331214 -0.018937828
000280 7a 62 9c bd 86 01 56 bc 26 6c 17 bd 28 1c 3a bd
       -0.076359704 -0.013061887 -0.036968373 -0.04543701
000290 c9 f6 b9 3d 85 8a 2c 3d f1 80 5a bd 2b b5 a3 3d
       0.09080274 0.04212429 -0.053345624 0.079935394
0002a0 41 20 6f bd 61 17 17 bd de 48 49 3c cb ac e4 3d
       -0.05838037 -0.03688753 0.012285439 0.1116577
0002b0 de 85 b7 3d 30 e8 3e bd 35 f1 7e bd f1 b4 95 3d
       0.0896108 -0.04660815 -0.06224175 0.073099025
0002c0 0a c6 72 3c 54 ca 4b 3d f4 0c dc 3c 02 2d 71 bd
       0.014817724 0.049753502 0.026861645 -0.058880813
0002d0 4a 83 ec 3a d8 55 ba bb 0d aa 2b 3c 17 07 da 3d
       0.0018044498 -0.005686503 0.010477555 0.106458835
0002e0 ac 39 9e bd da 37 5d 3d d7 87 21 3e 67 96 96 bd
       -0.07725844 0.054008342 0.15774475 -0.07352906
0002f0 10 a5 8d 3d 54 89 1d 3e d1 51 c2 3d 58 b1 b6 3d
       0.06916249 0.15384418 0.094882615 0.089205444
000300 2c 4a fd bc 7e fa c5 3d d3 31 c9 3c 8b 94 29 3e
       -0.030919157 0.09666918 0.02455989 0.16560571
000310 54 d4 ae bd aa 1e c4 3d 9d ba 05 bd dd 1d 8b bd
       -0.08536592 0.09576161 -0.03264867 -0.06792805
000320 ea d2 08 3e 6c 2b a2 3c b5 ec 90 bd f1 56 de bd
       0.13361707 0.019796096 -0.07076398 -0.108564265
000330 ab 0e 84 bc 26 c6 bb 3c 09 f4 1f bc d1 63 d8 3c
       -0.016120275 0.022921633 -0.009762772 0.026414784
000340 ef 7b 2f 3d 4b 8e f8 3d ce fc b8 bd c5 2e 17 bb
       0.0428428 0.12136515 -0.09032594 -0.0023068648
000350 10 bd cc 3d 8e 82 b5 bd 88 b3 c1 3d 19 cf a5 3c
       0.09996998 -0.08862792 0.09458071 0.020240353
000360 a9 99 92 3d 05 09 4b bd 85 d1 c1 3d b8 ff 40 3d
       0.071582146 -0.04956915 0.09463791 0.047118872
000370 25 b6 78 3b cf 2b 14 3e 62 2c bb bd d5 a6 0c 3e
       0.0037950363 0.14469837 -0.09139325 0.13735516
000380 39 7f f0 3d c3 be 8c bb 4f f7 03 3c ec 2c 04 3e
       0.11743016 -0.0042952015 0.008054568 0.12907761
000390 22 3c 3c 3d 01 e9 b0 bd e7 1f dd bd 8c 50 fe bd
       0.045955785 -0.08638192 -0.107971005 -0.12417707
0003a0 7c 96 d0 bc 6f 0c 0c 3c 25 fe 49 3d 72 85 00 3e
       -0.025462382 0.008547886 0.049314637 0.12550905
0003b0 3d 5a ed bd 69 8d d3 3d 8a 6f 33 3d 7d 81 b0 3d
       -0.11589477 0.10329706 0.043807544 0.08618448
0003c0 bf c0 d2 bd 01 5e 43 bd fd 20 98 bc 8d e4 d2 3d
       -0.1029067 -0.04769707 -0.018570418 0.10297499
0003d0 58 2b d9 bc 15 fd c5 ba a5 09 f5 3c 41 78 2c 3d
       -0.026509926 -0.0015105332 0.029911825 0.04210687
0003e0 9b 02 cf 3c b6 42 3a 3d 1b 6f e5 bc 78 b3 19 3e
       0.025269797 0.045473777 -0.02800708 0.15009868
0003f0 d5 4f 4b 3c 6a fb ae 3d 04 6a ba bd 49 99 2b bc
       0.01240917 0.08544047 -0.09102252 -0.010473558

image_conv.3.bias f4 [32]
000000 a8 07 d1 3c ea bc 97 bd 54 8a 82 3d 44 8c ce bc
       0.025516346 -0.074090794 0.0637404 -0.025213368
000010 05 54 65 bc b8 77 01 3e 5b 24 9d 3c 6c 07 89 3d
       -0.013997083 0.12643325 0.019182375 0.06690869
000020 04 69 cf 3d d7 61 d5 3d e0 54 ca bd dd 45 87 bd
       0.10127452 0.10419052 -0.0987947 -0.06605122
000030 05 d8 20 3d 0c 95 34 bd 66 50 78 bb d3 f1 28 bd
       0.039268512 -0.044087455 -0.0037889718 -0.041246247
000040 d7 d6 5f bd e7 95 07 3e b7 27 24 3e f4 5d 59 bd
       -0.054648247 0.13240777 0.16030775 -0.053068116
000050 07 fb 81 bd 22 bb 23 3c d0 b7 2e bd 86 72 91 bd
       -0.06346708 0.009993346 -0.042655766 -0.07101922
000060 0d ce da bc 39 bc 74 3b ec d3 4b bd 58 56 19 3d
       -0.02670958 0.0037343635 -0.04976265 0.03743586
000070 49 73 7d bc 03 56 d5 3d 55 b3 3f 3c b9 0f ed 3c
       -0.015469381 0.10416796 0.011700471 0.028938161

image_conv.5.weight f4 [64, 32, 2, 2]
000000 84 d8 ed 3d ed 37 80 3d d7 6e 71 3c f0 f4 56 bd
       0.11613563 0.06260667 0.014735899 -0.052479684
000010 ad d6 5a 3d 94 80 1f 3d b5 48 a3 3d 3f 90 8c bd
       0.053427387 0.03894098 0.07972852 -0.0686345
000020 d3 7e 8b 3d 3c 9e be 3d 56 d2 3f bd 54 93 b6 3d
       0.06811299 0.093075246 -0.04683145 0.08914819
000030 dd 91 d5 bc 3b 8b 03 3e 7d 19 11 3d fa 12 26 3a
       -0.02607053 0.12846081 0.0354247 0.0006335225
000040 28 21 61 bd 3c 1b 20 3d 17 81 d1 3d e7 d1 12 bd
       -0.05496326 0.039088473 0.102297 -0.03584471
000050 f4 73 d9 bc d5 86 d0 3d 9f 58 57 3d 1d 06 a4 3c
       -0.026544549 0.10181967 0.05257475 0.020022446
000060 4b b8 18 3d 40 22 96 3d 41 54 d3 3d 50 17 38 3c
       0.03728513 0.073307514 0.103188045 0.011236027
000070 d3 46 d1 bc 5b bd db 3d 34 58 8b 3c e6 06 fc 3d
       -0.025546467 0.10729476 0.017009832 0.12306003
000080 46 55 ff 3c 19 71 b3 3d 39 df ef ba d2 80 41 3d
       0.031168591 0.08761806 -0.0018300778 0.047241993
000090 51 64 29 3b 38 37 42 bc 6d e2 da 3d 88 3f d4 35
       0.0025847147 -0.0118539855 0.106877185 1.5813721e-06
0000a0 7e ca 55 bd 92 d1 07 3d 74 2c 24 3d ff 6e b4 3d
       -0.052195065 0.033158846 0.040081456 0.08810233
0000b0 55 f8 9d 3d e8 be 12 bc d7 9d 47 3c aa d8 ac 3d
       0.07713381 -0.008956648 0.012183628 0.08439763
0000c0 7f 38 42 bb fd 07 59 bd 3e ae 55 bd bb ee c3 3d
       -0.0029635725 -0.052986134 -0.052168123 0.095670186
0000d0 84 71 08 bd f2 3c ae 3d 9c 15 24 bd 09 a9 a2 3d
       -0.033311382 0.08507718 -0.04005967 0.07942397
0000e0 44 c9 4b 3d df da 87 3d 49 b0 2c bd ab e1 c7 3c
       0.04975249 0.06633543 -0.042160306 0.024399599
0000f0 6d 42 fe 3c a6 bc 56 3d 45 74 d8 3d d4 1d a2 3d
       0.031037534 0.052426003 0.10569052 0.079158455
000100 e4 16 6c 3c 09 07 c2 3d 1d b7 d5 3d df f0 28 bc
       0.014409754 0.09473998 0.10435317 -0.010311334
000110 92 70 c9 3d 68 6d 36 bc d8 b1 ba 3d 84 2b 1f bd
       0.09835924 -0.011134483 0.09115952 -0.03885986
000120 92 26 c3 3d 33 15 3c bc 0f 75 9b 3d d0 d3 c2 3d
       0.09528841 -0.011479664 0.075906865 0.09513056
000130 2d 29 b7 bc 36 ae 8e 3c 78 fa f1 3d 52 1f 15 bc
       -0.022358501 0.017417055 0.11815351 -0.009101706
000140 7a 81 87 3d 3f e9 7b 3c 67 69 22 3d 01 58 1f bc
       0.066164926 0.015375434 0.0396513 -0.009725572
000150 d4 0b 80 bb f7 df 97 3d 8f 6b 60 3d 54 5d 7c 3d
       -0.00390766 0.07415765 0.054790076 0.061612442
000160 88 48 43 bd 44 ab dc 3d 3b f5 11 bb 2a 84 c9 3d
       -0.047676593 0.10774854 -0.0022271413 0.098396614
000170 89 e1 a7 3d d9 ba b5 3d b6 74 68 3d c4 65 b3 3c
       0.08197314 0.08873529 0.05675193 0.021899112
000180 6a c3 8b bd 1a 0d 82 bd 60 c0 2d bc 03 43 45 3c
       -0.06824382 -0.06350155 -0.010604948 0.012039903
000190 4c c5 66 bd 03 1c f9 3d 32 fa 2b bd aa 6a 37 bb
       -0.0563405 0.12163546 -0.04198665 -0.002798716
0001a0 36 7e 8f bc 00 52 ce 3d 89 c5 4c 3d 5f 7c ce 3d
       -0.017516237 0.10074234 0.04999307 0.10082316
0001b0 bb ff 96 39 d1 1c ea 3d 03 01 b2 3d aa aa 24 3d
       0.00028800764 0.114312775 0.08691599 0.04020182
0001c0 45 d0 b9 bc 29 f1 81 3c 14 3a 93 bd 03 99 1e bd
       -0.022682318 0.015862064 -0.07188812 -0.038720142
0001d0 5a 63 9d 3d 87 fb 17 bd 27 a4 0c 3d d7 a0 bb 3d
       0.076849654 -0.03710511 0.034336235 0.09161537
0001e0 e6 c3 22 3d be f5 8a 3d ac ab 85 3d f8 ad ad 3c
       0.039737605 0.06785153 0.065268844 0.021201119
0001f0 b7 26 9b 3c 8a 6c 43 3d 13 96 31 3c 61 49 7d ba
       0.01893936 0.047710933 0.010839003 -0.00096621184
000200 d1 2b 6b bc 22 67 58 bd 5c d1 8a bd 9e 88 d7 3c
       -0.014353708 -0.05283273 -0.067782134 0.026310261
000210 36 0b 53 3d c8 b2 2e 3c 11 2a 8b bd f6 53 c6 bc
       0.051524363 0.010662742 -0.06795133 -0.024209958
000220 b1 4a a6 bc 43 2a d5 bc fc 91 32 3d 72 b5 98 3d
       -0.020299288 -0.026021129 0.043596253 0.07456483
000230 1d ff 39 bd 71 95 35 3d 02 ac a9 3c e6 13 bc bd
       -0.04540931 0.04433197 0.020711903 -0.09183483
000240 c8 c8 a0 3b 1f 9e 61 3d 0b 01 65 3d fc 76 c1 bd
       0.0049067475 0.055082437 0.055909198 -0.094465226
000250 3b d5 31 bd a7 e6 d0 bc 04 44 1e bd 07 b6 21 3b
       -0.043416243 -0.025500609 -0.038639084 0.0024675147
000260 3b f5 07 3b e2 b2 e4 bc 1e 96 5d 3d 42 69 4e 3d
       0.0020745534 -0.02791733 0.05409824 0.05039335
000270 00 40 95 3c 0b 4b b1 3c 26 32 99 bd 38 96 53 3d
       0.018218994 0.021642229 -0.07480268 0.05165693
000280 be a2 bc bc c5 eb 89 bd 52 c3 46 3d 9b 36 5e 3d
       -0.02302682 -0.067344226 0.048526116 0.054251295
000290 cb 5d 83 3a dd 0c 14 3d 59 96 07 3d b6 32 e9 3c
       0.0010022459 0.03614508 0.033102367 0.028466564
0002a0 b0 4c 20 bc e0 be 86 3c 80 b1 69 bc 5c 0b 99 bd
       -0.009783909 0.016448438 -0.014263511 -0.0747287
0002b0 15 2a 7c 3d 5b fa ef bc 59 1e 65 3d 8c bb 8d bd
       0.06156357 -0.029294183 0.055937145 -0.06920537
0002c0 a3 10 05 bd 40 3d 9b 3c 84 4a 86 bd 2d 8c 60 3c
       -0.03248657 0.018950105 -0.065571815 0.0137052955
0002d0 59 22 aa 3c ce 77 ab bd 07 63 07 bd 0c 19 01 bd
       0.020768331 -0.0837246 -0.033053424 -0.031518027
0002e0 7d 3b 63 bd cf bd 71 3b b2 6a 98 3d 48 b2 bd bd
       -0.055476654 0.0036886816 0.074422255 -0.0926252
0002f0 69 fb 2a bd 08 3d 75 3d ad dc 99 bd eb d5 1a 3d
       -0.04174367 0.059872657 -0.07512794 0.037801664
000300 e6 10 ac bd 58 e4 91 bd f2 c4 bc 3c db 87 7d 3d
       -0.084016606 -0.07123631 0.02304313 0.06189714
000310 df 8f 51 bc ff 13 73 bd 70 e1 5f 3a 56 e2 35 3d
       -0.012790649 -0.05934524 0.00085403677 0.044405304
000320 dd 19 38 3c ca e5 95 3d a4 b0 5a 3c e9 97 29 bd
       0.011236635 0.073192194 0.0133477785 -0.04140464
000330 82 44 18 3d 2b 57 d3 3c 78 f9 4f bd 47 6e a1 3c
       0.03717471 0.0257984 -0.05077502 0.019705905
000340 8b f1 54 bd 7e aa 81 bd a8 a4 af bc ad 80 0e 3c
       -0.051988166 -0.06331347 -0.021440819 0.008697671
000350 dd 6b 9e 3d 2f c8 0e bd 3e 8f 8d 3d 9f 02 c9 3b
       0.07735417 -0.03485888 0.06912087 0.0061343457
000360 58 60 b8 bd f7 61 65 bd cf c7 3d 3d 08 94 cd bd
       -0.09002751 -0.05600163 0.04633313 -0.10038
000370 7a b8 1f 3d 6b 78 26 bd c1 7e fd bc 36 a0 27 bd
       0.03899429 -0.040642183 -0.03094423 -0.040924273
000380 53 19 2c bd 42 99 3f bd 46 b9 7b 3d 27 f6 a8 bd
       -0.04201634 -0.046777017 0.061455987 -0.08250075
000390 30 d7 cf 3c 37 57 47 3d 67 cf 5e bd b4 b2 4e bd
       0.025371164 0.04866716 -0.054397013 -0.050463393
0003a0 05 8d 6a bd 76 06 b8 3c 53 30 a0 3c 6c c6 5b bd
       -0.057263393 0.022464018 0.019554293 -0.053656027
0003b0 65 ba 4d 3c b2 a5 3a bd 0a 26 92 3d 25 03 6d bd
       0.012556647 -0.045568176 0.071361616 -0.057864327
0003c0 24 1e da 3c f5 19 b0 3d c6 7e 66 3d cd ce 6a 3d
       0.0266257 0.08598701 0.056273244 0.057326127
0003d0 04 ab 22 bb 31 49 e3 3c 93 fc a8 bd 8f f8 15 bd
       -0.0024821172 0.027744861 -0.082513 -0.036613997
0003e0 79 f6 b3 bd 0d f4 78 bc 9d 1d 6a 3d 21 cc ab bd
       -0.08787245 -0.015194905 0.057157148 -0.08388544
0003f0 c5 2b 19 bc 9a 44 26 3c e2 c8 b2 bd f8 3f 20 bd
       -0.009348814 0.010148192 -0.087297216 -0.039123505

image_conv.5.bias f4 [64]
000000 12 a6 e9 3b b2 c4 02 3d 84 4f fd bb 13 bb 9d 3d
       0.007130393 0.031925865 -0.0077304263 0.07701697
000010 e1 58 81 bd 20 5a d3 3b 10 cc d7 3c a6 b0 95 bc
       -0.063157804 0.0064499527 0.026342422 -0.01827271
000020 aa ac 41 bc 82 fc b0 bd 1b d6 d0 3c 3d 8f e8 3d
       -0.0118209515 -0.08641912 0.025492718 0.113554455
000030 a3 f9 29 3d 2a 49 c3 3d d9 de 4a bd 5a 2c f7 bc
       0.041497838 0.09535439 -0.04952893 -0.030172516
000040 33 e5 42 3d cd 89 cf 3d bf bd fa 3b 54 8d 6d bd
       0.047581863 0.10133705 0.007652014 -0.05799611
000050 6c b2 b4 bb 48 41 9a bc a2 f8 0d 3d d8 73 a1 bd
       -0.0055144336 -0.018829957 0.034660943 -0.078834236
000060 72 a0 a8 bc 5c 00 75 bd c4 31 84 bd 58 0b 91 bd
       -0.020584319 -0.059814796 -0.064548045 -0.07082242
000070 d8 e1 aa 3d 6f 0e 0f 3d 74 92 e3 3d f9 54 60 3d
       0.083438575 0.034925874 0.11111918 0.054768536
000080 00 74 53 3d 1a 07 57 3d 75 e7 98 bd 30 4f 91 bd
       0.051624298 0.052497007 -0.07466022 -0.07095182
000090 20 b0 25 3d a3 ab b3 bd c7 91 22 3d 62 c6 0f 3c
       0.04045117 -0.087729715 0.039689805 0.0087753255
0000a0 75 4b 26 3d 6d 72 97 3d f2 d1 9c bc c5 23 61 3a
       0.040599305 0.07394872 -0.019143078 0.0008588399
0000b0 df 4e 91 bc ce 6e 83 3d c0 3b 10 bd e6 ae 65 3d
       -0.017737804 0.06417619 -0.035213232 0.056075
0000c0 b9 eb 3e bd e9 fa 58 bd df 12 47 bd 73 25 c7 3d
       -0.04661152 -0.05297366 -0.04860198 0.0972394
0000d0 61 98 a6 3d 72 20 35 bd fa b9 61 bb 46 a0 8b 3d
       0.08134533 -0.044220395 -0.0034443126 0.06817679
0000e0 ee 08 7f ba 48 40 64 bd 8d c4 48 bd 95 ab 62 3d
       -0.00097288087 -0.055725366 -0.04901557 0.055339415
0000f0 86 b9 95 b9 a6 7b ee bc ce 08 75 bd 6e dc 11 bd
       -0.0002855772 -0.029111695 -0.05982285 -0.03561061

actor.0.weight f4 [64, 64]
000000 18 81 1d 3d 6b d2 2e 3e 55 13 50 bd e9 15 b8 3d
       0.03845319 0.17072456 -0.050799686 0.08988554
000010 59 bd e4 3d 73 60 41 be 25 57 ff 3d 7e 71 e6 bc
       0.11168928 -0.18884449 0.124677934 -0.02813029
000020 c1 08 44 3e 55 ba 86 3e 09 d8 1e 3e ac 96 ac bc
       0.19143964 0.26314035 0.15512098 -0.02106794
000030 9f 71 0a be ae 88 73 bd 23 81 8c bd 63 f2 99 3d
       -0.13519906 -0.05945652 -0.068605684 0.07516935
000040 30 7c bb bc 9d d7 42 be 9a 03 c1 3d ee e9 6e bb
       -0.022886366 -0.19027562 0.09424515 -0.003645535
000050 ec ac 56 be a1 72 15 be f2 d0 a3 bd b6 bf 5e bd
       -0.20964402 -0.14594509 -0.079988375 -0.05438205
000060 c5 30 d3 bd a9 9d 9c bd 6a 0d b4 bd bd 84 ec bd
       -0.103120364 -0.07647259 -0.08791621 -0.11548755
000070 d7 2f 69 bb 80 fd df bd b7 ff 7d bd fb 08 c0 bc
       -0.0035581493 -0.10937023 -0.062011447 -0.023441782
000080 d9 cd db 3d 62 48 a5 bc 74 82 84 3d 32 64 f4 3d
       0.10732622 -0.020176116 0.064701945 0.11933173
000090 44 75 de bd c9 6d 68 bd 80 ab c5 bc 60 b4 7a bc
       -0.108622104 -0.056745324 -0.02412963 -0.015301794
0000a0 9a ba 38 3a 62 bc 1c bd a9 ef eb bc 8b 96 df bc
       0.0007046849 -0.038265593 -0.028800802 -0.027293464
0000b0 e3 13 8b bd ab ba 91 be bd fa 97 3e 96 43 5b be
       -0.067909025 -0.2846273 0.29683486 -0.214125
0000c0 61 31 c7 3c a9 7c e1 bc cc d3 b0 bc 26 1d 14 3d
       0.024315538 -0.027525263 -0.021585368 0.03616061
0000d0 79 8d cb bd aa 28 e3 bd 23 d3 85 3d 32 94 77 bd
       -0.09939093 -0.110917404 0.06534412 -0.060444064
0000e0 d9 d0 22 be 68 a0 b0 bd 67 30 9c 3e a9 c5 34 be
       -0.15899982 -0.08624345 0.30505678 -0.17653526
0000f0 8b 8d 23 3d 54 bf fb 3c be c4 18 be 3c d1 92 3e
       0.039929908 0.03073088 -0.14918801 0.28675258
000100 75 bf d0 3b f6 07 b0 bc b7 c9 58 3e 65 91 c1 bd
       0.0063704797 -0.021488171 0.21170698 -0.0945156
000110 55 3a bb 3a d2 b3 66 be c8 61 cc 3d d3 83 cf 3d
       0.0014284352 -0.22529534 0.09979588 0.10132565
000120 dc 12 6d bc b7 25 5d 3e 0a e1 8c be 47 99 01 3e
       -0.014469828 0.21596418 -0.2751544 0.12656127
000130 dd 4d 11 be c1 61 0a bc 94 e8 3d 3d 6e 46 f8 bc
       -0.14189859 -0.008446158 0.046364382 -0.030307021
000140 2c 0d 13 3e 5d bf 76 3d a7 c3 3c 3e ea ee 83 be
       0.14360493 0.060241092 0.1843401 -0.25768214
000150 fe 8e e9 3d 26 ea ae bd be e7 67 3d 52 d9 0e be
       0.11404227 -0.08540754 0.05661749 -0.13950089
000160 a4 21 18 be 4d eb d1 3d 99 01 e3 3d de 03 3a 3d
       -0.14856583 0.10249958 0.11084289 0.045413844
000170 96 5f 26 3d dd 72 7a 3e d1 e9 fb 3c 4e a5 1a 3e
       0.0406185 0.2445788 0.03075114 0.15102121
000180 6a 5d bf bd 9f c3 55 be 4c 86 af 3d 72 51 fc bd
       -0.09343989 -0.20875405 0.08570537 -0.12320222
000190 b3 a4 f2 3d b3 7f 40 3e cf c3 99 bd a9 98 9c 3d
       0.1184782 0.18798713 -0.07508051 0.07646305
0001a0 50 7d 1c be 7e 2e 24 3e fe bb 1c be 43 87 b3 3d
       -0.15282178 0.1603336 -0.15306088 0.087660335
0001b0 9d e5 b6 bd a3 64 86 3d b0 11 21 3e f2 fe 28 bd
       -0.08930514 0.06562164 0.15729403 -0.04125876
0001c0 b3 fb c9 bd be d6 a6 bc 22 63 63 bc 22 13 92 3d
       -0.09862461 -0.020366069 -0.013878616 0.071325555
0001d0 29 5c aa bd dc 18 e6 3c e7 a4 53 3e 55 79 04 be
       -0.083183594 0.028088026 0.20668374 -0.1293691
0001e0 89 0a 01 be 32 ff 7d be fd 4c 81 bd db e6 da 3d
       -0.12601675 -0.2480438 -0.063135125 0.106885634
0001f0 52 a7 a9 3b 51 a0 8a bc 8f a1 94 3c 6e 01 3a 3d
       0.005177417 -0.016922148 0.018143443 0.04541152
000200 da 0f 18 be 09 4c 12 3e ee 7e 02 be b1 44 50 be
       -0.14849797 0.14286818 -0.12743732 -0.20338704
000210 35 39 aa 3d 3f 6c 8e bd 05 62 a2 3c 97 74 f7 bd
       0.083116926 -0.0695424 0.01982213 -0.120827846
000220 b3 e8 de bc 50 bb b5 bc 2d 61 43 be 5b 66 d9 3d
       -0.027210569 -0.022184044 -0.19080038 0.10615226
000230 49 9e 80 3d 01 9b 21 3d e1 d7 a1 bd 06 8d 6d 3d
       0.062801905 0.039454464 -0.07902504 0.05799582
000240 ce ed 12 3d b8 5f 91 3d b7 09 a4 3d 7f 3c 83 bd
       0.03587132 0.07098335 0.080096655 -0.06408023
000250 c3 e0 4f 3e 03 f8 bb bd f1 bc 13 3e ff f3 93 3c
       0.20300584 -0.09178164 0.14427544 0.018060682
000260 d4 0b 26 be 40 c3 9b be 15 b1 cc bc 5f 82 06 3e
       -0.1621545 -0.304224 -0.024986783 0.1313567
000270 b4 17 71 bc 2a 36 bd 3b 28 5f 50 3c 1b 09 81 bd
       -0.014715124 0.005774279 0.0127179995 -0.06300565
000280 e5 8d 82 bd 2a f8 dd bc b6 a3 8d bc 18 2d 0c 3e
       -0.063747205 -0.027095873 -0.017289978 0.13689077
000290 35 07 ec bd 9d 06 b6 3c 23 9e 38 be 31 d5 3d bd
       -0.11524812 0.02221995 -0.18029074 -0.046345893
0002a0 22 4a 2a be 39 8c 30 bc 5c f5 7d bd 1d bd ee 3d
       -0.16629842 -0.010775619 -0.06200157 0.11657164
0002b0 17 e1 b6 3d 40 cb b0 3d 1d 34 f7 3c d1 7c fb bd
       0.08929651 0.08632517 0.030176217 -0.12279666
0002c0 27 f2 8d be 53 91 17 3d a6 19 28 be 81 98 2c be
       -0.2772381 0.037003826 -0.16416034 -0.1685505
0002d0 25 63 82 3d f6 af 39 be 6c 7a 4e be 0c a5 d5 bd
       0.063665666 -0.1813353 -0.20163888 -0.10431871
0002e0 af 9e 33 be bf 38 bf 3e 32 f6 e1 3d 12 25 ef 3d
       -0.17541002 0.3734798 0.11033286 0.116769925
0002f0 09 bc be 3d d7 32 31 3b d0 11 8d 3d f9 a1 9b bc
       0.093132086 0.002703836 0.06888163 -0.018998133
000300 db 34 c8 bd b2 2b 10 3e a0 86 04 be 60 77 8b bd
       -0.097757064 0.14079168 -0.1294198 -0.06809878
000310 4b bf dc bd c7 79 84 3e db 81 c2 bb 38 bc 1d bc
       -0.10778674 0.2587416 -0.00593589 -0.009627394
000320 11 3f 8b 3d 25 dc 17 be ca 1a ad 3d 1a 02 eb bd
       0.06799138 -0.14830072 0.08452375 -0.1147501
000330 e4 c3 0a be a9 f6 f6 3d 6f 6c 5e 3e 45 c4 3a 3e
       -0.13551289 0.120587654 0.21721052 0.18238933
000340 a4 43 46 be 47 43 39 3d a0 59 7c 3d 9d d4 3a 3e
       -0.1936174 0.045230176 0.06160891 0.18245168
000350 fb 67 5b bd c4 9c 44 3d e3 8a 0f 3d 72 af 8d bd
       -0.05356596 0.048001066 0.035044562 -0.06918229
000360 67 ca 5a be 37 11 11 be 6b 41 8e 3d 97 87 e6 3b
       -0.21366273 -0.14166723 0.06946071 0.0070352065
000370 5e 0d 31 3c fb 79 8f 3c e7 cc 4a bd 41 c4 e5 3d
       0.01080641 0.01751422 -0.049511816 0.11219073
000380 06 8f 9b 3d 35 4d 18 bc d5 4c ef 3d c4 a8 b6 bc
       0.07595639 -0.009295751 0.116845764 -0.02229727
000390 2d 7a 4b bd 62 35 8e 3c c5 ca c3 3c 36 de 5b be
       -0.049677063 0.01735944 0.023900399 -0.21471485
0003a0 4c 06 d2 3c 37 34 0a 3e 65 1d 32 3e 34 8f e1 bd
       0.025637768 0.13496481 0.17394026 -0.11013642
0003b0 66 69 9f bd 34 23 50 be a0 38 df 3d 44 1d d4 3c
       -0.07783775 -0.20325929 0.10899472 0.025892861
0003c0 57 b0 d5 bd fa df 18 be d8 aa 3e 3d 96 c3 06 bc
       -0.10434025 -0.1492919 0.046549648 -0.008225342
0003d0 ce 52 31 3e 08 49 5b be 6c 93 bf 3d 2a 6c a3 be
       0.17316744 -0.21414578 0.0935429 -0.3191846
0003e0 d7 1a 51 be 83 43 13 3e 2b 1b 2c bd 40 f4 b2 bc
       -0.20420395 0.14381222 -0.042018097 -0.021844983
0003f0 95 4d 64 be 84 e4 91 3b 4d 8a 00 3e ec a2 71 3d
       -0.2229522 0.00445229 0.12552758 0.058993265

actor.0.bias f4 [64]
000000 34 94 ee bb 7a a7 36 3c 62 c9 99 3b 15 04 42 bb
       -0.007280851 0.011148328 0.004693196 -0.0029604484
000010 f2 6d df bb c6 70 10 3c 46 11 39 3a 76 78 9b 3a
       -0.0068185264 0.00881595 0.0007059764 0.0011861462
000020 ee 71 38 bc 19 9f 91 3a 05 76 2d ba 4c 0a 2a b9
       -0.011257632 0.0011110037 -0.00066170126 -0.00016216299
000030 4d b6 e8 bb 42 75 8e 3b 3a 6a c3 bb 34 6b 55 3b
       -0.00710181 0.0043474743 -0.005963591 0.0032565119
000040 d4 65 d2 39 d9 3c ca bc 29 bf 9d 3b b3 25 be bb
       0.0004013019 -0.024687218 0.004814048 -0.005802834
000050 0b 48 76 ba 4a 8f 8b bb b4 ce 2f 3b 5b c9 f5 ba
       -0.00093948905 -0.0042590247 0.0026826086 -0.0018752025
000060 26 60 6e 3c f2 fa 19 3c 3b 72 d5 3b 0d 6d 91 bc
       0.014549291 0.009398209 0.0065138615 -0.017752195
000070 e2 84 cf 3b 42 30 b6 bb 80 ce 08 3c ca 82 e1 bb
       0.0063329795 -0.005559952 0.008350015 -0.0068820463
000080 46 29 7f bc 52 97 a2 3b 62 90 eb bb 4c 11 84 3c
       -0.015573805 0.0049618864 -0.0071888426 0.016121529
000090 9e 9a 93 ba 97 45 93 bb 0c 46 19 3b d4 d2 82 b9
       -0.001126129 -0.0044943797 0.0023387698 -0.0002495261
0000a0 fa 80 b8 3b a0 66 b6 ba c2 a5 ab ba 33 21 86 3c
       0.0056306096 -0.0013916083 -0.0013095664 0.016373252
0000b0 d0 83 b8 bb a0 c1 8f bb 5c f5 11 3a c7 2f 4a 3b
       -0.0056309476 -0.0043870956 0.00055678724 0.0030851231
0000c0 59 aa f7 3a ae 9e 07 bc 65 45 07 bc 7a 18 28 3c
       0.0018895372 -0.008277578 -0.008256291 0.010259742
0000d0 7a de 83 3b f7 b5 0e 3c 07 a0 23 3c 56 d6 be bb
       0.004024324 0.008710376 0.009986884 -0.0058238907
0000e0 13 ed e4 3a da b5 c6 bb 1b c9 bc bb 10 1b 8d 3a
       0.0017465673 -0.006064159 -0.0057612783 0.0010765512
0000f0 d6 ad 72 3c 73 4d da ba ea de 1d 3c 3d a9 3b 3c
       0.0148119535 -0.0016655162 0.009635666 0.011453924

actor.2.weight f4 [17, 64]
000000 bd 8c d9 bd c7 dc f4 bc ea 2e c0 3c 8e 09 2b 3e
       -0.10622547 -0.029890431 0.02345987 0.16702864
000010 5c 2a 06 3d 0b 9c 93 3d 9b 93 e2 3d 78 53 8c 3e
       0.03275524 0.07207497 0.1106331 0.27407432
000020 c1 93 26 3e bd a7 e4 3d 14 16 47 bd 5f 5d 23 bd
       0.16267301 0.11164806 -0.04860504 -0.039883967
000030 d7 91 81 bd 13 ba c6 3d 8d 3a 0a 3d c0 0f 44 be
       -0.06326645 0.097034596 0.033747245 -0.19146633
000040 14 e5 91 bd 1c f1 43 bd 9d f1 9f 3d 2e 4d 92 3d
       -0.07123771 -0.04783736 0.07809756 0.07143627
000050 9c bf 65 3e 5d 64 90 3e 02 16 2b 3e 9c 89 1b 3e
       0.22436374 0.2820157 0.16707614 0.15189213
000060 a3 08 01 3d ef c0 c9 bc c2 d4 46 be ac 58 03 3e
       0.031502377 -0.02462813 -0.19417098 0.12826794
000070 18 2e 40 be c5 80 11 3c fa 54 5f 3e c6 8e bf bd
       -0.18767583 0.008880799 0.2180976 -0.09353404
000080 5a 28 ff 3d db e4 b3 bc 86 00 ae bc 8c ce 58 3d
       0.12458868 -0.021959713 -0.021240484 0.052931353
000090 05 30 6e bd 34 12 d5 bc 98 36 44 3e 77 fb 5f 3d
       -0.058151264 -0.026009656 0.19161451 0.054683175
0000a0 96 a7 d5 bd 85 68 0d 3d 85 cf 3a 3e a3 55 6d bd
       -0.10432355 0.034523506 0.18243225 -0.057942998
0000b0 cc b9 c7 bc 73 ce ad 3c 57 a0 60 bd 09 49 3c be
       -0.024380587 0.021216607 -0.054840412 -0.18387236
0000c0 23 79 d7 3c d2 69 31 3e ae 6e c1 bd a1 b6 ac bd
       0.02630288 0.17325523 -0.094449386 -0.08433271
0000d0 0b 6d 3b 3d 88 48 49 3c 8f 4a 2e 3e 09 91 88 3d
       0.04575829 0.012285359 0.1702063 0.06668288
0000e0 a3 6b 54 3e 55 b3 c9 3d 89 ec 3c 3e 16 84 c3 bd
       0.20744185 0.09848658 0.18449606 -0.09546678
0000f0 d3 bd 05 3d 0b 9a 3e bd b1 bf 8d be 20 59 04 3e
       0.032651734 -0.046533626 -0.2768531 0.12924623
000100 22 01 f2 3a 3c ef 76 bd a1 7d d8 bd be a6 00 3e
       0.0018463472 -0.060286745 -0.10570837 0.12563607
000110 c4 3c 1e 3e 13 0f 86 bc 22 44 1e be 69 39 63 3e
       0.15452868 -0.01636461 -0.15455678 0.22189869
000120 17 52 4c be 86 28 8d bd e7 4b 42 39 c8 e4 cb bc
       -0.1995319 -0.06892495 0.00018529558 -0.024889365
000130 65 c5 43 be 25 8b c8 bd fd 9a f8 bb 84 26 67 be
       -0.19118269 -0.09792165 -0.0075868354 -0.22573286
000140 b5 67 9a 3a 6d a1 82 3c d0 ff 25 3d db 5c 60 be
       0.0011780175 0.015946114 0.040527165 -0.21910422
000150 9b 7e 58 be 8b 4d fd 3d 7e e2 7b be 63 57 40 bc
       -0.21142046 0.12368306 -0.24598119 -0.011739585
000160 53 1d 50 3d 89 ec 99 bd f9 c7 1f bc 9f a8 fd bd
       0.050809216 -0.075158186 -0.009752267 -0.123856775
000170 9c 41 05 bb ae 43 f9 3c a0 14 fa 3b 05 b1 58 3d
       -0.0020333296 0.03042778 0.007631853 0.052903194
000180 91 25 1d 3e cd 4f 0b be 76 ef a4 3d e0 a3 85 bd
       0.15346362 -0.1360466 0.08053486 -0.06525397
000190 d7 e9 c1 3c 7c 5a 31 be 36 d0 b8 bc a9 d6 cd bd
       0.023671074 -0.17319673 -0.02256022 -0.10050709
0001a0 e4 fb bd bc fd 5e 0e 3e c4 8b 0b 3d 41 89 65 bd
       -0.0231914 0.13903423 0.034068838 -0.0560391
0001b0 88 dd 6b be 15 cb 8b 3d 6e b3 6f 3e ff 6b f0 bd
       -0.23033726 0.06825844 0.2340829 -0.117393486
0001c0 73 08 a8 bd e1 41 4a 3d dc d2 65 be 02 cb 4a be
       -0.082047366 0.049379233 -0.22443718 -0.19804004
0001d0 b1 43 36 3e 21 45 28 3e c8 19 af bc 29 2b a8 3d
       0.1779926 0.1643262 -0.021374598 0.08211357
0001e0 6d f5 dd 3a 5a 2d 95 bd d2 0b 76 3c dd 73 a8 be
       0.0016934104 -0.07284041 0.015017467 -0.32900897
0001f0 aa 24 d3 bd fc 86 6f be f9 ef 35 bc bb f2 32 bd
       -0.103097275 -0.23391336 -0.011104577 -0.043688517
000200 36 a4 0d 3e fd 2b 7f bd be 8b c0 bd f5 0a 49 3d
       0.13832173 -0.06229781 -0.09401654 0.049082715
000210 eb e1 d2 bd 90 d0 3c 3d 20 ed ab 3d 2a c9 6f bd
       -0.10296997 0.04609734 0.083948374 -0.058541454
000220 9f 7c 9b 3d 46 8e 65 be 34 59 02 3e 41 3b 67 3d
       0.07592129 -0.22417554 0.12729341 0.056452993
000230 52 0c 28 3e 26 ed b3 3c 87 55 d1 bd 86 0d 05 be
       0.1641095 0.021963667 -0.10221391 -0.1299344
000240 f0 a0 cf 3d e0 e1 5c 3e df 69 40 bd 80 0d 07 3e
       0.10138118 0.2157054 -0.046975967 0.13188744
000250 ff 39 dc bc 10 6d c6 bd b4 11 81 bb d3 4c 18 bd
       -0.026883123 -0.09688771 -0.003938878 -0.03718264
000260 3e 3f 8d 3e 28 58 0b be 6a 3e 2e be 89 35 7b 3e
       0.27587312 -0.13607848 -0.17015997 0.24532141
000270 49 a0 19 be 88 ee 98 3c 4c c3 60 3e fe ab f1 3c
       -0.1500255 0.018668428 0.219495 0.029500958
000280 9e 69 1c bd 1e 8f a9 be 61 17 76 3e a1 1d e8 3c
       -0.038186662 -0.33117002 0.24032356 0.02833444
000290 e5 6b 72 3e 93 fa 34 3d c1 9a bd bd 9e f9 0d be
       0.23673971 0.04418428 -0.092580326 -0.13864753
0002a0 b3 5d 8d bc ef 1e d4 bb ac 70 d2 3b dc 45 49 3c
       -0.017256593 -0.006473414 0.006422123 0.012284722
0002b0 d3 41 ab 3d 0f 3f 8e 3d 21 9c c5 3c 54 fd 15 be
       0.08362164 0.06945621 0.0241223 -0.14647418
0002c0 17 a0 bb 3d 4d 6d 9f 3d b8 f7 91 3e 21 89 6a 3c
       0.09161394 0.07784519 0.28509307 0.014314921
0002d0 40 40 0e 3d 48 f6 8b 3d ef 57 23 be 71 49 69 3e
       0.034729242 0.06834084 -0.15951513 0.22781922
0002e0 3a eb 71 be a3 db fb 3d fe f1 c2 3d ec 39 22 3e
       -0.23624888 0.12297752 0.095188126 0.15842408
0002f0 d0 87 b6 bc 13 b4 41 bd 15 3b f3 bd 3a d1 95 3d
       -0.022281557 -0.047290873 -0.118765034 0.073152974
000300 62 36 8f 3c ca 8a 33 be 68 56 1d 3d e6 99 62 bd
       0.017481986 -0.17533413 0.03841248 -0.05532255
000310 a8 9b fc bc c6 3a ac 3c 1c 55 00 3c 03 3d ce bd
       -0.030835941 0.02102412 0.007832792 -0.10070231
000320 5b a4 47 3e b0 34 1e 3b ba 5b 29 3c 72 42 7a bd
       0.1949629 0.002414029 0.010336811 -0.061098523
000330 70 1b ae 3c 19 ab 60 3e a3 a0 1d be c1 7d 42 3e
       0.021253318 0.21940269 -0.1539331 0.18993284
000340 dc 5c 85 3d fb 3a 29 3d fa e2 90 be 56 d3 70 3d
       0.06511852 0.041316014 -0.2829817 0.058795296
000350 39 5d f0 3d 18 ad 94 3d f9 77 4e 3e 26 c9 ea 3d
       0.11736531 0.072595775 0.20162953 0.11464147
000360 61 f4 92 bd c3 15 32 bd 64 09 59 3d 76 ba 60 bd
       -0.07175518 -0.043477785 0.05298747 -0.054865323
000370 e4 42 ed 3d b0 a0 3a 3c 1e 4e 3c be fe df bd 3d
       0.11585024 0.01139085 -0.18389174 0.09271239
000380 a4 32 d1 3d d2 6c 39 3d 3f a5 00 3c 8f 03 36 bd
       0.10214737 0.045269795 0.007851898 -0.044436987
000390 db c9 59 3e b0 6b 86 3d c2 96 0d bc 9a e1 44 3c
       0.21268408 0.065635085 -0.0086419005 0.012016678
0003a0 a4 63 13 3e 2d c8 4d be d1 dd e0 3d e6 65 df 3b
       0.14393479 -0.20095892 0.10979808 0.006817567
0003b0 59 92 8e bd f8 33 02 be 0b 72 23 3e f5 b9 31 3d
       -0.06961507 -0.12715137 0.15961473 0.043390233
0003c0 ce dd e2 3d e1 0c 5c 3e 20 05 d1 bd 87 f6 fe 3d
       0.11077462 0.21489288 -0.10206056 0.12449365
0003d0 64 7c 66 3e 4e 43 01 3e c5 05 fd 3d f5 bd 31 be
       0.22508389 0.12623331 0.12354616 -0.17357619
0003e0 d1 ec 7c be 76 47 f1 bd 7d 27 5c be 6f 37 91 bc
       -0.24699713 -0.11781208 -0.21499439 -0.017726628
0003f0 08 54 4f 3e 47 b1 d2 3c 96 9f 96 bd 30 8d 1e be
       0.20246899 0.025719298 -0.07354657 -0.15483546

actor.2.bias f4 [17]
000000 7b e6 a9 3b a4 94 a9 3c 73 1c 10 bd 01 f3 5b bc
       0.005184946 0.02070076 -0.03518338 -0.013424636
000010 ba 78 05 bd 36 37 5f 3a 0e 4a da 3c 9e 3b 94 bc
       -0.032585837 0.0008515002 0.02664664 -0.018094834
000020 27 b9 0c bc 8c a1 a1 bc 51 ab 2a bc 5d 1b 9a 3b
       -0.008589066 -0.019730352 -0.010416822 0.004702969
000030 78 e7 f7 ba 49 19 39 3d 51 b6 57 3c 8a 7e cd ba
       -0.0018913588 0.04519013 0.013166026 -0.001567797
000040 6d 6a 37 3d
       0.04477923

critic.0.weight f4 [64, 64]
000000 81 c9 87 bb 9e 75 c4 bd 19 31 1b be 3e 89 86 bd
       -0.004143894 -0.09592746 -0.15155448 -0.065691456
000010 4a 16 29 bd 80 07 00 3e 9f c1 05 be a7 3c 92 be
       -0.041281022 0.12502861 -0.13062142 -0.285619
000020 ab c3 b2 bd 3e ea 46 bd b7 3a 9f 3d ba 7f f0 bd
       -0.08728727 -0.048563235 0.07774871 -0.11743112
000030 6e f4 d8 bd 03 2d d7 bd e1 59 8d 3d 48 66 ac 3c
       -0.10593496 -0.10506632 0.06901909 0.021044865
000040 0d 73 83 bd 92 1d aa bc f2 7d b1 3d 79 be cd bd
       -0.064184286 -0.020766053 0.086666 -0.100460954
000050 14 37 1b bd 4f cd 30 3d ed 80 86 3d 54 f2 4b be
       -0.037894323 0.043164548 0.065675594 -0.1991666
000060 e9 fe 0a bd cd a9 54 3d f6 b1 3c 3e 33 a2 c3 bd
       -0.033934508 0.051919747 0.18427262 -0.095524214
000070 17 5f 8a 3d 32 df 60 be 52 ae 2c 3d 66 00 36 be
       0.06756418 -0.21960142 0.042158432 -0.1777359
000080 aa f1 42 be d1 9c 62 be b2 29 dc bd 16 98 23 3d
       -0.190375 -0.22130133 -0.1075014 0.039939962
000090 64 fb 45 be 62 89 e8 3d d6 09 15 3d 6c 58 82 bd
       -0.19334179 0.11354329 0.036386333 -0.063645214
0000a0 9e 19 25 bd 8e 37 cd bd a6 fa 62 bd 26 42 a3 3d
       -0.040307634 -0.10020362 -0.05541482 0.07971601
0000b0 73 66 4a be 8f 9e 80 bd d2 41 0c be d5 16 88 3c
       -0.19765644 -0.06280243 -0.13696983 0.01661245
0000c0 97 d1 4b be 43 d8 5d be eb dc 28 3e 47 d0 08 be
       -0.19904171 -0.21664529 0.16490524 -0.13360702
0000d0 ae 5c 14 be 97 90 80 3e 22 0a 6d 3c 33 4d 5d bd
       -0.1448848 0.25110313 0.014467748 -0.0540287
0000e0 6b 1b 9b 3d 79 c5 27 be 3a 2f 1c bd d1 fa 84 3e
       0.07573589 -0.16383924 -0.038130976 0.25972608
0000f0 dc 7b cb bd 13 53 9b 3e dc 84 1e 3e dc 39 88 3c
       -0.09935734 0.30336818 0.1548037 0.016629152
000100 9d 96 c9 3d 82 03 8a bd b2 f4 1f 3e ee 25 62 3d
       0.0984318 -0.0673895 0.15620688 0.055211954
000110 1e 79 d9 bd e2 b6 7a 3e b3 e8 c2 be 21 5b de bd
       -0.106188044 0.24483827 -0.3806816 -0.10857225
000120 d4 63 8d 3c d0 4e 53 3e b1 3a 55 3e 61 95 c5 3b
       0.017259516 0.20635533 0.2082317 0.0060297702
000130 5e 09 98 3d d6 78 a6 bd 71 0c ad 3b d8 e3 9b 3d
       0.07423662 -0.081285164 0.005281024 0.07611817
000140 58 67 9a 3c eb bd 6a 3d 9b da a8 bd 31 ec 65 be
       0.018848106 0.057310026 -0.08244821 -0.22453381
000150 b8 c2 cc 3b 99 4c 2d be e4 be 62 3d d4 1d 68 be
       0.006248798 -0.16923751 0.05535783 -0.22667629
000160 10 bc 00 be d6 e3 54 3e 8e fd 42 3e 53 47 ef 3c
       -0.1257174 0.20790038 0.19042036 0.029208815
000170 19 11 53 bd 1b af aa bc 68 fe ee bd 93 a8 1d 3d
       -0.051529977 -0.02083545 -0.11669618 0.038490843
000180 ae ca eb 3c 99 06 4e 3d d3 6c 3f 3d b4 14 36 bd
       0.028783169 0.05029926 0.046734642 -0.044453338
000190 1f e7 85 bd 17 be 67 3d 8b 6d 99 be d4 e2 20 3e
       -0.065382235 0.05657777 -0.29966387 0.15711528
0001a0 bd 3e 1e 3d a1 68 de 3c 21 d3 68 be cd b7 3f 3e
       0.03863405 0.0271495 -0.2273679 0.18722458
0001b0 fb 0f ca 3c 6a af e5 bc 81 c5 0c be 33 b0 43 be
       0.024665823 -0.028037746 -0.13747217 -0.19110183
0001c0 dc 82 97 3d 4c 1f 93 3c f0 7d b2 bd aa 83 e2 3d
       0.07398006 0.01795926 -0.08715427 0.11060269
0001d0 1c b1 08 be e6 32 f3 bd 7b 62 75 bd 98 d1 e4 bc
       -0.13348812 -0.118749425 -0.05990837 -0.027931973
0001e0 89 3e 47 3d 4f 94 9e 3c 71 c0 a4 bd 9b 5a d0 bc
       0.048643623 0.019357828 -0.08044518 -0.025433829
0001f0 1c 95 9e bd b0 bd 74 3e 46 66 2e 3d f7 80 c5 bd
       -0.07743284 0.23900485 0.042578004 -0.09643739
000200 c3 d0 38 3d 4e 6b 2f be 69 4c 30 3c 63 6d da bd
       0.045120966 -0.17130777 0.010760405 -0.10665395
000210 59 07 c0 bb ab 6a e1 bd 40 cd 72 bc 35 4a a5 3c
       -0.005860251 -0.110066734 -0.014819443 0.020176986
000220 29 26 64 3e d2 c3 1c bd 61 62 d3 3d 75 9f ec bd
       0.22280182 -0.038272686 0.10321499 -0.115538515
000230 e7 ef 6b be 1b 8d e3 bd 1a c0 86 3c ab dc b5 3e
       -0.23040734 -0.11110898 0.016449023 0.3551992
000240 ec c9 46 be 44 aa 26 3d a9 7e aa bd 96 a9 57 bd
       -0.19412965 0.04068972 -0.0832494 -0.052651964
000250 bf 49 28 bc 66 07 12 bd 4e 4a b8 bd e5 08 e6 3d
       -0.010271489 -0.035651587 -0.089985475 0.11232165
000260 0c 34 ff 39 62 4b dc 3d ab b0 ba 3d f4 9f eb bc
       0.00048676168 0.10756566 0.09115728 -0.028762795
000270 c5 ff df 3b e9 1c 7f bd f2 21 fc 3a 92 2d 96 be
       0.00683591 -0.06228343 0.0019236191 -0.29331642
000280 cd fc 79 bd 22 52 f3 bb 25 5c 6f bc 7c ba f3 3d
       -0.061032105 -0.0074255625 -0.014609371 0.119008034
000290 cc 2a 8b be 96 38 84 bd 4f ce 3a be 15 e5 1f bb
       -0.2718109 -0.064561054 -0.18242763 -0.0024398018
0002a0 1d 2c 86 be df 93 a8 bd ef 80 75 3e a6 3c 39 ba
       -0.2620553 -0.08231329 0.23974966 -0.0007066227
0002b0 07 e0 4a 3d 95 ed 61 bb d4 a5 16 bd 14 cd 15 3d
       0.049530055 -0.0034473885 -0.03677924 0.03657253
0002c0 3a f6 98 3e 60 e2 b7 bd 51 bb a6 bd 4b b6 d3 3d
       0.29875356 -0.089787245 -0.081411965 0.10337504
0002d0 80 7d 85 3c 28 77 2c 3d 8e 3d c1 3d 7f 51 12 be
       0.016295195 0.042105824 0.09435569 -0.14288901
0002e0 db b5 87 3e ed 55 e7 bd 5f 92 a9 3d d9 f8 3b 3d
       0.26505932 -0.11295686 0.08279871 0.045891616
0002f0 45 fa d4 bd 82 a4 d1 3d 9e 48 12 b7 7d 34 ce 3d
       -0.103992976 0.102364555 -8.719186e-06 0.10068605
000300 2b 6f 2c bd bf 04 9a 3c ed 7a ea 3c b7 a8 9c bd
       -0.042098206 0.018801091 0.028623069 -0.07649367
000310 76 05 64 3e b7 e5 2d 3e 62 de d2 ba 57 f8 46 3e
       0.22267708 0.1698216 -0.0016088004 0.19430672
000320 c1 33 12 be de da 35 bd 3a 7d 2c bc 5a 34 8b be
       -0.14277555 -0.04439818 -0.010527903 -0.2718838
000330 e1 5c ec bd 7f 14 0e 3e 24 05 1e 3d 78 f6 0e 3e
       -0.11541153 0.13875006 0.03857912 0.13961208
000340 5c b4 1b 3e cb c6 3e 3e 08 49 5f 3d f6 59 2b 3e
       0.1520552 0.18630521 0.054513007 0.16733536
000350 76 0e db 3d 13 61 d3 bd 00 9b 26 be 96 df 09 be
       0.106961176 -0.1032125 -0.16270065 -0.13464198
000360 6a 34 c2 3d 5f 10 4f 3d 91 55 53 3d cb 46 52 3e
       0.094826534 0.050552722 0.051595274 0.20534818
000370 38 ad ff 3d e0 47 d6 bd 3d 8c 97 3e 53 be 12 3e
       0.12484211 -0.10462928 0.2959918 0.14330415
000380 75 f9 91 bc b4 07 f7 3c d1 54 d6 bd 4f 07 43 3e
       -0.017819146 0.03015504 -0.10465396 0.19045757
000390 a7 05 05 3e 6f fe c5 bd 35 19 f1 3c bc 0d 6e 3c
       0.12990437 -0.0966767 0.029430965 0.014529642
0003a0 d5 10 32 3c 10 7c f2 bd 36 b6 8a 3d df bd 0c 3e
       0.010868271 -0.11840069 0.06773035 0.13744305
0003b0 8f d3 c0 bb 1e 77 48 3e d1 cc 8c bd 35 fd 17 3e
       -0.0058845947 0.1957669 -0.06875003 0.14842685
0003c0 bc 71 55 bb d6 9d 00 bd a7 e9 a1 bd 7f d9 27 3e
       -0.0032569012 -0.031400524 -0.07905894 0.16391562
0003d0 aa 6a 1d be 02 5c 2b be 99 25 d1 bd e6 9f 52 3e
       -0.1537272 -0.16734317 -0.10212249 0.20568809
0003e0 ed 60 56 bd a9 eb 55 3e 4f c9 b8 3d b5 fa 07 3e
       -0.05233853 0.20890678 0.090227716 0.13279231
0003f0 99 43 5b 3e 64 d8 2b 3e da 2c 9a 3d 60 db 90 3d
       0.21412505 0.16781765 0.07528086 0.070730925

critic.0.bias f4 [64]
000000 db 2b ad bc e6 ab 00 bd 91 07 c5 bc 27 93 fa 3c
       -0.021139076 -0.031413935 -0.02405146 0.030587746
000010 d4 da 03 3d 78 8d e1 3c 86 c3 0e bd 55 09 fd 3c
       0.032191113 0.027533278 -0.034854434 0.030888239
000020 c2 6d d0 bc 23 91 e4 3c 9d b5 18 3d fc 03 11 3d
       -0.025442962 0.027901238 0.037282575 0.03540419
000030 ba 28 d3 bc 35 91 bd 3c 18 ff 12 3d 5f 29 e0 3c
       -0.025776256 0.02314053 0.035887808 0.027363477
000040 8f 49 5a bc d5 8d 1c 3c 4c 5f c5 bc 7a d9 f7 3c
       -0.013323202 0.0095553 -0.024093293 0.030255068
000050 95 28 e2 bc 97 89 d4 3c e1 8c ec 3c 4a ca bf bc
       -0.027607242 0.025944514 0.02887577 -0.023411889
000060 88 91 0e 3d ba 98 91 3c 93 36 cf 3c 6c 2b b2 3c
       0.03480676 0.017773021 0.025294578 0.02174922
000070 ce 41 f1 bc 6d 71 aa bc c4 08 e3 bc 2a 85 de bc
       -0.029450323 -0.020806039 -0.02771414 -0.027163107
000080 99 b4 be bc aa a3 ea 3c 7a eb e5 3c 9b 43 d4 3c
       -0.023279475 0.028642494 0.028066386 0.025911143
000090 cb 34 f6 bc ad 7f d4 bc 2d 53 d8 bc e5 ed c6 bc
       -0.03005447 -0.025939787 -0.026406849 -0.024283359
0000a0 98 14 d9 3c 37 29 08 bc 6b 99 ec 3c 73 3f 02 bd
       0.026499078 -0.008310608 0.02888175 -0.03179879
0000b0 0c 9a 05 bd af 7b 99 3c 10 ab c6 bc f2 32 9c bc
       -0.032617614 0.018735735 -0.02425149 -0.019067261
0000c0 5d c3 f5 3c a7 1d 07 3d e5 1d b1 3c 78 78 ce bc
       0.030000383 0.032987263 0.0216207 -0.025203928
0000d0 83 bf be 3c b4 4e 0e bd c7 47 9c 3c fe 1b f8 bc
       0.02328468 -0.034743026 0.019077195 -0.030286785
0000e0 57 25 db bc f1 99 d3 bc 0b 6e e3 3c bf 5c 09 3d
       -0.026751203 -0.02583024 0.027762434 0.033535715
0000f0 85 15 d4 3c a0 a7 05 bd 02 22 cf bc d0 4b db bc
       0.025889168 -0.032630563 -0.02528477 -0.026769549

critic.2.weight f4 [1, 64]
000000 f0 b9 60 3f a4 ad 59 3f bd bf 82 3f 27 ad 66 bf
       0.8778372 0.8503058 1.0214764 -0.9010796
000010 e9 04 59 bf 16 41 6b bf f1 2c 51 3f 58 96 76 bf
       -0.8477312 -0.9189619 0.817092 -0.96323156
000020 97 9c 5f 3f 7e d0 59 bf 97 63 4d bf 7a 11 5a bf
       0.8734831 -0.8508376 -0.8023009 -0.8518292
000030 96 6e 74 3f 45 b3 59 bf 1f 7a 59 bf 07 68 63 bf
       0.9548124 -0.8503917 -0.84951967 -0.8883061
000040 54 db 4e 3f 16 b4 4e bf 08 6b 76 3f 28 ff 63 bf
       0.8080342 -0.8074354 0.96257067 -0.8906121
000050 05 f5 65 3f c2 1a 77 bf de b5 5c bf f4 f9 83 3f
       0.89826995 -0.96525204 -0.8621501 1.0310655
000060 0b 0d 59 bf 23 51 75 bf 91 98 72 bf 55 ae 64 bf
       -0.84785527 -0.9582693 -0.9476405 -0.8932851
000070 ea 2d 6f 3f 7c ff 61 3f ee a2 86 3f 61 bc 7c 3f
       0.93429434 0.88280463 1.0518472 0.98724943
000080 3c f9 64 3f d9 ce 65 bf 6d 73 51 bf 11 d1 58 bf
       0.894428 -0.8976875 -0.8181675 -0.8469401
000090 ad 10 63 3f ee c4 67 3f a3 4d 61 3f 4d 53 73 3f
       0.8869732 0.90534866 0.8800909 0.9504898
0000a0 20 b5 58 bf e1 c9 49 bf 80 66 79 bf e5 92 5b 3f
       -0.84651375 -0.7882367 -0.9742203 0.8577102
0000b0 35 41 5a 3f 50 68 8b bf d8 55 68 3f 50 1d 79 3f
       0.8525575 -1.0891209 0.9075599 0.9731035
0000c0 79 bd 68 bf 9f 85 69 bf 6e a7 8c bf ea d4 58 3f
       -0.9091411 -0.91219515 -1.0988595 0.8469988
0000d0 db 83 59 bf 37 08 56 3f f1 db 53 bf 6a 75 60 3f
       -0.8496682 0.83606285 -0.8275748 0.8767916
0000e0 4b 8c 6d 3f ca c1 6a 3f fa ff 62 bf dd 99 53 bf
       0.92792195 0.9170195 -0.8867184 -0.8265665
0000f0 df 21 8c bf c6 f1 65 3f 9e b0 56 3f bf 86 71 3f
       -1.0947837 0.8982204 0.83863246 0.9434623
