storage/MiniGrid-Navigation-16x16-N2-v0_22-07-21-10-41-52/status.pt (torch, 244989 bytes, 39 tensors)

image_conv.0.weight f4 [16, 3, 2, 2]
-0.12718967 -0.12824662 -0.19726162 -0.027604474 -0.23362033 -0.13518737 0.027697248 0.16163345
0.06800929 -0.097938254 0.027679414 -0.032352507 0.086642005 -0.06953767 0.069803305 0.2976301
-0.04965382 0.01771114 0.005558407 -0.10384719 -0.027647883 -0.25546753 -0.24901347 -0.25976717
-0.34973052 -0.37244198 -0.25470835 -0.3711356 -0.17846113 0.022957655 0.14103942 0.08429541
0.1555151 0.09781715 0.12717462 -0.15964267 0.23378782 -0.10312068 0.26948825 0.03877352
0.0020606578 0.027235609 -0.17880547 -0.17622593 0.043436497 -0.012268692 0.045152485 0.14644411
-0.27760282 -0.14435683 -0.27963012 0.15395553 -0.2408057 -0.04632283 -0.09614614 -0.004336738
0.00096967816 -0.029033452 0.21129367 0.26366967 -0.21966341 -0.32828522 -0.032761537 -0.01211539
0.08158019 0.16573758 0.14024755 -0.25002813 -0.19768839 0.22395992 0.2766747 -0.13698624
-0.17908132 0.08681875 -0.17225762 -0.16500458 -0.2855241 0.08965038 0.1267385 -0.16150664
-0.18356587 -0.101576954 0.13710463 0.016345233 0.29026285 -0.21204461 -0.12236012 0.2788547
-0.025044035 -0.29598108 -0.17932516 0.11021827 0.15368834 -0.09672387 -0.122550085 0.08853191
-0.16388835 -0.017065577 -0.24615505 -0.26772836 -0.061132267 0.07703985 0.13784814 -0.029174587
-0.17144567 0.15091473 0.11253506 0.12314537 -0.26743162 -0.18195343 -0.013418532 -0.008727765
0.04131406 -0.19358338 0.060608197 -0.19354853 -0.0072466433 -0.1358723 -0.085575655 0.19461367
0.29171884 -0.0151689965 -0.21241438 -0.1427478 0.042353302 -0.24595493 -0.18816367 0.021928953
-0.2562675 -0.0017399192 -0.035489112 0.0027670264 -0.18116865 -0.19913666 -0.24251395 -0.2618681
-0.017669212 0.10344925 -0.19428852 -0.27249882 -0.15613979 0.27708995 0.25980645 -0.28089887
-0.07441934 -0.032038994 0.34401795 -0.15881278 0.020856496 -0.10097274 -0.1640772 0.10576304
-0.13955471 -0.018096715 -0.063745335 -0.23348829 0.10777807 0.11288348 0.20101798 -0.10446197
-0.10492816 -0.011894138 -0.026623309 -0.13320303 -0.26201162 0.17891899 -0.21523084 -0.008107096
-0.34410176 0.07097134 -0.06926714 0.11516135 -0.03921749 -0.14095825 0.21451816 -0.40819746
0.13857377 -0.2010333 0.15576711 0.0720596 -0.07333415 -0.2635561 0.21666624 0.24062681
-0.00548879 -0.095425114 -0.093920745 -0.044611573 0.2685879 0.26237762 0.13420463 0.03333527
00000000: 023e 02be 1553 03be f3fe 49be c722 e2bc
00000010: 2b3a 6fbe 8f6e 0abe 57e5 e23c 3d83 253e
00000020: 7448 8b3d da93 c8bd f0bf e23c 1084 04bd
00000030: 5d71 b13d c469 8ebd 09f5 8e3d f962 983e
00000040: ce61 4bbd f416 913c 4c23 b63b d6ad d4bd
00000050: d07d e2bc a4cc 82be 63fd 7ebe 3400 85be
00000060: e10f b3be b7b0 bebe 2269 82be 7c05 bebe
00000070: 84be 36be b111 bc3c a36c 103e 12a3 ac3d
00000080: 5a3f 1f3e 5c54 c83d 103a 023e 5e79 23be
00000090: 1366 6f3e ef30 d3bd 5dfa 893e fcd0 1e3d
000000a0: 1a0c 073b 361d df3c c818 37be 9274 34be
000000b0: 78ea 313d a002 49bc d0f1 383d 72f5 153e
000000c0: f521 8ebe 47d2 13be ae2b 8fbe 85a6 1d3e
000000d0: c595 76be 02bd 3dbd 44e8 c4bd 321b 8ebb
000000e0: 0032 7e3a 90d7 edbc 5e5d 583e b6ff 863e
000000f0: 72ef 60be 0015 a8be f630 06bd a17f 46bc
00000100: 8413 a73d 1db7 293e 0e9d 0f3e b003 80be
00000110: d36e 4abe c055 653e 4ea8 8d3e 1f46 0cbe
00000120: 1861 37be 07ce b13d 4d64 30be f6f6 28be
00000130: 3730 92be 9e9a b73d bdc7 013e ff61 25be
00000140: b1f8 3bbe 9407 d0bd 2865 0c3e 70e6 853c
00000150: 559d 943e 3922 59be f197 fabd 0bc6 8e3e
00000160: 2629 cdbc d58a 97be 04a1 37be 1eba e13d
00000170: 7a60 1d3e 2a17 c6bd 8afb fabd 3850 b53d
00000180: 59d2 27be 1ccd 8bbc 1210 7cbe b113 89be
00000190: d465 7abd 12c7 9d3d 1028 0d3e 8bff eebc
000001a0: 748f 2fbe 6489 1a3e c878 e63d a433 fc3d
000001b0: ccec 88be 0052 3abe 67d9 5bbc e6fe 0ebc
000001c0: ef38 293d b93a 46be 4d40 783d 9631 46be
000001d0: 4075 edbb 1c22 0bbe 4a42 afbd ce48 473e
000001e0: 2c5c 953e 6287 78bc 2883 59be 7b2c 12be
000001f0: a87a 2d3d 9cdb 7bbe faad 40be 59a4 b33c
00000200: 7e35 83be 000e e4ba 085d 11bd 0057 353b
00000210: 4684 39be 7bea 4bbe 9455 78be 9313 86be
00000220: 06bf 90bc 33dd d33d 92f3 46be f784 8bbe
00000230: 1ce3 1fbe bcde 8d3e 5a05 853e fad1 8fbe
00000240: 2b69 98bd 523b 03bd 1f23 b03e d19f 22be
00000250: 3edb aa3c ccca cebd db03 28be 4b9a d83d
00000260: 6ee7 0ebe 903f 94bc ea8c 82bd 8e17 6fbe
00000270: c0ba dc3d 742f e73d a8d7 4d3e 28f0 d5bd
00000280: 93e4 d6bd a1df 42bc 2019 dabc 6066 08be
00000290: 6326 86be 8a36 373e 7965 5cbe a0d3 04bc
000002a0: 1b2e b0be 6c59 913d eedb 8dbd b7d9 eb3d
000002b0: 85a2 20bd 5c57 10be a6aa 5b3e 42ff d0be
000002c0: 48e6 0d3e acdb 4dbe 6a81 1f3e fc93 933d
000002d0: 3730 96bd d3f0 86be c1dd 5d3e e066 763e
000002e0: 4fdb b3bb 3e6e c3bd 8559 c0bd a0ba 36bd
000002f0: 5a84 893e 5c56 863e f06c 093e 908a 083d

image_conv.0.bias f4 [16]
-0.32123616 -0.31496012 0.11126772 -0.2898679 -0.18565279 0.24362648 -0.25561678 -0.28300795
-0.3794196 0.08867593 -0.007180641 0.15460111 -0.12373645 -0.20243634 0.13761407 -0.38455993
00000000: 1179 a4be 7442 a1be 55e0 e33d 9169 94be
00000010: c41b 3ebe 3879 793e 34e0 82be 6be6 90be
00000020: 4943 c2be ba9b b53d 954b ebbb c14f 1e3e
00000030: 8969 fdbd 794b 4fbe b4ea 0c3e 0ae5 c4be

image_conv.3.weight f4 [32, 16, 2, 2]
-0.17335507 0.037604317 -0.053385563 -0.15391146 -0.2812676 -0.03473796 -0.15865172 -0.1626909
0.09013554 -0.027185095 -0.03506869 0.03345555 -0.059292704 -0.07030011 -0.14630109 -0.11196347
-0.07590673 -0.0727272 -0.084208906 -0.006079308 -0.0067107347 0.09882905 0.00011555513 -0.039583042
0.1358618 0.21331948 0.062379714 0.14617829 -0.06532234 0.0077482434 -0.22407638 -0.08826705
-0.13809547 0.05692973 0.007171346 0.0029389933 -0.028897842 0.021550454 0.020698342 -0.11923958
-0.07299068 0.05603453 -0.08095308 -0.04755801 0.031565756 0.09816905 -0.028328834 0.15734215
-0.16434164 0.24958864 -0.16293867 0.0107610775 -0.15152213 -0.15696308 -0.100944735 -0.24383603
-0.13608189 -0.03887061 0.0043258015 0.015825205 -0.11662562 0.026883747 -0.049127188 -0.045393243
-0.08789512 -0.036107797 -0.04556908 -0.145039 -0.010492195 -0.10299103 -0.11975849 0.072060145
0.002315262 0.06419767 -0.04428209 -0.12190296 -0.008445634 0.016634382 -0.06591732 -0.07046568
-0.025819905 0.1207459 -0.07767599 -0.061787322 -0.1983128 -0.049471393 -0.040688604 -0.03339271
0.0315279 0.1002106 -0.00122265 0.12847596 0.008222182 -0.17594506 -0.06525019 0.01433489
0.05364693 0.065296985 0.030657997 0.06519032 -0.16818175 -0.02974454 0.011408234 -0.046832573
0.06817771 -0.0005560132 0.039319035 -0.15173842 0.032485068 0.005521039 0.001753525 0.10196581
0.023053264 -0.118696906 0.09444285 -0.12713484 0.04776083 -0.15735708 0.08127894 -0.1547058
-0.014753521 -0.010004745 -0.056609806 0.07231299 -0.048223317 -0.12788777 -0.14663287 0.24298197
0.031199481 -0.022507008 -0.053253483 0.012041264 -0.110906065 -0.0035443066 -0.09867207 0.020056508
-0.0476467 0.09964169 0.063763686 0.0026525278 -0.02195367 -0.14854448 -0.054801404 -0.08945878
-0.13804269 0.036975723 -0.10002025 -0.095570855 -0.0927664 -0.08283353 -0.099062435 -0.061625384
-0.023265898 0.059279334 -0.11779604 -0.108369626 0.010740127 -0.09091021 0.03658904 -0.041703083
-0.031020332 0.030804254 -0.08138418 0.018675968 0.06062387 0.099893235 0.016084196 -0.05906531
0.039407674 0.05902585 0.041404497 -0.075355984 -0.12680127 -0.11924919 -0.10059929 -0.033572357
-0.06200361 -0.00079429086 -0.004741317 0.022300055 -0.026067732 -0.12024466 -0.14174727 -0.13027838
0.022618117 -0.0015601447 -0.008742764 -0.10070837 0.069479756 -0.05843864 0.11476404 0.074509025
-0.09660047 0.012639369 0.06992061 0.052786946 0.029260915 -0.05187887 -0.06843666 -0.0132348025
-0.0682228 0.07885865 0.06661262 0.025960736 -0.064036876 -0.10090225 0.004179887 0.028752325
0.07068163 -0.07504185 0.08077381 -0.056354 0.0043781167 0.08574469 -0.05743952 -0.042244725
-0.10525907 -0.09943039 -0.07914239 -0.040897895 -0.016726468 -0.03688954 -0.031984664 -0.07719563
-0.0018465732 -0.039889693 0.024549095 -0.069135115 -0.08966518 0.07171208 0.018389907 0.003788855
-0.0033481156 0.008803659 0.10871722 0.032857705 -0.10741289 -0.06523712 -0.041188642 0.15454528
-0.07110656 1.0829902e-05 -0.020418776 -0.060179867 -0.10020623 -0.10645166 -0.05036343 -0.104017
-0.114833556 -0.13421129 -0.038422376 0.015078643 -0.098654926 0.15324181 -0.068159476 0.024400715
00000000: fe83 31be fc06 1a3d d2aa 5abd f79a 1dbe
00000010: 4f02 90be 6449 0ebd 9975 22be 7198 26be
00000020: fb98 b83d 47b3 debc 30a4 0fbd b008 093d
00000030: e8dc 72bd 81f9 8fbd f4cf 15be 1b4d e5bd
00000040: fd74 9bbd 00f2 94bd b875 acbd ef34 c7bb
00000050: b9e5 dbbb e366 ca3d 3056 f238 d421 22bd
00000060: 5b1f 0b3e 6c70 5a3e df81 7f3d c3af 153e
00000070: b8c7 85bd fae4 fd3b 4774 65be 5bc5 b4bd
00000080: e668 0dbe 262f 693d 9cfd ea3b 209c 403b
00000090: 2bbb ecbc 948a b03c 928f a93c e233 f4bd
000000a0: 237c 95bd 7784 653d baca a5bd 30cc 42bd
000000b0: 184b 013d db0c c93d df11 e8bc 4d1e 213e
000000c0: 2d49 28be 2a94 7f3e 65d9 26be 3b4f 303c
000000d0: 9e28 1bbe eeba 20be 1dbc cebd 27b0 79be
000000e0: 0d59 0bbe ca36 1fbd 74bf 8d3b dca3 813c
000000f0: 6ad9 eebd 4e3b dc3c 9739 49bd 44ee 39bd
00000100: 5b02 b4bd c5e5 13bd a5a6 3abd 1b85 14be
00000110: 75e7 2bbc f6ec d2bd f043 f5bd 4594 933d
00000120: a7bb 173b 117a 833d 2361 35bd 42a8 f9bd
00000130: 8e5f 0abc d444 883c a9ff 86bd 4f50 90bd
00000140: 4484 d3bc a049 f73d 9714 9fbd b414 7dbd
00000150: 8312 4bbe 84a2 4abd 18a9 26bd cbc6 08bd
00000160: 6623 013d 373b cd3d 5441 a0ba 348f 033e
00000170: 55b6 063c f12a 34be e4a1 85bd e3dc 6a3c
00000180: e2bc 5b3d 6dba 853d 7b26 fb3c 8182 853d
00000190: d637 2cbe d2aa f3bc 9ae9 3a3c 83d3 3fbd
000001a0: c1a0 8b3d 6ac1 11ba ff0c 213d 5161 1bbe
000001b0: 100f 053d d5e9 b43b 89d6 e53a 73d3 d03d
000001c0: 33da bc3c 5d17 f3bd 416b c13d a32f 02be
000001d0: dca0 433d 3722 21be 9375 a63d 326b 1ebe
000001e0: c1b8 71bc f1ea 23bc afdf 67bd d518 943d
000001f0: d085 45bd 03f5 02be ed26 16be 44d0 783e
00000200: 0e96 ff3c 9e60 b8bc 5320 5abd b948 453c
00000210: b822 e3bd 9947 68bb 9514 cabd 8c4d a43c
00000220: 3029 43bd f110 cc3d 8996 823d 08d6 2d3b
00000230: 2fd8 b3bc 0b1c 18be 7077 60bd 2a36 b7bd
00000240: 105b 0dbe db73 173d 6bd7 ccbd a7ba c3bd
00000250: 4ffc bdbd a0a4 a9bd 3fe1 cabd e66a 7cbd
00000260: 2098 bebc e3ce 723d 0d3f f1bd e5f0 ddbd
00000270: 5cf7 2f3c 222f babd 64de 153d dad0 2abd
00000280: 5a1e febc 3459 fc3c c0ac a6bd 58fe 983c
00000290: bc50 783d d394 cc3d 01c3 833c 77ee 71bd
000002a0: f169 213d 17c5 713d c397 293d 3d54 9abd
000002b0: 31d8 01be eb38 f4bd 0007 cebd 2b83 09bd
000002c0: 7ff7 7dbd f537 50ba 0d5d 9bbb 9bae b63c
000002d0: ff8b d5bc d542 f6bd 3226 11be b267 05be
000002e0: a149 b93c c57d ccba cf3d 0fbc 3140 cebd
000002f0: 674b 8e3d 5b5d 6fbd 6909 eb3d 3098 983d
00000300: 78d6 c5bd 5b15 4f3c 8932 8f3d 2037 583d
00000310: 96b4 ef3c f07e 54bd 8528 8cbd c9d6 58bc
00000320: 65b8 8bbd a580 a13d 336c 883d 9cab d43c
00000330: c425 83bd d7a5 cebd 6ff7 883b ff89 eb3c
00000340: 88c1 903d 8baf 99bd bd6c a53d 74d3 66bd
00000350: 4e76 8f3b e99a af3d b445 6bbd ce08 2dbd
00000360: 1192 d7bd 29a2 cbbd 6815 a2bd 8d84 27bd
00000370: f205 89bc 7c19 17bd 5a02 03bd be18 9ebd
00000380: b708 f2ba 6063 23bd 2f1b c93c b696 8dbd
00000390: 61a2 b7bd c8dd 923d 6ea6 963c 704e 783b
000003a0: 0f6c 5bbb 393d 103c 22a7 de3d cd95 063d
000003b0: 4afb dbbd 0a9b 85bd 6cb5 28bd 1e41 1e3e
000003c0: 51a0 91bd 13b2 3537 4745 a7bc 2a7f 76bd
000003d0: ed38 cdbd 5403 dabd e249 4ebd dd06 d5bd
000003e0: db2d ebbd af6e 09be c860 1dbd 6a0c 773c
000003f0: 980b cabd 6ceb 1c3e 3297 8bbd 02e4 c73c

image_conv.3.bias f4 [32]
-0.010109551 0.023284413 0.020172589 -0.15020409 0.02194103 -0.16613357 -0.0817779 -0.0065888725
-0.12258749 -0.02588547 -0.05330713 -0.060559727 -0.1328152 0.028121416 0.12487618 -0.10293125
-0.067726426 -0.11495747 -0.053829845 -0.121907 -0.067123644 0.087342605 -0.11131043 0.023544025
-0.102342695 0.004341476 -0.066470705 0.010474648 -0.15323639 -0.05244154 0.1196034 -0.046531238
00000000: 88a2 25bc f4be be3c fc40 a53c 1acf 19be
00000010: adbd b33c eb1e 2abe 2c7b a7bd 78e7 d7bb
00000020: 260f fbbd c40d d4bc 9458 5abd 7a0d 78bd
00000030: b500 08be e25e e63c 15bf ff3d 9fcd d2bd
00000040: 27b4 8abd d26e ebbd af7c 5cbd 61aa f9bd
00000050: 1f78 89bd aee0 b23d b9f6 e3bd 66df c03c
00000060: 0c99 d1bd f142 8e3b cb21 88bd dc9d 2b3c
00000070: 00ea 1cbe f1cc 56bd a1f2 f43d 8a97 3ebd

image_conv.5.weight f4 [64, 32, 2, 2]
-0.00046071297 0.0318636 -0.013277334 0.036732398 -0.09650175 -0.011090502 -0.09802306 -0.031631302
0.056512043 0.05285907 0.04046692 0.03096078 -0.03566439 0.032469187 -0.061044317 0.037023388
0.007887181 -0.035942968 0.0011049783 0.038338102 0.017741673 0.069130145 0.11075915 0.046746925
0.029263943 -0.11836819 0.003923576 0.009927667 -0.1279526 -0.0006157759 -0.13773671 -0.0576519
0.04599457 -0.024255352 -0.0809702 0.011702159 0.039832268 0.081708536 -0.08258183 -0.06471874
-0.10892055 -0.06745157 -0.0869432 -0.005360811 -0.07013741 -0.008748409 0.05436976 -0.035121534
-0.08742036 0.018726688 0.12729757 0.042634375 -0.11738786 -0.051894426 -0.09122851 0.068969406
0.031941667 -0.06651444 -0.0039755004 0.010042713 -0.037962075 0.020027012 0.06599992 0.06235586
0.06957911 -0.020528704 -0.08516016 0.035006564 -0.08304028 0.09007723 -0.07794345 -0.07800793
0.027056985 0.030650647 0.03303552 -0.058014955 0.031757202 -0.07300228 0.15067148 -0.015855994
0.03449063 0.057345755 -0.08744139 -0.048563257 -0.050094917 0.037866663 -0.016504023 -0.046215534
0.032571785 0.0340988 -0.075805135 -0.008515637 0.035567 -0.06603361 -0.081854194 0.044820476
-0.076790266 0.009229872 -0.061062902 -0.0065308777 0.020655438 0.005925451 -0.0013996356 -0.06704774
-0.034888897 -0.08187052 -0.024975361 -0.020067697 -0.09509397 -0.011024729 -0.17184588 -0.13022213
-0.058213513 -0.061622128 0.06512739 -0.057549637 0.028170323 -0.03757828 0.019518914 -0.044709362
-0.079325825 -0.05082984 -0.09426107 0.024514413 -0.010407277 -0.08540801 -0.11128432 -0.029194146
-0.02037022 -0.02025174 0.0079950895 -0.024195075 -0.05148517 0.04203117 -0.039613236 -0.014946733
-0.009670641 -0.07382734 -0.08023131 0.0044498183 0.060303316 -0.008867925 -0.06902083 -0.06592565
-0.08706497 -0.040219717 -0.10330793 -0.043591946 -0.061101906 -0.073620744 -0.09765331 -0.11031469
-0.079727404 -0.018191326 -0.10403643 -0.042131536 0.03757759 0.05537211 -0.09777874 -0.051225536
-0.043788135 -0.07257221 -0.11678642 -0.12626283 -0.057282303 -0.061208732 0.05462497 0.12041253
0.057908602 -0.0577382 -0.0384256 -0.16283719 -0.08061153 0.05987679 0.07911122 0.004816462
-0.03215055 -0.061015144 -0.20811523 -0.033680983 0.007927571 -0.1315086 -0.11203281 -0.1420055
0.040981557 0.0006644941 -0.041951746 -0.01664416 -0.051971097 -0.0061959825 0.06757771 0.037387624
-0.00043105258 -0.05922539 0.16223869 0.006996031 -0.0071558664 0.07596879 0.010033665 -0.018938038
0.024376845 0.011685767 -0.10006307 0.025816849 0.11986536 -0.089466184 -0.032457404 -0.19351856
0.03332386 -0.11453885 -0.1673288 -0.114976734 0.014003787 0.114751175 -0.109004825 0.03284961
-0.018415974 -0.04595652 0.004597514 -0.098908275 0.024262821 -0.082246 -0.14381118 -0.041077334
0.08888483 -0.09405543 -0.050501004 -0.11804367 0.034917753 -0.06452504 -0.08589316 -0.18470731
0.051750507 -0.079342216 0.034073226 -0.011689156 -0.047730993 0.06856018 -0.11047479 -0.08307927
0.020746239 0.0634176 -0.024866177 0.06906074 -0.03063212 -0.07722472 -0.029103536 0.059931144
0.065403536 0.035437007 -0.21390608 -0.011828622 -0.032339837 -0.050178595 0.0076173893 0.11689468
00000000: d98b f1b9 6883 023d 2d89 59bc b674 163d
00000010: b6a2 c5bd f0b4 35bc 50c0 c8bd d38f 01bd
00000020: 2c79 673d c182 583d a4c0 253d 76a1 fd3c
00000030: d314 12bd 69fe 043d 9b09 7abd d6a5 173d
00000040: 3c39 013c ef38 13bd ebd4 903a 6a08 1d3d
00000050: fc56 913c 1b94 8d3d b1d5 e23d b479 3f3d
00000060: f0ba ef3c 066b f2bd 5791 803b a7a7 223c
00000070: 0206 03be 056c 21ba da0a 0dbe 6624 6cbd
00000080: cd64 3c3d 29b3 c6bc b4d3 a5bd 6aba 3f3c
00000090: 2927 233d ce56 a73d aa20 a9bd 428b 84bd
000000a0: bd11 dfbd 0c24 8abd 470f b2bd bea9 afbb
000000b0: 34a4 8fbd 7d55 0fbc d3b2 5e3d 99db 0fbd
000000c0: 7209 b3bd b668 993c 4b5a 023e 62a1 2e3d
000000d0: 0c69 f0bd 408f 54bd 03d6 babd d53f 8d3d
000000e0: 44d5 023d b938 88bd ea44 82bb 318a 243c
000000f0: 1f7e 1bbd b00f a43c f72a 873d dc68 7f3d
00000100: 7e7f 8e3d d02b a8bc 7368 aebd 0b63 0f3d
00000110: 0611 aabd 697a b83d d1a0 9fbd 9fc2 9fbd
00000120: 9ca6 dd3c 1117 fb3c 4150 073d 17a1 6dbd
00000130: d713 023d 3882 95bd a049 1a3e 6ee4 81bc
00000140: 0c46 0d3d 62e3 6a3d 7914 b3bd 44ea 46bd
00000150: 5430 4dbd 131a 1b3d 7233 87bc 804c 3dbd
00000160: fe69 053d 2fab 0b3d b93f 9bbd 2c85 0bbc
00000170: b4ae 113d a13c 87bd 2ca3 a7bd ad95 373d
00000180: 3744 9dbd e438 173c 181d 7abd f900 d6bb
00000190: 9835 a93c 492a c23b fa73 b7ba 5350 89bd
000001a0: a9e7 0ebd bbab a7bd 2199 ccbc 0365 a4bc
000001b0: a1c0 c2bd 11a1 34bc 5ef8 2fbe f358 05be
000001c0: 4b71 6ebd 7c67 7cbd 8261 853d 2bb9 6bbd
000001d0: 73c5 e63c afeb 19bd 21e6 9f3c 2a21 37bd
000001e0: 9475 a2bd f332 50bd f30b c1bd 73d2 c83c
000001f0: 4983 2abc 65ea aebd 09e9 e3bd 9028 efbc
00000200: 73df a6bc fae6 a5bc d6fd 023c c034 c6bc
00000210: 1de2 52bd e028 2c3d 7d41 22bd 24e3 74bc
00000220: 9c71 1ebc ca32 97bd 5050 a4bd c8cf 913b
00000230: 9c00 773d c64a 11bc cb5a 8dbd 0704 87bd
00000240: 1e4f b2bd 6ebd 24bd 1c93 d3bd 788d 32bd
00000250: fe45 7abd 79c6 96bd 75fe c7bd abec e1bd
00000260: 1f48 a3bd fa05 95bc 0d11 d5bd 1e92 2cbd
00000270: f6ea 193d decd 623d 3840 c8bd ded1 51bd
00000280: 305b 33bd bda0 94bd b82d efbd 0b4b 01be
00000290: d9a0 6abd 02b6 7abd 6fbe 5f3d d89a f63d
000002a0: 9231 6d3d e47e 6cbd 2964 1dbd cbbe 26be
000002b0: a817 a5bd 5d41 753d 1005 a23d 69d3 9d3b
000002c0: 4cb0 03bd 04eb 79bd 291c 55be 12f5 09bd
000002d0: a5e2 013c 31aa 06be 7571 e5bd e469 11be
000002e0: 47dc 273d 7231 2e3a 98d5 2bbd 5559 88bc
000002f0: a5df 54bd ab07 cbbb 2f66 8a3d c423 193d
00000300: e6fe e1b9 5396 72bd e621 263e f63e e53b
00000310: c27b eabb 8695 9b3d 3e64 243c f223 9bbc
00000320: f3b1 c73c a975 3f3c deed ccbd db7d d33c
00000330: f87b f53d 0c3a b7bd 0ef2 04bd bb29 46be
00000340: 9a7e 083d 5893 eabd 3e58 2bbe ec78 ebbd
00000350: 2470 653c aa02 eb3d ec3d dfbd 508d 063d
00000360: 19dd 96bc e73c 3cbd bea6 963b 6c90 cabd
00000370: d3c2 c63c 9770 a8bd 3d43 13be b540 28bd
00000380: 4009 b63d 22a0 c0bd 24da 4ebd e1c0 f1bd
00000390: eb05 0f3d b425 84bd c1e8 afbd ea23 3dbe
000003a0: 57f8 533d 2c7e a2bd 5e90 0b3d e083 3fbc
000003b0: 9381 43bd 4869 8c3d 9b40 e2bd 7725 aabd
000003c0: 04f4 a93c 16e1 813d 27b4 cbbc b86f 8d3d
000003d0: 36f0 fabc fe27 9ebd 8a6a eebc 5c7a 753d
000003e0: 4af2 853d 6526 113d 320a 5bbe d6cc 41bc
000003f0: c776 04bd 1288 4dbd 4b9b f93b 7a66 ef3d

image_conv.5.bias f4 [64]
-0.0014958517 0.008502307 0.017525675 0.10426793 0.0072037154 -0.017765054 -0.06970085 0.065036185
0.0616264 -0.14283755 0.06491232 -0.071187384 -0.10759539 0.10495045 0.09759565 -0.06653439
-0.014859938 0.10965041 -0.09983891 0.06437947 0.12106078 -0.015757069 -0.013037145 0.11402896
-0.058647126 -0.07442427 0.050382443 -0.09384642 0.12691338 0.016180674 -0.04202769 -0.05202879
-0.07288979 0.09102239 0.033209644 -0.04344798 0.018124755 0.12219017 -0.08765271 0.02301544
-0.06859084 -0.103610516 -0.061601497 0.010118727 -0.085539594 0.034308106 -0.14816438 0.0132297985
0.0010585629 -0.003839885 -0.07202403 -0.0048130592 -0.10770486 0.01443654 -0.0886864 -0.039043896
-0.051191445 -0.07257526 -0.026003938 -0.038062934 -0.09902819 0.064124785 -0.047636718 0.00035169156
00000000: 7410 c4ba 434d 0b3c 0192 8f3c 6d8a d53d
00000010: 250d ec3b 0588 91bc 52bf 8ebd b131 853d
00000020: f76b 7c3d 0244 12be c0f0 843d b1ca 91bd
00000030: f95a dcbd 43f0 d63d 3ae0 c73d 2f43 88bd
00000040: 1977 73bc 6590 e03d 5878 ccbd 62d9 833d
00000050: b7ee f73d f814 81bc c099 55bc 0488 e93d
00000060: f837 70bd c06b 98bd d25d 4e3d 8d32 c0bd
00000070: 95f5 013e 558d 843c 3a25 2cbd 241c 55bd
00000080: 3e47 95bd f269 ba3d d606 083d 82f6 31bd
00000090: 5e7a 943c d73e fa3d 4483 b3bd e08a bc3c
000000a0: 5b79 8cbd c031 d4bd da51 7cbd 04c9 253c
000000b0: 622f afbd a886 0c3d 67b8 17be ccc1 583c
000000c0: 7abf 8a3a 94a6 7bbb 5681 93bd deb6 9dbb
000000d0: 5e94 dcbd 3d87 6c3c 37a1 b5bd 7eec 1fbd
000000e0: 1fae 51bd 57a2 94bd 3606 d5bc e1e7 1bbd
000000f0: 4bcf cabd db53 833d b81e 43bd 3e63 b839

actor.0.weight f4 [64, 64]
0.066976465 -0.05531032 0.33124498 -0.3615757 -0.17314483 -0.03290807 -0.08725254 -0.0054280655
-0.01744407 -0.06451145 0.20792232 -0.07183774 -0.19242658 0.23034242 0.06465031 -0.002093878
-0.0034650245 0.13658378 -0.3214533 0.026133927 0.38549706 0.10982173 -0.04714011 0.01981539
-0.13993333 -0.11456558 0.1753935 0.05735449 -0.08818668 0.10806189 -0.12663013 -0.19448358
0.18793324 0.26032296 -0.3226552 0.12861341 -0.0012306198 -0.0020044465 0.041348398 -0.02535313
-0.22055607 -0.07348005 0.09678969 -0.16341256 -0.03171439 -0.07240828 -0.10305274 -0.04529592
-0.018523693 -0.008597472 -0.04257134 0.057418037 -0.15883651 0.15699592 0.021907102 0.06694104
0.2075881 0.13515012 0.02924276 -0.24180755 0.18503337 0.06531907 -0.09140381 0.25852588
0.023034833 0.25005102 -0.069427095 0.18155397 -0.017221399 0.06003908 -0.17809586 -0.0914639
-0.058301818 0.110901944 0.052114967 -0.15913814 -0.059188142 -0.13173254 -0.015596028 0.121332556
-0.0471507 0.2475584 -0.068275064 0.092141256 0.0054165544 -0.08261216 -0.045298785 -0.13645166
-0.046734907 0.101708986 0.018638896 -0.3936693 0.03573838 -0.018506486 -0.16879477 -0.14932628
0.16250879 0.040466174 -0.02927258 0.005954833 -0.0141120395 0.11523237 -0.0091335755 -0.21022467
-0.061315756 0.0326758 -0.26775527 0.12943824 0.13541952 -0.13957235 -0.1891509 0.34113586
-0.15072764 -0.044591084 0.012064476 -0.17015946 0.27194965 -0.1278819 0.070398286 -0.014348094
-0.16568373 0.050858576 0.12621416 -0.06443608 -0.028690353 -0.0062444345 -0.17380534 -0.21834318
0.06976655 -0.18441425 -0.27037153 0.5376239 0.10233033 -0.027878389 0.011332108 -0.07610403
0.0048925886 -0.020849563 0.024016196 -0.28425717 -0.04212626 -0.17848635 -0.31939936 0.024364829
-0.073585056 0.15073629 -0.041770283 -0.19319743 -0.24230982 -0.16865091 0.33977664 0.24981113
-0.26106578 0.05144326 0.19771828 0.016126057 0.11299012 0.09321219 0.069202855 -0.024745516
-0.12050421 -0.28520766 -0.086128876 -0.0037853313 0.12988722 0.39000925 0.0775007 -0.14966841
-0.06186569 -0.11525736 -0.101994015 0.14607614 -0.10655111 -0.22966574 -0.04486491 0.051543992
-0.071747914 0.041310042 -0.03222823 0.114419736 0.16342156 0.04717079 0.06736495 0.15537831
-0.061510194 -0.025374979 0.024859292 0.16468786 0.23818754 0.02658081 -0.08212331 -0.28311703
-0.13651603 -0.07441687 -0.028544566 0.3499865 0.1365021 -0.1879159 -0.1006379 -0.20292462
0.12099265 0.09861994 0.11702322 -0.24558876 0.047734585 -0.24640325 0.1951539 -0.016854161
-0.13305008 4.586587e-05 -0.027792618 -0.060422115 -0.036028456 -0.13916916 -0.05224732 0.04557572
0.06388373 0.104442626 0.19798753 -0.088431105 0.08342841 0.1603199 0.17678565 0.18743633
0.037385467 -0.37201616 0.06480113 -0.107669756 0.06462963 -0.00726367 0.027455626 -0.3600933
-0.04073279 -0.081612825 -0.09580347 0.2014032 0.070013285 -0.22204992 0.010726402 0.16618372
0.10312419 -0.019365754 -0.1697051 -0.1037526 0.19627997 0.057250805 -0.15072837 -0.15067871
-0.3512856 -0.084997 0.058969107 0.10899052 0.18309902 0.09313767 -0.01847354 -0.34276563
00000000: f52a 893d 138d 62bd f198 a93e 7320 b9be
00000010: e14c 31be 9dca 06bd 76b1 b2bd eadd b1bb
00000020: dee6 8ebc 941e 84bd 97e9 543e aa1f 93bd
00000030: 790b 45be e2de 6b3e 6267 843d 7239 09bb
00000040: 7715 63bb 9edc 0b3e 8795 a4be d116 d63c
00000050: df5f c53e 37ea e03d fd15 41bd e353 a23c
00000060: af4a 0fbe 5ca1 eabd 5b9a 333e 8bec 6a3d
00000070: 389b b4bd 8d4f dd3d 54ab 01be b426 47be
00000080: 9271 403e 0d49 853e 1033 a5be 3cb3 033e
00000090: c04c a1ba 085d 03bb f05c 293d 5eb1 cfbc
000000a0: 73d9 61be b57c 96bd ac39 c63d 9f55 27be
000000b0: f3e6 01bd cb4a 94bd 510d d3bd 3788 39bd
000000c0: 00bf 97bc 69dc 0cbc 495f 2ebd 2d2f 6b3d
000000d0: 0aa6 22be 8ac3 203e 8676 b33c 6218 893d
000000e0: fa91 543e cb64 0a3e 838e ef3c 669c 77be
000000f0: 6379 3d3e 01c6 853d ec31 bbbd 815d 843e
00000100: 8cb3 bc3c b006 803e cb2f 8ebd 49e9 393e
00000110: e413 8dbc 8aeb 753d c35e 36be 6d51 bbbd
00000120: e3cd 6ebd 8f20 e33d 8176 553d 1cf5 22be
00000130: 446f 72bd e5e4 06be 7c86 7fbc 347d f83d
00000140: 1821 41bd f37f 7d3e ccd3 8bbd 8eb4 bc3d
00000150: 5a7d b13b 9030 a9bd 388b 39bd fcb9 0bbe
00000160: 1a6d 3fbd cd4c d03d 99b0 983c 068f c9be
00000170: 6862 123d ea9a 97bc 89d8 2cbe fde8 18be
00000180: b468 263e dcbf 253d 0dcd efbc c220 c33b
00000190: 2f36 67bc f3fe eb3d fea4 15bc 2345 57be
000001a0: 3b26 7bbd 0fd7 053d 3817 89be 758b 043e
000001b0: 6aab 0a3e 0eec 0ebe c6b0 41be 5ca9 ae3e
000001c0: 5958 1abe 24a5 36bd 14aa 453c 483e 2ebe
000001d0: fc3c 8b3e 79f3 02be fa2c 903d 4514 6bbc
000001e0: ffa8 29be 1551 503d 493e 013e 10f7 83bd
000001f0: 0808 ebbc 1d9e ccbb 07fa 31be 5b95 5fbe
00000200: c4e1 8e3d 17d7 3cbe 236e 8abe b8a1 093f
00000210: 9092 d13d 3861 e4bc 4eaa 393c 6edc 9bbd
00000220: 0252 a03b b4cc aabc 9dbd c43c 288a 91be
00000230: 968c 2cbd 20c5 36be 5088 a3be c098 c73c
00000240: c3b3 96bd 9d5a 1a3e 5117 2bbd 8cd5 45be
00000250: 1120 78be d3b2 2cbe 34f7 ad3e 7dce 7f3e
00000260: 6aaa 85be 2bb6 523d a976 4a3e cb1a 843c
00000270: 5d67 e73d 08e6 be3d 3aba 8d3d 1cb7 cabc
00000280: e9ca f6bd bd06 92be 5664 b0bd 5213 78bb
00000290: 2801 053e 4baf c73e b0b8 9e3d ad42 19be
000002a0: e166 7dbd 0d0c ecbd 3de2 d0bd fc94 153e
000002b0: 7837 dabd 7f2d 6bbe 45c4 37bd cb1f 533d
000002c0: 92f0 92bd b834 293d c001 04bd e554 ea3d
000002d0: fb57 273e 2936 413d a3f6 893d 7e1b 1f3e
000002e0: 1df2 7bbd 30df cfbc b7a5 cb3c efa3 283e
000002f0: 6fe7 733e 00c0 d93c 4430 a8bd b7f4 90be
00000300: dcca 0bbe df67 98bd 4bd6 e9bc 6e31 b33e
00000310: 35c7 0b3e 076d 40be 3e1b cebd 79cb 4fbe
00000320: ffca f73d 40f9 c93d dfa9 ef3d 9f7b 7bbe
00000330: 5785 433d 2251 7cbe 6dd6 473e bd11 8abc
00000340: 483e 08be 1a60 4038 58ad e3bc 2e7d 77bd
00000350: 9392 13bd 5c82 0ebe 4901 56bd 9bad 3a3d
00000360: 79d5 823d 04e6 d53d 3ebd 4a3e 5e1b b5bd
00000370: 84dc aa3d e62a 243e 4c07 353e 4fef 3f3e
00000380: 8121 193d e778 bebe 74b6 843d f681 dcbd
00000390: 8a5c 843d 1504 eebb 9fea e03c 265e b8be
000003a0: 6dd7 26bd a024 a7bd 9c34 c4bd a43c 4e3e
000003b0: 2063 8f3d 0e61 63be cabd 2f3c 112c 2a3e
000003c0: c632 d33d eea4 9ebc 2cc7 2dbe 3e7c d4bd
000003d0: 9efd 483e d27f 6a3d 8a58 1abe 854b 1abe
000003e0: b5db b3be e812 aebd 9789 713d 6c36 df3d
000003f0: 4f7e 3b3e f6be be3d d255 97bc fa7e afbe

actor.0.bias f4 [64]
0.0016602676 -0.007407373 -0.01298675 0.0126223825 -0.013497143 -0.041028842 -0.010066927 0.04431099
0.0030075603 -0.0028788706 0.06645903 0.0069251903 -0.032226328 -0.019844694 -0.03309121 -0.034556475
-0.0628647 0.023705605 0.017353619 -0.04721297 -0.03627509 -0.024544427 0.056998923 0.054386377
-0.04008547 0.029176025 -0.031619914 0.056364276 -0.008879369 -0.057574965 0.008625382 0.011669765
-0.008155784 -0.0019323053 -0.009648928 0.009897492 -0.0054268376 -0.023175893 0.02901722 -0.006604722
-0.028740946 -0.01753662 -0.041384425 0.030190658 -0.0036181533 -0.021776643 -0.043899667 -0.04216586
-0.0057907393 -0.007386065 0.035929855 0.0074447016 -0.0029880838 0.034030166 0.012796614 0.0081307
0.0050610295 -0.013798325 -0.04728828 -0.034250062 -0.011710539 0.028466402 -0.03615447 0.02890722
00000000: 569d d93a 8cb9 f2bb 61c6 54bc 1cce 4e3c
00000010: 1f23 5dbc dc0d 28bd c1ef 24bc 717f 353d
00000020: 7d1a 453b 6fab 3cbb ac1b 883d b5ec e23b
00000030: c1ff 03bd 5791 a2bc a68a 07bd 178b 0dbd
00000040: 35bf 80bd 4232 c23c 2d29 8e3c 6362 41bd
00000050: 3095 14bd 6511 c9bc b477 693d 40c4 5e3d
00000060: a930 24bd 8f02 ef3c e283 01bd 3ade 663d
00000070: c67a 11bc bad3 6bbd 7951 0d3c 8b32 3f3c
00000080: d69f 05bc 6845 fdba 8a16 1ebc 1729 223c
00000090: 9dd3 b1bb 5fdb bdbc 85b5 ed3c 6c6c d8bb
000000a0: 2272 ebbc f5a8 8fbc b782 29bd 6652 f73c
000000b0: 8a1e 6dbb ee64 b2bc 23d0 33bd 1cb6 2cbd
000000c0: 3ec0 bdbb ce06 f2bb 2f2b 133d aff2 f33b
000000d0: bad3 43bb 3763 0b3d e4a8 513c a136 053c
000000e0: fed6 a53b 5f12 62bc 5bb1 41bd cb49 0cbd
000000f0: 90dd 3fbc 5f32 e93c b616 14bd d6ce ec3c

actor.2.weight f4 [3, 64]
-0.13306625 0.13006449 0.13755311 0.21950087 0.10416582 0.21175846 -0.09196789 -0.25250208
0.24349342 -0.17073876 -0.03503592 0.19165275 -0.07671906 -0.10305276 -0.1430802 -0.15800248
0.027896697 -0.09429165 0.2655631 0.12754688 -0.012115515 0.09148444 0.017701942 -0.02301545
-0.008011816 -0.0037598435 -0.09838706 0.0095169125 -0.11251449 0.09298093 -0.0129072 0.19162205
-0.16934003 0.38628605 0.13655557 -0.03640462 -0.06387784 -0.064136006 0.024140967 0.0622944
-0.056395266 -0.08124682 0.028558344 -0.08255563 -0.07731456 0.08943394 -0.03064505 0.1339445
0.19126262 0.2210587 0.24985874 -0.120003074 0.11625483 0.1094764 0.1473656 0.066503406
0.034272585 -0.046780862 0.10316352 0.06746651 -0.10804819 0.2435655 0.018080471 0.035859328
0.09301066 -0.035436478 -0.022633031 -0.03824981 0.02111627 -0.07858684 -0.008014584 0.20578547
0.106080696 0.05167151 0.0038323873 0.12296705 -0.24446324 -0.17885618 -0.18374398 -0.24575561
-0.29568353 0.2027184 -0.00010015297 -0.19641003 -0.082423925 -0.2623811 0.059688464 0.2288043
-0.02404061 0.000737789 -0.21030328 0.11344178 -0.08907404 -0.22304526 -0.10537005 -0.04418188
-0.19393715 -0.006823543 -0.118827954 -0.1348441 0.23366356 -0.10193486 0.07886142 0.023719303
-0.26953885 0.01695925 0.08090313 -0.16420323 0.070152834 -0.19968851 -0.16420257 0.04195849
0.15764692 -0.09121998 0.23758169 -0.11233485 -0.18851586 0.119970925 0.01696983 -0.23296273
0.05364674 -0.037094306 -0.02962436 -0.2971207 0.020254908 0.074223235 -0.29093066 -0.113343805
-0.05864451 -0.052786026 -0.044622708 -0.083211966 0.09159358 -0.1400131 0.3151036 -0.250247
-0.1639558 0.12476228 -0.12218298 -0.09058254 0.23166291 0.048529033 0.14549595 0.15577005
0.012409724 -0.006824375 0.08931618 0.005363715 -0.015778173 0.064656 -0.12666488 -0.03552122
0.09425089 -0.01051768 0.12182064 -0.12900522 0.5909828 -0.018341184 0.0036169116 -0.19966063
-0.004126173 -0.041485388 0.019993143 -0.18430403 0.20142843 0.1900469 0.09022954 -0.08013108
0.08684974 0.3329343 0.009191968 -0.22054361 0.11123659 0.050039828 -0.10962274 0.15186432
-0.08259137 0.009570843 0.16547257 -0.02355572 0.1682549 -0.2480423 -0.23727015 -0.16735192
0.008759887 0.04156225 0.18352363 -0.028200505 0.12309275 -0.1419732 -0.0924564 -0.14615487
00000000: 8542 08be a02f 053e b9da 0c3e d6c4 603e
00000010: e454 d53d 36d7 583e a959 bcbd f447 81be
00000020: 5756 793e 24d6 2ebe d381 0fbd 9e40 443e
00000030: e21e 9dbd 530d d3bd 9e83 12be 67cb 21be
00000040: 9d87 e43c fb1b c1bd e3f7 873e a69b 023e
00000050: 2780 46bc 325c bb3d aa03 913c e68a bcbc
00000060: fe43 03bc b567 76bb 287f c9bd d3ec 1b3c
00000070: ff6d e6bd c96c be3d b878 53bc 9238 443e
00000080: 7967 2dbe 49c7 c53e 39d5 0b3e 031d 15bd
00000090: 63d2 82bd bd59 83bd 47c3 c53c 6a28 7f3d
000000a0: b9fe 66bd bc64 a6bd 30f3 e93c ed12 a9bd
000000b0: 1957 9ebd 2429 b73d 540b fbbc bf28 093e
000000c0: 59da 433e 365d 623e f8da 7f3e 2cc4 f5bd
000000d0: 0317 ee3d 2a35 e03d 02e7 163e f032 883d
000000e0: 6961 0c3d 4a9d 3fbd 6547 d33d e22b 8a3d
000000f0: 5f48 ddbd 3c69 793e 7f1d 943c 3be1 123d
00000100: 5f7c be3d d725 11bd e868 b9bc d5ab 1cbd
00000110: 07fc ac3c 23f2 a0bd 9a4f 03bc 6db9 523e
00000120: d640 d93d 81a5 533d ca28 7b3b 26d6 fb3d
00000130: 9254 7abe 1326 37be 6227 3cbe 5ca7 7bbe
00000140: d563 97be 6a95 4f3e 3709 d2b8 b61f 49be
00000150: e0cd a8bd d156 86be e47b 743d ad4b 6a3e
00000160: d0f0 c4bc 2f68 413a be59 57be 2a54 e83d
00000170: 736c b6bd fa65 64be 41cc d7bd 0ff8 34bd
00000180: 7697 46be 0798 dfbb 125c f3bd 9214 0abe
00000190: 8045 6f3e 39c3 d0bd 1982 a13d fc4e c23c
000001a0: ff00 8abe 20ee 8a3c 8ab0 a53d e424 28be
000001b0: 4aac 8f3d 257b 4cbe b824 28be aadc 2b3d
000001c0: 326e 213e 8ad1 babd 9d48 733e d00f e6bd
000001d0: 4d0a 41be 51b3 f53d 5004 8b3c c88d 6ebe
000001e0: afbc 5b3d 33f0 17bd c9ae f2bc 3420 98be
000001f0: 9fed a53c 5a02 983d ddf4 94be cc20 e8bd
00000200: 3a35 70bd 2936 58bd 4dc6 36bd 096b aabd
00000210: 6a95 bb3d 985f 0fbe 4255 a13e 6020 80be
00000220: 07e4 27be 5e83 ff3d 123b fabd 5783 b9bd
00000230: 0b39 6d3e 61c6 463d e4fc 143e 2f82 1f3e
00000240: 2852 4b3c 029f dfbb 67eb b63d 1ac2 af3b
00000250: 3a41 81bc 5d6a 843d 70b4 01be b37e 11bd
00000260: 9c06 c13d 5952 2cbc 1a7d f93d f219 04be
00000270: a64a 173f 4040 96bc b509 6d3b d673 4cbe
00000280: d934 87bb 95ec 29bd a9c8 a33c 32ba 3cbe
00000290: 4143 4e3e a89b 423e 44ca b83d c31b a4bd
000002a0: 47de b13d 5d76 aa3e e899 163c 2fd6 61be
000002b0: 02d0 e33d 90f6 4c3d e381 e0bd 5282 1b3e
000002c0: aa25 a9bd 06cf 1c3c a471 293e edf7 c0bc
000002d0: 034b 2c3e cdfe 7dbe f2f6 72be 4d5e 2bbe
000002e0: a185 0f3c 2e3d 2a3d 9eed 3b3e bf04 e7bc
000002f0: 0d18 fc3d 6c61 11be c859 bdbd 9fa9 15be

actor.2.bias f4 [3]
-0.01171039 0.018266303 0.0057545714
00000000: f0dc 3fbc 37a3 953c d890 bc3b

critic.0.weight f4 [64, 64]
0.080218256 -0.078417614 0.0034723955 -0.01492398 0.120231114 -0.088865094 0.028135834 0.14640397
0.09604204 0.038070004 0.08125265 0.10703052 0.04613426 -0.07750228 -0.11002269 0.05629999
-0.008880773 -0.07143764 -0.19097564 -0.020813424 0.12343704 0.10514986 -0.21189652 -0.018491244
0.040884804 -0.045766134 0.095919214 0.16816138 0.15137321 0.023191188 -0.27958977 -0.006360949
0.14965218 0.050315104 0.07264392 0.14393152 -0.22949421 -0.09019083 0.29782337 0.07041241
0.114290275 0.006385354 0.09846456 0.27242768 0.12747364 -0.16122518 0.16607589 -0.047578417
-0.06268056 -0.105873965 -0.027206106 0.1289023 0.018514976 -0.047518946 0.22513252 0.037030134
0.17750457 -0.16976044 0.114054866 0.26847988 -0.050130952 0.033513043 0.012685424 0.31459245
-0.13263266 0.12866047 0.29018772 0.07838942 0.060274858 0.07910792 -0.024507651 -0.06364093
-0.20118186 -0.16747995 -0.041247178 0.008535204 -0.09944328 0.20720641 0.031871893 0.2404803
0.20042655 0.05312977 0.12984295 0.0011760381 -0.010142219 0.0670194 0.014226134 -0.031859294
0.3054729 0.016181976 0.1684432 0.2699596 0.22078612 0.20384166 -0.19994839 0.011311092
-0.050680656 0.19153462 0.068630196 -0.12856327 -0.0019243113 0.113549314 -0.021153819 0.20257193
-0.033971753 -0.034144934 -0.23727459 0.10780811 0.064986385 0.029867776 -0.0150637515 0.09011895
0.15830517 0.109956525 -0.035684604 0.15790409 -0.08482694 0.16189525 -0.06525026 -0.042394347
0.190746 -0.0005226733 -0.0708007 0.09266305 0.16799445 -0.11194197 -0.045572143 0.13761076
-0.08611349 -0.018693293 0.0479309 -0.065841645 0.13534804 0.1843304 0.1406733 0.00857072
0.20711717 -0.07973279 0.12757026 -0.04038023 0.067997724 0.11117514 -0.1440162 0.15789303
-0.030482633 0.18446156 0.24182814 -0.048710305 -0.14003374 -0.0672514 0.021717828 -0.00817377
0.16322115 0.06489159 -0.17489155 0.043331016 -0.14458677 0.19124413 -0.0033667614 -0.16144925
0.04175593 -0.28316206 -0.08551688 0.10138981 0.18744786 -0.021573557 0.033486262 0.035463683
0.05637547 -0.093456976 0.008239265 -0.08089755 0.1367958 -0.18373244 -0.081142254 0.12005818
0.2982439 -0.043235622 -0.081328 -0.08783759 0.15342225 -0.28782558 -0.02897779 0.00013517734
-0.097377986 -0.10284129 0.15176007 0.045612346 -0.2604482 -0.09365213 0.07812406 0.0065040477
0.08412075 0.025057584 -0.16950765 0.08777291 -0.02487688 -0.017717913 -0.00048705805 -0.057249524
0.08058642 -0.02017403 -0.041023485 0.24879742 -0.34856185 -0.07459134 -0.09269016 -0.23133484
0.06690342 -0.005306614 -0.038813293 -0.14738905 -0.073899575 0.20603572 -0.018522162 -0.0018717253
-0.022412637 0.18237911 -0.20344831 -0.19898465 0.04455805 -0.06651286 -0.050151274 0.13020116
-0.0076561486 0.29441845 0.019826768 -0.21473414 0.19748418 0.0754158 0.06494057 -0.017522661
0.00081020605 0.0947611 -0.31338543 0.115392104 -0.11918652 0.058372747 -0.022214813 -0.13605045
0.12939888 0.039185595 0.09379257 -0.020887768 0.115156904 0.1550608 0.056234576 0.06219642
0.30106974 0.014230539 -0.027828783 -0.032133695 0.03219598 0.034025583 -0.13045336 -0.049032774
00000000: 7849 a43d 6a99 a0bd 2191 633b b683 74bc
00000010: bb3b f63d e7fe b5bd 1f7d e63c ecea 153e
00000020: b0b1 c43d 4bef 1b3d ca67 a63d d132 db3d
00000030: 47f7 3c3d 84b9 9ebd 9353 e1bd d19a 663d
00000040: a980 11bc e64d 92bd 1e8f 43be ea80 aabc
00000050: 8fcc fc3d cf58 d73d 67fb 58be f37a 97bc
00000060: d376 273d 4575 3bbd 4b71 c43d 7f32 2c3e
00000070: 9401 1b3e 72fb bd3c 6426 8fbe 826f d0bb
00000080: 6c3e 193e 3617 4e3d 56c6 943d c962 133e
00000090: 8800 6bbe f8b5 b8bd 4e7c 983e 6234 903d
000000a0: 0511 ea3d 3b3c d13b caa7 c93d a47b 8b3e
000000b0: 7388 023e 3718 25be cc0f 2a3e 96e1 42bd
000000c0: aa5e 80bd 73d4 d8bd 57df debc f7fe 033e
000000d0: b8ac 973c 3aa3 42bd 2489 663e e9ac 173d
000000e0: c2c3 353e aed5 2dbe 9995 e93d 3276 893e
000000f0: 1d56 4dbd f944 093d 86d6 4f3c 4312 a13e
00000100: dbd0 07be 92bf 033e 7c93 943e a28a a03d
00000110: c5e2 763d 5503 a23d 45c4 c8bc 2d56 82bd
00000120: 9e02 4ebe dd7f 2bbe cdf2 28bd 3ed7 0b3c
00000130: eba8 cbbd eb2d 543e 1a8c 023d 7840 763e
00000140: 9e3c 4d3e 9a9e 593d 8df5 043e 4a25 9a3a
00000150: 8d2b 26bc 7841 893d bb14 693c e47e 02bd
00000160: f266 9c3e 1090 843c 607c 2c3e 2538 8a3e
00000170: c215 623e debb 503e 45bf 4cbe 2952 393c
00000180: 8596 4fbd a721 443e fd8d 8c3d 17a6 03be
00000190: 2c39 fcba 8b8c e83d c64a adbc 046f 4f3e
000001a0: f725 0bbd 8fdb 0bbd 1cf8 72be 80ca dc3d
000001b0: 9517 853d 44ad f43c f4cd 76bc 4990 b83d
000001c0: c01a 223e e330 e13d 052a 12bd 9cb1 213e
000001d0: bfb9 adbd dec7 253e eea1 85bd b2a5 2dbd
000001e0: eb52 433e 0304 09ba f5ff 90bd 20c6 bd3d
000001f0: bd06 2c3e d541 e5bd dba9 3abd d6e9 0c3e
00000200: 455c b0bd ad22 99bc 3153 443d fcd7 86bd
00000210: ad98 0a3e 1cc1 3c3e a90c 103e 356c 0c3c
00000220: 8616 543e f24a a3bd c7a1 023e bd65 25bd
00000230: 6442 8b3d cbaf e33d fc78 13be b6ae 213e
00000240: b7b6 f9bc 7ee3 3c3e cca1 773e 7584 47bd
00000250: 0165 0fbe 1abb 89bd 96e9 b13c 47eb 05bc
00000260: 7223 273e e2e5 843d c516 33be dd7b 313d
00000270: 8e0e 14be 80d5 433e e2a4 5cbb f452 25be
00000280: 4408 2b3d 9efa 90be 7923 afbd 76a5 cf3d
00000290: 55f2 3f3e 07bb b0bc e428 093d 5e42 113d
000002a0: f7e9 663d 5f66 bfbd fbfd 063c 9dad a5bd
000002b0: 3314 0c3e 5b24 3cbe e92d a6bd 10e1 f53d
000002c0: 6db3 983e d617 31bd 4b8f a6bd 32e4 b3bd
000002d0: b91a 1d3e e05d 93be d562 edbc 64be 0d39
000002e0: 1c6e c7bd 749e d2bd fe66 1b3e 03d4 3a3d
000002f0: 7759 85be b0cc bfbd 82ff 9f3d e81f d53b
00000300: 8047 ac3d 9045 cd3c 6a93 2dbe 49c2 b33d
00000310: 99ca cbbc 2825 91bc d35b ffb9 7a7e 6abd
00000320: 7e0a a53d 0244 a5bc 3e08 28bd c0c4 7e3e
00000330: b376 b2be 58c3 98bd 57d4 bdbd 0ae3 6cbe
00000340: a904 893d 1be3 adbb b0fa 1ebd 28ed 16be
00000350: a958 97bd 07fb 523e cabb 97bc ae54 f5ba
00000360: b59a b7bc 97c1 3a3e c154 50be a2c2 4bbe
00000370: 8082 363d e537 88bd 6c6b 4dbd 7453 053e
00000380: 6ee0 fabb 04be 963e bf6b a23c 44e3 5bbe
00000390: 4b39 4a3e 9973 9a3d 90ff 843d af8b 8fbc
000003a0: 0264 543a 1c12 c23d 0e74 a0be b252 ec3d
000003b0: 1018 f4bd 4318 6f3d d7fb b5bc cf50 0bbe
000003c0: 2481 043e 1381 203d 5216 c03d d31c abbc
000003d0: 62d7 eb3d 42c8 1e3e 3a56 663d acc1 7e3d
000003e0: d025 9a3e 3527 693c 30f9 e3bc 9f9e 03bd
000003f0: efdf 033d 695e 0b3d 9195 05be 97d6 48bd

critic.0.bias f4 [64]
-0.01822546 0.13192388 -0.041202277 0.014809022 -0.0046259984 0.14745812 -0.056021146 -0.02504782
0.06739051 0.013929621 -0.1049778 -0.042689256 0.07953354 -0.16239792 -0.09463459 -0.0026506921
-0.038043216 0.029873762 -0.13521309 0.03478162 0.052699856 -0.06289603 -0.11023574 -0.102829576
-0.037877254 0.037347443 0.13611773 0.05603754 -0.12178302 -0.0063741556 -0.02876818 0.07342449
0.0072947117 -0.012123824 -0.1040499 0.023792028 -0.04717967 -0.1666536 0.12196932 -0.0031548096
-0.046802744 0.15858851 0.061275374 -0.024741888 0.16726254 -0.0883079 -0.13938698 0.016262962
-0.13188866 0.026283067 0.124237455 -0.16139896 -0.027037207 0.0058908616 -0.02592379 -0.1356546
0.020469569 0.019818142 -0.008938771 0.03480982 0.047155917 0.010802728 -0.048455443 0.10701495
00000000: 8f4d 95bc 0e17 073e b8c3 28bd 8aa1 723c
00000010: b095 97bb 43ff 163e 6e76 65bd 1631 cdbc
00000020: 0904 8a3d 1139 643c 9afe d6bd eeda 2ebd
00000030: 7be2 a23d a44b 26be c8cf c1bd 3cb7 2dbb
00000040: 34d3 1bbd d2b9 f43c 4d75 0abe 2c77 0e3d
00000050: cedb 573d a2cf 80bd 47c3 e1bd 5098 d2bd
00000060: 2e25 1bbd a2f9 183d 7262 0b3e 9f87 653d
00000070: 6069 f9bd 4bde d0bb 3fab ebbc 945f 963d
00000080: 7a08 ef3b 01a3 46bc 1d18 d5bd 80e7 c23c
00000090: 783f 41bd 3ea7 2abe 0dcb f93d ecc0 4ebb
000000a0: 3cb4 3fbd 0765 223e e3fb 7a3d 80af cabc
000000b0: df46 2b3e c6da b4bd 76bb 0ebe e739 853c
000000c0: d20d 07be 964f d73c 3570 fe3d c545 25be
000000d0: 227d ddbc 2108 c13b 215e d4bc 0ae9 0abe
000000e0: ccaf a73c a859 a23c ec73 12bc be94 0e3d
000000f0: 9026 413d edfd 303c 3779 46bd a72a db3d

critic.2.weight f4 [1, 64]
-0.013251121 0.048637565 -0.009107872 -0.00048059027 0.0062442175 0.09950508 -0.002880973 -0.012118771
0.020468084 0.02260318 -0.076163 0.011042466 0.03531919 -0.22277558 -0.08075234 0.0021713665
0.0037470288 -0.018390866 -0.11871168 0.0068559116 0.00014089487 -0.0013835174 -0.08416736 -0.059447955
-0.0003449278 -0.018334536 0.17505635 -0.04586321 -0.14416857 -0.025595574 0.015532542 0.016663546
0.013868468 0.010701054 -0.0357147 -0.0054696966 -0.013016287 -0.16818555 0.13751425 0.027891513
-0.014450184 0.104384534 0.018453391 -0.014848115 0.29902628 -0.036747247 -0.114322975 0.002302763
-0.07233358 0.03843338 0.17912813 -0.14887796 -0.0026530589 0.012307289 -0.010636952 -0.072381735
0.013975147 0.014264022 -0.026897557 0.011784645 -0.001960638 -0.0009885926 -0.0022574267 0.06948959
00000000: 3b1b 59bc 2f38 473d 2f39 15bc bcf7 fbb9
00000010: 4b9c cc3b 52c9 cb3d b5ce 3cbb cf8d 46bc
00000020: afac a73c 4e2a b93c 59fb 9bbd 76eb 343c
00000030: dbaa 103d 481f 64be 7c61 a5bd 7c4d 0e3b
00000040: b690 753b 71a8 96bc 1c1f f3bd 8ea7 e03b
00000050: 2ebd 1339 2457 b5ba f05f acbd b37f 73bd
00000060: 6dd7 b4b9 4f32 96bc f941 333e 10db 3bbd
00000070: eda0 13be cfad d1bc 347c 7e3c fd81 883c
00000080: 9238 633c 7953 2f3c 9449 12bd 243b b3bb
00000090: 4442 55bc d538 2cbe 89d0 0c3e be7c e43c
000000a0: 77c0 6cbc 8fc7 d53d 912b 973c 8245 73bc
000000b0: f919 993e 4884 16bd 2a22 eabd f4e9 163b
000000c0: a123 94bd 526c 1d3d 5d6d 373e 7773 18be
000000d0: f1de 2dbb 83a4 493c 9c46 2ebc e03c 94bd
000000e0: 04f8 643c a5b3 693c 4458 dcbc 6214 413c
000000f0: 0c7e 00bb aa93 81ba 56f1 13bb 8f50 8e3d

exp_avg f4 [16, 3, 2, 2]
6e-45 6e-45 -5.379823e-05 0.000122056284 6e-45 6e-45 -0.00013449557 0.0003051408
0.0 0.0 0.0 0.0 0.0005518409 0.0009049015 0.0005437311 0.0003444187
-0.00035518024 -1.052186e-05 -0.00038069693 -9.205552e-05 0.0 0.0 0.0 0.0
-6e-45 6e-45 -1.1420927e-06 6e-45 6e-45 6e-45 -2.8552322e-06 6e-45
0.0 0.0 0.0 0.0 -0.00079951173 -0.0008737827 -0.0003398648 0.0002872487
6.9099304e-05 -8.43926e-06 0.00015280409 0.00015913909 0.0 0.0 0.0 0.0
-0.00015923317 -0.00016159914 -0.00015923317 -0.0012746282 6e-45 6e-45 6e-45 -0.00016114063
0.0 0.0 0.0 0.0 -0.0006387862 -0.0006441259 -0.00038792193 -0.0004028765
-0.0015959949 -0.0016183634 1.0077405e-05 1.37566285e-05 0.0 0.0 0.0 0.0
-0.00013374152 -0.0011075196 -0.00013075507 9.471819e-06 0.0 -0.00022771009 1.2838809e-05 0.0
0.0 0.0 0.0 0.0 0.000350598 -2.3842633e-05 -6.8811845e-05 -0.00039945982
-0.00014409203 -1.2921606e-05 -0.00022097358 0.0004539391 0.0 0.0 0.0 0.0
6e-45 6e-45 6e-45 6e-45 6e-45 6e-45 6e-45 6e-45
0.0 0.0 0.0 0.0 1.2251189e-10 6e-45 -4.767716e-06 -1.3241701e-05
6e-45 6e-45 -1.1919288e-05 -1.6552126e-06 0.0 0.0 0.0 0.0
0.0004228967 4.937301e-05 7.949803e-05 4.1836203e-05 4.4862216e-05 1.3927107e-07 -3.2110693e-05 -3.2111988e-05
0.0 0.0 0.0 0.0 6e-45 2.0647125e-05 6e-45 6e-45
6e-45 5.1617804e-05 -6e-45 0.0 0.0 0.0 0.0 0.0
5.798658e-05 -1.2828634e-05 -3.5178382e-05 -0.00032250158 -1.6511761e-06 2.639164e-06 -1.33564645e-05 -0.00077286264
0.0 0.0 0.0 0.0 3.6642276e-05 -0.00039669438 0.00026236865 0.00012681757
-1.7566395e-05 -7.017196e-05 1.4588786e-05 -6.25021e-06 0.0 0.0 0.0 0.0
-0.00078387326 -0.00045498845 -0.00078993896 -0.00055969134 -0.0018713563 -5.2438877e-06 -0.001884319 -2.454145e-05
0.0 0.0 0.0 0.0 -0.00011194723 -0.00010754928 -0.00046070377 -0.0005609749
-3.8750768e-05 -7.512973e-06 -5.1986408e-05 -2.1278885e-05 0.0 0.0 0.0 0.0
00000000: 0400 0000 0400 0000 69a5 61b8 78f8 ff38
00000010: 0400 0000 0400 0000 6107 0db9 4efb 9f39
00000020: 0000 0000 0000 0000 0000 0000 0000 0000
00000030: 6aa9 103a e936 6d3a 2d89 0e3a 1893 b439
00000040: 7c37 bab9 0b87 30b7 4798 c7b9 ee0d c1b8
00000050: 0000 0000 0000 0000 0000 0000 0000 0000
00000060: 0400 0080 0400 0000 024a 99b5 0400 0000
00000070: 0400 0000 0400 0000 849c 3fb6 0400 0000
00000080: 0000 0000 0000 0000 0000 0000 0000 0000
00000090: 5396 51ba 900e 65ba e22f b2b9 de99 9639
000000a0: 68e9 9038 5896 0db7 093a 2039 93de 2639
000000b0: 0000 0000 0000 0000 0000 0000 0000 0000
000000c0: d4f7 26b9 f072 29b9 d4f7 26b9 6d11 a7ba
000000d0: 0400 0000 0400 0000 0400 0000 dcf7 28b9
000000e0: 0000 0000 0000 0000 0000 0000 0000 0000
000000f0: 3774 27ba 8fda 28ba 0062 cbb9 2b39 d3b9
00000100: b430 d1ba 441f d4ba 2012 2937 45cc 6637
00000110: 0000 0000 0000 0000 0000 0000 0000 0000
00000120: f73c 0cb9 312a 91ba 4c1b 09b9 27e9 1e37
00000130: 0000 0000 76c5 6eb9 4466 5737 0000 0000
00000140: 0000 0000 0000 0000 0000 0000 0000 0000
00000150: 78d0 b739 aa01 c8b7 144f 90b8 976e d1b9
00000160: 6917 17b9 e0c9 58b7 25b5 67b9 adfe ed39
00000170: 0000 0000 0000 0000 0000 0000 0000 0000
00000180: 0400 0000 0400 0000 0400 0000 0400 0000
00000190: 0400 0000 0400 0000 0400 0000 0400 0000
000001a0: 0000 0000 0000 0000 0000 0000 0000 0000
000001b0: 08b4 062f 0400 0000 5efa 9fb6 ac28 5eb7
000001c0: 0400 0000 0400 0000 f4f8 47b7 ac28 deb5
000001d0: 0000 0000 0000 0000 0000 0000 0000 0000
000001e0: 3cb8 dd39 de15 4f38 2eb8 a638 4879 2f38
000001f0: 702a 3c38 8a8a 1534 98ae 06b8 fcaf 06b8
00000200: 0000 0000 0000 0000 0000 0000 0000 0000
00000210: 0400 0000 5d33 ad37 0400 0000 0400 0000
00000220: 0400 0000 3280 5838 0400 0080 0000 0000
00000230: 0000 0000 0000 0000 0000 0000 0000 0000
00000240: 9e36 7338 903a 57b7 808c 13b8 6e15 a9b9
00000250: fb9d ddb5 7e1c 3136 9415 60b7 ef99 4aba
00000260: 0000 0000 0000 0000 0000 0000 0000 0000
00000270: 58b0 1938 6bfb cfb9 868e 8939 55fa 0439
00000280: 8c5b 93b7 4929 93b8 5cc2 7437 e5b8 d1b6
00000290: 0000 0000 0000 0000 0000 0000 0000 0000
000002a0: d87c 4dba 848b eeb9 e813 4fba 40b8 12ba
000002b0: 4c48 f5ba a7f4 afb6 41fb f6ba 5dde cdb7
000002c0: 0000 0000 0000 0000 0000 0000 0000 0000
000002d0: 36c5 eab8 148c e1b8 9d8a f1b9 630e 13ba
000002e0: 5288 22b8 f217 fcb6 fb0b 5ab8 0f80 b2b7
000002f0: 0000 0000 0000 0000 0000 0000 0000 0000
