storage/MiniGrid-NavigationObj-16x16-N2-v0_22-07-21-13-53-01/status.pt (torch, 251133 bytes, 39 tensors)

image_conv.0.weight f4 [16, 3, 2, 2]
000000 ad c2 f2 bd e6 c5 da bd 61 db 00 be 2e 19 00 bd
       -0.11853538 -0.106822774 -0.12583686 -0.031274013
000010 78 d3 38 be cf 95 f0 bd 2d d0 34 3e 96 78 45 3e
       -0.18049419 -0.11747324 0.17657538 0.19284281
000020 74 48 8b 3d da 93 c8 bd f0 bf e2 3c 10 84 04 bd
       0.06800929 -0.097938254 0.027679414 -0.032352507
000030 20 f7 4b 3c 0f 04 76 bd 09 3a 83 3d 2d 6a 4e 3e
       0.012449056 -0.060062464 0.06407554 0.2015769
000040 e5 97 cf bd a3 2f 71 3d c2 7d e3 bc ec b2 1c be
       -0.101363935 0.05888332 -0.027769927 -0.15302628
000050 d0 7d e2 bc a4 cc 82 be 63 fd 7e be 34 00 85 be
       -0.027647883 -0.25546753 -0.24901347 -0.25976717
000060 3d 26 9b be a6 b7 95 be 9e 67 76 be 94 50 86 be
       -0.3030261 -0.29241675 -0.24062964 -0.2623335
000070 db a5 8a be 58 0a dc 3d c1 82 20 3e 92 e2 46 3e
       -0.27079663 0.107441604 0.15674879 0.19422367
000080 5a 3f 1f 3e 5c 54 c8 3d 10 3a 02 3e 5e 79 23 be
       0.1555151 0.09781715 0.12717462 -0.15964267
000090 68 69 92 3e fc 32 d3 3c 2b 64 95 3e f2 86 c2 3d
       0.28596044 0.025781147 0.29177985 0.09498395
0000a0 b6 67 b1 3d 1e 16 44 3e 97 f1 76 be 7f fe b8 bd
       0.086623594 0.19149062 -0.24115597 -0.09032916
0000b0 78 ea 31 3d a0 02 49 bc d0 f1 38 3d 72 f5 15 3e
       0.043436497 -0.012268692 0.045152485 0.14644411
0000c0 cb 40 aa be 13 2d 06 be d2 86 9f be f5 dd 4a 3e
       -0.33252558 -0.13103132 -0.31157547 0.19811232
0000d0 e3 ad 18 bd 63 28 7e bd 5d d2 b3 bb 9a fb 97 bd
       -0.037275206 -0.062050235 -0.0054877237 -0.07421036
0000e0 00 32 7e 3a 90 d7 ed bc 5e 5d 58 3e b6 ff 86 3e
       0.00096967816 -0.029033452 0.21129367 0.26366967
0000f0 0b 59 78 be 1d a5 a0 be 63 57 3d 3d bd 0d 06 3d
       -0.24252717 -0.3137597 0.046225917 0.032727946
000100 b0 99 a9 bd 54 bb 05 3e a0 95 c0 3d 1c c9 81 be
       -0.08281267 0.13059741 0.09403539 -0.25348747
000110 d3 6e 4a be c0 55 65 3e 4e a8 8d 3e 1f 46 0c be
       -0.19768839 0.22395992 0.2766747 -0.13698624
000120 6f f7 5c be 87 f5 ec 3d 59 fc 84 be e2 70 9a bd
       -0.21578763 0.11570268 -0.25973776 -0.07541062
000130 d6 1b af be 66 d0 cd 3c 92 a1 3b 3d 0f cd 3b be
       -0.34200925 0.025123786 0.045808382 -0.18339942
000140 b1 f8 3b be 94 07 d0 bd 28 65 0c 3e 70 e6 85 3c
       -0.18356587 -0.101576954 0.13710463 0.016345233
000150 07 46 63 3e ca 12 6c be 77 a8 54 be e3 fc 0f 3e
       0.22194682 -0.23054042 -0.20767389 0.14061312
000160 2d d5 ba be 57 61 13 be fd 16 4d be 05 16 c6 3d
       -0.36490765 -0.14392601 -0.200283 0.09672169
000170 7a 60 1d 3e 2a 17 c6 bd 8a fb fa bd 38 50 b5 3d
       0.15368834 -0.09672387 -0.122550085 0.08853191
000180 4d 3f b4 bd d0 17 f9 3d e4 c5 4c be b3 71 87 be
       -0.08801136 0.12162745 -0.19997364 -0.26453933
000190 15 41 23 3d 73 10 94 3d 4c 11 3c 3e e4 2e 27 bd
       0.03985699 0.072297 0.18365973 -0.040816203
0001a0 74 8f 2f be 64 89 1a 3e c8 78 e6 3d a4 33 fc 3d
       -0.17144567 0.15091473 0.11253506 0.12314537
0001b0 ec c5 55 be 07 d9 15 be d8 05 6e 3d 4d cb f4 3c
       -0.20876282 -0.1463357 0.05811104 0.029882098
0001c0 fa bf 09 3e aa 79 8f be fe 01 dd 3d c6 7e f2 bd
       0.1345214 -0.2802251 0.107913956 -0.11840586
0001d0 40 75 ed bb 1c 22 0b be 4a 42 af bd ce 48 47 3e
       -0.0072466433 -0.1358723 -0.085575655 0.19461367
0001e0 36 b5 39 3e 7a a1 44 3d 4c fa ac be 01 45 45 be
       0.18135533 0.04800556 -0.3378471 -0.19264604
0001f0 65 00 70 3d fe cc 0c be 72 ac 69 be 34 ff 80 3d
       0.058594126 -0.13750073 -0.22819689 0.06298676
000200 7e 35 83 be 00 0e e4 ba 08 5d 11 bd 00 57 35 3b
       -0.2562675 -0.0017399192 -0.035489112 0.0027670264
000210 5f 19 2f be a9 a9 f1 bd 85 45 89 be 3b 81 85 be
       -0.17099522 -0.11799938 -0.26810852 -0.26075158
000220 c0 1b 8a bb c6 bc 4c 3e c3 c1 71 be b2 ac 76 be
       -0.004214734 0.19993886 -0.2360907 -0.24089316
000230 1c e3 1f be bc de 8d 3e 5a 05 85 3e fa d1 8f be
       -0.15613979 0.27708995 0.25980645 -0.28089887
000240 2b ee 2e bd ae 83 b6 bd 04 ba 78 3e d0 ac 5b be
       -0.042707603 -0.08911835 0.2428971 -0.21452641
000250 0d 18 af 3d ea 5e ce bd 28 ec c7 be 1e 4c 09 3d
       0.08549509 -0.10076697 -0.3904736 0.033519857
000260 6e e7 0e be 90 3f 94 bc ea 8c 82 bd 8e 17 6f be
       -0.13955471 -0.018096715 -0.063745335 -0.23348829
000270 b5 ee ae 3d 9a 29 a5 3d 20 cd 26 3e e2 a0 60 bc
       0.085416235 0.080645755 0.16289186 -0.013710232
000280 5c 34 81 be 2d fc a9 be 91 df 12 be 8d 60 21 3d
       -0.2523526 -0.33200207 -0.14343096 0.03939872
000290 63 26 86 be 8a 36 37 3e 79 65 5c be a0 d3 04 bc
       -0.26201162 0.17891899 -0.21523084 -0.008107096
0002a0 ef a3 ba be 97 c8 7d 3d 39 bc fb bd 95 03 18 3e
       -0.36453196 0.061958876 -0.1229176 0.14845116
0002b0 10 5f e6 bc 3a 13 0e be 48 38 06 3e 7a b2 bb be
       -0.028121501 -0.13874522 0.13107407 -0.36659604
0002c0 48 e6 0d 3e ac db 4d be 6a 81 1f 3e fc 93 93 3d
       0.13857377 -0.2010333 0.15576711 0.0720596
0002d0 f1 f0 97 bd b7 3f 76 be 65 5f 79 3e e5 1b 46 3e
       -0.07419003 -0.24047743 0.24352796 0.19346578
0002e0 8a ee d3 bd 6f ec a4 bd 9c 1d fe bd 1e 5c e6 ba
       -0.10348232 -0.08052909 -0.12407991 -0.001757506
0002f0 5a 84 89 3e 5c 56 86 3e f0 6c 09 3e 90 8a 08 3d
       0.2685879 0.26237762 0.13420463 0.03333527

image_conv.0.bias f4 [16]
000000 31 64 9b be 76 b9 b1 be b7 3a 6d 3e 67 65 5b be
       -0.30349877 -0.34711808 0.23166929 -0.214254
000010 46 7c 49 be 46 6e 91 3e 1e 57 90 be 9d e1 b0 be
       -0.19676313 0.28404444 -0.28191465 -0.3454713
000020 5f 2e ba be db ef 1b 3d 75 0c 94 bd e2 c2 af 3d
       -0.36363503 0.03807054 -0.072289385 0.08582093
000030 69 0a 42 be 30 3f 4c be fe 98 2d 3e a3 7e b4 be
       -0.18949284 -0.19945979 0.16952893 -0.35252866

image_conv.3.weight f4 [32, 16, 2, 2]
000000 12 98 b7 bd af 6f 71 3d 29 81 42 3d 4b f3 00 be
       -0.08964552 0.0589444 0.047486458 -0.12592809
000010 0a 4e 02 be ce b3 99 bc 1a b1 f6 bc 44 a9 0b 3d
       -0.12725082 -0.018762495 -0.030113745 0.03409697
000020 47 8e b6 3d d3 6a a5 3c 1d e2 d5 bd 50 3f 9c bd
       0.08913856 0.02019254 -0.10443518 -0.076292634
000030 72 a2 9a 3d 8f a1 db bd b2 e5 2b be d7 4b ac bd
       0.07550515 -0.10724174 -0.1678684 -0.08412903
000040 aa e3 82 bc 05 47 d2 bd 44 dc 08 3d 9b a5 23 3c
       -0.0159777 -0.10267452 0.033413187 0.009988214
000050 82 ba fa 3d f7 3c 63 3d 3b 0f 22 3d 73 8b 3f be
       0.12242605 0.055478062 0.039565306 -0.1870554
000060 9b d0 f1 bd 87 d2 83 3c 16 c3 12 be 61 d7 86 3d
       -0.118073665 0.016091598 -0.14332232 0.06584049
000070 87 8c cd 3d 0d 62 68 3b a9 10 8c bc 69 b5 17 3d
       0.10036569 0.0035458833 -0.017097788 0.03703824
000080 83 e7 23 be 9e 16 0b bc 2d ff 52 bd 4e ea 3f 3c
       -0.16006283 -0.008489279 -0.051512886 0.011713577
000090 c9 4c 98 3d 9a 53 f9 bc 17 a5 b8 3d cf d0 36 be
       0.074365206 -0.030435372 0.090158634 -0.17853092
0000a0 f5 93 40 3e 1a 33 16 3d e0 ce 35 be 93 de 84 bd
       0.18806441 0.036669828 -0.17754698 -0.06487765
0000b0 f2 91 04 3d c5 2c b1 3d fb 48 05 be 19 3a b1 3c
       0.032365747 0.08651117 -0.13016121 0.021634148
0000c0 d4 cf 9b bc 3b 4d a1 3d d4 06 67 bd 10 fc 8a 3d
       -0.019019999 0.07876059 -0.056402996 0.06786358
0000d0 c5 69 a0 bc e6 5a 19 be 06 18 b7 3c 37 b7 e1 bd
       -0.019581685 -0.14976081 0.022350322 -0.110212736
0000e0 b0 44 1f bd 16 ac f3 bb a9 1a ec 3c bd 0f 93 3d
       -0.038883865 -0.0074362857 0.028821306 0.07180736
0000f0 2c 27 b9 bd 81 d4 3a bd 35 b7 bb 3d 6a 33 96 3d
       -0.090406746 -0.045612816 0.09165803 0.07334025
000100 a6 15 17 be de 36 24 bd bd 36 05 bd a7 23 d3 bc
       -0.14754352 -0.040091388 -0.032522906 -0.025773836
000110 27 77 2a 3d 98 c7 51 bc e9 b6 9e bd 38 8e a8 3d
       0.04161754 -0.0128039345 -0.07749731 0.08230251
000120 49 73 bc ba 00 85 e4 b9 a3 b6 c6 b9 f4 ec b8 bd
       -0.0014377619 -0.00043586642 -0.00037901578 -0.0902957
000130 2e 16 42 3c de dc 3d bc 6e c4 1b bd f9 96 b4 bd
       0.011846108 -0.011588303 -0.038029127 -0.08817858
000140 80 e3 9b bc a4 21 11 3e 5e bd 64 bd ab db 98 bb
       -0.019029379 0.14172989 -0.055844657 -0.0046648583
000150 31 4a 37 be 72 05 72 bc 54 2c f3 bc 81 b1 a5 bc
       -0.17899396 -0.014771806 -0.029684223 -0.020226242
000160 e1 cf c2 bd 55 c2 96 3e b2 7f fb 3d 0c ec 5d 3e
       -0.09512306 0.2944514 0.12280215 0.21672076
000170 12 57 3f bd 22 3d c3 bd b5 1a 19 bd a6 9c 64 3b
       -0.046713896 -0.095331445 -0.037378985 0.0034883409
000180 d9 88 e8 bc b4 54 ef 3d ea 5d f3 3c f8 d8 ea 3d
       -0.028385567 0.11686078 0.029707868 0.11467165
000190 3c 5b 37 be ae b1 2b be 14 a3 76 3c e1 7d 16 be
       -0.17905897 -0.16766998 0.015053529 -0.14696456
0001a0 a4 89 8c 3c b5 fc 80 3d b0 dc 61 3d ca 09 d4 bd
       0.017155476 0.062982 0.055142105 -0.103534296
0001b0 b3 91 15 3d 23 96 f9 bc d4 35 01 3d 99 c7 17 3e
       0.036515903 -0.030467099 0.031545475 0.14822234
0001c0 e9 fd 95 3c 7d 06 0c be fe 19 2e bc ff ef f7 bd
       0.01830955 -0.1367435 -0.010626314 -0.121063225
0001d0 e2 c5 4e 3d c4 88 dc bd 9d 93 cc 3d 06 d6 fb bd
       0.050481685 -0.107682735 0.099890925 -0.12296681
0001e0 80 f7 90 bc b0 86 95 3d ba f4 d5 bc 45 32 f5 3d
       -0.017696142 0.0730108 -0.026117671 0.11972479
0001f0 de e2 02 bd 86 18 05 be af 4f 2e be 0d 28 19 3e
       -0.03195464 -0.12997636 -0.17022584 0.14956684
000200 2d 65 52 bd 67 14 82 bd df 6b 57 3c 61 5f eb 3d
       -0.05136602 -0.06351548 0.013148277 0.114928015
000210 67 b9 e6 bd 4b be 8e 3d 59 62 d4 bd 90 c7 2d 3d
       -0.112658314 0.06969889 -0.10370321 0.042426646
000220 0a 47 96 bd 93 1f 7a 3d fa 45 44 3e 4b bf c9 3d
       -0.073377684 0.061065268 0.19167319 0.09850939
000230 2b b2 95 bc a6 96 08 be 10 9a f5 bc e2 63 04 be
       -0.018273434 -0.13338718 -0.02998069 -0.12928727
000240 82 eb f7 bd 1b bf 19 3e 42 60 03 be 92 99 eb bc
       -0.121054664 0.15014307 -0.12829688 -0.028759751
000250 0f d2 69 bc 6f a5 73 bd 6d 55 bd 3d b7 35 23 bb
       -0.014271273 -0.05948394 0.09244809 -0.0024903843
000260 84 8c 15 3d a4 9b 13 bd 21 d3 25 be 80 40 0f be
       0.03651096 -0.036037102 -0.1619382 -0.13989449
000270 0d d1 18 3d 20 37 67 bd bc c0 6e 3d 1a ba ae 3c
       0.03730874 -0.056449056 0.058289275 0.021328975
000280 1a 6d ed bd 6a 2c 6c 3d 00 fc 82 bd 0e 7c a5 3c
       -0.11593075 0.057659544 -0.063957214 0.020200755
000290 e5 99 f1 3d b2 9c 9c 3d b7 bd 17 3e 27 2c 74 bd
       0.11796931 0.07647075 0.14818464 -0.05961242
0002a0 29 76 9b bb 20 6c 0c 3e 1a ee 61 3d 1f f3 0c be
       -0.0047443104 0.13713121 0.055158712 -0.13764618
0002b0 60 f7 60 bd cc ee a1 bd 81 53 70 bd d1 80 07 bd
       -0.054923415 -0.07906875 -0.058673386 -0.033081833
0002c0 2b 69 af 3d 1d 2b ce 3d 62 0e a4 3c 60 44 8b bd
       0.08564981 0.10066817 0.02002639 -0.06800151
0002d0 f2 f4 8c 3d ad 8b 57 bc f1 f5 d0 bd f9 7f 1d be
       0.06882657 -0.01315586 -0.102031596 -0.15380849
0002e0 8d 5d 7b 3d 80 da 4f 3c d7 43 c9 3d b8 bd 94 bd
       0.061368514 0.012686372 0.098273925 -0.072627485
0002f0 f9 9c 3f 3d b1 de 2b bd cf 89 ae 3d 5e 16 62 3d
       0.04678056 -0.041960422 0.08522379 0.055197112
000300 94 98 ae bd e6 0e 46 bd 06 fe a2 3d 70 3c 21 3d
       -0.08525196 -0.048354052 0.079586074 0.03936428
000310 c5 d5 51 3d 5e 3c 7b bd f7 c0 79 bd 8c 41 32 3c
       0.051229257 -0.061336868 -0.06097504 0.010879885
000320 1e f7 80 bd b2 48 80 3b 07 6a 5d 3d 41 23 c2 3c
       -0.06297134 0.003914916 0.054056194 0.023698451
000330 d7 e6 3d bd 8b 64 af bd 64 a8 b2 bb aa d4 50 3c
       -0.046362724 -0.08564099 -0.0054522026 0.012746016
000340 96 c5 d5 3d 13 94 e5 bd c7 79 bc 3d 05 2c 43 bd
       0.10438077 -0.112098835 0.09202915 -0.047649402
000350 ab 5b c9 3b e1 35 d0 3d df 47 7c bd 9a 76 85 bd
       0.006144961 0.101665266 -0.06159198 -0.06516762
000360 14 fc 5e bd 03 d7 d1 bc 30 c0 d4 bd cb 38 e8 bd
       -0.05443962 -0.02561522 -0.10388219 -0.113389574
000370 e2 f9 1e 3c 84 25 06 be 5c 6c 1e bd f7 5d 6c bd
       0.009703131 -0.13100249 -0.03867756 -0.0577068
000380 1c af 58 bc d7 1d b1 bd 8e 5c 09 3c 35 8d fe bd
       -0.013225343 -0.086482696 0.008383883 -0.12429277
000390 4d 2f 8a bd 73 85 ae 3d 20 0d be 3c 9a 75 4a 3c
       -0.06747303 0.08521547 0.023199618 0.01235714
0003a0 00 5d a7 3d e1 82 7d bc a3 15 c8 3d b0 d9 21 3c
       0.08172035 -0.0154730985 0.09769752 0.009878561
0003b0 f3 de c6 bd bf 30 6d bd 79 11 3a bd f4 9c ca 3d
       -0.09710493 -0.057907816 -0.04542682 0.09893218
0003c0 bd ee 93 bd 96 d0 a6 3c 01 29 52 bd 56 6b 86 bd
       -0.0722327 0.020363133 -0.051308636 -0.065634415
0003d0 a9 cc a2 bd 5b 45 7b bd d6 5c 2d bd 72 5a 91 bd
       -0.07949192 -0.06134544 -0.042324863 -0.07097329
0003e0 9a 7e a4 bd a8 ec f9 bd 8f 17 ea bb c4 8a ae 3c
       -0.0803196 -0.12203342 -0.0071439217 0.021306403
0003f0 13 c2 eb bd cb f0 ed 3d bf 31 68 bd 56 49 03 3d
       -0.11511626 0.11618193 -0.056688067 0.03205236

image_conv.3.bias f4 [32]
000000 3c d8 d8 bc 69 e2 68 3d f2 f6 0b 3e 18 cd 17 be
       -0.026470296 0.056856547 0.13668421 -0.14824331
000010 39 46 82 bd ae 8c 04 be a4 8d 75 bd 65 98 d7 bc
       -0.0636105 -0.1294429 -0.059949532 -0.026317785
000020 82 e9 dd bd fe 03 8f bc 34 8a 0f be bb 8b 0a bd
       -0.10835554 -0.017457958 -0.14017564 -0.033824664
000030 40 da 18 be 96 22 9f 3c 5e b5 51 bd 67 9e b7 bd
       -0.14927006 0.019425672 -0.051198356 -0.0896576
000040 d1 96 23 bd 55 0d ce bd ad 4b 95 bc fd 4c 10 be
       -0.03993875 -0.10061137 -0.018224562 -0.14091869
000050 7b bd 3c bd dd 15 87 bc 55 cf 0c be aa bd 4d 3d
       -0.04607914 -0.016489917 -0.13750966 0.050229706
000060 78 09 f3 bd e9 c4 2a bd 27 64 b6 bd 16 98 ac bd
       -0.118670404 -0.041691694 -0.08905821 -0.084274456
000070 d1 e3 a3 bd 8a bb 83 bb 6c 9e ed 3c 88 b0 60 bd
       -0.08002437 -0.004020159 0.029006205 -0.054855853

image_conv.5.weight f4 [64, 32, 2, 2]
000000 a8 b9 07 3a 76 bc d1 3d 59 65 ef bd 12 9e 31 3c
       0.0005177506 0.10241024 -0.116892524 0.01084091
000010 70 9f 2c be e1 2d d6 bc ae 15 4a be 27 31 ab bd
       -0.16857696 -0.026144924 -0.19734833 -0.083589844
000020 86 7a 1f bc 04 55 9d bd 1f b0 99 bc a3 52 03 3d
       -0.009733802 -0.07682231 -0.018760739 0.03206123
000030 a5 64 87 bd 85 42 63 3d 7b f0 79 bd a7 c6 66 3d
       -0.06610993 0.05548336 -0.061020356 0.056341793
000040 d7 48 26 be 6b ad 56 be 2d 73 f3 bd 37 31 d4 bd
       -0.16238724 -0.20964591 -0.118872024 -0.103609495
000050 71 a8 58 3a 84 a1 6c 3d d9 fc 8a 3d 08 a5 e2 3d
       0.0008264846 0.05777122 0.06786508 0.110666335
000060 69 b3 08 3d 51 7b c7 bd 9c 51 11 3d 9d 64 a8 3b
       0.033374224 -0.097403176 0.03547822 0.005138947
000070 10 b8 3c be 0c a0 12 3d 08 de 05 be aa b7 0f be
       -0.1842959 0.035797164 -0.1307298 -0.14034906
000080 87 7b 60 bb 2a 33 7b bd 87 9a e1 bd 25 39 c3 3d
       -0.0034253316 -0.06132809 -0.11015802 0.09532384
000090 01 e1 79 3d 3f a5 6f 3d 00 87 c0 bd 4f 38 93 bd
       0.061005596 0.0585072 -0.09400749 -0.071884744
0000a0 e1 88 50 bc 27 78 c3 bc df 85 22 3d f3 2f 0d 3d
       -0.012727947 -0.023861004 0.03967845 0.034469556
0000b0 4d 70 79 bd 03 97 d1 bc 20 e3 4d 3d 50 e7 95 bc
       -0.060898114 -0.025584703 0.05026543 -0.018298775
0000c0 37 91 ec bd 27 4d 0c 3d 0b cf 8a bd 82 22 37 3d
       -0.11551135 0.034253266 -0.067777716 0.044710644
0000d0 2d 32 7e bd 0a ad 8c 3d 85 58 76 bd 80 0d 69 3b
       -0.06205957 0.06868942 -0.060143013 0.0035561025
0000e0 ee e4 37 bd 8e f5 04 be 1f bd b6 bd f0 a6 4f bd
       -0.04489606 -0.12984297 -0.08922791 -0.050696313
0000f0 77 06 0c be 44 12 2d 3c e6 9c bd 3d 57 c3 b5 3d
       -0.13674341 0.010563437 0.092584416 0.08875149
000100 bb 21 6b 3d 71 d7 0f bd 1e 51 9d bd a1 76 2e bb
       0.057405215 -0.03511757 -0.076814875 -0.0026621001
000110 6c 7a 01 be 90 b0 f5 ba 2c 5c a8 bc 60 84 a6 ba
       -0.12644356 -0.0018744636 -0.020551763 -0.0012704246
000120 e2 2e d7 3c b8 09 73 3d 68 42 ae 3c c0 b3 75 bb
       0.026267473 0.05933544 0.0212719 -0.0037491173
000130 f3 ae 97 3c 0d 70 91 bd 1b 12 88 3d 5a 79 c8 3c
       0.01851604 -0.0710145 0.06644078 0.024471927
000140 12 0b 15 bc 01 09 7d 3a fc 9c 6e bd e5 c3 4d bb
       -0.009096878 0.0009652526 -0.05825518 -0.003139728
000150 ce f2 80 bd f5 50 37 3d 3d 5b 3f bc e4 db 10 3c
       -0.06296311 0.04475494 -0.011679468 0.0088414885
000160 22 29 2e 3c cb ac 18 3d 5b f8 9c bd ac ff 37 3c
       0.010629924 0.037274163 -0.076645575 0.0112303905
000170 af 33 ff 3c 1d 50 9d bd 99 1b 9f bd 9e f7 48 3c
       0.031152574 -0.07681296 -0.07768936 0.012266068
000180 b3 34 f7 bd 8c 18 64 3d 7d c8 43 bd be d8 71 3d
       -0.120705985 0.055687472 -0.047798622 0.059044592
000190 9f f8 f0 bb 5c 52 4f 3d da bb a4 bc 7f da b5 bd
       -0.0073538567 0.050615653 -0.020109106 -0.088795654
0001a0 42 6e d4 bc 55 ff dd bc 85 96 4d bd 38 08 3e bc
       -0.025931481 -0.02709929 -0.050192375 -0.011598639
0001b0 f3 9e bd bd e5 5d 30 3d 99 35 74 bd 10 93 26 bd
       -0.09258833 0.043058295 -0.059621427 -0.040667593
0001c0 83 35 d0 bc 6e a5 bb bd ca 91 a4 3d b4 8b b3 bc
       -0.025416141 -0.091624126 0.080356196 -0.021917202
0001d0 a7 bc 43 3d 83 c2 20 bd 65 06 46 3c 92 17 8b bd
       0.047787335 -0.039248 0.0120864855 -0.06791605
0001e0 1b 47 cb bd 56 76 3d 3b 94 10 9e bd d1 f7 de 3d
       -0.09925672 0.0028909645 -0.07718006 0.10887111
0001f0 17 ea 43 3d e0 1e b7 bd ed 70 11 bd 18 67 36 3c
       0.047830667 -0.08941436 -0.035508085 0.011132978
000200 cb 05 e6 bc 20 f9 d1 bd 45 3f 02 3e 6f cf 66 3d
       -0.028078934 -0.10252595 0.12719448 0.056350168
000210 00 91 bb 3b ae 0b 21 bd f3 d9 fe bd 4a 47 9f bd
       0.0057240725 -0.03931778 -0.12443914 -0.07777269
000220 ee 74 18 bc 6f 46 77 be a6 d1 ad bd e1 0a 6c 3d
       -0.009305222 -0.24147962 -0.08487253 0.057627562
000230 fd 41 d3 3c 14 35 17 3d fc df 9b bd 62 e7 1d ba
       0.025788302 0.036915854 -0.07611081 -0.00060235534
000240 bb 67 85 bd 10 2e 0c 3e 74 52 14 3e da e3 c2 bd
       -0.06513926 0.13689446 0.14484578 -0.095161155
000250 2b 10 4d 3d b7 b8 94 3c 87 dd 31 bd 57 fe f2 bd
       0.050064247 0.018154485 -0.043424156 -0.11864918
000260 e5 18 93 bd 31 f8 f7 3d 9d db 9e 3d 48 19 e0 bd
       -0.07182483 0.12107886 0.07756732 -0.10942322
000270 a4 9d 22 3e 22 ed 03 3e 68 82 a7 bd ab ed 6c 3d
       0.15880448 0.12883428 -0.0817917 0.057843845
000280 85 d1 f1 3d b1 e3 cb bd bd 4d 12 3c 77 f8 8a bd
       0.11807541 -0.09955538 0.008929667 -0.06785672
000290 8d a8 86 3e dd 7c 05 bd a7 f2 40 be 03 1b 8f bc
       0.2630047 -0.032589782 -0.18842565 -0.017468935
0002a0 b1 b8 8a 3d 34 0d 4e bd 50 dc 8e 3d ed 28 61 bd
       0.06773508 -0.05030556 0.06975615 -0.05497067
0002b0 29 4e 80 bd c8 b2 53 3d 5a a8 94 3d 77 8c 2a bc
       -0.06264908 0.05168417 0.07258673 -0.010409466
0002c0 cd b3 35 3e ad 47 47 3d 5f ff f0 bd 57 c4 94 bd
       0.1774437 0.04865234 -0.11767458 -0.07264011
0002d0 4e 95 b7 3c b4 62 5b bd 19 3b f4 3a 61 0e 43 be
       0.022410061 -0.053560928 0.0018633335 -0.19048454
0002e0 48 b4 16 3d c1 83 85 bd e8 6a ac 3d f0 4c 07 be
       0.036793023 -0.06519271 0.08418828 -0.13212943
0002f0 45 c5 39 be e2 87 06 3e c8 de f4 3d 75 24 0f bd
       -0.18141659 0.13137773 0.11956555 -0.034946878
000300 9d 83 18 be 76 59 6c bd 5b 4e b9 3d f2 c1 d3 3c
       -0.14893956 -0.057702504 0.09048148 0.025849316
000310 0c 7c 93 bc d2 1a 4f 3d 92 fe 99 3d 1d 9a 9b bd
       -0.018003486 0.050562687 0.075192586 -0.07597754
000320 5e 18 71 3d 47 07 b4 bc 72 80 a4 3d 19 17 df 3d
       0.05886113 -0.021976126 0.080323115 0.108930774
000330 77 e0 cc 3d 13 ca 76 bd 96 c5 4e 3d 0d 18 a9 bc
       0.10003751 -0.060251307 0.0504814 -0.020641351
000340 62 a3 5a 3d 60 71 e4 38 f2 62 bf bd 14 80 98 bd
       0.05337847 0.00010893005 -0.09345044 -0.07446304
000350 01 dc bf 3c 3e b3 70 3d 03 be e4 bc 34 80 3c 3d
       0.023420336 0.05876469 -0.027922636 0.0460207
000360 38 b4 93 bb 52 d7 74 3c 23 17 cb 3d 53 ea fd bd
       -0.0045075677 0.0149439145 0.09916522 -0.123982094
000370 cf 31 9f 3c 2e 95 b5 bd 47 b2 34 bd 10 91 25 bd
       0.01943293 -0.088663444 -0.04411533 -0.040421546
000380 fa 20 8b 3d a8 2e 93 3d 4d d3 01 bd 0e 5a 03 be
       0.06793399 0.07186633 -0.031695653 -0.12827322
000390 90 60 b7 3d 66 f3 b3 bd d9 a4 6f 3a e3 17 32 be
       0.08953965 -0.08786659 0.00091416907 -0.17391925
0003a0 90 9d ad bc 8b e3 60 bb 08 c8 b6 3c 11 ee 06 3e
       -0.021193296 -0.0034315314 0.02231218 0.13176753
0003b0 18 e0 4e be ed 78 72 bd 13 97 51 bd c7 c0 93 bd
       -0.20202672 -0.059197355 -0.051169466 -0.07214504
0003c0 ce 52 a8 3b ce 84 6f 3d ab ef ae bb 03 47 93 bd
       0.005136824 0.05847626 -0.0053386292 -0.07191279
0003d0 29 d0 9d bd ce b2 f7 bd 94 38 a9 bd d0 11 97 3d
       -0.07705719 -0.12094651 -0.082627445 0.07376444
0003e0 86 12 c1 3d 8c 2f 6e 3c e6 dd 32 bd c1 a9 40 3d
       0.09427361 0.014537703 -0.04366865 0.04703689
0003f0 37 75 7c 3d 66 11 63 ba af ff 39 bd 4d 35 14 be
       0.061635222 -0.00086619554 -0.045409855 -0.14473458

image_conv.5.bias f4 [64]
000000 0c bc a1 bb f9 2f 5a bd f8 94 c7 bd 7f d7 10 bd
       -0.004935747 -0.053268407 -0.097452104 -0.035361763
000010 ff 71 5e bc df 9e 9c bc 1e c6 97 bd eb 03 f2 bc
       -0.0135769835 -0.019118724 -0.07410835 -0.029542884
000020 70 c7 53 3d db 55 16 be 42 29 13 bc 14 6e 60 bd
       0.05170387 -0.14681189 -0.008982005 -0.05479248
000030 13 d0 d0 bc 97 45 16 bc 88 0d 0c bd 83 32 99 bd
       -0.025489843 -0.009171865 -0.034192592 -0.074803375
000040 93 75 09 be 52 cc 22 bc 56 b6 a9 bd c7 ec c8 bb
       -0.13423757 -0.009936409 -0.08286731 -0.0061317417
000050 86 58 d3 bc 54 94 22 bd 86 2a 44 bd f6 15 32 3d
       -0.025799047 -0.039692238 -0.047892116 0.043477975
000060 9e 74 54 bd 89 40 32 bd 85 79 a6 bc c0 1d 87 bd
       -0.051869027 -0.043518577 -0.020321617 -0.06597471
000070 c5 6a 5d bd 51 97 70 bc 8a e7 6b 3c c8 39 ff bd
       -0.0540569 -0.014684514 0.014398465 -0.12462193
000080 75 b0 e2 bd 95 f9 0f bd 84 d6 7c bd 4d 31 5f bd
       -0.11068813 -0.03515013 -0.061728016 -0.054490376
000090 96 3d 96 bd 45 73 bf bc 48 89 9e bd ca 1e 05 be
       -0.07335965 -0.023370394 -0.07741028 -0.13000026
0000a0 ba aa 39 3e b4 d6 0d be 05 12 f0 bd ae c3 00 3c
       0.18131533 -0.13851434 -0.11722187 0.007859154
0000b0 e4 6e 94 bd 7d e7 a9 bd e3 14 0d be a2 3a 33 bd
       -0.07247713 -0.08296106 -0.13777499 -0.04375709
0000c0 74 20 94 bc b0 69 d4 bc 2b 9f c4 3c 9b ec 80 3c
       -0.018081881 -0.025929302 0.024001678 0.015737822
0000d0 3c 59 ff bd 9b 4a 93 3d 37 96 6e bd f7 90 01 be
       -0.12468192 0.07191964 -0.058248725 -0.12652956
0000e0 b5 ce 1e bd 3f 86 20 bd 7a be 8c bd fb f1 94 3b
       -0.03877135 -0.039190527 -0.06872268 0.004545448
0000f0 73 0f 44 bd a1 d9 4f 3c 36 2f de bd 59 68 e0 ba
       -0.047866296 0.012686164 -0.108488485 -0.0017120942

actor.0.weight f4 [64, 64]
000000 a1 2c 80 3e 27 36 31 bd 6c 4b bc 3d ba de 88 3e
       0.2503405 -0.043264534 0.09194073 0.26732427
000010 fe cf 0e 3e 85 b6 8e 3e 70 3e 2d bd 54 21 77 bd
       0.1394653 0.27873626 -0.042295873 -0.06033452
000020 8c 90 6d be 50 dd 3c 3e 6f 57 15 3d ba e3 8f bc
       -0.23199672 0.18443799 0.036460336 -0.017564643
000030 19 23 20 be 1e b7 b0 be 2d 1c b4 bd 97 64 fb 3d
       -0.15638389 -0.34514707 -0.087944366 0.12275045
000040 4e 42 da bb 91 64 19 3d ad 5f b4 bd c7 fc 9a 3c
       -0.006660736 0.037449423 -0.08807311 0.018919362
000050 bf 83 9a bc c7 da 08 bf 11 80 36 3c b8 0c 35 3e
       -0.01886165 -0.5345883 0.011138932 0.17680633
000060 26 eb 2b be a1 8e b7 3c 13 c4 e4 bc 83 68 0e 3e
       -0.16788921 0.022406878 -0.027925527 0.13907056
000070 1c 25 f6 bc 73 f6 af bd 2e c7 4b be 83 c5 0d be
       -0.030046992 -0.08591928 -0.199002 -0.13844876
000080 ab fc 15 3e 49 87 b2 3d 88 b3 90 3e 00 21 4c be
       0.14647166 0.0871721 0.2826197 -0.19934464
000090 3a d6 58 be 42 87 2a 3c 8d 67 23 bd bb 15 00 3e
       -0.21175471 0.010408225 -0.039893676 0.1250829
0000a0 cb 11 66 bd e2 3d 3c 3e bf 63 a8 bd b6 9b bf bc
       -0.056169312 0.18382981 -0.0822215 -0.023389678
0000b0 c5 e3 b9 bc 19 92 5b 3e ee d8 cc 3d 58 b0 91 bc
       -0.022691617 0.2144245 0.100023136 -0.017784283
0000c0 b3 96 22 bc 72 cd ea 3d 98 4c 03 be 34 20 87 bd
       -0.009923625 0.11464967 -0.12822187 -0.06597939
0000d0 00 4a e3 bc df d9 6c be e7 df 7a bd 6e 7a 05 be
       -0.027745247 -0.23129986 -0.061248686 -0.13034984
0000e0 17 9c bc 3c 40 22 c2 bc 9c 51 03 3e 35 1c 92 3d
       0.023023648 -0.023697972 0.128241 0.07134286
0000f0 42 02 45 3e 97 d4 db 3c 1f 69 69 bd e3 9a 69 3e
       0.19239143 0.02683477 -0.056985017 0.22812991
000100 0d 64 38 bd fb 95 22 3e 8f d3 9e bd 7f b6 25 3d
       -0.04501729 0.15877526 -0.07755195 0.040457245
000110 ad 9a dc 3d 3d 55 16 3d 19 ad c1 3d d4 ea bf 3d
       0.107716896 0.036702383 0.09456844 0.09370962
000120 e9 8c 85 bd 26 f3 e6 ba b7 32 c9 bd 17 3a 26 3e
       -0.06521017 -0.0017620071 -0.09824126 0.16233097
000130 64 90 93 3e f0 86 4d 3e 96 a3 b6 bc dd 70 50 3e
       0.288211 0.20071006 -0.0222948 0.20355554
000140 1f 67 02 be 32 05 c6 bd 6c 89 9d be 03 00 b1 3d
       -0.1273465 -0.0966896 -0.30768907 0.0864258
000150 fd a3 10 be 01 2f bb 3c 74 8f e8 bd 90 8d 2e be
       -0.14125057 0.022849562 -0.113554865 -0.1704619
000160 60 7d f5 3d d6 99 29 3e e4 d4 55 3e c2 6a 18 be
       0.11986804 0.1656259 0.20881993 -0.14884475
000170 b0 75 a3 3d c2 3c 52 be c2 0c ae bd c8 95 99 3e
       0.079814315 -0.2053099 -0.08498527 0.29997087
000180 69 c9 53 ba eb c2 32 3c 3b 7f 15 3e a7 99 93 be
       -0.00080790237 0.01091073 0.14599316 -0.28828165
000190 70 05 8b be 43 90 77 3c 6c 40 1e 3e 67 f9 d0 bd
       -0.27152586 0.015110078 0.15454262 -0.1020382
0001a0 59 fb c4 bd 36 d0 f7 3e 1b df 80 3d 98 c2 01 be
       -0.09618253 0.4840104 0.06292554 -0.12671888
0001b0 90 a5 27 3d 14 b6 88 be 4e 31 81 bd 87 8c 06 bd
       0.040929377 -0.26701415 -0.06308232 -0.03284886
0001c0 f9 e7 37 bc f1 9e a4 3c 96 7a 9f 3c 38 9a de 3c
       -0.01122474 0.02009532 0.019467633 0.027173147
0001d0 08 0a dd 3d 39 de 99 bd c5 7a 05 3d 11 e9 08 3e
       0.10792929 -0.07513089 0.032587785 0.13370158
0001e0 b5 ea ce bd 81 ef fb bc 7b 79 eb 3d 45 a7 8b 3e
       -0.101033606 -0.030753853 0.1149778 0.27276054
0001f0 62 61 d5 bd ac 5b 6f bd 0e 48 f6 3a 55 1b 3a 3e
       -0.10418965 -0.058437034 0.0018789785 0.18174489
000200 34 8e 25 3d 04 52 ff bd db 5b cd 3d 61 f5 64 3d
       0.04041882 -0.12466815 0.10027286 0.055898074
000210 5e 8b c2 3d b8 06 0a be 3b 18 dd 3d 7d 2b ac bc
       0.094992384 -0.13479125 0.10795637 -0.02101683
000220 5d 94 4f 3b 7e 4b 1e bd cb 27 bb 3d be f0 54 be
       0.0031674125 -0.038646214 0.09138449 -0.20794961
000230 55 00 02 3e 87 55 cb bd 7a a1 cb bd 9c ce 83 bd
       0.12695439 -0.099284224 -0.099429086 -0.06435892
000240 c0 db 33 3c cd 85 29 3e a1 d9 9c 3e 84 b0 67 bc
       0.010977685 0.16554947 0.30634788 -0.014141206
000250 fb c1 0c 3e 88 f3 67 3d 93 e6 3b 3e d0 aa 3f be
       0.13745873 0.056628734 0.18349676 -0.18717504
000260 05 0f 15 3e 17 17 50 3c 9f 5a 13 be 5e 2b 9d be
       0.14556511 0.012700818 -0.14390038 -0.3069715
000270 fb 75 c1 3e 8b 82 67 3e ee b7 e6 3d fd c8 5c be
       0.37785324 0.22608392 0.112655506 -0.21561046
000280 6a e9 98 3d d6 46 0f be c9 db 0a be b2 24 a1 3e
       0.07466395 -0.13991866 -0.13560404 0.3147331
000290 09 5c 24 3d ab d1 11 be bb 51 07 3d 57 39 57 3e
       0.040126834 -0.14240138 0.03303693 0.21017967
0002a0 b0 74 41 3e 34 86 54 be 9f 0c d9 bd a4 8d 5e bc
       0.18892169 -0.2075432 -0.105981104 -0.013583574
0002b0 90 92 68 3d b1 6f c2 3d bd 71 a7 be 98 ec eb bd
       0.056780398 0.0949396 -0.32703963 -0.11519736
0002c0 b7 fb 95 3d 47 17 b8 be ee 7b 45 3e 94 e6 e2 3d
       0.073234014 -0.3595526 0.19285557 0.110791355
0002d0 ea 00 46 be c7 0c 1e be be 39 d4 3a 76 02 35 3e
       -0.19336286 -0.15434562 0.0016191525 0.1767672
0002e0 14 aa 0a 3d 53 cc 2a bc b1 68 03 3e b4 3a 5c bd
       0.033853605 -0.010424691 0.12832905 -0.05376692
0002f0 be 47 ee 3d e1 49 2f bd 00 03 0d bd b3 76 95 3c
       0.116347775 -0.042795066 -0.03442669 0.018245077
000300 f2 6f 26 bd 4f 8c 8a bd 69 19 f4 3c c4 71 9c be
       -0.040634103 -0.06765043 0.029797273 -0.30555546
000310 fa e2 cd be 03 5f a7 bd 9c b8 01 3e 58 f6 2a 3e
       -0.40212232 -0.08172419 0.12668079 0.16695535
000320 1b 5c a7 3d 92 6e 8b be a1 85 b5 3b 20 51 9e 3d
       0.081718646 -0.27232796 0.0055396114 0.07730317
000330 f0 4f 4c be a2 25 ad 3d ba 7b fa bc cd 04 3d 3e
       -0.19952369 0.084544435 -0.030576576 0.18458863
000340 d6 05 29 3e 67 86 27 3e b0 9f c6 3d 9b 8c 88 bc
       0.16506132 0.16359864 0.09698427 -0.016668608
000350 ab 80 e2 3c cf 42 c7 3d e3 e7 f0 bd cc 13 0b 3e
       0.027649244 0.097295396 -0.11762979 0.1358177
000360 cd c1 0f bd 75 15 72 3d 21 05 7b 3d d2 48 61 be
       -0.035096932 0.059102494 0.06128419 -0.22000435
000370 5c 74 2a 3d df 2c b4 bd 08 ce b0 3e 09 b0 a4 bb
       0.041614875 -0.08797621 0.3453219 -0.005025868
000380 37 d4 ef 3c 30 86 96 bd f8 03 18 bd 47 22 01 3e
       0.029275997 -0.07349813 -0.03711316 0.12610732
000390 43 cd 59 3e 92 7b 9b 3e 22 2e ed 3d 67 ff 2c 3e
       0.21269707 0.30367714 0.11581065 0.16894303
0003a0 29 6c b2 bc ae b4 39 be 8c b4 6e 3d 93 ff b9 3d
       -0.02178009 -0.1813533 0.05827765 0.0908195
0003b0 6f cc 92 3e 05 2e a8 3d 8e 94 45 3e f9 00 8a 3d
       0.28671595 0.082119025 0.1929495 0.06738467
0003c0 4e 6a 94 3d b6 71 e3 bc f0 0b b0 3d 56 a5 d0 3d
       0.072468385 -0.027764183 0.08596027 0.10187785
0003d0 41 11 c6 bc 82 8c 70 3d b5 1f e6 bd 2e ac a1 bc
       -0.02417815 0.05872775 -0.112365164 -0.019735422
0003e0 e8 04 0b 3e c6 6e 3b bc af 2d 42 3e 6a c4 96 be
       0.1357609 -0.011439985 0.1896274 -0.29446727
0003f0 c2 71 c6 3d 48 02 09 bd be 52 99 3e e3 d4 73 be
       0.09689666 -0.03344944 0.2994594 -0.23811679

actor.0.bias f4 [64]
000000 e9 4d 10 3c 68 f0 40 3b ba 70 ab bc 27 e9 1d bd
       0.008807638 0.0029440168 -0.020927776 -0.03855243
000010 b0 df 15 3d 64 92 ec bc 65 66 3f 3d ea a9 84 3d
       0.03659028 -0.028878398 0.04672851 0.06477721
000020 fa 8e 6e 3d 6f d9 fb bb d3 43 5b 3c c0 de 36 bd
       0.05824182 -0.007685832 0.01338287 -0.044646025
000030 a7 c4 89 3c 3e 81 7d 3c 1a 9e 97 3c 57 47 04 bd
       0.016817404 0.015472708 0.018508006 -0.032294597
000040 c9 fe ec 3a 47 6c 01 3b 7a 3d 29 3d 54 7b 78 3c
       0.0018081303 0.0019748376 0.041318394 0.0151661225
000050 e6 48 5e bd 32 50 9a 3c d3 df b6 3c 3a 06 17 bd
       -0.05426874 0.018837068 0.022323525 -0.036871172
000060 7b 22 39 3d d6 3b d7 bc a1 0d c1 3c c8 b3 67 bb
       0.0451989 -0.02627365 0.02356607 -0.003535496
000070 46 d8 17 3d 40 33 11 3d d9 80 88 bc e4 67 ad 3b
       0.03707149 0.035449266 -0.016663002 0.0052919257
000080 9e 45 22 3d 3c ee 62 bc ab 16 58 bc 1e 6c b7 3c
       0.039617173 -0.013850745 -0.013188998 0.022390421
000090 7e a6 e5 3c 4d c1 cd bb 3c 40 56 bd ed 31 e3 bc
       0.028033491 -0.0062791468 -0.052307352 -0.027733767
0000a0 87 86 11 3d 2a 53 50 3b 8f ba 98 ba dd 7a 36 3c
       0.035528686 0.003178785 -0.0011652278 0.011137691
0000b0 9f d0 9d bb 35 0d f3 bc 01 71 dc bc 53 e8 9a 3c
       -0.0048161293 -0.029669384 -0.026909353 0.018909609
0000c0 b8 0c c9 bc 7f 62 8f 3d d2 11 89 3c 2e cc eb bc
       -0.024542198 0.070012085 0.01673213 -0.028783884
0000d0 55 ab b8 3c 87 11 25 3c fb 89 ca bb 83 df 2b 3d
       0.022542635 0.01007498 -0.0061809993 0.041961204
0000e0 cf 52 34 bd 78 59 34 bd c1 be 4e bc 03 99 e1 bc
       -0.044024285 -0.044030637 -0.012618721 -0.027538782
0000f0 e6 e0 06 bd fc 17 15 3d a1 d6 0a bd 14 8d 99 3c
       -0.032929324 0.036399826 -0.033896092 0.01874403

actor.2.weight f4 [11, 64]
000000 b5 a1 ac bc 77 bc d6 3d f5 b6 1a be dd ed 37 3e
       -0.021073202 0.104851656 -0.15108855 0.17961831
000010 b7 bb 02 bd 6a 5a 9b 3c 21 68 a3 3d d7 4c 86 be
       -0.0319173 0.018964011 0.079788454 -0.262305
000020 0f b9 ad bc 25 62 49 3d da f2 20 3e 92 4f 90 3d
       -0.021206407 0.049165864 0.1571764 0.07046427
000030 95 a7 1a be 1b f5 63 be 5c 93 0c 3c 59 34 2c ba
       -0.1510299 -0.22261469 0.008580055 -0.00065690797
000040 f6 04 5a be 17 d7 1e be d0 97 5d 3c 31 43 1e be
       -0.21290955 -0.15511738 0.013524964 -0.15455319
000050 ac 77 8b 3e 8d 5b 34 bc 24 4c 4e be 25 57 6a 3e
       0.2723974 -0.0110081555 -0.20146233 0.22884806
000060 cb 7c 03 bf 74 40 5e 3e 10 88 a0 be 5d 83 e4 3e
       -0.51362294 0.21704274 -0.31353807 0.44631472
000070 6f 63 9a be a3 8f cd be a0 e4 9d 3d 35 46 07 be
       -0.30153987 -0.4014865 0.077096224 -0.13210376
000080 14 b4 56 be 51 ba ba bc bf b3 6e 3e 64 32 9c be
       -0.20967132 -0.02279392 0.23310755 -0.30507195
000090 a8 76 54 3d 58 46 c4 3d b7 b9 d9 3d 20 be 38 3e
       0.051870972 0.095837295 0.106311254 0.18041277
0000a0 83 ec e2 3d 68 c3 60 bd 02 85 a2 3e 90 e0 c7 ba
       0.11080267 -0.054873854 0.31742102 -0.001524942
0000b0 21 a7 a7 3d eb 0d 8f 3e 7a 40 4c 3e 15 08 d3 be
       0.08186174 0.27940306 0.19946471 -0.41217104
0000c0 f3 d0 9b be 7b 7f a0 bd 52 77 11 bd 54 58 d2 3e
       -0.30432853 -0.07836815 -0.035514183 0.41083014
0000d0 69 11 94 bd 6d 7d 2a 3d 50 0e 00 3e 64 b4 8e bd
       -0.07229883 0.04162352 0.1250546 -0.069680005
0000e0 a9 98 a4 bd a0 0f 54 3d 52 e0 00 be 2f 69 d6 3a
       -0.0803693 0.051772714 -0.12585571 0.0016358251
0000f0 7f 77 09 be 7c 25 1b 3e 09 3e 68 3e a8 c0 00 3d
       -0.1342449 0.15151018 0.22679915 0.03143373
000100 24 d7 06 3e 71 71 31 3e d4 62 17 3a e6 0a 9c be
       0.13168007 0.1732843 0.00057749194 -0.30477065
000110 cc 5b ff 3d d9 66 70 3d 49 26 15 3d d6 3f 58 3d
       0.12468681 0.058691833 0.036413465 0.052795254
000120 98 3d 7a be 20 5c 84 be 13 de 82 3e 16 92 b6 3e
       -0.24437559 -0.25851536 0.25560054 0.3565833
000130 8e 2f a0 be 2a d7 72 be 44 94 0b 3e a3 c3 92 bd
       -0.3128628 -0.23714891 0.13630778 -0.07166221
000140 95 b2 90 be db 27 50 3e db ed ba be 63 fe 30 be
       -0.28261247 0.20327704 -0.36509594 -0.17284541
000150 07 bd 22 3e f9 cc f2 be 87 9b 25 be 20 00 9a 3d
       0.1589242 -0.47422007 -0.1617261 0.07519555
000160 24 b3 f7 bd e6 6f c6 be 66 1d 3b 3e e9 f7 a0 bd
       -0.12094715 -0.38757247 0.18272933 -0.07859785
000170 e1 fc 1b be ff b1 f6 3d ac 10 c1 3d 48 23 90 3d
       -0.15233184 0.12045669 0.09427008 0.07037979
000180 94 a9 e1 3d 55 a5 30 be db f2 3d 3e ca 8b 5a be
       0.110186726 -0.17250569 0.18549673 -0.21342388
000190 76 27 2e 3e 4f 87 cb 3d 64 a2 ba bd c8 32 04 3e
       0.1700724 0.099379174 -0.09113005 0.12909997
0001a0 8c 48 ab 3e c9 f7 88 3e 3c ff 6b 3e cf c6 15 3d
       0.33453786 0.26751545 0.23046583 0.03656655
0001b0 02 9f 03 3d 31 73 3f 3c e6 f9 0c bd 9c 3b ba bd
       0.032134064 0.011685179 -0.03441801 -0.09093401
0001c0 32 96 87 be 64 5d 1b 3e d9 c2 91 3d ab 01 ab 3e
       -0.26481777 0.15172344 0.07117242 0.3339971
0001d0 3e 4a 6e be 73 a9 69 3c e9 e0 3c 3e a4 ab 17 be
       -0.23270509 0.014261591 0.18445171 -0.1481157
0001e0 d0 de 77 bd fd dd 9c 3e a2 ad b9 3c a9 b9 47 be
       -0.060515225 0.30638114 0.022665802 -0.19504417
0001f0 45 dd ce 3e 99 92 0f be 72 6b ed bd c2 6f 12 be
       0.4040319 -0.14020766 -0.11592759 -0.14300445
000200 3b 9a 34 3b 5b 49 24 3d 08 a9 c2 3d d0 43 56 bb
       0.0027557749 0.04010902 0.095048964 -0.0032694228
000210 48 83 5b be 7c 08 2a 3c ff dd 72 bd dd 8f 92 3c
       -0.21436799 0.010377999 -0.059293743 0.017890865
000220 cf ae 44 3d d9 18 28 bd 31 49 38 3d b6 33 18 be
       0.048018273 -0.04103932 0.044991676 -0.14863476
000230 08 52 1a 3e bd 9d 07 3e 5b b9 2c be a6 c1 d2 bc
       0.15070355 0.13243766 -0.16867582 -0.025727104
000240 ed 6c 24 3e f1 78 80 3d 2b 5b 8d 3d 94 35 13 3d
       0.16057177 0.06273068 0.069021545 0.035939768
000250 75 ad 26 bb 03 f7 3b bd 11 3e 40 bc d5 8f b7 3c
       -0.0025432978 -0.045889866 -0.011733548 0.022407452
000260 8b d8 73 3e cf 3f 3e 3e 70 6a 1b bd c8 43 86 be
       0.23813073 0.18579029 -0.037943304 -0.26223588
000270 46 5d ac 3d 41 f8 37 3d 58 65 09 3e 81 b9 09 be
       0.08416228 0.044914488 0.13417566 -0.1344967
000280 4e ac c6 bd 1e fd f8 3d 39 ad e4 bc 03 75 d6 3d
       -0.09700833 0.12157653 -0.02791463 0.10471537
000290 11 31 31 be 36 6b 44 3b 4a aa 46 be 28 50 6b be
       -0.17303874 0.002997113 -0.19400898 -0.22979796
0002a0 6c 5f 3d be f5 4f b5 bd 72 68 f3 bb 9e 17 cf bd
       -0.18493432 -0.08853141 -0.0074282223 -0.101119265
0002b0 71 08 f3 bd 5b 60 15 bd 9c b0 82 3d 89 91 5a 3e
       -0.118668444 -0.036468845 0.06381342 0.2134458
0002c0 f6 b7 94 3c d6 06 d2 bd 55 10 9e 3e 22 44 de bd
       0.018154126 -0.1025521 0.30871835 -0.10852839
0002d0 65 fd 79 3e 72 42 0c be 1e 70 6a be 5c 3f 70 3e
       0.24413069 -0.13697222 -0.22894332 0.2346167
0002e0 4c 55 38 be 75 cc 47 be b0 e2 47 bd c9 21 f8 3d
       -0.18001288 -0.19511588 -0.04880017 0.12115819
0002f0 ab cf 00 bc dd c2 86 bc e3 a5 94 bd 56 a5 9b bd
       -0.007862012 -0.01645034 -0.07258203 -0.07599895
000300 e3 78 81 3d 29 b3 74 bd cd 36 8c ba a9 f0 ba bd
       0.063218854 -0.059741173 -0.0010697484 -0.091279335
000310 f5 9d 87 be 13 0e 13 bd 98 5c 4d 3e f6 70 ba 3a
       -0.264877 -0.035902094 0.20054853 0.0014224339
000320 15 67 e1 3d 9d 64 4a bd 8f 65 7a 3d 1d 8a ed bd
       0.110059895 -0.04941236 0.06113201 -0.11598609
000330 a1 3c 14 bb 76 33 4f 3e a5 1d cd bd a0 56 2d 3c
       -0.0022619145 0.20234475 -0.1001542 0.010579735
000340 70 49 97 bc 4e 80 4a be c3 e8 db 3c a6 8c 30 3c
       -0.018467635 -0.19775507 0.026844388 0.010775721
000350 ed 4b 10 bd 21 68 cc 3d c3 b2 33 be 8f 3c 25 be
       -0.03522866 0.099807985 -0.17548661 -0.16136383
000360 9c c2 62 3e de 16 72 3c a0 52 44 3e 33 70 c9 bd
       0.2214455 0.01477596 0.19172144 -0.098358534
000370 83 83 31 3e 1d 41 9d bd d6 3c af be b3 3e 2e bd
       0.17335324 -0.07678435 -0.34226102 -0.042540263
000380 e3 16 5d 3d 4b 2d be 3d 39 ed c3 bd 17 88 33 3e
       0.053976905 0.09285983 -0.09566731 0.17532383
000390 1e b9 3b be 48 bb 9b bd 8d 81 d7 3d 9d c8 03 3e
       -0.18332335 -0.076040804 0.10522757 0.12869497
0003a0 d5 64 9b bd e3 7b f3 bd db 7f 88 3d c2 8d 9a 3d
       -0.075875916 -0.11888864 0.066650115 0.075465694
0003b0 47 a5 48 bb 0e 7f 6c 3e 73 5e 8a bd 50 92 bb bc
       -0.003061609 0.23095343 -0.06756296 -0.022896916
0003c0 1b 37 30 bd 97 74 a6 3d 99 b0 65 be c9 09 aa bd
       -0.043021303 0.081277065 -0.22430648 -0.083026476
0003d0 9e fa 44 3d de 3c e8 bc 5f 43 8f 3d 9e 44 7b 3e
       0.04809057 -0.028349336 0.06995272 0.24537894
0003e0 59 1f a9 bd f9 d8 09 be e4 7e ee bb 25 c4 59 be
       -0.08257932 -0.13461675 -0.00727831 -0.2126623
0003f0 62 99 eb 3c c5 c0 85 3e 53 f5 0b bd 89 2e 77 bd
       0.028759662 0.26123634 -0.034169506 -0.060347114

actor.2.bias f4 [11]
000000 8d 7e 77 bd 68 7c 46 bd c3 7d 2d 3d 08 63 df 3c
       -0.060423423 -0.048458487 0.042356264 0.027268901
000010 9a de e4 3b 28 1a 88 bc fd a4 51 bc 84 ed b5 bc
       0.006984544 -0.016614035 -0.012795684 -0.022207983
000020 13 0f 14 3d 25 b9 3a 3d 5a 74 fd 3c
       0.03614719 0.045586724 0.03093927

critic.0.weight f4 [64, 64]
000000 50 6c 20 3e b6 de c3 3d b4 81 1b be 5b 3a 0e 3d
       0.15666318 0.09563963 -0.15186197 0.03472362
000010 72 92 b3 3b 94 a4 12 be d9 24 a2 3d b2 d4 e9 bb
       0.005480104 -0.14320594 0.079171844 -0.007135951
000020 b4 22 cb bd b6 0f 34 3d fc 9b 07 3e 2b fe 6d be
       -0.099187285 0.043960296 0.13243097 -0.23241489
000030 17 06 59 bd 8b 7e e1 bc 6e 14 b1 3a 32 6c 1a be
       -0.052984323 -0.02752616 0.0013510117 -0.15080336
000040 29 54 97 be 43 c5 65 be 89 d3 37 3e 44 ef 18 3e
       -0.29556397 -0.2243853 0.17951788 0.14935023
000050 c5 bd 21 be d4 c2 60 3e ca 3f 6e bc 48 7a 12 3e
       -0.15795048 0.21949321 -0.014541576 0.14304459
000060 a0 3f a4 bd 71 77 53 3d 34 bd 30 3e 23 12 88 bc
       -0.08019948 0.05162758 0.17259675 -0.01661021
000070 77 3e a9 bd 75 6f a3 bd 71 61 3e 3c b2 d7 8b bc
       -0.08263867 -0.07980243 0.0116199115 -0.017070625
000080 d7 9a 89 bd 0b b8 3d be fa 48 bf 3d 2f a5 2f bd
       -0.067189865 -0.18527238 0.09340091 -0.04288214
000090 d5 9a f9 bd 7d 17 56 bc 68 0a 9f be 00 b3 38 3e
       -0.12187735 -0.0130671235 -0.31062627 0.18037033
0000a0 2d 73 b6 bd 26 0a 23 bd 99 4a 27 be f0 60 6d 3d
       -0.08908687 -0.0398046 -0.1633705 0.057953775
0000b0 19 24 94 3d a3 c0 0c 3e a2 d1 6c bd e7 3a b0 bb
       0.072334476 0.1374536 -0.05781711 -0.0053781155
0000c0 3d 14 b2 bd 2f 3d 70 3c ab 00 87 bc 88 b8 40 3c
       -0.086952664 0.014663025 -0.01647981 0.011762746
0000d0 5f 90 7d 3c 56 4c 96 bd ac c6 e5 3a 18 d5 ac 3d
       0.015476315 -0.07338779 0.0017530522 0.08439082
0000e0 6e 89 c5 3d ec a2 0c be 49 25 99 3c 62 0e cc 3c
       0.09645353 -0.13734025 0.018694537 0.024909202
0000f0 68 85 1f be 62 34 a1 bd 64 d4 8a 3e 1a 6f 0c bc
       -0.15578234 -0.07871319 0.27115166 -0.008571411
000100 f0 dc b3 bc 8a c0 14 3e f0 40 70 3c bf bb 6e 3e
       -0.021955937 0.14526573 0.01466392 0.23313807
000110 98 cd df 39 65 2d 06 3e ef b7 63 bb 36 b9 67 bd
       0.00042687054 0.13103254 -0.0034747084 -0.056573115
000120 97 3e 9e bc bc f9 6c 3d 15 71 14 bd a3 71 f5 3d
       -0.019316955 0.057855353 -0.036240656 0.11984565
000130 9c c5 3c be 39 af 53 be e2 b5 b7 bd e6 90 4f 3e
       -0.18434757 -0.20672311 -0.08970238 0.20270118
000140 94 8f ef 3d c5 1a 7f 3e 51 a0 11 bd 3d ee cb bd
       0.11697307 0.24912556 -0.03555328 -0.0995755
000150 ab 76 59 be 8a 7e 84 3e 3f d4 09 be 92 f5 cd bc
       -0.21236674 0.25877792 -0.13459872 -0.025141511
000160 05 3a 63 bd d5 3b ca 3d 58 67 e1 bd 95 44 d8 3d
       -0.055475254 0.09874693 -0.110060394 0.10559956
000170 5d 8f 21 bd d8 33 e8 3d b4 01 5e bd 1a 4b 1d 3d
       -0.039443363 0.113380134 -0.054200843 0.0384017
000180 87 2e fb 3b 03 ae 2b be 8e ae ef bd 10 68 1f 3e
       0.0076654586 -0.16765599 -0.117032155 0.1556704
000190 38 bf 71 3c 12 97 5d 3e f2 bc 17 bd 43 a7 52 3d
       0.014755063 0.2163966 -0.037045427 0.051429044
0001a0 9f a0 87 3d f7 30 c7 3d da 6e 09 3e a5 ba ef bd
       0.06622433 0.09726136 0.13421193 -0.117055215
0001b0 90 22 92 3e 8c ca f4 3d b5 f6 d7 bd 8d bd 7a bb
       0.28541994 0.11952695 -0.105451025 -0.0038259954
0001c0 14 e0 49 3d 5e 61 59 3d 5a 7d 90 3d 9f 11 66 3e
       0.049285963 0.053071372 0.07055159 0.2246766
0001d0 0f 03 be bd 5d 5c 3c 3e d6 a3 25 3e 85 e7 b2 bd
       -0.09277927 0.18394609 0.1617578 -0.08735565
0001e0 6d a1 00 3d 8f 9a 38 bd 5b c4 ab bc cf dd 0d bd
       0.031403948 -0.045069274 -0.020967653 -0.03463536
0001f0 cc 05 85 bd ff bd 4e be 19 76 2a bc 11 a9 c1 bd
       -0.06495246 -0.20189665 -0.010404133 -0.09456075
000200 10 67 b0 bd f2 0a 30 bd 84 6f 3f 3e e2 57 2f 3d
       -0.086134076 -0.04297919 0.18694884 0.04280842
000210 22 c6 83 3c 2b 98 db 3c e8 62 4d 3e b2 d0 a0 bd
       0.016085688 0.026805958 0.20057261 -0.078523055
000220 7b 34 9b bd 1b 06 14 3c 13 68 61 be 1e 16 41 be
       -0.07578369 0.009034659 -0.22012357 -0.18856093
000230 2c 08 37 3d f2 87 66 bb f2 4d d7 3c 40 85 75 3d
       0.044685528 -0.0035176245 0.026282284 0.05994153
000240 e3 9d 0b be 0d 50 db 3d d5 a6 61 3d 5e c7 14 3e
       -0.13634448 0.10708628 0.055090744 0.14529178
000250 20 e1 88 3d 18 66 10 3e aa 0c 34 3e 17 29 d2 bd
       0.06683564 0.14101446 0.17582956 -0.102617435
000260 9a 91 02 3e 8f f4 13 bd 24 58 e2 bd 2e 70 8f bd
       0.12750855 -0.0361219 -0.11051968 -0.070038185
000270 c1 47 47 3e a1 9b 27 3e 14 24 1c 3e 47 b9 57 be
       0.19460966 0.16367961 0.15248138 -0.21066771
000280 45 2f 3a be 30 3b 10 3d 88 b3 26 bd 9d 16 8a bd
       -0.18182094 0.035212696 -0.040698558 -0.067425944
000290 7b 60 82 3c 9d 94 e6 bd 81 56 d1 3c d6 67 e8 3d
       0.015915146 -0.112588145 0.025553944 0.1134793
0002a0 3c cc 79 3d 5b 8b 22 3d eb 98 6b bd e3 d1 f2 3d
       0.06098579 0.03968368 -0.05751888 0.11856439
0002b0 19 13 ff 3d c3 23 88 3d 3a f5 92 3d 3e fb ac bd
       0.124548145 0.06647446 0.071756795 -0.08446358
0002c0 89 40 57 bc bf 49 50 3d 31 ae 62 bd fb eb da 3d
       -0.013137945 0.05085158 -0.055341903 0.10689541
0002d0 ec 17 f9 bd 1b 7c a8 3e d6 d0 35 be 55 0a b5 bc
       -0.12162766 0.32907185 -0.17755446 -0.022099653
0002e0 88 ab 03 be d1 b2 46 bd 4e 17 86 be dd 91 3a 3e
       -0.12858403 -0.048510376 -0.26189655 0.18219705
0002f0 1e ad 1a bc 46 fa 14 be df 68 3e 3d 0f 2e 05 bd
       -0.009440688 -0.14548597 0.04648673 -0.032514628
000300 9e 53 9b bd 77 21 13 bd 88 06 67 bd f1 66 05 be
       -0.07584308 -0.035920586 -0.056402713 -0.1302755
000310 c3 d1 22 3e 5b 4a 98 bc 76 b3 3e be 39 c9 47 3d
       0.1590033 -0.018590143 -0.18623146 0.048775885
000320 b2 4f de 3d a9 fe 86 3d b4 f9 21 be 69 76 ef bc
       0.108550444 0.06591541 -0.1581791 -0.029231267
000330 10 f9 a0 3c e4 f9 c5 bd 10 e4 5e bd df 8d 64 bd
       0.019650012 -0.096668035 -0.054416716 -0.05579936
000340 2d ee 72 bd 69 6f 18 3e f7 9c f3 bd dd 69 86 be
       -0.059309173 0.1488625 -0.11895173 -0.26252642
000350 1a 25 66 be eb 71 d8 3d 87 67 6d 3b 01 ea 1b 38
       -0.2247509 0.10568603 0.0036225037 3.7172813e-05
000360 d4 cd 59 be 68 4a 18 bd f1 d1 62 3d 92 94 4f bb
       -0.21269923 -0.037180334 0.055375997 -0.0031674248
000370 04 70 1a bd fe 38 32 be e8 e9 67 3d aa f1 96 bd
       -0.037704483 -0.17404553 0.056619555 -0.073703125
000380 39 77 03 be 7b 6f 32 3d 98 37 12 3e b8 e6 ef 3d
       -0.12838449 0.043563347 0.1427902 0.11713928
000390 eb 8b c0 3d 9e eb 98 3d 0e 9b 1c 3e b4 73 74 3c
       0.09401687 0.074668154 0.15293524 0.014920164
0003a0 55 f2 47 be d0 8c 41 be 6d 02 c6 3e 32 28 ae 3d
       -0.19526036 -0.18901372 0.38673726 0.085037604
0003b0 17 16 98 3c f5 91 09 bd b8 76 19 3d 83 8d 46 bd
       0.01856522 -0.03358646 0.037466735 -0.0484748
0003c0 46 70 16 be 4b 78 c1 bd 38 1d 3d be c7 df 90 3c
       -0.14691266 -0.09446772 -0.18468177 0.01768483
0003d0 36 71 08 be dc f6 86 3d bd df 02 3e 55 6a c1 3c
       -0.13324437 0.065900534 0.12780662 0.023610273
0003e0 16 5d 25 be db d7 8d 3e 1d 44 e7 3d 61 8a 80 bd
       -0.1614879 0.27703747 0.112922885 -0.06276394
0003f0 1d e9 ac 3b a2 c2 fa bd c3 4c 0a be 9b 29 b2 3c
       0.0052768127 -0.122441545 -0.13505845 0.021748355

critic.0.bias f4 [64]
000000 8c 82 79 bc 4b 35 8b 3c b9 42 35 3d b3 b3 69 bc
       -0.015228879 0.016993186 0.044253085 -0.014264035
000010 6e 78 03 3d 9b 04 85 bc bf 26 21 bc bb a3 85 3a
       0.032097273 -0.016237548 -0.009835898 0.001019589
000020 21 d8 05 3c f8 9b af 3c 5d 57 81 3c ce 57 a4 3c
       0.008169205 0.021436676 0.015788728 0.0200614
000030 cc 0e 88 bc f3 dd 15 bc 34 b1 1f bc 80 ae 8a 3b
       -0.016608618 -0.009147155 -0.009746838 0.004232228
000040 aa cb 83 bc 86 51 50 3c e0 60 d6 bc 1f 27 c9 bc
       -0.016088326 0.012714749 -0.02616924 -0.024554787
000050 83 e4 68 bc 54 06 7c 3c ba cf 44 3b b7 73 67 3c
       -0.014214638 0.015382368 0.0030031041 0.01412671
000060 b0 17 9b 3c 5f 77 7a 3b 80 34 fa bc 64 f4 2c bb
       0.018932194 0.0038218123 -0.030542612 -0.0026390785
000070 44 32 80 bc d8 57 11 bd f3 22 86 3c 5a e8 e8 bb
       -0.015648969 -0.035484165 0.016374087 -0.0071077766
000080 c3 1d 4b 3c 07 3a 7f 3c 0e 9a c3 3b 1e 59 67 bc
       0.012397232 0.0155778 0.0059692925 -0.014120368
000090 75 9f 9c bb 31 da 72 bd 94 d2 60 3c 29 e2 3d bc
       -0.004779751 -0.059290115 0.013722081 -0.011589565
0000a0 0d 2e 8f 3c ab d0 3a 3c 1a ef 07 bd eb 6f 69 bb
       0.017478013 0.011402289 -0.03318701 -0.0035619687
0000b0 01 8f a6 3c 81 00 a7 bc 24 93 e0 3c 86 79 5c bc
       0.020331861 -0.020385982 0.027413912 -0.013456708
0000c0 f5 cf f4 3c b0 ee 3c 3c da 37 c5 3c 43 5e 46 3c
       0.029884318 0.011531517 0.024074484 0.012107435
0000d0 c3 c1 9d bc 06 02 db bc dd fc 70 bc 69 77 02 3b
       -0.019257432 -0.026734363 -0.014708725 0.00199076
0000e0 95 78 1f bb c6 29 f0 3c 14 ad 80 bc b3 93 b4 bb
       -0.0024333347 0.029316794 -0.01570753 -0.005510771
0000f0 df 43 d7 3c 98 4c 68 3c ff 2c ec bc 26 11 ac bb
       0.02627748 0.014178418 -0.02883005 -0.0052510677

critic.2.weight f4 [1, 64]
000000 6f 6c 0c 3c 54 2c f3 3d 68 8b b8 bc bc 0d e2 bc
       0.008570774 0.11873689 -0.022527412 -0.02759444
000010 fd 62 c4 bb a7 ce 95 bd f8 90 29 bd 3e 5c 96 bb
       -0.0059932456 -0.073148064 -0.04139802 -0.004588633
000020 4f 54 03 bc b5 fa 93 bc 07 16 6e 3d 39 82 64 3d
       -0.008015706 -0.018063882 0.058126476 0.055788253
000030 89 e7 d5 bd 39 e9 14 bc f8 fb 98 bd b9 f0 8c bb
       -0.104445525 -0.009088808 -0.07469934 -0.0043011573
000040 51 21 73 3b 50 0b dc bb 30 0d 85 3c 45 9a 0e bd
       0.0037098716 -0.0067152157 0.01624164 -0.03481509
000050 68 71 06 3b ef dd c2 3d ed fa 7c bc 31 02 3f 3d
       0.0020514373 0.09514987 -0.015440685 0.04663295
000060 fc 70 d6 3c d2 cd 40 bb 0a ba 2a 3c ae 69 ae 3a
       0.026176922 -0.0029419553 0.010420332 0.0013306641
000070 eb 95 d3 3b 33 73 a0 3c 59 2f 10 3e 26 a3 e6 ba
       0.0064570806 0.019586181 0.14080562 -0.001759623
000080 32 13 e5 bb 09 d0 19 3e c9 9d 79 3b a9 7b 6f 3c
       -0.0069908137 0.15020765 0.0038088432 0.014616885
000090 7e e5 9a bc 2d 41 bc 3c 9d 83 14 3e 44 52 2d be
       -0.018908259 0.022980297 0.14503331 -0.16925913
0000a0 4b 0c 26 3e 7c 0e 63 3d ad 66 83 3c 60 d6 f4 bb
       0.16215627 0.055433735 0.01604017 -0.0074718446
0000b0 d8 ac 26 bb 56 98 8e bb 5b d5 a2 bc 6e 89 f0 bd
       -0.0025432613 -0.004351656 -0.019877126 -0.11744963
0000c0 82 c9 d8 bc 36 17 24 3e e8 e4 b1 3d 51 e6 9a 3d
       -0.026463274 0.1602448 0.086862385 0.075634606
0000d0 e6 af df 3b b6 c6 c0 bc dc 39 4e 3b 65 19 46 3c
       0.0068263886 -0.023532253 0.0031467592 0.012091015
0000e0 c6 26 0e bc a1 aa 0b bc 1b 92 92 bc 6f 39 33 3b
       -0.0086762365 -0.008524568 -0.017891934 0.0027347466
0000f0 03 ba e1 bb 62 c0 96 3c 87 4c 32 3c 70 8b 4c bb
       -0.0068886294 0.018402282 0.010882503 -0.003121104
