storage/MiniGrid-ThrowLeftoversNavigation-8x8-N2-v0_22-07-20-16-39-57/status.pt (torch, 256701 bytes, 39 tensors)

image_conv.0.weight f4 [16, 3, 2, 2]
000000 bd 11 35 3e 37 e3 c5 bd a8 ed d3 bc 73 9b 27 3e
       0.17682548 -0.096624784 -0.02587016 0.16367893
000010 f4 f4 76 be 20 94 52 3e 4a c8 e5 bc c8 36 38 3e
       -0.2411688 0.20564318 -0.028049607 0.17989647
000020 20 60 24 3d 90 c7 10 bd 44 fa a3 3d 80 52 69 3c
       0.040130734 -0.035346568 0.08006719 0.014240861
000030 95 fc 07 3e 4c 46 b1 bd 01 38 29 bb f0 80 27 3a
       0.13279946 -0.08655986 -0.0025820734 0.00063897576
000040 88 39 9a 3d d0 c0 ad 3c e4 7b 91 3e 63 da e0 3d
       0.075305045 0.021210104 0.28414834 0.10979154
000050 48 2b dc bd 72 88 32 be e4 30 46 bd f2 02 ff bd
       -0.10750443 -0.17434862 -0.04838647 -0.12451734
000060 79 75 a6 bd 01 db c2 3c 07 bb 3c 3e 81 16 2d 3e
       -0.08127875 0.02378607 0.1843072 0.16903116
000070 3a 78 86 be ea 9b 4d 3e 3a 97 c3 3d 9d e9 96 3e
       -0.262636 0.20079008 0.095503286 0.29475108
000080 aa 1d 43 3e ec aa 86 be f4 87 8c be 38 94 0e be
       0.19054285 -0.26302278 -0.27447474 -0.13923728
000090 54 46 89 3e d4 ea 08 bd 26 4a 0c 3e 8d 6d 0b be
       0.2681147 -0.033427075 0.1370016 -0.13616009
0000a0 b1 be 95 3e ec b9 eb bd 62 71 68 3e 28 93 0e 3b
       0.29247048 -0.11510071 0.22699502 0.0021755192
0000b0 9f ba 1b be ca f1 17 3e 86 e9 1c be 6c e0 ad 3d
       -0.15207909 0.14838329 -0.15323457 0.08490071
0000c0 04 d5 70 bd d7 d2 5d bc 9c 06 80 be c7 77 e0 bd
       -0.058796898 -0.013539038 -0.25005043 -0.10960346
0000d0 d7 2a 3d 3e 12 70 37 bd 24 2c a1 3e e7 30 85 3e
       0.18473373 -0.044784613 0.3147899 0.26013872
0000e0 a0 75 5d bc 6b 4f 45 be e2 02 34 3e 34 7c b7 3d
       -0.0135168135 -0.19268577 0.17579225 0.08959237
0000f0 11 da 2b be 71 32 55 3e 43 d6 46 3e 6d 68 90 3e
       -0.16782404 0.20820023 0.19417672 0.2820467
000100 7a a0 0d be b3 c9 8f bc 2a d1 a0 3c 06 b5 9b 3d
       -0.13830748 -0.017552232 0.019630987 0.07602887
000110 ba 56 60 be 49 c4 51 be 40 cf 20 3e 1a a2 8a bd
       -0.21908084 -0.20485033 0.1570406 -0.067692
000120 8d 11 2e 3e 41 6e 3a 3d 4b e6 e9 3d 14 ff bd 3d
       0.16998883 0.045515303 0.11420878 0.09277168
000130 6d da 0c 3e 39 e0 34 3e d5 bf 74 be 5b 6c 37 3e
       0.13755198 0.17663659 -0.23901303 0.17912428
000140 77 d8 4f be 0e 09 5f be c0 d0 8f 3c e0 7d 49 bd
       -0.20297419 -0.21780798 0.017555594 -0.04919231
000150 84 d8 3c 3e d9 39 27 be ad 5b 6f be 39 92 5f 3e
       0.18441969 -0.16330661 -0.23374815 0.21833123
000160 91 99 64 bc c2 d6 38 3e 8d 8a f2 3d bd df 53 be
       -0.013952629 0.18050674 0.11842833 -0.20690818
000170 78 8b 6d 3d 7c 01 8e 3d 7c ec 45 be 6e 41 0c be
       0.057994336 0.06933877 -0.19328493 -0.13696834
000180 27 ad 04 3e c8 8d aa 3d d3 d6 bf bd 8c 8b 69 bd
       0.12956677 0.08327824 -0.09367146 -0.057017848
000190 9e d9 97 3e af 82 9e bc 12 61 46 3e a6 44 22 3e
       0.29658216 -0.019349424 0.19372967 0.158465
0001a0 82 14 3f be ca 63 7b be 86 df 8d 3e a0 f7 76 3c
       -0.18660167 -0.24549785 0.27709597 0.015073687
0001b0 cf b3 5f 3e 66 3d 9e 3d 73 b4 ec 3d 22 ea 70 3e
       0.21845935 0.077265546 0.115578555 0.23526815
0001c0 ab 21 99 3e be 14 2c be 89 6a 85 3d 23 83 77 3e
       0.299085 -0.16804788 0.065144606 0.24171118
0001d0 3a 25 56 3e e2 a3 37 3e 08 ef 55 be 7e dd 54 be
       0.20912638 0.1793361 -0.20891964 -0.20787618
0001e0 e4 47 48 be 13 51 30 3c e5 4e 87 3e 9d 71 51 be
       -0.19558674 0.010761517 0.2642738 -0.20453496
0001f0 49 3b 09 3e ed c5 38 be 01 75 97 be 07 54 ac bd
       0.13401522 -0.18044253 -0.29581454 -0.084144644
000200 6c 51 2a 3e 22 37 89 3e c6 94 37 be 68 4c 80 3d
       0.16632622 0.26799875 -0.17927846 0.06264573
000210 4c cd 71 3e 58 32 43 3e 4d a2 23 3e 07 b5 40 3e
       0.23613471 0.19062173 0.15979882 0.18819056
000220 7c c2 37 3e 89 f7 b2 3d a1 ac 53 be 90 9e 80 be
       0.17945284 0.0873862 -0.20671321 -0.25120974
000230 98 73 07 be e8 af 09 bd d3 30 35 be 8c 4b d8 3d
       -0.1322769 -0.033615023 -0.17694406 0.105612844
000240 0c 8f ec 3d b5 f0 1a bd 5a aa 08 3e 0c a9 f5 3d
       0.115507215 -0.037827212 0.13346234 0.11995134
000250 29 07 55 3e 49 ed 5b 3e d1 8b 8a bd 98 1e a0 3e
       0.20803513 0.21477236 -0.06764949 0.3127334
000260 38 b2 08 bd 00 7e 22 bc ce 81 8b be 4e 41 3e be
       -0.033373088 -0.009917736 -0.2724747 -0.185796
000270 66 27 28 be d3 1b c8 bd 56 91 53 3e 1d 69 9e bd
       -0.1642128 -0.09770932 0.2066091 -0.077348925
000280 c3 30 51 be 40 55 0d 3e 0e c7 e0 3d 5f 7c 5b 3e
       -0.20428757 0.13802052 0.10975467 0.21434163
000290 6c f7 18 be b8 2e 80 3d aa 3a d7 bd 46 d4 84 bd
       -0.14938134 0.06258911 -0.10509236 -0.064858004
0002a0 9a d2 54 be f8 ba e3 bd b6 ea 8a bd 18 2d 13 3e
       -0.20783463 -0.11119646 -0.06783049 0.1437267
0002b0 c7 f1 9a 3d a8 e5 c7 3d fe c7 9f 3e e3 76 9e 3e
       0.075656466 0.097606 0.3120727 0.30950078
0002c0 8c 9d 49 3e e0 9b 16 3c f0 7e 4c be 50 04 67 3e
       0.19689006 0.009192437 -0.19970298 0.22560239
0002d0 38 b3 94 bd c2 eb bd bc 61 1e 77 be 56 e9 87 bd
       -0.07260746 -0.023183707 -0.24132682 -0.06636302
0002e0 af 44 41 be ca 43 80 3e 28 8e 7f be 70 68 70 be
       -0.18873857 0.2505172 -0.24956572 -0.2347734
0002f0 00 9a 20 bc 59 d6 1f be 68 8a d3 3d 12 92 e3 bd
       -0.009802341 -0.15609111 0.10329133 -0.11111845

image_conv.0.bias f4 [16]
000000 41 76 d1 bd a5 69 21 3d 93 dc 6e 3e d7 55 4a be
       -0.10227633 0.03940739 0.2332633 -0.19759308
000010 13 5f 27 3e 04 7a 5a 3e 71 a8 a1 3e fc 88 38 be
       0.16344862 0.21335608 0.31573823 -0.18021005
000020 bb 2c d5 3d 10 68 3e be 78 7c 62 3e 0f fa e7 bd
       0.10408922 -0.18594384 0.22117794 -0.11326992
000030 c7 9f 45 3e d8 98 14 3d 3e b4 bb 3b 1c cd c4 bc
       0.19299231 0.036278576 0.0057282737 -0.024023585

image_conv.3.weight f4 [32, 16, 2, 2]
000000 df 35 c7 3c 44 03 86 3d ad ed 0e 3d 5a 41 4c 3d
       0.02431768 0.065435916 0.034894634 0.04986701
000010 c4 15 ff bd 3e a2 d2 3d c4 fe d6 3d 5c 4c e7 3d
       -0.12455323 0.102848515 0.104978114 0.11293861
000020 4e 6e be 3d 39 6e af bd cd dc 1a bd 06 e8 f7 3d
       0.09298383 -0.08565945 -0.03780823 0.12104802
000030 b9 e2 e6 bd c2 8d f0 3d a4 bb e3 bd 42 54 a7 bd
       -0.11273713 0.11745788 -0.11119774 -0.08170368
000040 7e 52 6b 3d cc 57 99 bd 57 97 d7 bc 80 a3 d5 3d
       0.057451718 -0.07487449 -0.026317282 0.10431576
000050 32 f3 c4 3d 71 ed e8 3d ff d2 ba bc 52 75 b3 bd
       0.09616698 0.11373413 -0.022805689 -0.087626114
000060 5c 56 01 3e 93 b8 a5 bc ae ef 3a bd bf db 0b 3d
       0.126306 -0.020229613 -0.045638733 0.034145113
000070 8e 1b c8 bd fe ad a6 3d e6 05 83 3d 93 69 cb bd
       -0.09770881 0.08138655 0.063976094 -0.09932246
000080 ba b8 e0 bd 32 b9 13 bb 94 ee 3a 3d 26 0d cf 3b
       -0.10972734 -0.0022540805 0.045637682 0.006318706
000090 18 7f 8e bd 02 bf f4 3b 08 63 fd bd d0 fb a7 bd
       -0.06957835 0.007469059 -0.12372404 -0.08202326
0000a0 04 a3 9b bd 02 bd bb 3d f0 07 f0 3d 48 4c 09 bd
       -0.07599452 0.0916691 0.11720264 -0.033520013
0000b0 a3 f9 13 39 90 79 5c 3d 57 96 0c 3b 44 61 80 bd
       0.0001411201 0.05382687 0.0021451914 -0.06268552
0000c0 b9 58 96 3d fe a8 ae 3d 0d ce 96 bb 43 66 fe bb
       0.07341141 0.085283265 -0.0046022 -0.0077636554
0000d0 b4 38 ee 3d bb df e4 3d ff 7b 5d bd 04 96 08 3e
       0.11631909 0.11175486 -0.05407333 0.13338476
0000e0 2e 53 de 3c 23 4e 8e bd 64 37 96 3d b0 65 a1 bd
       0.027139273 -0.06948497 0.07334784 -0.078807235
0000f0 9a 75 f8 3d 94 44 b2 bd 06 de 01 3d 68 ae 00 3d
       0.12131806 -0.087044865 0.03170588 0.031416327
000100 fe ae 60 3d 79 ea 04 3e 82 ae e0 bc 55 72 d2 bc
       0.054854386 0.12980069 -0.027426962 -0.025689283
000110 d2 5d ad bd 19 ff aa 3c 53 00 10 bd a5 42 fe 3c
       -0.084651604 0.020873593 -0.03515656 0.031037638
000120 53 ee ad b9 9b b2 89 3d e2 5d 08 3e 06 be 81 3d
       -0.00033174697 0.067235194 0.13317063 0.06335072
000130 15 90 8e bc 6a be 13 bd b8 3f b0 bd f4 ad 04 3e
       -0.017402688 -0.036070265 -0.086059034 0.12956983
000140 f3 d5 df 3a 52 e5 52 3d ee f1 f3 3c 7b cf 57 bd
       0.0017077312 0.05148823 0.029778447 -0.052688103
000150 d0 db bf 3d 10 b1 bf 3d f3 f7 ef 3c f3 da 3e bd
       0.09368098 0.09359944 0.029293036 -0.046595525
000160 45 e1 df bc 7e 75 e2 3c b3 a5 3c bd bf 72 33 bd
       -0.027329097 0.027643915 -0.04605646 -0.043810602
000170 92 ea d2 3a 47 67 46 bc c9 0a 49 3d 10 18 16 bc
       0.0016091636 -0.012109584 0.04908255 -0.00916101
000180 60 a1 06 3c b9 b5 af bc ec 3e b8 bd 97 12 0a 3e
       0.008217186 -0.021448957 -0.089963764 0.13483654
000190 a0 46 41 3d 6d 30 0b 3e 86 1a 3d 3b 8a 59 cf bb
       0.047186494 0.13592692 0.002885492 -0.0063278126
0001a0 2b b4 bb bd b8 84 d1 bc 00 53 d9 3d 30 7d ca bd
       -0.09165224 -0.02557598 0.10611534 -0.09887159
0001b0 fc 63 ad bc 72 ef cc 3d 9d f9 be 3d 21 86 8c 3d
       -0.02116584 0.10006608 0.09324954 0.068615206
0001c0 34 3e 29 3a 70 a8 85 3c 76 ef 9f 3a d8 d9 a3 bc
       0.00064561074 0.016315669 0.0012202102 -0.020001337
0001d0 1c bf a0 3d 2f b8 8b bc bb 24 36 bd 52 78 60 3d
       0.07848951 -0.017055599 -0.044468623 0.054802246
0001e0 1b c3 85 bd 5b 7f 4e ba 1e 58 b5 3d 6f f7 95 3d
       -0.06531354 -0.0007877254 0.08854698 0.07322585
0001f0 65 df 05 3e 8c 04 89 bd 17 7b c7 3c 1f f9 4f bc
       0.130735 -0.066903204 0.024350686 -0.012693672
000200 58 33 4e bd 14 fe 5b bd 17 dd 46 3d 37 57 d1 3c
       -0.050341934 -0.053709105 0.04855069 0.025554283
000210 7e e2 2c bd a0 75 8d bd 03 06 af bd b5 46 0e 3e
       -0.042208187 -0.06907201 -0.085460685 0.1389416
000220 d5 48 e8 ba c7 a0 f9 bb 37 10 ef bc 45 6a 45 bd
       -0.0017721901 -0.007618043 -0.029182537 -0.04819705
000230 36 df c2 bd e7 5d 62 bd 2d cd be 3d 79 a5 34 3d
       -0.0951523 -0.055265334 0.09316478 0.04410312
000240 72 3b b1 bc 87 cf f3 bc 08 be c9 3d 0f ee d6 3d
       -0.021634791 -0.029762043 0.09850699 0.10494625
000250 11 37 0d 3e 62 f7 64 3d ce 6d 99 3d 73 f4 95 3b
       0.13790537 0.055899985 0.07491647 0.0045762598
000260 81 19 5d bd 8b f2 cc bd b7 81 c3 3d 43 32 b1 b9
       -0.0539794 -0.10007199 0.095462255 -0.0003379752
000270 9c c4 83 3d 3f 55 b0 3c c7 55 ce bd e6 5d 36 bd
       0.06433985 0.021525024 -0.100749545 -0.044523142
000280 4b 63 6b 3d a8 0c c1 bb f7 fb cf bd 9a dc 75 3d
       0.05746774 -0.0058914013 -0.1015548 0.060024835
000290 06 1b c2 3c 61 8e 9b bc c1 67 89 3d d3 7c 2e 3d
       0.023694526 -0.01898879 0.067092426 0.04259951
0002a0 91 e3 0d bd 70 e6 03 3e 2c 5b 98 3d ee 8e de 3c
       -0.034640852 0.12880874 0.07439265 0.027167764
0002b0 b3 c0 1f bc b3 8e b0 bd 4c 54 e6 3d 83 75 7c bc
       -0.009750533 -0.08620968 0.11246547 -0.015408876
0002c0 2b c6 72 bd c2 82 d4 3d c8 a1 82 3d 50 58 44 3d
       -0.05927102 0.103765026 0.063785136 0.047935784
0002d0 14 27 a6 bb 1a 0a 90 bc de 98 1f 3d df a7 de 3d
       -0.0050705764 -0.017582942 0.038964145 0.108718626
0002e0 79 68 24 3d bd 2c 17 bd 4a 15 12 3e e8 cc 86 3c
       0.040138695 -0.0369079 0.14265934 0.016455129
0002f0 13 e0 c7 3d 92 79 04 3d d0 e4 06 3e aa 15 8f 3d
       0.09759536 0.0323425 0.13173223 0.06986554
000300 1f ed 91 bd 60 8f aa 3d 84 26 df ba 28 af d8 bd
       -0.071253054 0.08328128 -0.0017025028 -0.105802834
000310 31 2b f6 bc 29 02 f7 bd e7 84 83 bd 9e 1c c7 bd
       -0.030049892 -0.12060959 -0.064218335 -0.09722255
000320 e4 df a0 3d a3 34 0b bd 8b b4 ce bc 64 9f 63 3d
       0.07855204 -0.033985745 -0.025232574 0.05557193
000330 2b b0 4f 3d 74 81 bc bd 25 fd 43 3d dc 30 36 3d
       0.050705116 -0.09204379 0.04784884 0.04448019
000340 9b 82 d8 bd cd bb c6 3d de 89 a9 bd 2d 1e 75 bd
       -0.10571786 0.09703789 -0.08278249 -0.05984323
000350 23 e9 df bd 9b 05 db 3d 65 84 a6 3c b7 9f d1 3d
       -0.10933139 0.106944285 0.020326803 0.10235541
000360 3a a4 12 3b 26 92 77 3d 66 37 33 bd 9b de d8 bd
       0.0022375719 0.060442112 -0.043754004 -0.105893336
000370 ac ea 46 3c 73 b3 40 bc 19 25 36 bc 9f 24 8b bd
       0.012140911 -0.011761534 -0.011117243 -0.06794094
000380 19 fa 08 bb 3b 4e d9 3c 54 76 2c 3d 99 e7 df bd
       -0.0020901023 0.026526561 0.042105034 -0.109328456
000390 03 10 5a 3d 38 b4 5a 3b 3b 65 ad 3d 8c 40 a7 3d
       0.053237926 0.003337158 0.08466574 0.08166608
0003a0 0d 01 c9 bd 37 34 e5 3d 2e 0d 04 be 4d f0 89 3d
       -0.098146535 0.111916 -0.12895653 0.06735287
0003b0 df 5f 44 3b 8e 5b 4c 3d e1 e4 90 bd dd 42 8d 3d
       0.002996437 0.049892 -0.07074905 0.06897519
0003c0 4f 6a 8c bd de 6d f3 bd 97 79 1f 3d 3f 2c 7a 3d
       -0.06856214 -0.1188619 0.038934316 0.061077353
0003d0 fe 7c f1 3d 58 80 ad bc cb fa f5 3d 7c 71 9c 3d
       0.117914185 -0.021179363 0.120107256 0.07638833
0003e0 bd 16 8f bd 2c 41 d6 bd d1 bb 8a 3d 50 54 9c bd
       -0.06986759 -0.10461649 0.067741044 -0.07633269
0003f0 5d 11 49 3d d0 b7 e6 bd fa db ac 3d 4e d9 2a 3d
       0.049088825 -0.11265528 0.08440395 0.041711144

image_conv.3.bias f4 [32]
000000 69 f4 95 3b 8b f3 56 bc 65 0d 47 3d d7 d0 9c bd
       0.004576255 -0.013119589 0.04859676 -0.076570205
000010 b1 c1 63 bd a6 3d 4b bc 89 d2 7a bd ae 72 8d bb
       -0.05560464 -0.012404835 -0.06123594 -0.0043166494
000020 ed f9 0d 3d 73 6e 0b 3e 04 16 8c 3d b0 19 d3 3c
       0.034662176 0.13616352 0.06840137 0.025769085
000030 09 74 cb bd 6c 56 80 bd a0 fd 3e 3c 3a 51 bb bd
       -0.09934241 -0.06266484 0.011657149 -0.09146352
000040 85 ce 66 3d 8f c8 d0 3d 8f c1 b1 3d 32 c7 a3 bc
       0.056349296 0.101945035 0.086794965 -0.019992445
000050 d5 a6 8b bb 29 85 1b 3e c8 ad 64 3b dd c1 a3 bd
       -0.0042618313 0.15187515 0.003489362 -0.07995961
000060 cb 52 da 3c cc 01 9a bb 0d 53 3f bd 2f a8 53 3c
       0.026650807 -0.0046999212 -0.046710063 0.012918516
000070 ec 0c b6 bd a7 9e 87 3d 83 df 67 bd 83 db 9b 3d
       -0.088891834 0.066220574 -0.05660964 0.07610228

image_conv.5.weight f4 [64, 32, 2, 2]
000000 03 cf 9c 3d 5d fd 32 bd ed 4a b9 bc 8a 87 5d 3c
       0.07656672 -0.043698657 -0.022618735 0.013521085
000010 44 e9 8e 3b 2b a5 6a 3d de bd 84 3b b7 4b b3 3c
       0.0043613035 0.057286423 0.0040509542 0.02188669
000020 5e 39 08 bd 54 29 09 3d a9 7f 11 3d ea 14 67 bd
       -0.033257835 0.03348668 0.035522137 -0.05641643
000030 d5 5c 16 3d 8b 60 75 bc 69 77 9d 3d 2f f4 a1 bd
       0.036709625 -0.014976631 0.07688791 -0.079079024
000040 a7 92 57 bc ec 71 33 3d ca 82 a0 3d 6b e5 98 3c
       -0.013157523 0.043809816 0.07837446 0.018664083
000050 d4 c0 b5 bc 12 8a 8f bd a3 ed 33 bd 76 fe 9c 3d
       -0.022186674 -0.07008757 -0.0439278 0.07665722
000060 d2 6b 95 bd 3a 9a da bc d7 ec 67 3d b0 f7 75 3d
       -0.07295956 -0.02668487 0.056622352 0.060050666
000070 4e 58 9e bd 33 80 3c 3c 58 13 2f 3c a2 fd 9d 3d
       -0.077316865 0.011505174 0.010685764 0.07714392
000080 fd 83 e5 bb ee 61 34 3d fb 37 0c bc fd f1 be 3d
       -0.0070042596 0.044038706 -0.008558269 0.09323499
000090 0b 59 0f bc cf ed 1d bd a6 d8 62 3c ca 39 01 bd
       -0.008749257 -0.03855687 0.013845598 -0.031549253
0000a0 65 b0 70 3c c8 c6 7c 3d 23 49 96 bd 97 0f 6c bd
       0.014690493 0.06171301 -0.073381685 -0.057632055
0000b0 a1 c9 47 bb f4 88 14 3b c3 41 07 bd 75 1f ac 3d
       -0.003048517 0.0022664638 -0.0330217 0.084044375
0000c0 f0 dc 4f 3d 50 7f 29 bd c7 34 58 3c 54 4c c6 bb
       0.05074781 -0.04138118 0.013196177 -0.0060515795
0000d0 ab a0 7b bd 62 26 09 3d 36 fd 70 bd 8e 74 52 3c
       -0.06143252 0.03348387 -0.05883523 0.012845172
0000e0 19 b2 89 3d 5a 4a 70 bd af 42 8b 3c fa 0e d3 3d
       0.067234226 -0.058664657 0.01699957 0.10305591
0000f0 1f ee 35 3d c7 8f ea bc 27 96 15 3c 05 5f a6 bd
       0.044416543 -0.028633012 0.009130037 -0.08123592
000100 ea 16 3f 3c 51 92 a8 3d d9 16 a5 3d 79 f6 36 3c
       0.011663178 0.08231033 0.080609985 0.011167162
000110 c0 9a 33 3d a3 7b 3d bc 4a 4f 08 bc 93 2e 41 bb
       0.043848753 -0.011565122 -0.008319685 -0.0029477223
000120 1d 91 30 bd fb 09 4b 3d f8 90 54 3d e6 61 54 bc
       -0.04310714 0.049570065 0.051896065 -0.012962794
000130 d0 cc 03 bd f9 ea 4c bd 85 47 d0 3b df 6c 42 3d
       -0.032177746 -0.050028775 0.006356182 0.04746711
000140 19 e1 bc 3d 13 1e 93 bd cf 56 75 bd 3e d5 b7 3c
       0.092226215 -0.071834706 -0.05989724 0.022440549
000150 77 e8 a3 3d 5d b6 27 3c ea 08 f1 3c 21 a2 c5 3c
       0.080033235 0.01023635 0.029423196 0.02412516
000160 80 22 37 bc 0e 4b 90 3d 69 7f 85 3d d1 38 25 bd
       -0.011177659 0.070455655 0.06518442 -0.040337387
000170 d8 5d 7b bd 5c 7d 91 bd be 92 f2 bb d0 c0 a7 3c
       -0.061368793 -0.071039885 -0.007402747 0.020477682
000180 e8 31 aa 3d 47 3a 98 bd d8 94 92 3d 9b 9e 12 bd
       0.083103 -0.074329905 0.07157296 -0.03579579
000190 8c d9 2e 3b 1b ab 3b bb 4d 70 68 3d cf 90 98 bd
       0.002667996 -0.0028635922 0.056747723 -0.07449495
0001a0 fd 75 2d bd a3 97 56 3c ae 1b 8b 3d 04 d2 8f bd
       -0.04234885 0.013097676 0.06792389 -0.07022479
0001b0 2b 07 08 3d ba d3 8e bc 47 6f 85 bd 8e 07 ce 3c
       0.03320996 -0.017434943 -0.06515365 0.025150087
0001c0 68 8e 02 bd 18 12 ac 3d 5e 1b ac 3d f9 3f b4 3d
       -0.03187409 0.084018886 0.084036574 0.08801264
0001d0 df 8f 5e 3d 7c 63 80 bd f9 7f a4 bd e0 50 c6 3c
       0.054336425 -0.06268975 -0.08032221 0.024208486
0001e0 a5 49 d4 3c 33 6f 87 bd 53 0a ae 3d be 0c bc ba
       0.025914023 -0.066130064 0.08498063 -0.0014347059
0001f0 30 ef 74 bd de 2b 96 3d 27 7f a8 3d 58 c3 f7 3c
       -0.05979842 0.07332586 0.082273774 0.030244514
000200 95 66 f1 b8 78 e1 d8 3c 4e 21 23 bd 94 0e 95 3d
       -0.00011510883 0.0264747 -0.039826684 0.07278171
000210 63 c5 9e 3d 97 b7 d4 3b 6b e0 30 bd 3b d8 c3 3d
       0.07752492 0.006491612 -0.04318277 0.09562727
000220 c0 29 40 bd 9a 18 b3 bc e9 c5 85 3d f3 36 a5 bc
       -0.046914816 -0.021862317 0.06531889 -0.020167803
000230 b9 fc 89 3a 16 4e a7 3d 9c 17 28 bc 3a 09 51 bc
       0.0010527588 0.081691906 -0.010259535 -0.012758547
000240 fa cf d9 3d e0 3b 01 3d c6 af 8f 3d 05 a1 1d bc
       0.106353715 0.031551242 0.07015948 -0.00962091
000250 1f 7f 40 bd cd 2b 6b 3c 0b 62 f0 bc 96 e7 20 bd
       -0.046996232 0.014353705 -0.029343626 -0.039283358
000260 8f 8f 3e bd 3d 55 d1 3d 14 f1 04 bd 0a af 64 3d
       -0.046523627 0.10221336 -0.032456473 0.055830993
000270 f0 fc 94 3c 3f df 46 3d 83 40 70 3d 3e ac 9e bd
       0.018187016 0.048552748 0.058655273 -0.07747696
000280 dc 21 7c 3d 6f 99 90 bc 83 6a e3 3c 37 b9 1c 3b
       0.06155573 -0.017651288 0.02776075 0.0023914108
000290 bc 65 88 bd 48 b5 7e 3d 06 e8 64 bd 69 4f f6 3d
       -0.06660029 0.062184602 -0.055885337 0.12026865
0002a0 09 de 4a 3d f8 f9 9a bc 8b cf 0c bd 08 ca 70 bd
       0.049528155 -0.018918023 -0.034377616 -0.058786422
0002b0 4b 21 c4 bc b1 2a 28 bd f0 06 04 3d b6 b6 54 3d
       -0.023941657 -0.04105634 0.03223318 0.05193206
0002c0 62 6e aa 3d 76 fc 57 3c b4 15 93 bc 61 bc 46 bd
       0.08321835 0.01318275 -0.017954685 -0.048519496
0002d0 b0 c7 f6 bb 41 02 72 3d 79 9b 99 bd bf df b1 bd
       -0.007531129 0.05908418 -0.07500357 -0.08685254
0002e0 c9 f4 77 3d fe 7a 5f 3b de a3 19 3b 1b 8e da bc
       0.06053618 0.0034100409 0.002344362 -0.02667909
0002f0 f7 be 65 bd e5 a7 35 bd ac 1c 56 bd 55 98 54 bd
       -0.05609032 -0.04434957 -0.052273437 -0.051903088
000300 2e cc 05 bd 93 4f cb 3d 0c 2d 34 bd a9 51 bf 3d
       -0.032665424 0.09927287 -0.043988273 0.09341747
000310 0c 0c 48 bd fa 50 d1 3c 0e de 94 3c bb 56 41 bd
       -0.048839614 0.025551308 0.01817229 -0.047201853
000320 18 53 f1 3c 43 cd d2 3d 19 cf 70 bc 05 87 eb 3d
       0.029458568 0.10293057 -0.014697813 0.11500362
000330 12 aa 89 bb 85 49 24 bc 59 d5 55 3d 25 d3 b7 3d
       -0.004201182 -0.010027294 0.052205417 0.089758195
000340 0a 33 d1 3d 08 a2 a3 3d 83 34 49 bd 9e fc 76 3c
       0.10214813 0.079898894 -0.049122345 0.015074877
000350 41 3c 09 3d 3c 96 71 bc 06 4e 84 3d 54 bd 1b 3c
       0.03350473 -0.014745291 0.06460194 0.009505589
000360 1e 2d 5f bd 07 02 6b bc 66 b7 04 bd 86 6e 83 3d
       -0.054486386 -0.014343745 -0.032401465 0.06417565
000370 74 14 3b bd ab 56 31 3a c3 df aa 3c 87 10 80 3d
       -0.045673802 0.00067649287 0.020858651 0.06253152
000380 67 5e 30 bd 44 02 b1 3d 99 65 f5 bc 91 72 1f bd
       -0.04305878 0.0864301 -0.029955672 -0.03892762
000390 c4 c9 63 3d 78 c7 81 bd ee 92 a6 3d 6d 51 45 3d
       0.05561234 -0.06336874 0.08133493 0.048173357
0003a0 61 ff b3 bc d0 32 cc bc a0 a1 7d bc 48 e7 df 3a
       -0.02197236 -0.024926573 -0.015480429 0.0017082477
0003b0 26 e8 d9 3c f2 ea 5e 3c 81 a9 fa bc 2d f2 35 bd
       0.026599955 0.01360582 -0.030598404 -0.04442041
0003c0 4d 5a 25 bd 4d c1 e1 3c f0 ac d4 3c 5d 00 12 bd
       -0.04036932 0.027557993 0.02596137 -0.035644878
0003d0 91 91 11 3c c7 aa be 3c 32 09 af 3d 95 7c 4a bd
       0.008884803 0.023274792 0.08546676 -0.049435217
0003e0 32 f0 c9 bc 14 9f 7d 3c a7 75 ae bb 96 d6 a9 bc
       -0.024650667 0.015479822 -0.005324084 -0.020732205
0003f0 c7 dc 79 3d f9 b2 e2 bb 8c ba 04 3d ef 1a e0 bc
       0.061001565 -0.006918308 0.032404467 -0.027356593

image_conv.5.bias f4 [64]
000000 4a e9 e4 3c 1d a6 48 3c 1a 2e f2 b9 d2 80 18 3d
       0.027943272 0.012246636 -0.00046192185 0.037232228
000010 f0 92 43 bc 40 3f b3 bb 57 3a 46 3d fe 1c 0a bd
       -0.011936888 -0.0054701865 0.04839548 -0.033719055
000020 52 b5 89 3d 73 b7 4c bc 42 cc 49 3b 17 f5 b5 3d
       0.06724037 -0.01249491 0.0030791913 0.08884638
000030 73 02 3d bd 2b d7 8c bd 8e 19 15 3d 98 d1 fd bc
       -0.046144914 -0.068769775 0.036401324 -0.030983731
000040 89 e0 11 bd 50 16 8d 3d a5 6d 44 3d 8e 8a ae 3c
       -0.035614524 0.068890214 0.047956128 0.021306302
000050 65 c7 89 bc 7c e9 2f 3d 5a b8 cc bd cf 3e 2f bd
       -0.016818712 0.042947277 -0.099961 -0.04278451
000060 5b 29 25 bc d3 81 80 3d 50 6b 97 3d 4c 79 d4 3c
       -0.010080661 0.06274762 0.07393515 0.025936745
000070 b5 d7 ce 3d b6 b8 61 bd 1c 67 8b 3d 2c 22 23 3d
       0.100997366 -0.055107795 0.06806776 0.03982751
000080 ac 6e 68 bc 4b 76 85 bd 8d c5 db 3d 6f cc 0b 3c
       -0.0141865425 -0.06516703 0.10731039 0.0085326275
000090 06 59 ae bd e2 52 29 bd ad aa 82 3c 35 18 af 3d
       -0.085130736 -0.04133881 0.015950525 0.08549539
0000a0 3a c1 0c bc 40 e9 61 3c cf 0c e3 bc fe bb 0c 3d
       -0.008590991 0.013788521 -0.027716069 0.03435897
0000b0 5d 6a 56 3c b8 00 8d 3d 15 39 6b 3d 20 e7 88 bc
       0.013086882 0.06884903 0.057427485 -0.016711771
0000c0 6b 2c 89 3d bd 4a b2 bb f1 fd 0b bd 32 a9 00 bc
       0.06697925 -0.0054410384 -0.034177724 -0.007852839
0000d0 58 83 87 3d dc a3 20 3d b5 b1 c9 bd d4 49 92 3d
       0.06616849 0.03921877 -0.09848348 0.07142988
0000e0 66 91 37 bd 86 e4 ab 3d f2 0b 23 3d 03 61 e4 bc
       -0.044816397 0.08393197 0.039806314 -0.02787829
0000f0 80 3f c7 ba bc 4d fd bc 46 b7 e9 3d d7 d6 4a bc
       -0.001520142 -0.030920856 0.1141191 -0.012380323

actor.0.weight f4 [64, 64]
000000 f7 be 15 3e 42 c6 aa bd ec 0e a1 3c f9 0e 1e 3e
       0.14623629 -0.08338596 0.019660436 0.15435399
000010 56 fd 1f bd 28 57 35 3e c0 56 6d be e2 e5 70 be
       -0.03905996 0.17709029 -0.23177624 -0.23525193
000020 01 26 3d 3e 9d e3 97 3e b9 d1 05 3c 91 91 9f be
       0.18471529 0.29665843 0.008167678 -0.31165746
000030 9f b7 c8 3d 14 d5 06 3e 03 dd f3 bb c3 26 b6 bc
       0.09800648 0.1316722 -0.007442118 -0.02223528
000040 59 57 21 3e 47 f7 a1 bc 7e ae 90 bd 3b 7a 3b bd
       0.15755977 -0.019771231 -0.07064532 -0.045770865
000050 4e 9e dd 3a 11 e9 f8 bc e4 3b 4d be 82 1e 3f be
       0.001690814 -0.030384572 -0.20042378 -0.18663982
000060 4e 4f 82 3d 10 24 17 bc 99 7a 6f be 7d 13 a5 3d
       0.063627824 -0.009224907 -0.23386611 0.08060358
000070 0b d2 82 bd c3 af c4 bd 29 ee 52 3d fe 4c 18 bd
       -0.06387719 -0.096038364 0.05149666 -0.0371828
000080 a4 03 0a be 7d 21 a5 bd 58 6a 1f 3e d9 20 f7 3c
       -0.13477951 -0.08063028 0.1556791 0.03016703
000090 20 66 66 ba 30 ce dd bb 2e fb 2b bd 36 0d 8e 3e
       -0.00087890215 -0.006768964 -0.04198759 0.27744454
0000a0 27 d3 75 3d 8c e0 9c 3d 80 2b 1a be f3 52 1a bd
       0.060015824 0.076600164 -0.15055656 -0.037676763
0000b0 65 9b 00 3e a3 a5 1d be d3 e4 f0 3d 0c 03 30 bc
       0.12559278 -0.15395217 0.11762395 -0.010742914
0000c0 b3 a4 68 3c f2 2d 56 3c 97 b1 7f 3d 6f 5a 5d 3d
       0.014199424 0.013072478 0.062425222 0.054041322
0000d0 e1 1e 4d 3e 54 fa e6 3d 18 b6 04 bd 9c 7e 05 be
       0.2003131 0.11278215 -0.03240022 -0.13036579
0000e0 29 a8 2f 3c 1d 3c 73 bd 8a f6 16 3e da 5f 06 be
       0.010721245 -0.0593835 0.14742485 -0.13122502
0000f0 d8 6a 80 3c 69 65 f9 3d af 94 2b 3d d8 42 47 bc
       0.015675947 0.121775456 0.041889843 -0.012161933
000100 10 9f 20 be f2 a0 27 3e 62 92 1e 3e 0d 47 05 bd
       -0.15685678 0.1636999 0.15485528 -0.032538462
000110 c0 11 66 bd ef ea 90 3d f3 47 23 3b f3 f7 31 3d
       -0.05616927 0.0707606 0.0024914711 0.043449353
000120 c7 be dc bd 62 67 63 bb 36 94 13 be fe 0c b1 bc
       -0.107785754 -0.0034699072 -0.14412007 -0.02161264
000130 7e b3 37 3b c3 e9 c2 bd a4 2a 72 bd 68 d6 53 be
       0.002803057 -0.09517243 -0.059122697 -0.20687258
000140 ea 26 8b 3e 90 6d 75 3d 4d ed 64 bd 23 1e fe 3c
       0.27178127 0.05991894 -0.05589037 0.03102023
000150 57 f8 b6 3d b9 9a 0f bc f6 6e 3c 3e 76 19 f1 3a
       0.08934086 -0.008764916 0.18401703 0.0018394429
000160 81 ed cc 3d 08 e0 40 bd 2b 97 a8 3d f9 49 ac 3d
       0.10006238 -0.047088653 0.08231958 0.08412547
000170 cf b5 19 be d5 85 bd bd d5 f7 a4 3c 37 f5 51 3d
       -0.1501076 -0.09254042 0.020137707 0.051259246
000180 53 48 68 be f0 72 fd 3d f1 d1 7a be 64 34 59 bc
       -0.2268384 0.12375438 -0.24494149 -0.01325712
000190 eb 64 95 be f5 ae 0c 3d 52 9b d4 3d 10 7f 04 be
       -0.29178557 0.03434654 0.103811875 -0.12939095
0001a0 6a 1b 19 3d a8 22 d9 3c a3 9b 18 be 29 89 cc bd
       0.03737966 0.026505783 -0.1490312 -0.09987099
0001b0 7e 21 c0 bd 4d 87 ab bd b2 28 cb bc 37 4d 0c 3e
       -0.09381388 -0.08375416 -0.024799678 0.1370133
0001c0 4b af 24 3d 72 f4 96 3c e5 a2 05 3c 7e 12 e4 bc
       0.040206235 0.018427107 0.008156513 -0.027840849
0001d0 06 eb 9d 3e fa 48 d7 bc 2b 49 14 3d db 0f 78 3d
       0.3084337 -0.026279915 0.03620259 0.060561996
0001e0 40 d5 88 3d 72 ad 1a 3d 26 f8 ba be 03 cb 0a 3e
       0.06681299 0.037763067 -0.36517447 0.13554005
0001f0 ab 0f b1 3d 66 f7 0a 3e 30 26 2c be a1 93 2e be
       0.086455666 0.13570938 -0.16811442 -0.17048503
000200 a8 8f 67 3e 52 15 1f be 4f 6b 35 be df a5 55 bd
       0.22613394 -0.15535477 -0.17716716 -0.05216014
000210 fd 02 12 3b fb 9b 0e 3d 67 f1 03 be ad 48 43 bc
       0.0022279613 0.034816723 -0.12885056 -0.011919183
000220 70 52 45 3d bc ee a0 bd 2d c9 d3 bd 51 a0 e8 bd
       0.04817432 -0.07858035 -0.103411056 -0.11358703
000230 c9 cd 79 3d 04 ba db 3b 78 48 9e 3e 76 72 a4 bd
       0.060987268 0.0067055244 0.30914664 -0.08029644
000240 92 4d 98 be 1b e8 89 3d 67 1d 86 bd 4a b2 2d be
       -0.2974668 0.06733724 -0.06548577 -0.16962543
000250 ca 1d c5 bc 43 ed c3 bd 61 d5 ef 3d 9b 4a 51 3c
       -0.024062056 -0.095667385 0.11710621 0.012774135
000260 75 7c 55 bc 90 5a 1a 3d d0 51 c6 b9 7e 0a 30 be
       -0.013030161 0.037684023 -0.00037826458 -0.17191502
000270 9a f1 b1 bd d2 43 31 3e 09 99 d9 3c f6 3e fa 3d
       -0.0868866 0.17311028 0.02656223 0.1221904
000280 4b 10 99 be 20 d2 b4 bd 1b 23 fe bd 07 cd 0e bd
       -0.29895243 -0.08829141 -0.124090396 -0.034863498
000290 60 f2 9b bd 88 2a 1a 3e cc eb c5 3d 1f db 38 3c
       -0.07614589 0.15055287 0.09664115 0.011282711
0002a0 61 41 a3 3c 21 13 04 3e 02 6d 72 3e a3 39 81 bc
       0.019928636 0.12897922 0.23674396 -0.015774554
0002b0 ad 0e 1c bc e7 85 e8 bd 90 20 17 bd 1a 22 ff 3d
       -0.009524983 -0.11353665 -0.03689629 0.12457676
0002c0 cd 98 de bd 5e 2f d2 3d 94 b7 e6 bd 9c 39 6f bd
       -0.10868988 0.10262941 -0.112654835 -0.05840455
0002d0 db 90 f3 bd 2f 5c 0f be 4e 70 83 be 32 a4 02 bc
       -0.11892863 -0.14000009 -0.2567162 -0.0079737175
0002e0 ce f8 25 3e 04 f2 e7 bd e6 ee 22 3e 2d 5d 66 bd
       0.16208193 -0.11325458 0.15911445 -0.056241203
0002f0 be 32 1a 3d 68 48 81 3c 4b a8 49 bc f4 a0 5e be
       0.037646048 0.015781596 -0.012308191 -0.21741086
000300 f9 48 0f 3d 5e 17 59 3e fd f1 9e bd d6 06 73 bc
       0.0349817 0.2120032 -0.07760999 -0.014833173
000310 a6 96 52 3d bd 90 f3 bd a8 b8 6f 3e ad 60 58 3e
       0.0514132 -0.11892841 0.23410285 0.21130629
000320 f0 e8 65 3d e2 fe 61 bc 05 e0 93 3d ee 0d c6 bd
       0.05613035 -0.013793679 0.07220463 -0.096706256
000330 04 94 16 3c d4 9e fd bc 13 a3 f8 bd 78 3f 2f be
       0.009190563 -0.030959524 -0.12140479 -0.17114055
000340 e7 8c b7 bc 99 da 98 3d 68 25 d2 3d d9 5a 4e bd
       -0.022406055 0.07463569 0.10261041 -0.050379608
000350 45 cb 0e 3e 13 e5 bd bd e3 44 4d bd 08 57 e7 3c
       0.13944729 -0.09272208 -0.050114524 0.028239742
000360 c4 18 83 be e5 34 20 3e 09 0b d7 3c b9 56 e9 bc
       -0.25604832 0.15645178 0.02625038 -0.028483735
000370 22 ea e9 bc 1b 30 31 be 81 5b de bc bf d7 05 be
       -0.028554026 -0.17303507 -0.027143242 -0.13070582
000380 f3 bb ba 3d 8f a6 4b 3e 51 bf 51 ba c5 79 f4 3c
       0.0911788 0.19887756 -0.00080012257 0.02984322
000390 15 88 d1 3d b3 ae cd 3d 76 8c 83 be ae 6d 30 be
       0.10231034 0.10043087 -0.256931 -0.1722934
0003a0 18 d3 89 bc dc d9 fa bd 91 05 39 3d e1 b6 58 bd
       -0.01682429 -0.12248585 0.045171324 -0.052908782
0003b0 4b 25 be bd 62 21 29 3c 93 7f f7 bd ac 3f 08 3d
       -0.09284457 0.0103229005 -0.1208488 0.033263847
0003c0 14 ee 21 3d 50 0b 81 bd cf 5a ce be c9 9d b0 bb
       0.03953369 -0.06300986 -0.40303656 -0.005389903
0003d0 38 fb 97 3c 20 33 64 3e 9a f8 17 be 41 b9 58 bd
       0.018552408 0.22285128 -0.14840928 -0.052911047
0003e0 a9 f9 64 bb e4 14 1b be 54 4b a8 3c 92 91 20 3e
       -0.0034938848 -0.15144688 0.020543732 0.1568053
0003f0 07 49 9a 3e 49 63 6f bd de 06 c4 3d e8 ec 4c 3d
       0.3013384 -0.058444295 0.09571622 0.05003062

actor.0.bias f4 [64]
000000 d8 ea 57 3c fb 9e 5f bc d4 87 91 bb 60 5c 06 3c
       0.01317855 -0.013648744 -0.004441241 0.008200735
000010 f7 b3 db 3a 8b 27 5a 3b 95 f7 9b 3c 97 5d 92 bb
       0.0016762008 0.003328773 0.019038955 -0.004466723
000020 3b b1 18 bc f0 99 b6 3a 9b 36 e3 bb 27 9c 2e bc
       -0.009319599 0.0013931375 -0.0069339997 -0.010657347
000030 7b 51 6d 3b 04 89 e9 b9 fc e6 1d 3b fd 53 58 bc
       0.0036211896 -0.00044543308 0.0024093976 -0.013203618
000040 1c 57 f5 bb b7 43 e3 ba a2 53 a2 ba 16 d3 b6 3a
       -0.007487191 -0.0017338906 -0.0012384544 0.0013948407
000050 9d 01 93 3c 8e b8 ee 3b 4d 1b d1 bb 79 3e a8 ba
       0.017945105 0.007285184 -0.0063814283 -0.0012836001
000060 cf 0f b5 3b eb 12 bf 3a 80 6f b5 3b 99 86 89 bc
       0.005525566 0.0014577782 0.0055369735 -0.016787814
000070 e8 ab 38 b9 27 2e 9d 3b b5 3e b9 3a 5d cd 63 bb
       -0.00017611647 0.0047967616 0.0014133068 -0.0034759857
000080 4f 19 a9 bb 83 ec 14 bb 75 21 d1 bb cf 13 10 bc
       -0.0051604877 -0.002272398 -0.006382162 -0.008793785
000090 b7 b7 de 3b be f8 94 bc 2d e7 54 3a 00 48 3e 3c
       0.006796803 -0.018185016 0.0008121606 0.011613846
0000a0 69 be f3 bb 1e 79 97 3b 63 2b 0a 3c 3a a2 53 3b
       -0.00743847 0.0046225926 0.008433196 0.003229274
0000b0 dd 73 81 3b d6 c2 49 3a 3c 6f 40 3c 0f 81 31 3c
       0.0039505796 0.00076965743 0.01174527 0.010833993
0000c0 62 3b 3a bc f0 46 39 bc a3 81 42 bc 6b b9 43 bb
       -0.011366697 -0.011308417 -0.011871728 -0.0029865156
0000d0 06 17 2d 3b 80 3e 91 39 da 3c 51 3b 61 e4 58 3b
       0.0026411428 0.0002770312 0.003192714 0.0033095109
0000e0 11 25 68 3c 71 a8 0c bc 2b 87 f5 3b 5e ba 4f bb
       0.014168994 -0.008585081 0.00749292 -0.0031696777
0000f0 a4 7e 58 bc 12 65 b2 3b 42 f4 2a bc 1e 15 da ba
       -0.013213787 0.0054441774 -0.010434212 -0.0016638373

actor.2.weight f4 [18, 64]
000000 b7 8f fd bd 9c e8 f2 3c cf 2b fb 3c 97 b2 22 be
       -0.12380927 0.029651932 0.030660538 -0.15888439
000010 37 16 72 3d ba 91 82 3c 71 32 92 3c 72 1e 67 3d
       0.059103217 0.015938628 0.017846318 0.05642552
000020 de 82 99 bd 7f 2b 1b 3e 54 23 ae 3c 1d 5c c4 3d
       -0.07495664 0.15153311 0.02125708 0.09587882
000030 38 3d 50 be e5 69 3b 3d be c5 aa bd 18 8a cd bd
       -0.20335853 0.045755286 -0.083384976 -0.10036105
000040 61 25 5a be a4 d4 88 be ae 70 5c be 98 17 a1 bd
       -0.21303321 -0.26724732 -0.21527359 -0.07865828
000050 9c 5d 51 3e a8 f8 e5 bc 35 80 42 3d 3b b0 25 bc
       0.20445865 -0.02807267 0.04748555 -0.010112817
000060 80 fb 19 3d db e4 e7 3c be 01 f8 3d 00 ad ff 3c
       0.037593365 0.028307369 0.12109707 0.031210423
000070 3d a6 7d bd 77 48 9b 3c 10 77 0f 3d 37 a3 67 bd
       -0.061926115 0.018955452 0.035025656 -0.05655214
000080 70 b1 37 3e 0f e9 0c 3e 00 1c f2 bd 9a df 0a be
       0.17938781 0.1376078 -0.11821747 -0.1356186
000090 17 1b 03 be 6a 7d 33 3e bc 87 0f bd 25 5e 89 3e
       -0.12803303 0.1752831 -0.035041556 0.2682964
0000a0 aa b6 12 be ae 46 11 3e 21 f6 2e bd 9c 3d cc bd
       -0.14327493 0.14187118 -0.042715196 -0.099726886
0000b0 b9 03 18 be 02 9a 27 bd e1 38 2a bd 87 a9 1b be
       -0.1484517 -0.040918358 -0.04155815 -0.15201388
0000c0 0d 0a de bd 23 0a 81 be dd ed 9d bd fc ea bd 3c
       -0.10841761 -0.25203046 -0.077113844 0.023183338
0000d0 e3 c7 71 be 8c 2f 48 be 45 a8 44 3e 56 5d 83 bd
       -0.23611407 -0.19549388 0.19204815 -0.06414287
0000e0 63 f6 df bc 63 b0 10 be 11 85 5c 3e dc 9b 4b 3b
       -0.027339166 -0.14129786 0.21535136 0.0031068241
0000f0 4c e0 31 be 91 99 ff 3c ad 30 02 bd af d8 98 3b
       -0.17370719 0.031201156 -0.031784702 0.0046645026
000100 24 31 a9 39 d8 e0 78 3d 43 12 b7 bd b4 e8 d3 bd
       0.00032270805 0.060761303 -0.0893903 -0.10347119
000110 55 03 1e bb 08 22 7c 3d f7 38 64 3d b8 a3 5e be
       -0.0024110873 0.061555892 0.05571839 -0.21742141
000120 52 68 39 bd cc 3f 01 bd a8 4d a5 be 2b 44 74 be
       -0.045265503 -0.031554982 -0.3228581 -0.23854129
000130 9d ef 47 be d0 d2 d3 3d 2c 47 92 3d 4c 34 89 3d
       -0.19524999 0.10342944 0.07142481 0.06699428
000140 dc dc 84 3d e7 af d0 bc 19 20 43 bc 5f 09 46 3b
       0.06487438 -0.025474502 -0.011909508 0.0030217988
000150 09 df 9c bd 85 b9 fe bd 86 4f 68 3c 22 20 59 3e
       -0.07659728 -0.12437729 0.014179116 0.21203664
000160 76 93 18 3e e7 b1 54 bd e9 3c 0e 3e 19 86 1c 3e
       0.14900002 -0.051927473 0.13890423 0.15285529
000170 49 35 c2 bc ef 2a 6e be 63 77 0d 3e be 80 09 3e
       -0.023707049 -0.23258565 0.13815074 0.13428017
000180 e0 29 56 be fa 63 37 3e fe 56 8f 3d 10 c5 c2 3d
       -0.20914412 0.17909232 0.06999014 0.09510243
000190 9b 1c 02 be aa 7a b6 3d 20 d0 43 3d 06 68 3c bd
       -0.12706225 0.08910115 0.047805905 -0.045997642
0001a0 25 f3 56 3d 4f d0 05 3e 60 d6 77 3d 88 c4 c7 bb
       0.052477974 0.13067745 0.06050718 -0.0060964264
0001b0 13 14 d1 bd f1 14 92 be e7 56 40 be a4 07 0d 3d
       -0.10208907 -0.28531602 -0.1878315 0.034431115
0001c0 5b 25 1c 3e 24 4d fc 3d 98 7b bc 3c cb 22 47 bd
       0.15248625 0.12319401 0.023008153 -0.048617166
0001d0 35 09 ae 3d 32 84 1e 3d 90 31 17 3e 98 84 8b 3d
       0.0849785 0.03870029 0.14765 0.068123996
0001e0 3d cd 61 bd 49 65 4c 3d 18 07 89 be 7a 09 88 bd
       -0.05512737 0.04990128 -0.26763225 -0.066424325
0001f0 fd b2 5c bd cd eb 69 3e 6e dd c8 bb b0 71 3b be
       -0.053881634 0.22843857 -0.006129912 -0.18305087
000200 54 aa 1b 3e 97 82 a1 3d 03 8f 37 bd 9e 49 2f 3c
       0.15201694 0.07886236 -0.04481412 0.010698704
000210 5e ab a5 3e c9 36 ef bd dd f5 1c be 22 cc 8b bd
       0.32357305 -0.11680371 -0.15328164 -0.068260446
000220 e2 23 3c be b3 90 57 bd f0 2c 04 be 85 c6 57 3d
       -0.18373063 -0.05262823 -0.12907767 0.052679557
000230 26 8b 10 3e 47 bc 95 3d 7f 29 47 bd 76 18 34 3e
       0.14115581 0.07311302 -0.048623558 0.17587456
000240 b2 ce 14 be 46 a8 5f 3e d9 fb 2b bd 16 10 73 3e
       -0.14531973 0.21841535 -0.041988228 0.23736605
000250 fc 44 c0 bc dc fa 20 3e 5a 4c 6b bd b1 41 ba bd
       -0.023470394 0.15720695 -0.05744586 -0.09094561
000260 1f b5 3f bd 1e 71 5d 3e 97 8e 71 3d 25 f6 1b be
       -0.04680359 0.21625182 0.058973875 -0.15230615
000270 54 4e 79 bd 39 26 20 bd 0d 2a 34 3d 22 b4 1f 3e
       -0.060865715 -0.039098952 0.043985415 0.15596059
000280 3e af cc 3c fe 36 2f bd d7 f0 6a bd c7 38 2b 3d
       0.024985906 -0.042777054 -0.05735859 0.041802194
000290 d4 aa b8 bd 4a 94 20 be a3 cc 4c 3e 9e 15 2f be
       -0.09016958 -0.15681568 0.19999938 -0.1709809
0002a0 63 35 15 3e 63 19 c6 bb cb 90 b6 3d b6 6f 1d be
       0.14571147 -0.006045507 0.08914336 -0.15374646
0002b0 07 07 84 bc 05 85 11 bd d5 0f 70 bd ea 95 9d 3e
       -0.016116632 -0.035527248 -0.05860885 0.30778438
0002c0 c5 92 9f 3b 41 a3 50 be 11 71 a3 bd a2 af 7f bd
       0.004869791 -0.20374776 -0.0798055 -0.062423356
0002d0 d3 84 a9 3d 50 00 f7 3d f1 c5 69 3e 8e 57 ee 3d
       0.08277287 0.120606065 0.22829415 0.116377935
0002e0 57 a2 43 3e 97 a5 7b be 06 98 2f 3e c8 40 6b bd
       0.19104896 -0.24574886 0.17147836 -0.057434827
0002f0 b5 71 62 be 1d 9c e5 3b e4 fe 01 3d 71 37 73 3d
       -0.22113688 0.0070071355 0.031737223 0.059379045
000300 6b 56 60 bb 2a 4e b4 bd 04 2f bf bd 5e dc df 3d
       -0.0034231197 -0.08803971 -0.093351394 0.109307036
000310 2b 51 e5 bd 01 fd f8 bc 6c a4 a6 3d a3 a2 71 bd
       -0.11197122 -0.03039408 0.0813683 -0.058992993
000320 ff 06 be bd 02 41 b5 3d af 3e 42 be 1c b7 95 bd
       -0.09278678 0.0885029 -0.18969224 -0.07310316
000330 88 4c 2b 3e 08 23 1e be 7a d6 b9 bd 81 1d 13 be
       0.16728413 -0.15443051 -0.09074111 -0.14366724
000340 b0 fb 8a bd 82 30 40 bd bf 1e e0 bd fe d0 01 b8
       -0.06786287 -0.04692126 -0.10943364 -3.0950636e-05
000350 e2 6b dd bc 3c f4 68 be 65 53 46 3d da ca 2b bd
       -0.027028982 -0.22749418 0.048419375 -0.0419415
000360 08 df b7 bd de d6 90 bd 10 21 55 3e 87 a8 56 3e
       -0.08978087 -0.07072233 0.20813394 0.20962726
000370 71 f3 0b be ff 5d 56 3e 34 30 44 be f4 6d da bd
       -0.13667084 0.20934294 -0.19159013 -0.10665503
000380 1e d4 64 3d 48 67 9e bd ad d8 87 3d a7 2d 9b bd
       0.055866353 -0.07734543 0.066331245 -0.07577067
000390 49 3b 91 3e 86 b0 c3 bd 65 2e aa bc dc a2 49 3d
       0.28365543 -0.095551535 -0.020774076 0.04922758
0003a0 d6 0c 64 3d f3 3a 9e bd 86 cf b1 3d 1d 20 c7 bd
       0.055676304 -0.077260874 0.0868216 -0.09722922
0003b0 31 75 83 3d 2c 06 92 bd ac 75 97 3b d0 e5 35 3e
       0.06418837 -0.071300834 0.004622182 0.17763448
0003c0 0c 64 78 bc 78 1b 18 be 48 88 83 be 60 cb f0 bd
       -0.015160572 -0.14854228 -0.25689912 -0.11757541
0003d0 82 48 aa 3c 0a 97 3c be 74 15 bd bd 30 6d 48 bd
       0.020786528 -0.18416992 -0.092326075 -0.048932254
0003e0 f6 b7 18 3e fc c4 8f 3d c4 62 6c 3e 31 a7 29 be
       0.14913926 0.07019994 0.23084551 -0.16567685
0003f0 c1 75 0f be 43 9d fb bd 1c 3f 4e be 3e ec c8 bd
       -0.14009763 -0.12285855 -0.20141262 -0.098106846

actor.2.bias f4 [18]
000000 d2 00 f4 bb 75 4b 7e 3c a4 74 c4 3c 33 ff e0 bb
       -0.007446387 0.01552092 0.0239814 -0.0068663596
000010 f0 09 39 3c af ab de 3c bf 8c 76 3c f7 33 d7 bc
       0.011293873 0.027181474 0.015048205 -0.026269896
000020 3b 49 4b bc 61 e1 d1 bb ca f7 b4 bc 75 69 aa 3c
       -0.012407596 -0.006405041 -0.022090811 0.020802239
000030 d1 8f d8 3c 65 b3 7d bc 1a 9d 12 bd 96 43 79 3d
       0.026435765 -0.0154846655 -0.035794355 0.06085547
000040 a4 91 78 bc c0 a4 aa bc
       -0.015171442 -0.020830512

critic.0.weight f4 [64, 64]
000000 04 11 89 bd c0 85 f4 bd 49 47 65 be 86 ca 85 3d
       -0.066926986 -0.11939573 -0.22390474 0.06532769
000010 a0 e7 45 3e bb 59 9d bd 9f f6 d1 3d a0 a5 b9 bd
       0.19326639 -0.0768313 0.10252117 -0.090647936
000020 28 e1 06 be 24 db da bd 8a 90 73 be 7f 42 41 bd
       -0.13171828 -0.10686329 -0.23785606 -0.047182556
000030 a8 ec 8a bd de 4f 8d bd 34 c4 b1 bd b7 3b ad bd
       -0.0678342 -0.06899999 -0.08680001 -0.08458655
000040 31 26 61 3d de db 24 3e e9 cf 0d be 75 17 5a 3d
       0.054968063 0.16099498 -0.13848843 0.053245027
000050 e2 d7 5b 3d 71 91 81 3d 56 b8 fc 3d e4 3a 01 be
       0.05367268 0.06326569 0.12339847 -0.12620121
000060 df 58 25 be 28 c9 21 be 39 54 2e be 42 c2 69 3d
       -0.16147183 -0.15799391 -0.17024316 0.057070024
000070 62 51 5b be f7 1a 01 bd df a8 e4 bd 31 a1 51 bd
       -0.21417764 -0.031519856 -0.11165022 -0.051179115
000080 4d ae 24 3d e2 17 29 3e 12 1f 28 3e 47 d7 83 be
       0.04020529 0.16513017 0.16418102 -0.2575018
000090 e0 97 5e 3c f1 c6 52 3d 59 e7 05 be fa e4 3b bc
       0.0135860145 0.051459257 -0.13076533 -0.0114681665
0000a0 be 73 7e bd ca d9 16 be 6e 98 e5 bc bc 78 bb bb
       -0.0621221 -0.14731517 -0.028026786 -0.00572118
0000b0 06 fe f1 39 27 2d 23 be cd 18 bb bc 92 f7 c4 3d
       0.00046156364 -0.15935193 -0.022838974 0.09617533
0000c0 b9 bb 86 be ae 84 9a 3e 15 92 b6 3c d4 15 a9 bd
       -0.26315096 0.30179352 0.022286454 -0.082561165
0000d0 c3 93 0b 3e 17 6f a7 3d 66 0b 68 3d 26 e8 1c 3d
       0.13630585 0.081754856 0.056651495 0.03830733
0000e0 3f 72 8e bb af f2 9b be 7e 20 51 be 50 57 26 3d
       -0.0043471153 -0.3045859 -0.20422551 0.04061061
0000f0 fd 00 bc 3d cc c2 05 be e8 47 0f be f9 98 ac bd
       0.09179876 -0.1306259 -0.13992274 -0.08427615
000100 42 5c 3e 3d 92 45 19 be f8 27 b8 bd 50 4d 31 3e
       0.046474703 -0.14967945 -0.089919984 0.17314649
000110 c7 19 89 be ee ee 92 bd c6 c6 54 3e a0 4b 1a bd
       -0.2677748 -0.071744785 0.20778951 -0.037669778
000120 2d 08 0d 3d bd f9 cf bd 8e 61 23 bd 01 4c d9 3c
       0.034431625 -0.10155056 -0.039887957 0.0265255
000130 5c 9b 95 be 58 ce 20 be 07 e7 79 bd 1d 1f 87 3d
       -0.29220092 -0.15703714 -0.06101134 0.06597731
000140 cc 12 e2 bd 7b d0 3b 3d 4d 07 d1 3d 7d f9 0e be
       -0.110387415 0.04585312 0.10206471 -0.1396236
000150 44 01 90 be 56 f3 74 bd c5 6a 0c be aa 81 3f 3d
       -0.28125966 -0.059802376 -0.13712604 0.046754517
000160 c6 32 24 bd 0c ce 51 bc c7 ad ab 3d 3b 42 fa bd
       -0.040087484 -0.012805473 0.08382755 -0.12219664
000170 e5 5e ff 3d 2b 5b 12 be 10 2a 39 3c 28 c0 02 be
       0.124692716 -0.1429259 0.011301532 -0.12768614
000180 5d e5 46 bd 98 4a 79 be cf 9a dc bd 57 65 ab 3c
       -0.04855858 -0.24344862 -0.10771715 0.020922346
000190 ce 3d e9 3d 19 4f b1 be f5 e0 2f be 56 2d 62 be
       0.113887414 -0.3463066 -0.17175658 -0.22087607
0001a0 c1 59 b8 3d 3d c3 c9 3d fa 2e 91 3d 2d bb cc bd
       0.09001494 0.09851692 0.07089038 -0.099966384
0001b0 4a 7b 8f bc 76 1b 70 bd fc f0 d5 bd e8 fd 2a 3e
       -0.017514843 -0.05861994 -0.10446355 0.1669842
0001c0 a8 11 a9 bc b1 11 ed 3c 4d c2 54 be b8 1e 05 3d
       -0.020638302 0.0289391 -0.20777245 0.0325
0001d0 7b d3 dc 3c e6 9e 0a 3e 02 5a 4c 3e e1 fd a8 3d
       0.02695631 0.13537177 0.1995621 0.082515486
0001e0 fd b7 68 be 76 26 42 bd fb 3d 11 bd 31 1e 21 be
       -0.22726436 -0.04739996 -0.0354595 -0.15734173
0001f0 b6 15 68 bd cd f9 b3 3c 18 5a 68 3d d6 3c 8b 3d
       -0.05666133 0.0219697 0.056726545 0.06798713
000200 97 8c d0 3d 42 30 a2 3c af 70 47 3e 6f c7 9d 3c
       0.101830654 0.019798402 0.19476579 0.019260136
000210 0c 7e 24 3c f9 9d 2e be 1b f7 06 3e 32 c7 c2 3d
       0.010039818 -0.1705245 0.13180201 0.0951065
000220 2b 07 18 3e 0a ae e1 3d f5 d3 28 be 2d 09 ee bd
       0.14846484 0.110195234 -0.16487105 -0.11622844
000230 8d b3 d4 3d ec 88 d4 bd a3 ad 9d 3e 1b b9 5d bd
       0.10385809 -0.10377678 0.30796537 -0.05413161
000240 e4 40 3c 3e 28 1b 70 3e fb 42 f5 3d af 8f 5d 3c
       0.18384129 0.2344786 0.11975666 0.013523026
000250 3b b0 ea 3d 9c 3e 0f 3e 26 83 58 be f4 60 c7 3c
       0.114593945 0.13988727 -0.21143779 0.024338223
000260 47 af fb bd 34 4f a1 3d a2 46 14 bc ab 6e 75 3e
       -0.12289291 0.07876435 -0.009050043 0.23967998
000270 a4 28 81 3e 66 4f 7a 3e bf 21 ed 3a d6 b2 9d bd
       0.2522632 0.2444435 0.0018091722 -0.07700126
000280 81 f3 7d 3e a4 3a 38 3d e3 45 8b bd 93 d9 f9 bc
       0.2479992 0.0449778 -0.06800439 -0.030499255
000290 b9 5b 1e 3e ca b8 17 bc bd 17 a5 bb e7 d6 35 3e
       0.15464677 -0.009260366 -0.00503823 0.1775776
0002a0 e2 c2 4e bd 60 73 de bd c3 7a e4 bd 60 01 37 bd
       -0.050478823 -0.1086185 -0.111562274 -0.044679046
0002b0 90 02 e5 bb b5 d0 5e 3e a7 e1 d6 3d 8e 3b af 3b
       -0.006988831 0.21759303 0.104922585 0.0053476756
0002c0 f4 9d 2e 3e ae 0a bb bc 2d f9 34 bd 45 6e 2c be
       0.17052442 -0.02283224 -0.044182945 -0.1683894
0002d0 6f 76 fc bc b9 43 40 3e 4c a0 0f 3e 11 a9 f4 3c
       -0.030818192 0.18775834 0.14025992 0.029865773
0002e0 66 07 e9 3d 70 9d 89 3d b5 9a 1a 3d d8 3e 6d 3a
       0.11378364 0.06719482 0.037745196 0.0009050197
0002f0 29 91 c0 3d 21 a7 c0 bd e4 0e 50 3e 53 0a b4 3d
       0.09402687 -0.09406877 0.2031818 0.08791032
000300 ea e2 da 3d e2 ad 30 bc b4 6d 77 be 9b 8c 24 be
       0.10687812 -0.010783644 -0.24162942 -0.16069262
000310 cb a3 01 be 52 48 a9 bd 7f e1 1c 3d c7 46 b9 bd
       -0.12660138 -0.08265747 0.038300987 -0.09046703
000320 bd 28 8e bd c0 ee 90 be 2c 7f 7c 3d ec 9a 06 be
       -0.06941364 -0.28307152 0.061644718 -0.13145036
000330 b6 9e 0e 3e 54 93 80 bd 53 46 f0 3d d7 c9 cc 3d
       0.13927731 -0.062781006 0.11732163 0.099994354
000340 ab 80 8f be 23 1d ca 3d 6a c3 f2 3d 79 15 7d 3b
       -0.28027853 0.09868839 0.118536785 0.0038617535
000350 82 7b 15 bc 18 75 3c be 8b 80 a0 3e 6f 38 10 3e
       -0.009123685 -0.18404043 0.3134807 0.14084028
000360 a7 c1 7d be a1 29 a8 3d ab ba b5 bd 1d c0 ce bd
       -0.24780904 0.08211065 -0.08873495 -0.100952365
000370 bf a5 e6 3d 5d 89 15 3e 7a 17 5f 3d ea 7a 29 be
       0.11262082 0.14603181 0.05446575 -0.16550794
000380 25 46 94 bd c8 32 96 bd 36 f2 ea 3d f2 d9 96 3d
       -0.072399415 -0.073339045 0.11471979 0.073657885
000390 27 0f df bd 81 3c 36 bd 04 2b 8b bd a6 11 7e be
       -0.10891562 -0.044491295 -0.06795314 -0.2481142
0003a0 80 b2 88 bd 10 57 bc 3d 39 11 70 be 10 cd c4 bd
       -0.06674671 0.09196293 -0.2344407 -0.09609425
0003b0 d4 9b 55 be 4f 34 c7 3b d1 b8 ff bd 0b 96 de bc
       -0.20860225 0.0060792337 -0.12486423 -0.027171155
0003c0 c3 fc d4 bd fd 4e 9c 3d a5 48 e1 3c 0a 7a 3f bd
       -0.10399773 0.07632253 0.02750046 -0.046747245
0003d0 e7 80 db bd 38 70 0d be 99 58 46 bd 9d e1 26 3c
       -0.107179455 -0.1381234 -0.048424337 0.010185626
0003e0 4c 83 85 bb 98 89 07 bd d9 07 64 be b8 49 0e 3e
       -0.0040744897 -0.033090204 -0.22268619 0.13895309
0003f0 dc 6a 21 3d d0 c8 33 be 61 8c 4b 3d 81 c5 6d be
       0.03940855 -0.17557073 0.049694423 -0.23219873

critic.0.bias f4 [64]
000000 f6 73 12 bd 64 2d d8 bc ae 96 9a 3c df 0d c3 bc
       -0.03575512 -0.026388831 0.018870678 -0.023810325
000010 ab a0 dd bc 84 e9 a5 bc e3 f8 ac bc 3f f3 dc 3c
       -0.027054152 -0.02025295 -0.021114772 0.026971458
000020 a5 ac d6 3c d0 dc ec 3c 97 b7 97 bc f7 9f b2 3c
       0.02620537 0.028913885 -0.01852016 0.021804793
000030 fa 1d bf bc e0 c2 54 bc 88 07 b3 bc 0e d8 0e bd
       -0.023329724 -0.012985915 -0.021854177 -0.034874015
000040 60 46 b1 bc f9 85 bb bc 73 e4 b9 bc a1 d3 65 bc
       -0.021640003 -0.022891032 -0.02269194 -0.014027507
000050 18 69 97 bc 7c cc b7 3c 8d a6 c9 3c e0 be a3 3c
       -0.01848273 0.022436373 0.02461555 0.019988477
000060 83 c7 a6 3c 08 3f 9a bc 72 8b c0 bc ab 5f 14 bd
       0.020358806 -0.018828884 -0.023503993 -0.03622405
000070 96 f8 c3 3c d7 a6 bc 3c e4 fe 74 bc f5 dd ae 3c
       0.023922246 0.023028774 -0.014953349 0.021346072
000080 31 7a da bc 27 be ca 3c 35 4a c2 3c 21 be b2 bc
       -0.026669594 0.024748875 0.023717025 -0.021819176
000090 03 4b c5 3c b5 56 27 3d 09 36 d2 3c f7 92 98 bc
       0.02408362 0.040854175 0.025660532 -0.018624766
0000a0 76 8e b8 bc 15 77 a6 3c c4 7e d7 3c f8 5d f2 bc
       -0.022528868 0.020320455 0.026305564 -0.029585823
0000b0 99 c6 b4 3c 7f 13 9d 3c 26 a7 bc 3c c5 3a d1 3c
       0.022067355 0.019174336 0.023028921 0.025540719
0000c0 ed 97 ea bc b0 e3 b7 bc 2f eb fa 3c 8b c8 03 3d
       -0.028636897 -0.022447437 0.030629722 0.032173675
0000d0 66 f5 90 3c 2f 1b 08 3d 68 ff bf bc da ab ad bc
       0.01769514 0.03322905 -0.023437217 -0.02120011
0000e0 8e 4d a1 3c e0 32 d5 bc 03 8b c2 bc 7c 02 ee bc
       0.019690301 -0.026025236 -0.023747927 -0.029053919
0000f0 d7 e5 08 3d 32 d5 ff bc 47 04 e8 3c bd dc aa 3c
       0.033422317 -0.03122959 0.028322352 0.02085721

critic.2.weight f4 [1, 64]
000000 41 c4 4f 3f 09 8d 4f 3f 62 c0 70 bf e9 8f 70 3f
       0.81158835 0.8107458 -0.9404355 0.9396959
000010 ef 43 81 3f 2c 65 6a 3f 1e 71 74 3f d3 61 4f bf
       1.0098857 0.91560626 0.95485103 -0.8100864
000020 ef 15 77 bf b7 b6 60 bf b8 f4 84 3f c4 a4 5a bf
       -0.96517843 -0.877788 1.0387182 -0.8540766
000030 ce 68 4e 3f 4f 5e 47 bf 70 72 59 3f a2 25 5c 3f
       0.8062867 -0.7787828 0.8494024 0.85994923
000040 5b d7 77 3f 86 68 74 3f aa 93 5d 3f d2 83 48 bf
       0.9681298 0.9547199 0.8655344 -0.7832614
000050 5d d5 57 3f 9c ec 80 bf f6 dc 80 bf 41 e2 89 bf
       0.8430994 -1.0072207 -1.0067432 -1.0772172
000060 29 18 7a bf bc 4c 7c 3f 10 1f 75 3f 85 5f 54 3f
       -0.97693115 0.9855459 0.9575052 0.8295825
000070 f5 2f 6c bf 8d 07 85 bf 60 ea 49 bf 8c f2 80 bf
       -0.92260677 -1.0392929 -0.7887325 -1.007402
000080 b6 4f 4d 3f 6d 9e 60 bf aa d2 69 bf 8a ef 5b 3f
       0.80199754 -0.8774174 -0.9133707 0.8591238
000090 a8 d3 50 bf ed a4 5b bf 1b 77 54 bf d9 ec 5c 3f
       -0.8157296 -0.8579853 -0.8299424 0.862989
0000a0 b2 ff 66 3f ea b2 5a bf 99 d4 4e bf 7e 68 65 3f
       0.9023391 -0.8542925 -0.8079315 0.8961257
0000b0 72 ae 61 bf 4f d8 8a bf 85 71 88 bf b5 9a 4f bf
       -0.8815681 -1.0847262 -1.0659643 -0.8109544
0000c0 0e 7f 53 3f 3b 0f 65 3f 8a 93 51 bf 79 f0 68 bf
       0.82615745 0.89476365 -0.8186575 -0.9099193
0000d0 ea c9 5f bf 38 5e 52 bf 33 4a 5f 3f cb 04 4e 3f
       -0.8741747 -0.82175016 0.87222594 0.80476063
0000e0 85 fc 4f bf 5d 70 4e 3f 6b ab 58 3f 05 53 60 3f
       -0.8124469 0.806402 0.84636563 0.8762668
0000f0 7d cb 49 bf e3 e4 41 3f 4e 03 53 bf 4f c6 65 bf
       -0.78826123 0.7573988 -0.8242692 -0.8975572
