storage/MiniGrid-NavigationMulti-8x8-N2-v0_22-07-21-10-59-41/status.pt (torch, 244989 bytes, 39 tensors)

image_conv.0.weight f4 [16, 3, 2, 2]
000000 2e 94 bb 3c 0b 55 0c 3c c8 db 6b be 58 e3 3b bd
       0.022897806 0.008565198 -0.23033059 -0.04587111
000010 35 23 a8 be be ec 17 3d 76 ea b9 bd aa a7 20 3e
       -0.3283936 0.03709101 -0.09077923 0.15688959
000020 74 48 8b 3d da 93 c8 bd f0 bf e2 3c 10 84 04 bd
       0.06800929 -0.097938254 0.027679414 -0.032352507
000030 f5 28 8b bd ff 5c 4e be 54 74 4e bd c4 b2 89 3e
       -0.06794921 -0.20152663 -0.050403908 0.268942
000040 d9 5f 4e be 00 b1 98 bd 95 34 81 bd 0e d1 23 be
       -0.2015375 -0.07455635 -0.06308857 -0.15997717
000050 d0 7d e2 bc a4 cc 82 be 63 fd 7e be 34 00 85 be
       -0.027647883 -0.25546753 -0.24901347 -0.25976717
000060 17 86 a0 be f6 17 c2 be 0f b8 87 be b4 4c 9b be
       -0.31352302 -0.37908906 -0.26507613 -0.30331957
000070 a6 72 d0 be 36 f6 e3 3c b0 d6 05 3e 48 a0 0e 3e
       -0.4071247 0.027827363 0.13070178 0.1392833
000080 5a 3f 1f 3e 5c 54 c8 3d 10 3a 02 3e 5e 79 23 be
       0.1555151 0.09781715 0.12717462 -0.15964267
000090 49 d2 a3 3d 25 f3 76 be f3 52 9f 3e 0a cc 99 3b
       0.07999093 -0.2411619 0.31117973 0.004693513
0000a0 24 54 88 bd 07 00 93 3c 0d 77 13 be e0 92 54 bd
       -0.066566736 0.017944349 -0.14400883 -0.051897883
0000b0 78 ea 31 3d a0 02 49 bc d0 f1 38 3d 72 f5 15 3e
       0.043436497 -0.012268692 0.045152485 0.14644411
0000c0 55 7a ce be e4 96 f7 bd 17 d6 ef be 58 e4 e3 3d
       -0.40327707 -0.12089327 -0.46843025 0.111275375
0000d0 6f 8c 6a be fd 0d cb bc 9a f8 4a be 62 c0 f9 bc
       -0.22905134 -0.024786944 -0.19821396 -0.030487243
0000e0 00 32 7e 3a 90 d7 ed bc 5e 5d 58 3e b6 ff 86 3e
       0.00096967816 -0.029033452 0.21129367 0.26366967
0000f0 67 c8 ab be a3 57 be be fc 81 9d bd 1c 14 c4 bd
       -0.33551332 -0.37176237 -0.07690808 -0.09574148
000100 4f 04 5a bd 39 fe 3b 3e 57 5b 99 3d 04 09 e3 bd
       -0.053226765 0.18358697 0.07488125 -0.11085704
000110 d3 6e 4a be c0 55 65 3e 4e a8 8d 3e 1f 46 0c be
       -0.19768839 0.22395992 0.2766747 -0.13698624
000120 3f 8c 1c be 77 53 5a 3e 44 a3 eb bd fb 83 80 be
       -0.15287875 0.21320902 -0.1150575 -0.25100693
000130 56 09 b8 be b4 ce b3 bd 15 4d 61 bd 71 bd 5b be
       -0.35944623 -0.0877966 -0.05500515 -0.21458985
000140 b1 f8 3b be 94 07 d0 bd 28 65 0c 3e 70 e6 85 3c
       -0.18356587 -0.101576954 0.13710463 0.016345233
000150 b0 d1 e6 3e f3 24 96 be ec eb 93 be f9 65 05 3e
       0.45081854 -0.29325065 -0.28890932 0.1302718
000160 0a 20 02 be 9d e2 b4 be df 38 95 be c5 53 d7 37
       -0.12707534 -0.35329142 -0.29144952 2.5669005e-05
000170 7a 60 1d 3e 2a 17 c6 bd 8a fb fa bd 38 50 b5 3d
       0.15368834 -0.09672387 -0.122550085 0.08853191
000180 c3 2c 6d be 6a ac ad bc c3 9f 87 be 61 4a 7a be
       -0.23161606 -0.021200377 -0.26489076 -0.24442436
000190 07 a6 33 be 9d 67 50 3d 15 be 01 3e db b4 e0 3b
       -0.17543803 0.050880063 0.12670167 0.006857497
0001a0 74 8f 2f be 64 89 1a 3e c8 78 e6 3d a4 33 fc 3d
       -0.17144567 0.15091473 0.11253506 0.12314537
0001b0 0c e8 ab be a6 7b 37 be 42 40 34 be fb 41 47 3e
       -0.33575475 -0.17918262 -0.17602637 0.19458763
0001c0 1a fb 90 3c 5b dc 39 be 28 91 b5 bd d4 63 36 be
       0.01769786 -0.18150465 -0.08865577 -0.17811519
0001d0 40 75 ed bb 1c 22 0b be 4a 42 af bd ce 48 47 3e
       -0.0072466433 -0.1358723 -0.085575655 0.19461367
0001e0 d9 e6 f8 3d fb dd d6 bd 95 ab bb be e5 12 8f be
       0.12153406 -0.10491558 -0.36654344 -0.27944103
0001f0 18 52 08 be 5c 3e 81 be 22 d2 b5 be 55 bd 0b bc
       -0.13312566 -0.2524289 -0.3551188 -0.008529027
000200 7e 35 83 be 00 0e e4 ba 08 5d 11 bd 00 57 35 3b
       -0.2562675 -0.0017399192 -0.035489112 0.0027670264
000210 9b 7d 94 be 13 aa 1b be 52 92 bf be 5b e5 c0 be
       -0.2900208 -0.15201597 -0.3741632 -0.37674984
000220 9c 74 08 be 40 fd 19 3e 73 39 a4 be 71 30 71 be
       -0.13325733 0.15038013 -0.3207508 -0.23553635
000230 1c e3 1f be bc de 8d 3e 5a 05 85 3e fa d1 8f be
       -0.15613979 0.27708995 0.25980645 -0.28089887
000240 04 52 40 be af e2 97 bd ef e8 e2 3e 61 08 6d be
       -0.18781286 -0.07416283 0.4431834 -0.23147728
000250 56 82 e1 bd 4e d9 5f bc 8c d6 6e be 6a 79 a8 bd
       -0.11011188 -0.013662649 -0.2332403 -0.08226283
000260 6e e7 0e be 90 3f 94 bc ea 8c 82 bd 8e 17 6f be
       -0.13955471 -0.018096715 -0.063745335 -0.23348829
000270 ac 5b 19 3d f3 a3 9f 3e aa d8 71 3e 62 08 86 be
       0.03744094 0.3117977 0.23617807 -0.2617827
000280 65 0a 4f be 0e 5a f9 bd d7 61 bf bd 2e de 18 be
       -0.20218809 -0.1217538 -0.09344833 -0.14928505
000290 63 26 86 be 8a 36 37 3e 79 65 5c be a0 d3 04 bc
       -0.26201162 0.17891899 -0.21523084 -0.008107096
0002a0 37 89 9a be f6 00 d2 3c 61 8b d3 bd 6e 75 9a 3d
       -0.30182812 0.025635224 -0.10329319 0.07541929
0002b0 81 cf 9b bd 1a a6 a5 be c2 ee 42 3e 1b 9b bc be
       -0.076079376 -0.32353288 0.19036391 -0.36837086
0002c0 48 e6 0d 3e ac db 4d be 6a 81 1f 3e fc 93 93 3d
       0.13857377 -0.2010333 0.15576711 0.0720596
0002d0 56 3b 97 bd b2 95 a3 be 0d ed 24 bd b4 50 38 3e
       -0.07384364 -0.31950146 -0.04026513 0.17999536
0002e0 92 1b bd bc cb e9 79 be 5f a2 1f be f6 c7 fa bd
       -0.023084436 -0.24405591 -0.15589283 -0.12245171
0002f0 5a 84 89 3e 5c 56 86 3e f0 6c 09 3e 90 8a 08 3d
       0.2685879 0.26237762 0.13420463 0.03333527

image_conv.0.bias f4 [16]
000000 74 40 85 be f2 5e d1 be 78 09 3d 3e e5 58 82 be
       -0.26025736 -0.4089275 0.18460643 -0.25458446
000010 a9 b9 97 bd 8a bd da bb c9 17 5a be 18 e7 95 be
       -0.07408459 -0.006675427 -0.21298136 -0.29277873
000020 f8 c9 c4 be b5 56 63 bb 93 4e 33 3d c5 61 da bb
       -0.3843534 -0.0034689133 0.043776106 -0.006664487
000030 ef 12 53 bd 2c 80 99 be 75 dd 83 3e ae 3c f4 be
       -0.05153173 -0.299806 0.25754896 -0.47702545

image_conv.3.weight f4 [32, 16, 2, 2]
000000 bd c4 72 be 2b 0c 5c 3d 2d 62 98 bc b6 90 27 be
       -0.23707862 0.05372254 -0.018601501 -0.16363797
000010 95 e6 4e be 96 77 22 3e 35 4a b0 bd f9 e3 a6 bc
       -0.20205148 0.15865931 -0.08607904 -0.020372378
000020 c6 6e d2 3d a2 19 ce bc cd 60 58 be f5 65 b5 bd
       0.102750346 -0.025158707 -0.21130677 -0.088573374
000030 c4 52 cf bc b6 f0 a6 bb 9f ef d8 bd c6 2a 85 bd
       -0.02530802 -0.005094613 -0.10592579 -0.06502299
000040 2c a4 15 be 9b 18 85 bd 4f 92 33 bd ab 03 21 3d
       -0.14613408 -0.06498834 -0.043840703 0.03931014
000050 c3 2e 82 bb 03 18 08 3e ef 75 67 bd 44 fc 4a be
       -0.0039728596 0.1329041 -0.056508955 -0.19822794
000060 10 df 7c bd 92 18 38 3d d7 85 e4 bd 5b b9 9c bc
       -0.061736166 0.044945307 -0.111583404 -0.019131353
000070 98 43 b6 bd 2e 01 27 bd f7 d6 d6 bc 40 90 03 3e
       -0.08899611 -0.04077261 -0.02622555 0.12847996
000080 ba bc 27 be 3e 65 72 3d de 00 a5 3c a0 6e 3a 3c
       -0.16380587 0.059178583 0.020142015 0.011378914
000090 28 ff cb bd 1e 35 c2 3d d6 f7 00 bd 83 60 45 be
       -0.099607766 0.094827875 -0.031486355 -0.19275098
0000a0 16 71 18 be 8a 00 a3 3c 68 df 11 be d6 eb c9 3b
       -0.14886889 0.019897718 -0.14245379 0.006162147
0000b0 da 1d 87 3b 31 04 f6 bc 1b cc 14 be fe 02 45 3d
       0.0041234316 -0.030031295 -0.14530985 0.048098557
0000c0 7c 16 01 be 72 d5 79 3e b4 69 93 bd 73 57 2b bd
       -0.12606233 0.24397829 -0.07197896 -0.041831445
0000d0 0a 48 e0 bd a2 82 7a bd 52 55 68 ba 03 dc 2f bd
       -0.1095124 -0.061159737 -0.00088628114 -0.04293443
0000e0 86 29 96 be bf ca 0e bd 75 0e 9e bd 2b 10 9b 3c
       -0.29328555 -0.034861322 -0.07717601 0.018928608
0000f0 c3 78 2e be ca 20 09 3d cf 18 6e 3d 1b c0 9b 3c
       -0.17038254 0.033478536 0.058129128 0.019012501
000100 91 fb 44 be a8 e8 2e be b5 a2 b1 bc 8b 9d 54 bd
       -0.1923659 -0.17080939 -0.02168403 -0.051908057
000110 ae 6e 52 bc 6d 24 86 bd 11 5e a1 bd a8 7d fc 3d
       -0.012843771 -0.065499164 -0.0787927 0.123286545
000120 d9 cc 94 bd 46 32 b2 bd f9 55 8d bc 06 d2 08 be
       -0.07265634 -0.08700995 -0.017252909 -0.13361368
000130 21 62 d7 bd d0 af 8a bd 55 21 27 bd 67 63 e1 bd
       -0.105167635 -0.06771815 -0.040803272 -0.110052876
000140 89 39 61 bd 06 fd f4 3c d5 45 48 3c 3a 5b f0 bd
       -0.05498651 0.029905807 0.0122236805 -0.1173615
000150 87 1c 3f be 05 f4 8c bd df 72 3c bc 1e 48 2d 3d
       -0.18663226 -0.068824805 -0.011501997 0.042305104
000160 47 31 35 3d 91 91 80 bc 76 b7 36 3e b6 c1 ab be
       0.044236448 -0.015694411 0.17843422 -0.33546227
000170 a3 07 39 bd 2c 45 e6 bd 80 5e 13 3d bb 8c a1 bd
       -0.0451733 -0.11243662 0.035978794 -0.0788817
000180 bb d8 a2 3d 3f 9f e7 bb ee 8e bc 3c 07 d5 02 3d
       0.07951494 -0.007068544 0.023017373 0.03194144
000190 56 1e 32 be b9 df c1 bc 00 66 a3 3c 2e c8 89 bc
       -0.17394385 -0.02366625 0.019946098 -0.016819086
0001a0 ec dd 89 bc d6 2b 9e 3d ea a6 0f 3e 86 07 a5 bd
       -0.016829453 0.07723205 0.14028516 -0.080580756
0001b0 c5 9d 5c bd dd 9e f7 bd e2 44 21 3c 30 9d f9 bc
       -0.0538614 -0.12090848 0.009843083 -0.03047046
0001c0 50 e3 f6 bc 54 d2 df bd ec b9 14 be 75 8b 5f be
       -0.030137688 -0.10928789 -0.14524049 -0.21830542
0001d0 b9 7c cb bd 0c ad 57 be b5 0e c1 bd 9d 17 80 be
       -0.09935898 -0.21062106 -0.09426633 -0.25018016
0001e0 fe 33 e0 bd 9c bc f0 bd b8 0f f5 bc ea 44 67 3e
       -0.10947417 -0.117547244 -0.029914722 0.22584882
0001f0 71 79 0a bd 9f 9d 2a be 6f d5 2d be 88 f1 ff 3d
       -0.03380722 -0.1666169 -0.1697595 0.1249724
000200 38 18 69 3b 65 70 48 be 27 a0 40 be 06 f6 78 bd
       0.0035567414 -0.19574125 -0.18811093 -0.0607815
000210 65 f2 eb bd de 64 fb bc 22 4c 0e be 20 dc 87 bc
       -0.115208425 -0.030687746 -0.1389623 -0.016584456
000220 1f 2d 90 bc f8 d7 fd 3c e2 76 1e bd 8c 2b a4 bd
       -0.01759964 0.030986771 -0.038687594 -0.080161184
000230 bc 24 cb bc 08 1f 7a be 8d 8c 07 be e0 3f 6a be
       -0.02479779 -0.244259 -0.1323721 -0.22875929
000240 1d 8c 04 bd f9 03 80 3d 34 3f 0d be a1 47 4b 3d
       -0.032360185 0.06250758 -0.13793641 0.049628858
000250 c3 b6 75 bd 22 6f 12 3d 7e 4d b1 bd 97 dc b4 bd
       -0.05998875 0.035750516 -0.086573586 -0.08831137
000260 01 15 1f 3d 2e 6a 09 bd 16 91 2d be 49 71 1e bc
       0.03883839 -0.033548526 -0.16949877 -0.009670564
000270 cb 32 5d bc 0c b0 10 be c9 82 cb bb 4b a2 66 3d
       -0.0135008795 -0.14129657 -0.006210659 0.05630712
000280 5b 05 82 bd b2 dc f0 bb e3 17 06 be 6e 13 ad 3b
       -0.06348678 -0.0073505277 -0.1309505 0.005281857
000290 56 6d e8 3c 2f 6f 4d 3d 64 41 78 bb db d8 e4 bd
       0.028372448 0.05015486 -0.0037880773 -0.111741744
0002a0 d4 bc 83 3d 13 57 a2 3d 61 61 30 bc 8d f9 94 bd
       0.064325005 0.07926764 -0.010765404 -0.072741605
0002b0 39 b3 44 3d 33 9c 9e bd e3 15 ed bd c6 9b 6e bd
       0.048022483 -0.077446364 -0.1157644 -0.058254026
0002c0 ea 2b 5e 3d c4 60 ba 3b c3 f8 ce bb 0a 83 7b bd
       0.0542411 0.005687805 -0.006316276 -0.061404265
0002d0 de 84 a1 bd c2 2e 69 be 34 a6 76 be cd bc a9 be
       -0.078866705 -0.22771743 -0.24086839 -0.33151856
0002e0 8c 69 b0 bc d2 0f 55 bd ea aa 52 3d 34 d1 30 bd
       -0.021534704 -0.05201704 0.051432528 -0.04316826
0002f0 c2 7b a5 3c 2c 16 cc bd f7 d4 0c 3d a9 e0 06 3d
       0.020200614 -0.099651664 0.034382787 0.032929096
000300 02 09 ac bd 3e b6 98 bd bb 35 27 3c e5 aa 22 bd
       -0.084001556 -0.07456635 0.010205681 -0.03971376
000310 50 8f fe 3b 4e 95 0e be ac 18 c1 bd 77 13 27 bc
       0.007768549 -0.13924143 -0.09428534 -0.010197512
000320 49 8e 2d bd 96 ce 72 3d 7a 1e a3 bb e4 ab 51 bd
       -0.04237202 0.059279047 -0.0049779983 -0.05118932
000330 2e ca 9c bd cc e0 87 bd c7 f9 57 bd 8d a9 b0 ba
       -0.0765575 -0.066346735 -0.05272844 -0.0013478264
000340 48 b3 19 3e 54 ee ce bd e1 33 11 3e 24 40 1f bc
       0.15009797 -0.10104051 0.14179946 -0.009719882
000350 2b 69 5a 3d 47 9b 4f 3e e5 6f b8 bd bf 8c 4c bd
       0.053322952 0.20274077 -0.09005717 -0.049938913
000360 4f df cc 3d 09 ca 84 bd 46 45 5c bc 7f b9 5b be
       0.1000353 -0.06483848 -0.01344425 -0.2145748
000370 a0 ba f1 bb c0 80 a5 bd 10 73 a5 bc 72 e7 7d bd
       -0.0073769838 -0.08081198 -0.020196468 -0.0619883
000380 36 2b 03 3d ef 16 83 bd 00 fe a5 3c 6b 96 91 bd
       0.03202363 -0.064008586 0.020262718 -0.07108768
000390 ab 29 7e bd 06 be 4e 3d 40 02 e5 3c ed e4 90 3c
       -0.062051456 0.05047419 0.027955174 0.017687285
0003a0 98 b7 1a 3e 4f 96 c5 3a 1d 5a fe 3d 6d 73 ee bc
       0.15109098 0.0015074703 0.124195315 -0.029107774
0003b0 d5 c8 94 3d f9 34 47 bd ad b4 61 bd e1 6e a8 3d
       0.07264868 -0.048634503 -0.055103946 0.082242735
0003c0 9f de c0 bd 99 f3 0e bd 54 5b 13 be 4d 32 de bd
       -0.094174616 -0.03490028 -0.14390308 -0.10849438
0003d0 8e f9 0e be 09 b0 1a be 54 11 f3 bd f1 8b 2d be
       -0.13962385 -0.15106215 -0.118685395 -0.16947915
0003e0 be ff 3f bc cb a4 f0 bd 5d 62 ea 3c 0d 9e 7c 3c
       -0.0117186885 -0.11750182 0.028611356 0.015418542
0003f0 a7 3d eb bd 42 72 4c 3d ce 38 cb bd 56 f1 b3 3c
       -0.114863686 0.049913652 -0.09922944 0.021965664

image_conv.3.bias f4 [32]
000000 c3 8d 39 bd 19 9d 8b bb f3 09 2a bd ee 73 21 be
       -0.04530121 -0.004260671 -0.041513395 -0.1576688
000010 9d e5 f3 3c 29 22 1a be 7e 06 8c 3d 1f 08 28 3d
       0.029772574 -0.15052094 0.06837176 0.04102337
000020 c6 9e 91 bd 62 9f 34 be b5 42 1e 3e 44 b2 d7 bc
       -0.07110362 -0.17638925 0.15455134 -0.02633012
000030 5c 9f 7b be 1a 8a e8 b9 f6 1c 49 bd 88 0d d6 bc
       -0.2457251 -0.00044353382 -0.049099885 -0.0261295
000040 95 66 16 3d d2 26 6a bd 71 54 2b bc a5 e5 dd bd
       0.036718924 -0.05716593 -0.010457144 -0.10834817
000050 af 98 23 bc 88 c0 af 3c cc 2f 3a be 04 79 96 bd
       -0.009985133 0.02145411 -0.18182296 -0.07347301
000060 cf 79 4d 3b f2 bd 50 bc 76 3c a3 bc 95 6e c1 bd
       0.003135312 -0.012740599 -0.019926291 -0.0944492
000070 06 0f 32 3d e2 8d 04 3d 66 cf b9 bd 83 19 44 3d
       0.04347136 0.032361872 -0.09072761 0.047875892

image_conv.5.weight f4 [64, 32, 2, 2]
000000 65 60 16 3b 55 e5 58 3c 4c a4 98 bc fa e3 eb 3c
       0.002294564 0.013238271 -0.01863303 0.028795231
000010 bf a2 c8 bd 57 a1 31 3d dc b2 cc bd d6 4e 22 bd
       -0.09796666 0.043366756 -0.09995052 -0.039625965
000020 e7 c9 12 3d 0d 53 6b 3d 29 cb dd 3c 44 c1 2e 3d
       0.03583708 0.05745225 0.027074413 0.04266478
000030 2a 8e 63 bd 3b fb 38 3d 0a b2 87 bd a5 e4 89 3d
       -0.0555555 0.045161467 -0.06625755 0.067330636
000040 58 42 34 be 7a ae 2d be 6a 11 31 be b2 36 9a be
       -0.17603433 -0.16961089 -0.17291799 -0.30119854
000050 7c 0b 11 bc f0 9e f5 bc 13 93 70 3d d7 c8 aa 3d
       -0.008852836 -0.029983014 0.05873401 0.083390884
000060 98 f3 8b 3b cd 22 db bd 7a 3c b9 bd 22 b9 5f bd
       0.004270982 -0.10699997 -0.09044738 -0.054619916
000070 9d ca 29 be 0d e3 e2 bd 61 f2 06 be ce f9 e8 bd
       -0.16581197 -0.11078463 -0.13178398 -0.113757715
000080 c8 2b a9 3b 12 cf b5 bd f3 78 85 be 6f 1a 6d bd
       0.00516269 -0.08877386 -0.2606884 -0.057886537
000090 56 22 5f 3d ee 74 90 3d 36 11 de bd a1 12 05 bd
       0.054476105 0.070535526 -0.108431265 -0.03248847
0000a0 a3 2e 2f be fb 58 00 be e2 dd 7c bd 3f 6b 18 be
       -0.17107634 -0.12533943 -0.06173504 -0.14884661
0000b0 52 fd b3 bd da c9 62 bd c4 18 43 3e 08 25 b7 bd
       -0.087885514 -0.055368282 0.19052416 -0.0894261
0000c0 47 a7 18 be a0 75 6a bd e0 89 0b bd e3 4d fd 3d
       -0.14907561 -0.057241082 -0.034067035 0.12368371
0000d0 8d b4 90 bd c1 bb 3f bc 7f 0e d1 bd 7b 23 82 bb
       -0.07065687 -0.011702479 -0.10207843 -0.0039715148
0000e0 1c 5b 86 bc 0b 3f a8 bd 8f ee 1c be 84 8d a3 bc
       -0.016400866 -0.082151495 -0.15325378 -0.01996494
0000f0 ba bb 76 bd d5 37 8b 3c 78 c2 4a 3d 02 0d de ba
       -0.060237624 0.016994396 0.049501866 -0.0016941132
000100 39 e1 d2 3c 06 52 8d bc a2 de a6 bd 21 20 2e 3d
       0.02574216 -0.017251026 -0.081479326 0.04251111
000110 a9 42 0d be 1b 32 d3 3c c4 e5 23 bd a4 f2 e4 bd
       -0.1379496 0.025780728 -0.040014043 -0.111790925
000120 fd d9 99 3c 8c 31 07 3d 05 7d 9e 3d 48 e7 40 bd
       0.018780703 0.033006236 0.07738689 -0.047095567
000130 7f c1 e1 bd 59 4a 0c be 41 00 24 be 3b 35 ff 3c
       -0.110232346 -0.13700236 -0.16015722 0.031153312
000140 9c 28 b0 bc 84 b2 f9 bd 71 11 e7 bd 48 ab 43 bd
       -0.021503739 -0.12192252 -0.112826236 -0.04777077
000150 4d 00 19 be fb 2c 97 3c 11 82 2b 3c 7a 91 27 bd
       -0.14941521 0.018454066 0.010468022 -0.04091022
000160 85 8b c4 bc 6f c2 d8 3c 1b 6f 0e be dc 91 e6 bc
       -0.02399231 0.0264599 -0.13909571 -0.028145723
000170 82 f9 40 3d b5 3d 83 bd fe ad a3 bc 20 6b ab bd
       0.04711295 -0.06408254 -0.019980427 -0.08370042
000180 84 e4 c4 bd ad f2 42 bd 63 10 0e 3c 28 42 14 bd
       -0.096138984 -0.047594715 0.008670899 -0.036195904
000190 b5 d5 c5 3d 10 75 25 3d 71 03 e2 3d bf 9a c5 bd
       0.09659902 0.040394843 0.11035813 -0.09648656
0001a0 cc 88 68 bd 68 21 0a be 8f a8 0d bc b1 bd 95 bd
       -0.056771085 -0.13489306 -0.0086461445 -0.073115714
0001b0 25 e6 63 bd b8 25 8b 3c 29 02 63 3d 7f 54 4f be
       -0.055639405 0.01698576 0.055421982 -0.20247076
0001c0 77 50 61 bd 65 6a c9 bd 21 9f 7c 3d ba 15 4a bd
       -0.055008378 -0.09834746 0.061675195 -0.049337126
0001d0 01 a4 17 bd 6c ef 27 be 99 a1 25 3d f3 5c 05 be
       -0.03702164 -0.16399926 0.040437315 -0.13023739
0001e0 11 4e 89 bd 7b 93 62 3a 51 c3 93 bd b3 67 4d 3d
       -0.06704343 0.0008643192 -0.07214988 0.050147723
0001f0 c3 25 06 be 1e 93 1a be b8 b8 19 bd 57 62 23 3d
       -0.13100342 -0.15095183 -0.037529677 0.039888706
000200 5b 62 ce ba c8 79 7e bd 86 37 8a 3d 10 53 fe 3b
       -0.0015745865 -0.06212786 0.067488715 0.0077613667
000210 54 e9 50 bc f9 f6 79 3d df 7c 76 3d a2 9b 36 3c
       -0.012750942 0.061026547 0.06017768 0.011145504
000220 e5 15 a9 bd b1 eb 22 be 9a 84 1d be 01 55 18 bd
       -0.08256129 -0.15910222 -0.15382615 -0.03719044
000230 ed 8b 14 3d 47 da ec 3c ea 1b b3 bd b0 a6 93 bd
       0.036266256 0.028912676 -0.087455586 -0.072095275
000240 f4 c5 64 3e ac a0 76 3e 2f 2c cd 3b f6 12 a1 3d
       0.22341138 0.24084729 0.0062613706 0.07864945
000250 e7 22 fc 3d de 99 02 bd b8 17 c4 bd 47 2b d7 bd
       0.123113446 -0.03188502 -0.095748365 -0.105063014
000260 d5 9f 82 bd 3b 31 e7 bb 47 89 20 3c ae 08 59 bd
       -0.06378142 -0.0070554293 0.0097983545 -0.052986793
000270 e5 62 a5 bd 90 df a7 3d 92 1c 16 be 0b 9d ef bd
       -0.08075503 0.08196938 -0.14659336 -0.116998754
000280 61 a6 9f 3d a0 02 20 be cc 3a 6a bd b0 54 d8 bd
       0.07795406 -0.15626001 -0.05718498 -0.10563028
000290 51 b4 37 bd f8 be 10 be ca 18 19 bd c5 bf b5 bc
       -0.044849698 -0.14135349 -0.037377156 -0.02218617
0002a0 21 b7 0f bb 30 b1 50 be 0c 37 75 bd a9 46 8c be
       -0.0021929222 -0.20380092 -0.05986695 -0.2739766
0002b0 12 1b 35 be 6d 03 c1 bd ed 52 d1 bc 95 a6 24 be
       -0.17686108 -0.094244815 -0.025552237 -0.16079171
0002c0 72 06 94 bd 48 13 ca bd ca 14 3d be e3 92 bf 3c
       -0.07227792 -0.09866959 -0.18464962 0.02338547
0002d0 78 80 62 3c ca 7b 26 be 2c f8 89 3d ef 56 d1 bd
       0.013824575 -0.1625816 0.06736788 -0.102216594
0002e0 88 7a 1a bd b0 14 46 bc bf da cd bc 7d 5e 15 3c
       -0.03771451 -0.012089893 -0.02512872 0.009116766
0002f0 ea 8b 83 bd f6 c1 84 3c 19 20 a1 3c a1 4d 51 bc
       -0.06423171 0.016205769 0.019668626 -0.012774856
000300 77 38 b6 bd 7b 22 1b 3d 4e 7f 89 3d e5 eb 8e 3d
       -0.088974886 0.03787468 0.067137346 0.06978587
000310 97 92 ae bc c8 ec d7 3d 28 09 e6 3c 8b c1 1d bd
       -0.021310134 0.10543209 0.028080538 -0.038514655
000320 71 0c e3 3d fd ba 34 bd 29 ff 16 bd b4 3a 25 3d
       0.110863574 -0.04412364 -0.036864433 0.040339187
000330 8d 39 9e 3c be b0 20 be 09 01 87 bd eb 88 55 be
       0.019314552 -0.15692422 -0.06591994 -0.20853011
000340 bb 56 0c bd a2 f0 ae bd f3 f8 30 be 6b ef 0b be
       -0.0342624 -0.08541991 -0.17282467 -0.1366555
000350 38 22 1c bd de f5 e7 ba c1 38 d8 bd df 72 5d 3d
       -0.03811857 -0.0017697175 -0.105577 0.054064628
000360 65 6b 4b bc 59 95 4d 3c a9 54 99 bb bf fc ce bd
       -0.012415742 0.012547814 -0.0046792817 -0.10106801
000370 c8 d1 16 3d 16 37 c9 bd 4b 6b 98 bd 13 02 41 bd
       0.036821157 -0.0982496 -0.074423395 -0.04712112
000380 cc 66 42 bd 7c 7c d8 3c a4 ed 9b bd c4 d2 16 3d
       -0.047461316 0.026426546 -0.07613686 0.036822096
000390 7c 79 0e 3c 48 56 d6 bd 66 8f 1f bd 5f 8b 8e bd
       0.008695956 -0.104656756 -0.038955115 -0.06960177
0003a0 cc 12 75 bd a5 e2 a9 bd c1 f2 8a 3d 1e 2c 12 bd
       -0.05983238 -0.08295182 0.06784583 -0.035686605
0003b0 26 48 06 bd 20 36 c7 bd be 0c c8 bd 6e 32 d9 bc
       -0.03278365 -0.097271204 -0.097680554 -0.026513305
0003c0 32 11 83 3d 15 2f 9a bd a7 5c 8d 3b 9c 9b 7c bb
       0.06399764 -0.075285114 0.0043140235 -0.00385449
0003d0 96 b7 63 ba bc c5 1b be 59 ed a5 bc 06 46 f3 3c
       -0.0008686719 -0.15212148 -0.020254778 0.029696476
0003e0 89 2f e1 3c a5 29 01 bd e0 45 83 bd a0 1b de 3d
       0.027488487 -0.031533856 -0.06409812 0.10845113
0003f0 08 29 5f 3d 9f 2c 14 be ff d4 19 be 08 ce b3 bd
       0.05448249 -0.14470147 -0.15022658 -0.08779532

image_conv.5.bias f4 [64]
000000 d7 51 fe bd 08 a0 79 bd b5 ce 17 be 9f 43 58 bd
       -0.124179535 -0.060943633 -0.14824946 -0.052798864
000010 c6 c6 8b bd ea 68 4a bd 84 d7 40 bd de c7 88 bd
       -0.068250224 -0.04941646 -0.04708053 -0.06678747
000020 d6 4f 4f bd d0 20 67 be 49 57 53 bd 24 a4 db bd
       -0.050613247 -0.2257111 -0.051596913 -0.10724667
000030 eb 8b 2b be c7 d5 aa bd 1a 85 a5 bd c8 14 0f be
       -0.16752593 -0.08341556 -0.08082028 -0.13972771
000040 a8 96 18 be 36 73 fe bc 04 0a 23 be d0 0b 1f be
       -0.14901221 -0.031060796 -0.1592179 -0.1553185
000050 8d 3e a3 bd 24 45 98 3d 9c 8f 6b 3d 22 e5 a4 bd
       -0.07970915 0.074350625 0.057510003 -0.08051516
000060 f0 c2 87 bd fd 12 e5 bd 93 7a 72 3c a5 84 1d be
       -0.06628978 -0.11185262 0.014799732 -0.15382631
000070 25 29 43 bd 0b cb b6 bc 8f 12 8b bd e8 59 14 be
       -0.04764666 -0.022313615 -0.06790649 -0.14487422
000080 f3 db 22 be 6c 59 19 3e a6 19 19 bd d1 b3 87 3d
       -0.15904216 0.14975518 -0.037377976 0.06626094
000090 a5 f1 6c bd e7 52 15 3c 97 f4 d5 bd 67 5d 13 be
       -0.057847638 0.009114004 -0.104470424 -0.14391099
0000a0 74 69 02 3e 77 7e 85 3b be 04 22 be 4d af 90 bd
       0.1273554 0.0040739137 -0.15822122 -0.07064686
0000b0 c0 30 bd bd aa d2 03 be b4 93 4c 3d 88 51 77 3d
       -0.09237814 -0.1287333 0.04994555 0.06038049
0000c0 90 82 39 bd c9 cd d2 bd c0 57 6f bd b5 4d 23 bd
       -0.04529053 -0.10293157 -0.058433294 -0.03986903
0000d0 6e 7d e0 bd 29 cc 96 bd 82 ee 15 be 30 66 cc bd
       -0.10961424 -0.07363159 -0.14641765 -0.09980428
0000e0 ce ab 26 be 40 f2 c2 bd fb 0d fc bd 82 e7 95 bd
       -0.16276476 -0.09518862 -0.12307354 -0.07319547
0000f0 51 2b 9b 3c 19 12 d3 bd 50 7d d2 bd 26 22 41 bd
       0.018941553 -0.10306186 -0.10277808 -0.047151707

actor.0.weight f4 [64, 64]
000000 79 fc 03 3e 47 63 a2 bc 24 61 d9 3c eb e2 8a bd
       0.1288928 -0.01982273 0.026535578 -0.067815624
000010 44 d5 52 bd 76 c2 2b 3c df f9 60 be 46 59 99 bc
       -0.051472917 0.010483375 -0.21970318 -0.018719327
000020 8a 06 3d be f7 b7 cc bd fd 3c 0c 3f 5d cb ab bd
       -0.18459526 -0.09996026 0.5478056 -0.08388398
000030 7e 2f e2 bd cb ff 26 3d 82 b6 34 3d 22 05 de 3d
       -0.11044215 0.040771287 0.044119366 0.10840823
000040 d9 c1 a0 3d 70 ab bb 3e eb f0 17 be 95 e0 d5 bd
       0.078494735 0.36654234 -0.14837997 -0.10443226
000050 05 13 5d 3e 33 03 e3 3d 34 74 66 bd 4f 10 d8 bd
       0.21589287 0.110845946 -0.056263164 -0.105499856
000060 06 7d 2b 3c 24 f2 06 be 87 48 83 3b c6 d2 f6 3d
       0.01046682 -0.13178307 0.0040064487 0.120519206
000070 3c 51 1f bc ce 3a 3e bd b1 f7 47 be e9 99 3a be
       -0.009723958 -0.0464428 -0.1952808 -0.18222775
000080 02 5f 23 3e 2b 0c 51 bd b9 7f 9d be 16 bd 0c 3d
       0.15954211 -0.051036995 -0.30761507 0.034360014
000090 ff 30 a9 3d 8e 47 8c bc 8b a0 69 bd 33 77 40 be
       0.082612984 -0.017123964 -0.05703787 -0.18795471
0000a0 e4 d1 52 be aa 43 ae bd 75 82 21 3d d1 71 4d 3a
       -0.2058788 -0.08509 0.039431054 0.00078370894
0000b0 ba 91 9f ba 02 28 90 3d 02 97 82 bc 95 df 1b 3e
       -0.0012174167 0.07038881 -0.015941147 0.15222009
0000c0 43 72 a0 3d d9 85 6c bc 42 cb 83 bc 4e 88 7b bd
       0.07834294 -0.014436209 -0.016088132 -0.061409287
0000d0 d5 2a 0c bd d9 6e 39 3e 37 53 e9 3d f2 86 f6 3d
       -0.034220535 0.18108691 0.11392825 0.120374575
0000e0 f5 4f 6e 3e 2d f5 ee 3d 10 11 99 bd 25 ef b1 be
       0.23272689 0.11667857 -0.074739575 -0.34752765
0000f0 54 39 95 3e e0 f1 a6 3d 1b 22 2d bd 04 90 01 3f
       0.291453 0.08151603 -0.042268854 0.50610375
000100 b7 76 7b bb c8 a1 89 3e 27 52 d0 3d 89 ea 1b be
       -0.003837032 0.26881242 0.10171919 -0.15226187
000110 b9 8a 05 be 73 8e c9 3d f6 03 af bd 1f b2 3b bd
       -0.130412 0.09841623 -0.08545677 -0.045824166
000120 9f 4b 46 bc 1a 18 0d 3e 04 d8 00 be f0 eb 36 be
       -0.01210299 0.13778725 -0.12582403 -0.1786344
000130 64 41 f0 bd 7e aa 7d 3c 7b c6 b7 3c 74 2c 1e 3c
       -0.11731222 0.015482543 0.02243351 0.009654153
000140 8d d9 c6 bd 6d 25 d3 3e 7e 1e 1d be 97 11 38 3e
       -0.09709463 0.4123949 -0.15343663 0.1797546
000150 4a 34 fb 3d f0 39 51 bc 9b e7 be bd 63 be a8 bd
       0.12265833 -0.012770161 -0.09321519 -0.082394384
000160 33 f4 43 be 40 57 ae 3d ac db 43 3e 6d 60 c7 be
       -0.19136123 0.08512735 0.19126767 -0.38940755
000170 d6 03 e2 bd 7c 18 04 3e fe 24 1e be 9d f4 1a be
       -0.11035888 0.12899965 -0.15443799 -0.15132375
000180 04 39 1f 3e d3 ad bd 3e d9 5f f9 3c 52 bc e9 3d
       0.15549093 0.3704668 0.030441212 0.114128724
000190 4a 99 f7 bc 05 38 cc 3d 90 84 35 3d e3 ab bc bd
       -0.030224461 0.099716224 0.044315875 -0.09212472
0001a0 76 ca 51 bd ca c4 e8 3d dc 5f 34 be 48 5f 1c 3d
       -0.051218472 0.113656595 -0.17614692 0.038176805
0001b0 d9 d0 c9 3d 07 78 84 bd dd ad 66 be 9e 1d a4 3e
       0.09854288 -0.06468206 -0.22527261 0.32053846
0001c0 a8 ed 20 be 38 54 d7 bd 76 44 87 bd f8 59 66 bd
       -0.15715659 -0.1051411 -0.06604855 -0.056238145
0001d0 a0 8e 4e 3e 19 cc 20 be d8 a4 bd 3d 14 59 00 bd
       0.20171595 -0.15702857 0.09259957 -0.03133495
0001e0 8b f1 d0 bd 1d c2 d1 3d 1a 05 7b 3e 84 63 9b 3b
       -0.10202321 0.10242102 0.24513665 0.004742088
0001f0 ba cd 49 be a5 2b ba 3d 6b 00 34 be 81 08 a2 be
       -0.19707385 0.09090356 -0.17578284 -0.31647113
000200 2b 03 87 bc a5 ad 03 be 4f fd c7 bc be 9d 42 3e
       -0.016481003 -0.12859209 -0.02441278 0.19005486
000210 d1 2f a6 3d f9 ec 0d 3e e2 8e c1 3d 6c 03 2f 3d
       0.08114589 0.13859929 0.09451081 0.042727873
000220 76 a6 f1 bc 99 0e 93 3d b3 fc e9 3d 1d 96 3a be
       -0.02949832 0.07180519 0.11425152 -0.18221326
000230 9a 83 14 3d 12 2c fc bd 3d 22 80 be a8 42 82 3d
       0.036258318 -0.12313093 -0.25026122 0.0636037
000240 76 56 45 bd a9 36 14 bc 05 29 81 3c 96 0d 11 3e
       -0.04817816 -0.009046235 0.01576663 0.14165339
000250 40 fc 90 bc 7d e6 b8 be ab 5d ac 3e 15 fc c9 3e
       -0.017698407 -0.3611335 0.33665213 0.39450136
000260 c6 bb 6f bd b0 19 37 3e 7f 53 e7 3d 40 d5 75 3d
       -0.058528684 0.17880893 0.112952225 0.060017824
000270 70 33 62 bd 98 db 21 be 35 2b 99 3d 41 f5 c1 bc
       -0.055224836 -0.15806425 0.07478944 -0.023676516
000280 02 e7 1a be c8 1b e3 be 72 62 70 be 3c a4 e3 bd
       -0.15127185 -0.44357133 -0.23475054 -0.111153096
000290 9e 70 98 3e 46 88 f6 3c 7a 9a af 3c 72 39 dc bd
       0.2977342 0.030094277 0.021435965 -0.10753144
0002a0 14 a4 8a bd 46 78 38 be 21 39 35 3d 1a 76 13 3d
       -0.06769577 -0.1801463 0.044243935 0.036001302
0002b0 33 55 bc bd 18 5b a2 bd 80 17 fb 3c d4 22 0a be
       -0.09195938 -0.07927531 0.030650854 -0.13489848
0002c0 0a bf 13 3e 9d 47 92 3d 4c f0 63 bd fb a1 8e 3d
       0.14428344 0.071425654 -0.055649087 0.06964489
0002d0 67 65 d3 3d 74 43 ae 3d 32 55 f6 3d 72 e3 a8 3e
       0.10322075 0.085089594 0.120279685 0.32986027
0002e0 77 20 0b bc 76 73 4e 3d 71 c6 4f bd 5d 1c 00 3e
       -0.008491627 0.05040308 -0.050726358 0.1251082
0002f0 64 7e 8d 3e b6 56 38 3d 9a 2e 5a be bd 56 5d 3e
       0.2763549 0.04500457 -0.2130684 0.2161512
000300 7b 34 71 be a9 19 14 bd c9 1b 13 3e 1a cf b1 bc
       -0.23555176 -0.036157284 0.14366068 -0.021705199
000310 f3 a4 08 3d f0 9a 01 be 0e 0a a0 3d 8c a4 cd bd
       0.033360433 -0.1265676 0.07814418 -0.100411505
000320 89 5c d2 3d 6c 10 21 3e d9 06 9a 3d f8 40 8a be
       0.10271556 0.1572892 0.07520837 -0.27002692
000330 ef 05 5a 3c d0 90 49 be c7 08 50 3e 78 28 aa bd
       0.013307079 -0.19684148 0.20315848 -0.083085
000340 bc 6b 41 be f5 5c 61 bd 81 8e 77 bd 8d 4b cc 3d
       -0.18888754 -0.05502029 -0.060438637 0.09975348
000350 09 c0 48 3d 72 9f 07 be d7 03 09 bc 78 8d 36 3d
       0.049011264 -0.13244417 -0.008362732 0.04456851
000360 91 1a 27 bd 2e dd 08 3e 76 42 52 3e b1 79 77 bd
       -0.04079682 0.13365623 0.20533165 -0.06041879
000370 d9 6a 1f bd 23 42 a5 3d fc b2 5e 3e fb 30 46 3e
       -0.038920257 0.08069255 0.21747965 0.19354622
000380 d7 16 57 3c df 2d 0a be 03 2f d3 bc 88 09 a8 bd
       0.013128004 -0.13494061 -0.025779253 -0.08204943
000390 45 dd d5 3d 15 d0 0b be 77 e3 44 bd 92 a8 a6 bd
       0.104425944 -0.13653596 -0.04806849 -0.08137621
0003a0 0c 8c 96 bd cf 73 bd bd 3e 3b 3e bd 11 38 31 3e
       -0.073509306 -0.09250604 -0.046443217 0.17306544
0003b0 6c 1a b4 3c 14 0a ee bd 7f af 8b bd 2c 57 ab bd
       0.021985255 -0.11623016 -0.068205826 -0.08366236
0003c0 7f bc d1 3d d3 36 90 bd 5a 02 5b be a0 66 88 3c
       0.10241031 -0.07041707 -0.21387616 0.016650498
0003d0 57 e3 e6 3d a6 99 27 3c 9f a2 eb bd eb dd 9a bd
       0.112738304 0.010229504 -0.11505627 -0.07561859
0003e0 c2 64 8e be 4a de 48 bc 5d e3 5b 3d 25 07 ee 3d
       -0.27811247 -0.012260029 0.053683627 0.116224565
0003f0 87 e0 86 3d 29 7a 0e 3e f3 f7 ad bc 3c f4 77 be
       0.06585794 0.13913788 -0.021236395 -0.24214262

actor.0.bias f4 [64]
000000 0a 40 41 39 eb 6d dc bc b7 36 57 bd 51 c0 f7 3c
       0.0001842977 -0.026907882 -0.052542415 0.03024307
000010 06 12 9a 3d fd 41 31 3d c0 6c 20 3d 80 a3 7b bc
       0.07522969 0.043275822 0.039166212 -0.015358806
000020 1d b7 0c bd f1 7f b4 3c dc 96 f2 bb 3f f2 22 bd
       -0.034354318 0.022033663 -0.0074032377 -0.039781805
000030 68 88 2e 3d d1 16 07 3d 1c 69 cb 3c ca 12 e7 3c
       0.042610556 0.032980744 0.024830393 0.028207202
000040 18 64 fb bc ed 52 2e 3d b1 b7 b5 bc a8 b4 02 bc
       -0.030687377 0.042559553 -0.022182317 -0.007977642
000050 aa 25 cc bc 5e ae b1 bb e5 44 23 3d b0 17 10 bd
       -0.024920303 -0.0054223975 0.039860625 -0.03517884
000060 ef e5 0f bc 3e c3 6b bc e8 e2 60 bc 91 88 14 3d
       -0.008782848 -0.014389811 -0.013725974 0.036263052
000070 d5 2b 0e 3d ce ab 76 bc 14 89 83 bb f8 fd d7 bc
       0.03470977 -0.01505561 -0.0040141437 -0.026366219
000080 3a 44 1d 3d eb 35 bc bc db 06 26 bd 64 03 e8 bc
       0.038395144 -0.022974929 -0.04053388 -0.02832193
000090 24 33 06 bd 35 cd cf bb f6 72 01 3c 2a 21 01 3d
       -0.032763615 -0.0063416013 0.007900944 0.03152577
0000a0 43 85 4a bb 33 14 0f 3d 76 51 6f bc 66 3e a5 bc
       -0.0030902184 0.034931373 -0.014606824 -0.020171355
0000b0 6c 1d 98 3c 84 fe 37 bc 0d 07 2f bb 1a 4c af bb
       0.018568717 -0.011230115 -0.0026707083 -0.005349648
0000c0 8e 56 34 bd c5 7b a7 bb 66 01 9c bc 91 4b 94 bc
       -0.044027857 -0.00511119 -0.019043636 -0.01810244
0000d0 74 c1 ce 3c d0 a8 d5 bc ec d0 ba bc 3f b6 07 bd
       0.02523873 -0.026081473 -0.0228047 -0.033132788
0000e0 b7 9c 48 bd b4 49 15 3d eb b1 6b bc 69 10 2b bc
       -0.04897758 0.036447242 -0.014385681 -0.010440924
0000f0 11 81 7b ba 06 85 20 bb ed cf b2 bc db 48 e5 bc
       -0.00095941225 -0.002449335 -0.021827662 -0.027988842

actor.2.weight f4 [3, 64]
000000 93 6c 27 be 79 d5 46 3e b1 72 df bd ec db f4 bb
       -0.16350012 0.19417371 -0.109105475 -0.007472506
000010 bd 3c ef 3d ef ee 9b 3d db 14 2f be 5f b9 f2 bd
       0.11681507 0.07613932 -0.170978 -0.11851763
000020 11 5a 05 3e 6a e7 d2 bd d6 5c 9a bd 32 61 d8 3d
       0.13022639 -0.10298045 -0.07537238 0.105654135
000030 ec 68 29 bd 43 c7 03 3d c5 7a 55 bd 37 19 09 be
       -0.041359827 0.032172453 -0.052119035 -0.13388525
000040 9e ad 60 3d bb c1 6b bd c0 9f 23 3e 75 62 0e 3e
       0.054853074 -0.057557803 0.15978909 0.13904746
000050 ca b8 8e bd 41 18 ec 3d 80 5e 89 3d d7 46 5c bd
       -0.069688395 0.115280636 0.067074776 -0.053778496
000060 c0 32 be 3d 0b 8b 98 bd 71 d2 96 3c 92 38 3f 3b
       0.092870235 -0.07448395 0.018410893 0.0029178006
000070 d2 b2 5f bd a1 00 1b be 25 16 f1 bd 7f 44 a3 3d
       -0.054613896 -0.15136959 -0.11771802 0.07972049
000080 fc b1 0f be 33 38 ab 3e 8d 43 8e 3d fb 4e 50 be
       -0.1403274 0.33441314 0.06946478 -0.20342629
000090 51 e1 de 3d 3d 55 14 3e ad eb f5 3d 57 ae 83 3d
       0.108828194 0.14485641 0.12007842 0.06429737
0000a0 b5 a5 03 bd ef 72 47 bb 5f f2 6a bd 01 97 9f bb
       -0.032140452 -0.0030433496 -0.05736005 -0.004870296
0000b0 01 ce b0 3d ba 73 48 3e 91 ee d9 bd 27 de 0a 3e
       0.08633042 0.19575396 -0.10641206 0.13561307
0000c0 56 23 b1 3d 0e 52 14 3e 1d e1 3d 3e 87 ab 45 bc
       0.08649318 0.14484426 0.18542905 -0.012064821
0000d0 ff 3d 15 3e 1e 1b 1f bd 3c d1 84 bc 76 7d 27 3d
       0.14574431 -0.03884422 -0.016213052 0.040891133
0000e0 d7 e1 1f bd 0d c4 9c 3a 6d fa 9e 3d 8d 3f ff bc
       -0.039033737 0.0011960283 0.07762609 -0.031158233
0000f0 a0 c1 46 3c 55 3a 9e 3d 59 09 cc bd 5a 36 79 bd
       0.012131125 0.0772597 -0.099627204 -0.06084285
000100 ba f9 05 3e b2 69 46 3b c5 e7 65 3d 4d 31 1a 3b
       0.13083544 0.0030275402 0.056129236 0.002352792
000110 98 cd 49 3d 02 12 6a bb df 92 58 3d 16 45 93 bb
       0.049268335 -0.00357163 0.052874442 -0.0044943197
000120 05 51 da 3d 41 f9 68 bd c3 58 d0 bd 3c d6 5b 3e
       0.106599845 -0.056878332 -0.1017318 0.21468443
000130 fd bb 1a be a1 f2 f7 bd aa c1 4a bd 60 a6 45 be
       -0.15110774 -0.12106825 -0.0495011 -0.19301748
000140 df 02 08 be b2 fe 4a 3d 4c c8 2d 3e ca c4 59 be
       -0.13282345 0.049559303 0.16970938 -0.21266475
000150 b6 4f 8a 3d 81 dd 42 be 73 b9 95 bd ba b9 21 3e
       0.06753485 -0.1902981 -0.07310762 0.15793505
000160 63 38 89 bd 9f 10 eb 3c 86 ab 2c be f4 4f 4a bb
       -0.06700208 0.028694449 -0.16862306 -0.003087041
000170 c3 6a 00 3c 5b d6 43 3d 50 54 cb bd 2a f2 d6 3c
       0.007837954 0.047811847 -0.09928191 0.02623852
000180 95 b6 7c be ff 72 dd bd 44 2f 87 3d 16 e2 ce bc
       -0.24679025 -0.108129494 0.06600812 -0.02525429
000190 f9 e5 30 3e e3 9b 53 bd 36 5a d8 3d bf 7a b2 bd
       0.17275228 -0.051662337 0.10564081 -0.08714818
0001a0 d6 82 03 be 6d 9c bc 3c 10 66 14 3e 42 22 7e be
       -0.12842879 0.023023808 0.14492059 -0.24817756
0001b0 69 12 8f bd 67 72 30 be 5c 34 eb bd 2d 57 ae 3d
       -0.06985933 -0.17231141 -0.11484596 0.08512721
0001c0 c6 c6 55 3e ae 42 fd 3c 32 1d f4 3d 63 2d 57 bd
       0.20876607 0.030915584 0.11919631 -0.05253352
0001d0 a3 24 74 be 41 ce 05 3e 14 b0 80 3c 88 62 29 be
       -0.23842101 0.13066961 0.01570896 -0.16541493
0001e0 0c a2 28 3e b5 96 17 be 5a 8e 00 3e d9 03 17 be
       0.16468066 -0.14803584 0.12554303 -0.14747562
0001f0 4c 59 77 3d 47 8b e4 3d 6c 23 d8 bd 2c 53 84 bd
       0.060387895 0.111593775 -0.10553631 -0.06461176
000200 5f df 86 bd 2c 71 1d be c0 38 80 3d 1d 9c 1a 3c
       -0.065855734 -0.15375203 0.06260824 0.009436634
000210 3c 37 e6 3d 99 01 02 bc 9f 59 a2 3e 74 81 31 be
       0.11241004 -0.007934951 0.31709 -0.17334539
000220 36 4b c2 bd 48 9f f6 3d f9 76 01 bc 89 dd f7 bd
       -0.094870016 0.12042099 -0.0079019 -0.12102801
000230 97 f0 0a 3e c4 99 ed bd e5 bc 41 bd 1a 47 b1 3d
       0.1356834 -0.11601594 -0.047299284 0.0865614
000240 9e b4 10 be a3 b1 85 3d e0 c1 03 3b 08 45 df bb
       -0.141314 0.06528022 0.0020104572 -0.006813649
000250 ed 8c aa bd 3c 47 ee bc 0f 1a 7f bd a9 b2 e3 3c
       -0.08327661 -0.029086702 -0.06228071 0.027795153
000260 47 5f a2 3d 16 b1 14 3d e6 c0 92 bc 02 73 10 bd
       0.07928329 0.036301695 -0.017914247 -0.03526593
000270 95 9e e0 3e 0e b1 47 bd 3e dc 7e 3d 3a 79 28 be
       0.43870988 -0.048752837 0.062221758 -0.16452494
000280 6e 9c fe 3b ae 5a c1 3d a1 7a a9 bd 13 bc 27 be
       0.0077701127 0.09441124 -0.08275343 -0.16380338
000290 96 7c b7 3d 61 44 ab bc 92 af 06 3d 07 d6 0c 3d
       0.0895931 -0.020906629 0.03288228 0.0343838
0002a0 50 4b a0 bd ff 2e 7a 3e 6f b5 0f 3d 4a dd 4e be
       -0.07826865 0.2443199 0.035085138 -0.20201603
0002b0 b0 46 ab 3d 9a 88 df bc 59 4c 91 bd bf a9 9b 3d
       0.08363092 -0.027286816 -0.0709464 0.07600736
0002c0 b4 c2 2b bd 72 4b 70 bc 6d 9b 92 3e 2d f7 13 be
       -0.04193373 -0.014666425 0.28634205 -0.14449759
0002d0 83 e1 27 3e 65 61 03 be f9 8d e5 bd da ca 3b be
       0.1639462 -0.12830122 -0.1120872 -0.183391
0002e0 6c 1e 2e bd ac 7c eb 3d 0b 84 17 3d f8 51 ac bd
       -0.04250948 0.11498389 0.03699116 -0.08414072
0002f0 f7 70 02 bc ed e8 38 bd cf ba 13 be fc ec dd bd
       -0.007961503 -0.04514401 -0.1442673 -0.10836217

actor.2.bias f4 [3]
000000 44 f8 25 bd f4 c1 76 3c 9b 12 23 3d
       -0.040519968 0.0150608905 0.039812665

critic.0.weight f4 [64, 64]
000000 11 b8 1c 3e f8 4d ce bc bf 8c 00 3d 03 9b 05 bb
       0.15304591 -0.025183663 0.031384226 -0.0020386584
000010 f3 1f 33 bd 72 a6 51 be 85 c0 4e 3c 96 63 cd bd
       -0.04373164 -0.2047365 0.012619142 -0.1002876
000020 b3 4a 14 be e4 ba 41 3d ce 1c f7 bd 55 3b 2d 3e
       -0.1448162 0.047297373 -0.12066041 0.16917165
000030 a9 56 3f bd bd 01 83 bd d4 80 a5 3c a0 b5 80 bc
       -0.046713505 -0.06396816 0.020203032 -0.015711606
000040 4e de 7e bd ad 44 65 bd cc f8 9d be 89 48 c8 3d
       -0.062223725 -0.055973697 -0.3085388 0.0977946
000050 15 21 29 3e 55 c8 59 3c 7f 63 b5 be 12 fc d4 bd
       0.16516526 0.013292392 -0.35427472 -0.10399641
000060 cc dc f2 bd 75 d9 e0 bc 96 e9 38 3e 75 32 34 3e
       -0.1185852 -0.027447442 0.18057856 0.17597373
000070 bb f1 c4 3c 29 d1 8e 3d ab a0 86 be 4f 0d da 3c
       0.024041047 0.06973488 -0.26294455 0.026617674
000080 e2 ab 26 3e 1f 54 97 3d 10 aa ed bc f5 33 20 3e
       0.16276506 0.07389092 -0.029011756 0.1564482
000090 c5 00 30 3d c6 e6 82 be 2f 0e 90 3e 07 8b 15 bd
       0.042969484 -0.2556669 0.2813582 -0.03650954
0000a0 e0 b3 6f 3d 82 63 41 3d 68 9e 2c 3d 72 68 21 3e
       0.05852115 0.04721404 0.042143255 0.15762499
0000b0 cc fb 78 3e d4 71 88 be 17 de 1d 3e ab 3b 8e 3d
       0.24314803 -0.26649344 0.15416752 0.069449745
0000c0 91 6b c0 bb 9a 7e 89 bd dc 2f 3c bd d8 0b d1 bd
       -0.005872198 -0.067136005 -0.04594408 -0.10207337
0000d0 ac f5 9b 3d 1b f7 88 be 12 d9 ae 3d 70 4b 93 bd
       0.076152176 -0.26751027 0.085374966 -0.07192123
0000e0 c9 29 8a bd c6 13 2b be a4 82 a1 3d d5 ce ca 3d
       -0.06746251 -0.16706762 0.07886246 0.09902731
0000f0 60 f1 8a bd 0b 5f a0 3d 2d d5 3a bb 51 27 98 3d
       -0.0678432 0.07830628 -0.002850841 0.07429374
000100 ce e4 25 3d 9e a5 2c 3d 4f 84 1b 3e d6 15 37 3d
       0.04050141 0.042150132 0.1518719 0.04469856
000110 b0 22 c3 3c d7 e3 40 3d 9d 05 c2 bd de 37 84 bd
       0.023820251 0.047092285 -0.09473727 -0.06455968
000120 f0 11 74 be 8a b8 77 be 82 f7 44 bd 4a f0 af 3a
       -0.23834968 -0.2419149 -0.048087604 0.0013423052
000130 56 58 d9 bd 45 e2 59 3d 58 28 1a 3d c1 05 5b 3e
       -0.10612552 0.053194303 0.03763613 0.21388914
000140 16 aa 5c 3e 3a ba 02 3d 92 68 bd 3d 8f dd 88 3d
       0.21549258 0.03191588 0.09248461 0.06682884
000150 f2 0e 35 bd 8f 94 ec 3c 25 4b 1e 3d f0 fd 81 bd
       -0.044203706 0.028879432 0.038645882 -0.06347263
000160 96 4a a3 3e 3f 22 95 3a f7 0c 45 3e 73 c1 8d 3e
       0.31892842 0.0011378004 0.19243227 0.27686653
000170 b0 f7 7d 3e cb 20 a3 3e 94 e9 2c be 55 5f b8 3c
       0.24801517 0.31860957 -0.16885978 0.022506395
000180 06 e3 b9 bd 56 0b bd 3c 04 b8 98 3d c3 35 4f bc
       -0.090765044 0.023076694 0.07456973 -0.012647095
000190 e5 d1 ae bc f2 a1 00 3e 3b 96 50 be 16 10 5b 3e
       -0.02134032 0.12561777 -0.20369808 0.21392855
0001a0 a5 03 06 be 43 2f 09 3c 7b ee 81 be b7 ad 38 bc
       -0.13087328 0.0083730845 -0.2537726 -0.011271886
0001b0 99 19 b3 3d 24 9a 28 bd 0b 97 09 be f7 c0 06 3c
       0.08745117 -0.041162625 -0.13436525 0.008224717
0001c0 22 87 81 3e 10 c5 21 bc 1c b4 1e 3c d0 9b b8 3d
       0.2529841 -0.0098736435 0.009686496 0.09014094
0001d0 77 14 be bd 10 f7 be 3d 0d e6 6f bd 89 48 a1 bd
       -0.09281247 0.09324467 -0.058569003 -0.07875163
0001e0 2a 95 f3 3d fa 66 e6 3b b9 0b 03 bd 45 e2 db 3d
       0.11893685 0.0070313187 -0.0319936 0.10736517
0001f0 bb a2 15 3d 6c 5e c1 bd 8c b0 72 be 49 67 1b 3d
       0.036532145 -0.09441838 -0.2370016 0.037940297
000200 c2 8d 82 3d b7 3e 0d 3e 58 70 14 3e b9 b5 ee bd
       0.063746944 0.13793455 0.1449598 -0.116557546
000210 7f 3e 56 3c 41 cb b0 3d 7b c7 ad 3d 5c 03 e3 3d
       0.013076424 0.086325176 0.084853135 0.11084625
000220 39 b4 8a 3d 31 12 0d 3d d2 62 2f 3e 6e 4b 99 bd
       0.06772656 0.034441177 0.1712754 -0.0748509
000230 0e c4 c2 3d 63 9a 4c 3e d5 23 a1 3c 16 60 31 3e
       0.09510051 0.19980769 0.019670406 0.1732181
000240 db 40 11 3d 59 35 49 3e 67 c6 18 3e e9 24 17 3e
       0.03546224 0.19649257 0.14919434 0.14760174
000250 cf f7 2a bc 9d a6 4f be 76 f5 e9 3c 2a da 07 3c
       -0.010435059 -0.20278402 0.028559428 0.00829176
000260 0f d6 8c 3d af 36 fb 3d 00 2c 95 bd fe 64 f1 3d
       0.06876766 0.122662894 -0.07283783 0.11786841
000270 a8 e6 42 bd 98 2d 7a 3e 33 24 13 be 58 dd 57 be
       -0.047583252 0.24431455 -0.14369278 -0.2108053
000280 e9 83 38 3b 03 be 57 be 14 70 5d bd e1 c1 19 3e
       0.0028154796 -0.21068577 -0.054061964 0.15015365
000290 9a 05 bf 3d 2b 63 73 be b8 06 e9 3d d8 fd 20 3e
       0.0932724 -0.23768298 0.113782346 0.15721834
0002a0 4b a7 c7 bd 9e 69 1e 3c d4 f9 ed 3d b9 e4 f2 bc
       -0.097487055 0.009668736 0.116199166 -0.02965008
0002b0 62 d3 95 3d 68 3b 16 be 2b 99 77 3d c2 f5 16 3e
       0.07315709 -0.14671099 0.060448807 0.14742187
0002c0 c1 41 6f 3e c2 da ac 3d 29 55 55 bc 46 d4 9d be
       0.23364927 0.08440162 -0.013020792 -0.30826014
0002d0 f8 5b 18 3e a8 e1 9d be 3a e5 e5 bd 70 6e e4 bc
       0.14878833 -0.30836225 -0.11225362 -0.027884692
0002e0 cb e4 28 be 6f a1 10 be db bd fd 3d b3 9e 82 3d
       -0.16493528 -0.14124082 0.12389728 0.06377926
0002f0 75 be 74 bd 9a 57 21 bd 5c f3 fc 3d d6 18 21 be
       -0.059751946 -0.039390184 0.123511046 -0.1573213
000300 0a ce 84 3c bd 89 d2 bc 2a 62 84 be 5b ae 10 3e
       0.016211528 -0.025700444 -0.25856143 0.14129011
000310 43 0b 8f 3c 7f 90 16 be c2 fe d3 3c 6f 09 57 bd
       0.017461425 -0.14703558 0.025878314 -0.05249923
000320 a2 4a aa 3d 10 78 b8 bd 64 9d 1d bd ca a6 6c 3e
       0.08315016 -0.09007275 -0.038480178 0.231105
000330 ee 98 b8 be 1f f0 e0 bd af 1b f9 bc bf f4 08 be
       -0.36054176 -0.109832995 -0.030408708 -0.13374613
000340 94 39 b6 3d 26 12 40 bd ae 53 10 be f8 c4 b4 bd
       0.08897701 -0.046892308 -0.14094421 -0.08826631
000350 11 63 42 bd 17 bc b8 3d 72 e9 f4 bd ab 6e 58 3d
       -0.04745776 0.0902025 -0.11958589 0.052839916
000360 28 2f 1d 3e 1c 2f 1c 3e 65 1a 60 be dd 7f 22 be
       0.1535002 0.15252346 -0.21885069 -0.15869088
000370 08 1c 1e 3d ee 93 13 be c5 e0 6c bc 29 05 0d 3e
       0.03860095 -0.144119 -0.014457886 0.137715
000380 7b 85 dc bc ea 04 aa 3d 73 69 b8 bd ac e7 98 be
       -0.026919117 0.083017185 -0.09004488 -0.29864252
000390 e5 77 27 3e 6a 61 32 3e 69 2a 05 3b 32 bd cf bd
       0.1635433 0.17419973 0.0020319468 -0.10143508
0003a0 2b 8a 2f 3d a2 a6 d0 bc 89 de 72 be 4b ff cd b9
       0.042856377 -0.025470082 -0.23717703 -0.00039290855
0003b0 32 80 81 bd 99 4d 90 3d cb 39 22 3d c7 00 c0 bd
       -0.063232794 0.070460506 0.039605897 -0.09375148
0003c0 0c 79 30 3e dc 4d 19 3d 31 63 01 3e cf 90 15 3e
       0.17233676 0.037427768 0.12635495 0.14606021
0003d0 c5 98 d4 3d 46 83 43 3e cb 42 e1 3d 3d 52 86 bd
       0.10380701 0.19093046 0.10999068 -0.065586545
0003e0 b6 9d 1a 3e 06 c8 58 3c 5f 56 37 bd 2f 3f ba 3b
       0.15099224 0.013231283 -0.044760104 0.0056838016
0003f0 a3 d2 de 3b 76 aa 38 3d 4c 4e 86 be 6b ca e1 bd
       0.006800012 0.04508444 -0.2623161 -0.11024936

critic.0.bias f4 [64]
000000 9f 7c b8 3c 16 e0 0d bd ad 17 e8 3c 77 ba 9e bd
       0.022520361 -0.034637533 0.028331602 -0.07750409
000010 59 11 9f bd 48 5c 91 bc e0 a1 ac bc 9a d0 c6 bc
       -0.07766981 -0.017744198 -0.021073282 -0.02426939
000020 8d 5b ec 3b b5 f4 dc bb 7a cc 00 bd d9 97 99 3b
       0.007213062 -0.0067430385 -0.031445004 0.004687291
000030 4a 6d b4 bc 6f 8d 1a bd e8 32 03 bd 81 db 47 bd
       -0.02202477 -0.037732538 -0.03203097 -0.04879332
000040 64 17 5e 3b 1b 8d f3 bc d3 e6 30 3d 49 0f 7b 3b
       0.0033888454 -0.02973037 0.04318888 0.0038308671
000050 d1 d2 28 bc 66 16 3f bd 5f 26 d8 bc 32 3e 45 3d
       -0.010304169 -0.04665222 -0.026385484 0.048155017
000060 e2 33 e0 3b d9 5d c0 3b c1 e9 d8 3c 8a 22 92 bd
       0.0068421224 0.0058705625 0.02647865 -0.07135494
000070 20 3d 0f bd ea 50 8d 3c 92 82 eb bc 42 fa 2c 3c
       -0.034970403 0.017250497 -0.028748784 0.010557713
000080 81 02 c6 3c be 7a 18 bc 17 27 16 3b 9b e0 82 3d
       0.024171116 -0.009306608 0.0022911483 0.06390496
000090 36 d0 43 bc f5 1c 95 3a 01 e0 d6 3c 7f e4 c6 bd
       -0.011951497 0.0011376428 0.02622986 -0.09711551
0000a0 63 59 db 3c a2 aa 8a 3b 76 6d b2 3d fc ef eb 3d
       0.026776021 0.004231767 0.08712284 0.11520383
0000b0 29 72 25 3d 4d 19 7e bd 24 b4 17 bd cd 60 4a 3d
       0.040392075 -0.062035847 -0.03703703 0.049408723
0000c0 71 5a c8 bc 93 5a 99 bd a7 a9 8a 3d 4a 93 8b 3d
       -0.024457188 -0.07487979 0.0677064 0.068152025
0000d0 e1 72 2f bd 74 0a 57 bd 29 a9 c1 bd 78 c4 cc 3c
       -0.042834166 -0.052500203 -0.09456093 0.024996027
0000e0 70 b0 6a 3c e6 c3 0c 3d e4 26 36 3a 86 6d a4 3d
       0.014324293 0.03436651 0.0006948544 0.080287024
0000f0 41 37 62 bd 53 96 d9 bb 74 85 e2 3c b9 92 9e bc
       -0.055228475 -0.0066402345 0.027651526 -0.019357072

critic.2.weight f4 [1, 64]
000000 b8 92 25 bc 73 11 d6 3c f4 36 ab bb b0 d2 27 3d
       -0.010105781 0.026131367 -0.005225057 0.04097241
000010 70 ac 4a 3d b9 90 61 3c 25 1b 0d bd 4b b2 fb 3b
       0.049480855 0.013767415 -0.034449715 0.0076811663
000020 88 f5 4a bc 03 5f 49 3c 6f ae 26 bd b7 cd 0f bb
       -0.012387641 0.012290719 -0.040693697 -0.0021942684
000030 fd 66 63 3c e5 41 65 bd 93 00 6d bd 3c b0 a6 3c
       0.013879535 -0.055971045 -0.057861876 0.020347707
000040 e4 76 94 bc 6f 66 58 3c d0 3b 03 bd c6 54 f9 ba
       -0.018123098 0.013208016 -0.032039464 -0.0019022457
000050 e6 74 a9 3b 2c f3 a4 3c ea 08 b4 bd 5e a1 e8 bc
       0.005171406 0.020135485 -0.08790763 -0.028397258
000060 a1 8c 06 3c ec 95 3b 3c fc 61 97 ba 18 fc fe 3c
       0.0082122395 0.011449318 -0.0011549587 0.031126067
000070 f2 30 a4 bb b4 30 68 3b b7 15 44 3b d5 90 49 bc
       -0.0050107175 0.003542942 0.002992017 -0.012302597
000080 90 55 64 bb 3e f5 3e 3c 88 ed 65 bc e8 e6 d6 bc
       -0.0034841038 0.01165515 -0.014033683 -0.026233152
000090 87 be 45 3c 33 c1 3a bd 0e 64 a2 3c 2c 04 15 3d
       0.012069351 -0.045594405 0.0198231 0.03638093
0000a0 f4 b6 9b bc ab 4f 67 3a ef 99 66 bd 11 24 20 bd
       -0.019008137 0.0008823822 -0.056299146 -0.039096896
0000b0 e9 05 65 3e 90 60 02 3d 12 24 f7 bb 4d c6 d0 bc
       0.22365536 0.03183037 -0.0075421417 -0.025485182
0000c0 e5 fd 85 bb 20 3a bd 3c c4 8d f3 bc 93 96 2e bd
       -0.0040891045 0.023099005 -0.029730685 -0.042624068
0000d0 87 7f 0d 3c ed f5 9d 3c b8 f2 36 3d e7 fd cd bc
       0.008636362 0.019282306 0.04466507 -0.025145484
0000e0 33 c4 0c bb f2 87 52 bc 0e a4 56 bc 66 ae 2c bd
       -0.0021479249 -0.012849795 -0.013100637 -0.042158507
0000f0 9e 53 2a 3d 72 c3 7e bb 73 70 18 bc c1 a9 42 3c
       0.04158365 -0.0038873819 -0.009304154 0.011881293
