storage/MiniGrid-ThrowLeftoversNavigation-8x8-N2-v0_22-07-20-16-57-41/status.pt (torch, 256701 bytes, 39 tensors)

image_conv.0.weight f4 [16, 3, 2, 2]
0.10154071 -0.028961662 0.112890095 0.020775016 0.16350919 0.1083224 0.006646939 -0.21829242
0.0659087 -0.25557697 0.037939996 0.019184738 -0.026661221 0.27505347 0.05558378 0.16174053
0.16211121 -0.12430508 -0.06852611 0.3237862 -0.28275076 -0.019606322 -0.022877425 0.20475999
-0.020028958 0.09042406 0.002703601 -0.14838651 -0.19241062 -0.1258288 -0.24936157 -0.19159034
0.06793937 0.1899904 0.014220804 -0.13232572 0.13736296 -0.091965616 -0.05233866 -0.1341025
-0.058389347 -0.27903813 0.15219165 0.1310074 0.057340562 0.14173406 0.12234971 0.012771875
0.060662434 0.060267244 0.18725787 0.23261707 0.24161968 0.20447657 -0.03239496 0.029860111
-0.058665246 0.16793153 0.03205973 0.2671795 0.1808615 -0.20967805 0.11745865 0.30897245
0.2948684 0.030809583 0.1353157 -0.2358558 -0.0920299 0.14076933 -0.26297235 0.2514947
-0.17772637 0.11529477 0.0039077983 0.06399687 0.034859613 -0.2531102 -0.05237588 -0.17772652
0.24541837 -0.035434753 -0.28743893 0.069916815 0.11287892 -0.13252857 -0.03616403 0.1262465
-0.19713336 -0.16536662 -0.04648093 -0.20069723 0.17741925 0.023611069 0.17271557 0.15454388
-0.22247083 -0.17992955 -0.19744864 -0.08690804 -0.10548894 -0.046514377 -0.27926448 0.12777957
0.16376731 0.091490716 0.18344066 0.21686155 -0.27486718 0.049317755 0.29564637 -0.1886695
-0.11609579 -0.005025281 -0.15299608 -0.035341404 -0.042657703 0.2572012 -0.018151551 0.15654042
0.24655947 0.16160811 -0.2160759 0.24396574 0.21976018 -0.17071478 -0.07065262 0.2281629
-0.28062254 -0.25301397 -0.19565198 0.08995092 -0.08423231 -0.21861175 0.14679681 0.18201469
0.14696515 -0.2327614 0.32064083 0.016165707 -0.27475384 -0.043457493 0.1885494 0.1329433
-0.0013215727 0.20922875 -0.2540959 0.21098132 0.28769866 -0.18216899 0.07350723 -0.046521936
-0.24369663 -0.0025307536 -0.09674166 -0.24657029 -0.17356318 0.050491847 0.30051488 0.14222893
-0.14450823 0.24778052 0.066699915 -0.23068753 0.013693392 0.18531257 -0.16974247 -0.013282388
-0.1509947 -0.23478712 -0.16526812 0.0144535145 0.18055339 -0.058851875 -0.25960922 -0.014572191
-0.25106835 0.016957343 0.2140302 0.123202085 -0.14481711 -0.013745385 0.14709297 0.111388266
-0.2524677 -0.100017756 -0.06687509 0.15167461 0.25793207 0.12863758 0.10904983 -0.2449583
00000000: 93f4 cf3d 0241 edbc ec32 e73d 5e30 aa3c
00000010: f46e 273e 22d8 dd3d 91ce d93b 0c88 5fbe
00000020: 24fb 863d fcda 82be f866 1b3d 5029 9d3c
00000030: a268 dabc cfd3 8c3e d1ab 633d 4f9f 253e
00000040: 7b00 263e a993 febd 6b57 8cbd 4ec7 a53e
00000050: b5c4 90be 709d a0bc 7069 bbbc 9aac 513e
00000060: c513 a4bc 4030 b93d e62e 313b a2f2 17be
00000070: 4a07 45be 44d9 00be a458 7fbe 4230 44be
00000080: cc23 8b3d d88c 423e 60fe 683c 6580 07be
00000090: e0a8 0c3e 7858 bcbd 1061 56bd 2a52 09be
000000a0: ab29 6fbd 16de 8ebe 21d8 1b3e ce26 063e
000000b0: f0dd 6a3d bc22 113e 7c92 fa3d 2041 513c
000000c0: 2c79 783d c9da 763d 87c0 3f3e 2b33 6e3e
000000d0: 266b 773e 4e62 513e 94b0 04bd 319d f43c
000000e0: f84a 70bd 3ef6 2b3e 1051 033d c0cb 883e
000000f0: c233 393e d8b5 56be 298e f03d a331 9e3e
00000100: fef8 963e 6164 fc3c 3390 0a3e 2f84 71be
00000110: 2c7a bcbd d625 103e 50a4 86be eac3 803e
00000120: e7fd 35be aa1f ec3d fd0c 803b ca10 833d
00000130: f4c8 0e3d a997 81be 1788 56bd f1fd 35be
00000140: f44e 7b3e 0824 11bd 322b 93be 8c30 8f3d
00000150: 102d e73d 92b5 07be bc20 14bd c346 013e
00000160: 54dd 49be de55 29be ca62 3ebd 9383 4dbe
00000170: 64ad 353e 006c c13c 5adc 303e c040 1e3e
00000180: 65cf 63be 743f 38be fa2f 4abe d8fc b1bd
00000190: 960a d8bd dc85 3ebd c1fb 8ebe a6d8 023e
000001a0: 9eb2 273e 7c5f bb3d ded7 3b3e f410 5e3e
000001b0: 64bb 8cbe 6a01 4a3d f65e 973e 9432 41be
000001c0: a1c3 edbd 1dab a4bb 01ab 1cbe 26c2 10bd
000001d0: d8b9 2ebd e0af 833e 90b2 94bc 224c 203e
000001e0: 167a 7c3e 997c 253e 0043 5dbe 28d2 793e
000001f0: d008 613e dbcf 2ebe 52b2 90bd 89a3 693e
00000200: c2ad 8fbe 0c8b 81be fe58 48be 3038 b83d
00000210: fd81 acbd c2db 5fbe e751 163e 0f62 3a3e
00000220: 087e 163e 0159 6ebe 092b a43e f26d 843c
00000230: 89ac 8cbe 7c00 32bd 1813 413e 4a22 083e
00000240: 9f38 adba 1040 563e dc18 82be 7d0b 583e
00000250: 3d4d 933e 828a 3abe f58a 963d c98d 3ebd
00000260: 9c8b 79be 00db 25bb 7e20 c6bd ec7c 7cbe
00000270: 8cba 31be 8ad0 4e3d 16dd 993e 76a4 113e
00000280: f7f9 13be 2dba 7d3e f799 883d 5a39 6cbe
00000290: 405a 603c 94c2 3d3e f8d0 2dbe 609e 59bc
000002a0: 5b9e 1abe 096c 70be 0c3c 29be 6fce 6c3c
000002b0: fde2 383e aa0e 71bd 80eb 84be 33c0 6ebc
000002c0: 088c 80be 20ea 8a3c bc2a 5b3e 6051 fc3d
000002d0: f04a 14be 5334 61bc 8a9f 163e 881f e43d
000002e0: 7243 81be 1cd6 ccbd cff5 88bd 9750 1b3e
000002f0: ac0f 843e 92b9 033e 8455 df3d 59d6 7abe

image_conv.0.bias f4 [16]
0.23075214 0.14725685 -0.07637862 -0.10882621 0.119606234 -0.11864719 0.13092045 0.24228825
-0.18460254 -0.16075723 -0.08573884 -0.2057833 -0.032277368 0.22264935 0.13726075 -0.048817154
00000000: 4a4a 6c3e 80ca 163e 656c 9cbd 47e0 debd
00000010: 1df4 f43d 4cfd f2bd 0310 063e 691a 783e
00000020: 7308 3dbe 8b9d 24be d897 afbd dbb8 52be
00000030: 4635 04bd 31fe 633e 158e 0c3e 7ff4 47bd

image_conv.3.weight f4 [32, 16, 2, 2]
-0.026237957 -0.047409784 -0.108871795 -0.045112 -0.0023317193 -0.05620168 -0.10948567 0.05244579
0.01740099 -0.073861144 0.023007821 0.103602454 -0.00858753 -0.09139641 0.10050511 0.0884661
-0.024082147 -0.0499902 -0.06793982 0.113419406 0.05005168 -0.061376125 -0.010418959 0.020364951
0.036867816 0.0038407869 -0.065231584 -0.009194818 -0.04399842 -0.037102424 -0.07513599 -0.06611711
-0.03368949 0.045154754 -0.102243274 -0.096933484 0.10004166 0.043787286 0.08803509 0.041071165
-0.063208066 -0.06334361 -0.100385815 0.00871057 0.020378953 -0.121687405 -0.115283035 0.06509146
0.0038712677 0.085127994 0.09566696 0.0833082 -0.03218995 -0.056706335 0.023198122 0.089298576
-0.09780321 0.054697264 -0.079583 -0.07489617 0.035095245 0.055329707 0.02802553 0.030715922
-0.026273496 0.05245966 -0.09104685 -0.026798753 0.0054325964 0.0072134454 0.0033369504 0.096803255
0.021842537 -0.062168494 -0.047237713 -0.050728433 0.008864128 -0.06318813 0.04499031 0.0010031863
0.10537607 -0.041219298 -0.06046593 0.04534707 -0.0012307136 -0.023088643 0.13280205 -0.07766974
0.07224763 0.07527896 -0.0046441825 0.0820699 -0.012300089 -0.08330301 0.10123446 -0.026345272
-0.04529548 0.15575323 0.15847835 -0.08427446 -0.07306147 0.07847351 0.07064595 -0.07996924
-0.110848345 0.08209631 -0.06748973 0.1202206 -0.10166618 -0.02345696 0.053875428 0.09456708
-0.050920915 -0.043814886 0.050424583 0.062628694 0.04261663 -0.07661907 -0.013062853 -0.012870971
0.028694289 0.13401306 -0.0640029 0.002729489 0.00066942465 0.102266714 -0.10833168 0.020916076
0.13156769 -0.04250688 0.10912838 0.024742553 0.14800377 -0.06789847 0.051081415 0.12924674
0.09728058 -0.048370846 -0.11049128 0.020134585 -0.03967338 0.10762857 -0.047781155 0.046980906
-0.07458031 0.04052287 0.1422871 0.10581286 0.07994037 -0.035286963 0.13393292 -0.026452888
0.15035358 -0.07034118 -0.038504522 -0.010201912 0.053043533 0.10107362 0.053652596 -0.0140734855
-0.0631216 -0.013477097 -0.040213436 -0.049857493 0.091534905 0.031671274 -0.05181779 0.06874749
-0.053279776 -0.036109217 0.01485218 0.11907756 0.0920464 -0.041328166 -0.06368125 0.075467445
0.017289184 0.04700552 0.028706243 -0.05323432 0.010362815 -0.0060067 0.006832453 0.10728374
-0.07471881 0.04876933 0.15582716 -0.068119474 0.07984178 0.15859513 0.092091106 0.089951396
-0.029022621 0.06385894 0.0317808 0.14483862 -0.11207395 0.090135716 -0.06529931 -0.09454478
0.0886392 0.012759881 -0.072005965 -0.116735704 -0.009774845 -0.011510302 -0.01999191 -0.048369206
0.036133606 0.10257334 -0.09534491 -0.01785914 0.09921026 -0.12542789 0.09947086 -0.012883439
0.06480419 -0.04813648 0.091024764 0.041945025 0.002164386 0.1443665 -0.08942391 0.1312848
0.10538903 0.008857678 -0.050404295 0.10083474 0.034092955 -0.13660306 -0.06992284 -0.11703582
-0.049480446 -0.0047163237 0.03872924 0.07908019 -0.11828692 0.06492954 0.053114597 0.0440566
-0.11566685 -0.082082815 -0.0069810594 0.06604922 -0.027914528 -0.03094601 0.042815655 0.045637768
0.018157825 0.042373206 -0.032206386 0.13701703 0.0019725151 0.09062526 -0.10456858 -0.023635045
00000000: fcf0 d6bc c330 42bd 2df8 debd 5cc7 38bd
00000010: c2cf 18bb bc33 66bd 063a e0bd 66d1 563d
00000020: 858c 8e3c 8344 97bd e67a bc3c 862d d43d
00000030: b6b2 0cbc 0a2e bbbd a0d5 cd3d b72d b53d
00000040: ec47 c5bc 86c2 4cbd 0824 8bbd 6f48 e83d
00000050: fe02 4d3d 8865 7bbd 48b4 2abc 66d4 a63c
00000060: b502 173d b6b5 7b3b 2398 85bd dda5 16bc
00000070: b037 34bd b6f8 17bd e6e0 99bd 6868 87bd
00000080: fefd 09bd 31f4 383d ec64 d1bd 1085 c6bd
00000090: a4e2 cc3d 4c5a 333d be4b b43d 3d3a 283d
000000a0: 3b73 81bd 4bba 81bd 1497 cdbd c7b6 0e3c
000000b0: c3f1 a63c 3f37 f9bd 8319 ecbd ac4e 853d
000000c0: 18b5 7d3b 9657 ae3d 0aed c33d 7d9d aa3d
000000d0: 9cd9 03bd e744 68bd fd09 be3c 2ce2 b63d
000000e0: 0d4d c8bd 3d0a 603d 69fc a2bd 2a63 99bd
000000f0: 08c0 0f3d 67a1 623d cc95 e53c f59f fb3c
00000100: 843b d7bc f1df 563d c576 babd 0f89 dbbc
00000110: ec03 b23b c45e ec3b bdb0 5a3b c940 c63d
00000120: 1fef b23c 64a4 7ebd 557c 41bd 9ec8 4fbd
00000130: d93a 113c c768 81bd c247 383d 597d 833a
00000140: 69cf d73d 91d5 28bd 1fab 77bd d9bd 393d
00000150: e54f a1ba 6524 bdbc 43fd 073e 5011 9fbd
00000160: 91f6 933d db2b 9a3d 3a2e 98bb 4414 a83d
00000170: 5086 49bc c59a aabd 0354 cf3d 0ad2 d7bc
00000180: c187 39bd c67d 1f3e 2648 223e 1798 acbd
00000190: 41a1 95bd b8b6 a03d d3ae 903d eac6 a3bd
000001a0: 7504 e3bd 1c22 a83d 0e38 8abd 3836 f63d
000001b0: 5c36 d0bd d028 c0bc 7bac 5c3d 63ac c13d
000001c0: 7392 50bd 3d77 33bd 028a 4e3d 7943 803d
000001d0: c78e 2e3d 75ea 9cbd 9405 56bc c4e0 52bc
000001e0: 4910 eb3c b83a 093e f413 83bd 3ae1 323b
000001f0: 547c 2f3a 3671 d13d 00dd ddbd 3158 ab3c
00000200: aeb9 063e b21b 2ebd b37e df3d e5b0 ca3c
00000210: 4d8e 173e 5a0e 8bbd bf3a 513d 4259 043e
00000220: 0a3b c73d 8220 46bd 4149 e2bd 49f1 a43c
00000230: 8e80 22bd 5e6c dc3d 2cb6 43bd 0d6f 403d
00000240: 90bd 98bd 4ffb 253d b6b3 113e 6ab4 d83d
00000250: c7b7 a33d 1089 10bd b625 093e bab3 d8bc
00000260: 4af6 193e 090f 90bd ebb6 1dbd ec25 27bc
00000270: 2d44 593d b0ff ce3d d3c2 5b3d 7a94 66bc
00000280: e645 81bd 0bcf 5cbc d8b6 24bd 5f37 4cbd
00000290: a776 bb3d bdb9 013d e43e 54bd 7ccb 8c3d
000002a0: e53b 5abd 42e7 13bd 8f56 733c f0de f33d
000002b0: d382 bc3d b947 29bd 516b 82bd ad8e 9a3d
000002c0: 0ca2 8d3c dc88 403d 5b29 eb3c 3b0c 5abd
000002d0: ccc8 293c dad3 c4bb c5e2 df3b 94b7 db3d
000002e0: 2d06 99bd 59c2 473d 2891 1f3e 3982 8bbd
000002f0: 1684 a33d c366 223e 439a bc3d 7038 b83d
00000300: d9c0 edbc 7ac8 823d 962c 023d 9350 143e
00000310: 0787 e5bd 1399 b83d a5bb 85bd b2a0 c1bd
00000320: 7888 b53d d20e 513c dd77 93bd 2113 efbd
00000330: ac26 20bc b595 3cbc 13c6 a3bc ca1e 46bd
00000340: d500 143d f911 d23d 3144 c3bd 554d 92bc
00000350: c02e cb3d 2b70 00be 61b7 cb3d 0f15 53bc
00000360: 0fb8 843d c22a 45bd 316b ba3d 8cce 2b3d
00000370: 5fd8 0d3b d0d4 133e e223 b7bd 866f 063e
00000380: 34d6 d73d cb1f 113c bc74 4ebd 7282 ce3d
00000390: 0ea5 0b3d ace1 0bbe b533 8fbd 7ab0 efbd
000003a0: 02ac 4abd 648b 9abb 8da2 1e3d cbf4 a13d
000003b0: 6a40 f2bd c7f9 843d b18e 593d b274 343d
000003c0: bee2 ecbd 091b a8bd 5fc1 e4bb d044 873d
000003d0: 02ad e4bc 7d82 fdbc 785f 2f3d abee 3a3d
000003e0: b8bf 943c 878f 2d3d d8ea 03bd 314e 0c3e
000003f0: 5045 013b bc99 b93d 0d28 d6bd 489e c1bc

image_conv.3.bias f4 [32]
-0.0044968883 -0.076580845 0.067142956 -0.02790769 -0.012567436 0.10194446 0.024737673 0.03185608
0.12525421 0.15213418 -0.0492842 -0.027589284 0.08780451 -0.041387886 -0.019076722 -0.04129745
-0.055667564 0.10671359 0.15651523 -0.05349484 -0.0075466586 0.015468525 -0.0399277 -0.11408769
-0.027344057 0.0037065623 -0.056167744 0.016671007 -0.016975334 0.11962526 0.026427576 0.026505059
00000000: a25a 93bb 6bd6 9cbd 3f82 893d ab9e e4bc
00000010: a6e7 4dbc 42c8 d03d a9a6 ca3c 857b 023d
00000020: a442 003e 10c9 1b3e 3bde 49bd ec02 e2bc
00000030: dad2 b33d 5886 29bd c946 9cbc 8427 29bd
00000040: ac03 64bd a88c da3d 8745 203e 681d 5bbd
00000050: f649 f7bb b26f 7d3c 3a8b 23bd cfa6 e9bd
00000060: a500 e0bc cce9 723b 2610 66bd a391 883c
00000070: db0f 8bbc 17fe f43d a57e d83c 2321 d93c

image_conv.5.weight f4 [64, 32, 2, 2]
0.09223189 0.048007686 0.005666481 -0.07584981 0.042498756 0.009858275 0.077193305 -0.118897125
0.07331522 0.09535128 -0.037401535 0.10064769 -0.022566386 0.06760057 0.03932088 -0.04173996
-0.046644695 0.043802124 0.10588788 -0.026896654 -0.024138529 0.10037841 0.060506754 0.018302593
0.05030378 0.081114314 0.1085216 0.014099976 -0.023752704 0.105179615 0.009024214 0.1143333
0.03690602 0.10743725 0.020241108 0.06937045 0.02763266 0.0010772613 0.12633276 0.012948131
-0.03753664 0.06497042 0.069358334 0.12340385 0.099119715 -0.0002533513 0.035243478 0.11696889
0.011433484 -0.01761667 -0.02716035 0.13043858 -0.025600415 0.09051101 -0.030116193 0.08676513
0.05289084 0.06328781 -0.03701653 0.014056561 0.040163416 0.058844093 0.112652615 0.08230362
0.030008044 0.10319982 0.11094216 -0.010725765 0.10104751 -0.010602922 0.0900804 -0.045183875
0.09873395 -0.0037275038 0.08007247 0.09977547 -0.0059153917 0.019874003 0.12466218 -0.0078107435
0.10030625 0.054261167 0.08424576 0.02788604 0.007629864 0.0748511 0.06482187 0.065224394
-0.040588997 0.1120182 0.0037749936 0.10535411 0.05696221 0.07278364 0.035539962 -0.0070809415
-0.06824382 -0.057613682 -0.010604948 0.02074296 -0.039487544 0.12575233 -0.04300682 0.006134218
-0.0019694625 0.11441109 0.07430413 0.105683506 -0.002697258 0.083369054 0.08969255 0.024447741
-0.019802414 -0.0011889079 -0.07552743 -0.054543037 0.09063084 -0.032178946 0.05146953 0.09765663
0.049437705 0.07369622 0.07138507 0.027930362 0.03823519 0.04594809 0.02698334 0.0016025682
0.0055309506 -0.038515907 -0.07020222 0.051196635 0.10201999 0.024313683 -0.047838047 -0.033847854
0.0028347708 0.0011911124 0.05524065 0.090624996 0.012757788 0.051174518 0.04610313 -0.069525905
0.025989402 0.07717801 0.0819471 -0.052372076 -0.018082557 0.012062731 -0.009510473 0.049115513
0.015444984 0.010001415 0.07007922 0.07882178 0.031863824 0.05329848 -0.046007812 0.09113997
-0.007876786 -0.05188367 0.061944682 0.07696598 0.024468563 0.07311484 0.061180264 0.07645296
-0.009954038 0.008909245 -0.010830276 -0.09719587 0.06311381 -0.032166734 0.066275775 -0.06890014
-0.021256018 0.03205242 -0.068208575 0.015674023 0.037416525 -0.05465511 -0.02006242 0.0146662425
-0.042337265 0.0045137107 0.110402875 -0.056729857 -0.04259425 0.10307675 -0.073440485 0.0698337
-0.079413734 -0.042564888 0.05080262 0.09664153 0.0022661227 -0.05032043 0.01310329 0.02635783
0.026353892 0.09681654 0.033775803 -0.007954907 0.05955343 0.061484963 -0.03005347 0.04639773
-0.034736294 -0.043098103 -0.00780861 0.023084855 0.10560021 0.0038616338 0.092610866 0.050519757
-0.071242094 -0.018559799 0.06033842 -0.05917633 0.057680145 -0.030446332 -0.040995527 -0.025890153
-0.04201634 -0.046777017 0.061455987 -0.08250075 0.043413833 0.06298369 -0.028888138 -0.018027974
-0.025578393 0.04735312 0.042048056 -0.030117566 0.056499586 -0.009265204 0.1072806 -0.04287175
0.034262102 0.098055504 0.053928684 0.07002521 0.018098732 0.063515365 -0.05941357 0.012155685
-0.070511036 0.020860229 0.071616836 -0.046841115 0.023636898 0.057398643 -0.06502895 0.001268648
00000000: 13e4 bc3d b5a3 443d e3ad b93b 2557 9bbd
00000010: 2d13 2e3d 9a84 213c 8617 9e3d 5680 f3bd
00000020: 4a26 963d 8847 c33d 5a32 19bd 6020 ce3d
00000030: 24dd b8bc 2b72 8a3d ee0e 213d 85f7 2abd
00000040: 820e 3fbd db69 333d bfdb d83d 5f56 dcbc
00000050: 2abe c5bc 3293 cd3d eed5 773d 52ef 953c
00000060: 560b 4e3d 431f a63d 9340 de3d 9603 673c
00000070: 0895 c2bc 6968 d73d 4cda 133c 9427 ea3d
00000080: c42a 173d 1008 dc3d aed0 a53c 1812 8e3d
00000090: e35d e23c e432 8d3a 605d 013e 6624 543c
000000a0: 05c0 19bd 360f 853d be0b 8e3d 28bb fc3d
000000b0: 47ff ca3d 3cd4 84b9 775b 103d 638d ef3d
000000c0: 8253 3b3c d650 90bc 627f debc b191 053e
000000d0: f6b7 d1bc d65d b93d 3cb6 f6bc ebb1 b13d
000000e0: 11a4 583d 0a9d 813d a59e 17bd 7d4d 663c
000000f0: 6582 243d 8106 713d 6ab6 e63d cd8e a83d
00000100: 6ed3 f53c 6d5a d33d a535 e33d 1ebb 2fbc
00000110: fff1 ce3d e1b7 2dbc 137c b83d ba12 39bd
00000120: 0635 ca3d 2349 74bb 09fd a33d 1557 cc3d
00000130: e7d5 c1bb cece a23c e34e ff3d 44f1 ffbb
00000140: 5d6d cd3d f540 5e3d 0b89 ac3d 4471 e43c
00000150: f003 fa3b 894b 993d 54c1 843d 5e94 853d
00000160: a640 26bd cc69 e53d e265 773b e5c3 d73d
00000170: 3551 693d 970f 953d 5a92 113d 3e07 e8bb
00000180: 6ac3 8bbd 53fc 6bbd 60c0 2dbc 24ed a93c
00000190: b1bd 21bd 38c5 003e eb27 30bd 8d01 c93b
000001a0: 1912 01bb 5d50 ea3d c42c 983d 9870 d83d
000001b0: 7bc4 30bb 65bd aa3d bab0 b73d a146 c83c
000001c0: ac38 a2bc 21d5 9bba 20ae 9abd 8568 5fbd
000001d0: a99c b93d 12ce 03bd b7d1 523d 3300 c83d
000001e0: 317f 4a3d 0bee 963d 5632 923d 37ce e43c
000001f0: 819c 1c3d 1034 3c3d 2a0c dd3c 440d d23a
00000200: fa3c b53b dbc2 1dbd 2ec6 8fbd 90b3 513d
00000210: dbef d03d 7d2d c73c d4f1 43bd 0ca4 0abd
00000220: 90c7 393b 1a1f 9c3a 0544 623d 9999 b93d
00000230: 0b06 513c 5f9c 513d a3d6 3c3d 9963 8ebd
00000240: bae7 d43c 810f 9e3d e2d3 a73d 1a84 56bd
00000250: df21 94bc c3a2 453c d1d1 1bbc 592d 493d
00000260: f50c 7d3c fadc 233c b285 8f3d 506d a13d
00000270: a483 023d 824f 5a3d b072 3cbd 98a7 ba3d
00000280: a30d 01bc f983 54bd b5b9 7d3d 57a0 9d3d
00000290: 4c72 c83c 3cbd 953d 2898 7a3d 5f93 9c3d
000002a0: 4316 23bc 15f8 113c 7871 31bc a10e c7bd
000002b0: d041 813d 44c1 03bd 98bb 873d 841b 8dbd
000002c0: 1a21 aebc 6649 033d f0b0 8bbd cf66 803c
000002d0: 1242 193d 09de 5fbd f259 a4bc ae4a 703c
000002e0: d769 2dbd c0e7 933b e71a e23d 915d 68bd
000002f0: 4f77 2ebd e719 d33d f767 96bd f904 8f3d
00000300: aba3 a2bd 8558 2ebd 6816 503d ffeb c53d
00000310: 3b83 143b cc1c 4ebd 2faf 563c 60ec d73c
00000320: 1ee4 d73c c047 c63d 7f58 0a3d 4c55 02bc
00000330: 4cee 733d a8d7 7b3d b232 f6bc 8c0b 3e3d
00000340: a547 0ebd a387 30bd 5edf ffbb 731c bd3c
00000350: ec44 d83d 7713 7d3b c4aa bd3d ceed 4e3d
00000360: 60e7 91bd b80a 98bc 6b25 773d e162 72bd
00000370: 0442 6c3d 966a f9bc edea 27bd 9617 d4bc
00000380: 5319 2cbd 4299 3fbd 46b9 7b3d 27f6 a8bd
00000390: b4d2 313d 98fd 803d d1a6 ecbc 67af 93bc
000003a0: c789 d1bc 58f5 413d 953a 2c3d 1db9 f6bc
000003b0: 1c6c 673d 15cd 17bc eeb5 db3d 4a9a 2fbd
000003c0: 6b56 0c3d 53d1 c83d 53e4 5c3d 6169 8f3d
000003d0: cb43 943c 5814 823d a55b 73bd a328 473c
000003e0: 1768 90bd 12e3 aa3c d9ab 923d 78dc 3fbd
000003f0: 2ba2 c13c d71a 6b3d e62d 85bd c348 a63a

image_conv.5.bias f4 [64]
0.008583267 0.07303528 -0.00507088 0.09463668 -0.020751065 0.0038834503 -0.01342653 -0.019296644
-0.0076487786 -0.08641912 0.017642185 0.06938553 0.07998862 0.060644325 -0.04030015 -0.030172516
0.041221067 0.07681077 -0.03515747 -0.047035947 -0.0022886968 -0.07832191 0.03978551 -0.053017728
-0.021795819 -0.059900347 -0.02943744 -0.07082242 0.08319507 0.024347784 0.069930084 0.028151117
0.010535627 0.051736232 -0.081286706 -0.029987618 0.00632292 -0.030547975 0.043614715 0.01560905
0.011828447 0.07326115 -0.017671656 0.0487569 -0.021382855 0.06360001 -0.029058985 0.057546567
0.0056162924 -0.058769662 -0.08775764 0.09361085 0.03962993 -0.038709898 -0.004226546 0.030316342
-0.04351079 -0.101839386 -0.05248498 0.05999892 0.0017178375 -0.055323254 -0.023828324 -0.018324118
00000000: d5a0 0c3c 8593 953d a029 a6bb e0d0 c13d
00000010: 23fe a9bc 7c81 7e3b f3fa 5bbc ff13 9ebc
00000020: 9ba2 fabb 82fc b0bd 5886 903c 001a 8e3d
00000030: 13d1 a33d 2f66 783d c511 25bd 5a2c f7bc
00000040: 6cd7 283d f74e 9d3d 4701 10bd c4a8 40bd
00000050: f6fd 15bb 3d67 a0bd 22f6 223d 1e29 59bd
00000060: 258d b2bc 115a 75bd c926 f1bc 580b 91bd
00000070: 2d62 aa3d 0175 c73c 8137 8f3d 2c9d e63c
00000080: 9f9d 2c3c 5fe9 533d a579 a6bd 98a8 f5bc
00000090: 7f30 cf3b bf3f fabc 58a5 323d 1abd 7f3c
000000a0: 1acc 413c f109 963d 26c4 90bc 51b5 473d
000000b0: 192b afbc b940 823d 1c0d eebc f3b5 6b3d
000000c0: e008 b83b 75b8 70bd 47ba b3bd 0cb7 bf3d
000000d0: fe52 223d 458e 1ebd d67e 8abb fa59 f83c
000000e0: 5f38 32bd 2b91 d0bd 7efa 56bd 6dc1 753d
000000f0: 1029 e13a a39a 62bd 9e33 c3bc 761c 96bc

actor.0.weight f4 [64, 64]
-0.029307825 0.20671551 -0.08768724 -0.0054827253 -0.21763353 0.08392404 0.083419085 -0.10255306
0.21529534 -0.26125625 0.10244017 -0.13121073 -0.03870825 0.025087595 -0.020375501 -0.16184261
0.052191082 0.15801075 -0.2537098 0.110016845 -0.08568413 0.05405459 -0.13956289 -0.11746489
0.08636264 0.09111278 0.048524335 0.018579634 0.21046393 0.0088053 0.1331196 -0.22500224
-0.21053162 0.08940159 -0.11381 0.09017457 0.17553501 -0.08229333 0.05813812 -0.17221378
0.14594914 -0.14304018 0.08400813 -0.09690821 0.039108936 0.13078196 -0.05793106 -0.072541356
-0.03318239 -0.038818177 0.053072423 -0.095467016 0.007496434 0.19509499 -0.14990467 -0.13659906
-0.25136578 -0.051571652 0.10053894 -0.018210076 -0.028152939 0.029527124 0.026681852 -0.117294535
0.14501624 -0.13238129 -0.23565483 0.07627503 -0.08513599 0.014082636 -0.12463994 -0.07243031
-0.018289829 -0.2043691 0.10635079 0.059433777 0.046970267 -0.06392723 0.04788215 -0.13061655
0.07266136 0.0826473 -0.06862737 0.20699973 -0.097369656 0.15382285 0.02132664 -0.06873299
-0.3177256 -0.018094758 0.1276729 -0.023572922 -0.009281694 -0.0054662377 -0.06042097 -0.2069102
-0.034864366 -0.013818393 0.13807844 -0.12599635 0.027263537 -0.20971099 -0.048979323 0.17301174
-0.009209233 -0.068026796 0.11566021 0.07811354 0.088994525 0.038949475 -0.118891455 -0.03468311
0.024094468 -0.15045816 -0.17404436 0.054468136 -0.16746731 -0.22580965 -0.102384955 -0.12188386
0.3806454 0.10561194 0.1120846 0.09280917 0.0014948319 0.044385016 -0.029115314 0.09802823
0.14447042 -0.14081478 -0.057890844 -0.11005201 0.26234794 0.001144007 -0.002197592 0.11653835
-0.14228095 0.084973186 -0.10809869 -0.13372323 0.10214406 0.21435113 0.19575968 -0.040088538
0.04971455 0.07185103 0.19471002 -0.061046932 0.06523625 0.032189082 -0.07366678 -0.010133554
-0.13915235 0.064999186 0.006975936 0.024358355 0.02860674 -0.042214703 0.124690324 0.18067318
-0.01612992 0.13396734 -0.012803424 -0.052851237 0.028415116 0.0360274 -0.22520255 0.02573733
0.14815919 0.17485183 -0.10085411 -0.079775184 -0.20884869 0.11062988 0.029640075 -0.038187098
-0.14494303 0.048204426 0.007151164 0.18671389 -0.23371914 0.097290926 -0.32335111 -0.114222996
0.16366729 -0.03506779 -0.01556332 -0.23671709 0.0027559223 0.13977839 0.06847527 0.1447881
0.042766675 -0.13337387 0.030640865 -0.06312376 -0.07313101 0.058595717 0.15869476 -0.08753424
-0.04726788 0.12922858 0.16315217 -0.067760296 0.15260145 0.17666632 0.047009446 -0.036121547
-0.12153315 0.0044708825 0.048138153 0.015973438 0.057820927 -0.004748946 0.23784189 0.04253636
0.1477408 -0.053921215 0.09928819 -0.06179551 -0.09224393 0.08746297 -0.16118792 0.089271806
0.18308815 0.2351899 0.10096624 0.19769804 -0.16307971 0.17348829 -0.06409085 0.23250856
0.02288712 0.20294128 -0.16207682 -0.07602466 0.061861247 -0.01187048 -0.2184852 -0.049329363
0.114964806 0.16185828 0.09176244 -0.07444978 0.0366237 0.08945382 -0.071689196 0.0053736824
0.00086304336 0.23125297 -0.094277434 0.2204685 0.021506375 -0.13358189 -0.2500648 0.11356579
00000000: f716 f0bc 3bad 533e 5e95 b3bd 6fa8 b3bb
00000010: 53db 5ebe 5ee0 ab3d a0d7 aa3d 5707 d2bd
00000020: 6276 5c3e 61c3 85be 27cc d13d 1b5c 06be
00000030: 8b8c 1ebd 8084 cd3c 86ea a6bc 12ba 25be
00000040: 51c6 553d 92cd 213e 40e6 81be 8350 e13d
00000050: 297b afbd 5968 5d3d 93e9 0ebe 6f91 f0bd
00000060: e5de b03d 5699 ba3d 74c1 463d 5134 983c
00000070: db83 573e 1b44 103c 8150 083e fd66 66be
00000080: 9a95 57be 2e18 b73d 3815 e9bd 72ad b83d
00000090: 73bf 333e 6889 a8bd 3d22 6e3d cf58 30be
000000a0: b173 153e 2079 12be 740c ac3d d077 c6bd
000000b0: b130 203d b5eb 053e 1f49 6dbd 9090 94bd
000000c0: 42ea 07bd cfff 1ebd 7862 593d 3684 c3bd
000000d0: a5a4 f53b fbc6 473e 9c80 19be a0e0 0bbe
000000e0: 04b3 80be cc3c 53bd 5ce7 cd3d 4c2d 95bc
000000f0: fea0 e6bc dee2 f13c e693 da3c 1e38 f0bd
00000100: 237f 143e f68e 07be 804f 71be 1536 9c3d
00000110: c75b aebd dbba 663c 3a43 ffbd 5856 94bd
00000120: 8dd4 95bc 2246 51be 71ce d93d d570 733d
00000130: e563 403d 48ec 82bd 1320 443d 58c0 05be
00000140: 7bcf 943d fd42 a93d 828c 8cbd bdf7 533e
00000150: be69 c7bd bd83 1d3e 35b5 ae3c e2c3 8cbd
00000160: eeac a2be 753b 94bc afbc 023e 001c c1bc
00000170: 3f12 18bc 201e b3bb fb7b 77bd 44e0 53be
00000180: f0cd 0ebd 8b66 62bc 6f64 0d3e 3005 01be
00000190: c857 df3c 7abe 56be 8b9e 48bd fd29 313e
000001a0: 53e2 16bc a251 8bbd 43df ec3d fef9 9f3d
000001b0: c342 b63d 7c89 1f3d 5d7d f3bd e00f 0ebd
000001c0: c361 c53c b411 1abe af38 32be fb19 5f3d
000001d0: 8d7c 2bbe a53a 67be 34af d1bd 3f9e f9bd
000001e0: f4e3 c23e 134b d83d 9c8c e53d bc12 be3d
000001f0: 3cee c33a 10cd 353d 3d83 eebc 06c3 c83d
00000200: 0ef0 133e c031 10be f31e 6dbd f362 e1bd
00000210: 7852 863e 81f2 953a 7a05 10bb a9ab ee3d
00000220: 19b2 11be 6c06 ae3d d962 ddbd beee 08be
00000230: e830 d13d dd7e 5b3e 3a75 483e e133 24bd
00000240: 7ca1 4b3d a226 933d 1062 473e 590c 7abd
00000250: 959a 853d b3d8 033d 9cde 96bd 3507 26bc
00000260: f47d 0ebe 4b1e 853d 6496 e43b 2c8b c73c
00000270: af58 ea3c 53e9 2cbd a45d ff3d 6402 393e
00000280: e522 84bc bc2e 093e 74c5 51bc 8a7a 58bd
00000290: d1c6 e83c 7891 133d 7f9b 66be 18d7 d23c
000002a0: 0bb7 173e 5c0c 333e 9a8c cebd 2c61 a3bd
000002b0: 6edc 55be eb91 e23d becf f23c 136a 1cbd
000002c0: f26b 14be 0172 453d 5054 ea3b ed31 3f3e
000002d0: 1254 6fbe 7740 c73d 478e a5be bfed e9bd
000002e0: 6698 273e 3ea3 0fbd 4cfd 7ebc f765 72be
000002f0: b49c 343b 1122 0f3e c33c 8c3d 5543 143e
00000300: 1c2c 2f3d 2993 08be 8d02 fb3c 0847 81bd
00000310: b6c5 95bd 1002 703d e180 223e 2745 b3bd
00000320: f79b 41bd 7f54 043e 5d11 273e e9c5 8abd
00000330: 8e43 1c3e 04e8 343e fa8c 403d 30f4 13bd
00000340: 5fe6 f8bd 7b80 923b 832c 453d bada 823c
00000350: a3d5 6c3d 0c9d 9bbb d38c 733e 9b3a 2e3d
00000360: 5d49 173e 7edc 5cbd 9b57 cb3d 4a1d 7dbd
00000370: 63ea bcbd c91f b33d 720e 25be 23d4 b63d
00000380: 767b 3b3e 9fd5 703e 63c7 ce3d 5b71 4a3e
00000390: 5efe 26be eaa6 313e 1042 83bd b916 6e3e
000003a0: c57d bb3c d7cf 4f3e 77f7 25be d1b2 9bbd
000003b0: 3862 7d3d 677c 42bc 96ba 5fbe 960d 4abd
000003c0: ab72 eb3d 2dbe 253e f2ed bb3d 2079 98bd
000003d0: bc02 163d 9033 b73d c9d1 92bd b715 b03b
000003e0: dc3d 623a 94cd 6c3e 8714 c1bd 7fc2 613e
000003f0: 232e b03c b1c9 08be 7e08 80be 2e95 e83d

actor.0.bias f4 [64]
0.010137334 -0.002044162 0.00794399 -0.00091226137 -0.004061216 -0.010908821 0.010484308 0.0036612176
-0.0105120335 0.0006087866 -0.0025772469 -0.0025308854 0.004051408 0.0014733856 0.011732494 -0.006258791
-0.020134639 0.001360712 0.0071884776 -0.0048226775 0.004717999 -0.002272971 -0.008875334 -0.010751568
-0.007925643 -0.008029521 5.3281743e-05 0.0054167896 0.00062213786 0.005124182 -0.011480746 0.0046339585
-0.021953119 0.0029521156 0.007224138 0.0006356979 0.0019110428 -0.003647549 0.0016157818 -0.009171175
0.009570477 0.006892424 0.0015515223 0.002710279 -0.009042733 0.00802787 0.008667046 -0.011761429
-0.0063971668 -0.0016640155 0.0073656067 0.004430304 0.00893426 0.0017830154 -0.0050990433 -0.0067641647
-0.004489555 -0.0148506425 0.008236214 -0.0010193426 -0.00872833 0.0046257703 0.0028421085 0.0021388025
00000000: 0f17 263c 59f7 05bb 8227 023c d324 6fba
00000010: f313 85bb e9ba 32bc 60c6 2b3c 0af1 6f3b
00000020: aa3a 2cbc fa96 1f3a 07e7 28bb 36dd 25bb
00000030: acc1 843b 9e1e c13a a639 403c 8b16 cdbb
00000040: 66f1 a4bc eb59 b23a 528d eb3b 8d07 9ebb
00000050: 7299 9a3b 20f6 14bb d969 11bc 5827 30bc
00000060: 8eda 01bc 418e 03bc d67a 5f38 537f b13b
00000070: f716 233a c1e8 a73b bd19 3cbc 76d8 973b
00000080: 07d7 b3bc 4878 413b 76b8 ec3b f7a4 263a
00000090: f57b fa3a b80b 6fbb a4c8 d33a b242 16bc
000000a0: 7dcd 1c3c d8d9 e13b 735c cb3a f09e 313b
000000b0: f927 14bc 5487 033c 3a00 0e3c 02b3 40bc
000000c0: 539f d1bb 181b daba 305b f13b 152c 913b
000000d0: 0161 123c 12b4 e93a e015 a7bb eda5 ddbb
000000e0: 1e1d 93bb 1c50 73bc 2ff1 063c 769b 85ba
000000f0: 4501 0fbc c693 973b ab42 3a3b 272b 0c3b

actor.2.weight f4 [18, 64]
-0.1246523 -0.035048697 0.17737235 0.16368239 -0.07004185 -0.16656566 0.22508818 0.22963075
-0.079674125 0.01884103 -0.03388242 -0.19444296 -0.059584245 0.04616614 -0.2702937 0.09159815
0.052959222 0.058180846 -0.12575033 -0.21025786 0.12937964 -0.2504089 -0.06668111 -0.0789031
-0.123004444 -0.07462497 -0.020831006 0.018179368 -0.04833384 -0.06968671 0.028155806 -0.023269068
-0.15113616 0.13642487 -0.041553453 0.08856595 -0.08736754 -0.03843612 -0.027969217 0.25823152
0.1663449 0.075374655 -0.11943314 -0.13411373 0.043129146 0.24779886 -0.027805144 0.22131501
0.03438469 -0.14191574 -0.24403103 0.076953985 0.13237296 -0.034168977 0.04941218 -0.018475814
-0.08573364 0.0012906448 -0.24377126 -0.17071454 -0.15337095 -0.10076048 -0.039611813 0.17689134
-0.005607432 -0.11272672 -0.003814696 -0.09066996 0.09961029 0.05370585 -0.030511938 0.036440678
-0.26554862 0.14955217 0.048894163 0.14615431 0.04516048 -0.1502514 -0.08328657 -0.03262887
0.16415942 -0.020548439 0.10037766 0.04144733 -0.07302772 -0.030776897 0.021835584 0.06496622
-0.07888723 -0.13330692 0.22686057 -0.11913711 0.08465322 0.28204313 0.0031860291 0.07212431
-0.27930966 0.20480727 0.06277191 0.19868565 -0.022983044 -0.03647679 -0.17728497 -0.05299737
-0.07408872 -0.0014063139 0.05319749 0.0461879 0.046431936 0.03119395 -0.15500249 -0.15552075
0.05424141 0.23345366 0.05771772 0.04457991 0.048702348 -0.19773595 0.19552611 -0.25061676
0.10361581 0.078232616 0.112176284 0.008739442 -0.11128675 -0.1003467 0.09455044 -0.06769223
-0.13904113 0.025555676 -0.07878183 -0.033255517 0.04422768 0.0032512324 -0.103477016 0.06174025
0.004780457 0.014888036 -0.067021966 0.02571117 0.21192886 -0.18636392 0.21515715 0.061360784
0.05281986 -0.28363094 0.020956894 0.12631817 0.071018055 0.20345919 0.13723078 -0.2533772
-0.015125755 0.0762699 -0.073014304 0.11382075 0.028918773 -0.14526598 0.08818934 0.07735803
0.059681732 -0.009971055 -0.032215197 0.18141966 0.04577955 0.023817653 -0.0044868593 0.029654967
-0.2133631 0.121881984 0.04360158 -0.07879537 -0.1281003 0.1556582 0.014485019 -0.067364335
0.21960254 -0.12345481 0.15022562 0.23054299 0.12138423 0.116677985 -0.1667003 -0.26030678
-0.11933076 -0.20976353 -0.048735395 0.20992142 0.0005122736 -0.062447038 -0.13850059 0.07141649
0.020814132 0.034081772 -0.0310485 0.14717776 -0.14861368 -0.05082785 0.30568963 0.18913284
-0.16376734 0.09520886 -0.1676304 0.033026587 0.05900814 0.047352582 0.1728643 0.30065733
-0.035184477 0.2307529 0.019612808 -0.080889545 0.23375025 0.006737423 0.14278868 -0.06543479
-0.14282206 -0.14181082 0.105894394 0.088795535 -0.17115124 -0.019901868 0.0049185744 0.28737408
0.06995154 -0.063455656 0.0064567355 -0.15470713 0.062705316 0.041462973 0.18821816 -0.27954844
0.20713745 -0.03829915 -0.13322783 0.054433238 -0.33453077 0.24881627 0.0712357 -0.07600001
-0.03344626 0.005020525 -0.19377008 -0.05330291 0.015910426 0.10062921 -0.06328057 -0.032512687
-0.3022495 -0.108972974 0.3440632 -0.16345914 -0.0434512 0.03135436 -0.019327445 -0.013957359
00000000: b449 ffbd 398f 0fbd 19a1 353e 5b9c 273e
00000010: 1a72 8fbd 3090 2abe 847d 663e 5324 6b3e
00000020: 302c a3bd 8158 9a3c 4bc8 0abd 0e1c 47be
00000030: 9c0e 74bd b518 3d3d f063 8abe d097 bb3d
00000040: c5eb 583d 0a4f 6e3d b2c4 00be d64d 57be
00000050: 197c 043e 9835 80be 1b90 88bd f397 a1bd
00000060: c1e9 fbbd fad4 98bd c9a5 aabc e6ec 943c
00000070: b4f9 45bd e8b7 8ebd 01a7 e63c c69e bebc
00000080: 70c3 1abe f6b2 0b3e f433 2abd 1162 b53d
00000090: c1ed b2bd 316f 1dbd b31f e5bc ec36 843e
000000a0: 5156 2a3e 075e 9a3d 5d99 f4bd 1c55 09be
000000b0: 30a8 303d fcbe 7d3e 9dc7 e3bc 67a0 623e
000000c0: f6d6 0c3d 5c52 11be 45e3 79be 0d9a 9d3d
000000d0: c78c 073e c5f4 0bbd 6d64 4a3d 975a 97bc
000000e0: 1e95 afbd da2a a93a 2c9f 79be cbcf 2ebe
000000f0: 460d 1dbe 835b cebd ff3f 22bd 0123 353e
00000100: 8dbe b7bb 44dd e6bd fbff 79bb 2cb1 b9bd
00000110: 7b00 cc3d aafa 5b3d 2cf4 f9bc d242 153d
00000120: fdf5 87be 3424 193e 3f45 483d 7aa9 153e
00000130: 32fa 383d 81db 19be 2692 aabd daa5 05bd
00000140: 6819 283e 3355 a8bc cd92 cd3d adc4 293d
00000150: 8f8f 95bd d51f fcbc 8ae0 b23c 020d 853d
00000160: a18f a1bd 9c81 08be 234e 683e 28fe f3bd
00000170: ab5e ad3d f567 903e b3cc 503b e9b5 933d
00000180: ad01 8fbe ffb8 513e 8f8e 803d 4074 4b3e
00000190: f046 bcbc b068 15bd 318a 35be c513 59bd
000001a0: d4bb 97bd 1054 b8ba 9ce5 593d 862f 3d3d
000001b0: 6a2f 3e3d 748a ff3c f9b8 1ebe d540 1fbe
000001c0: 3e2c 5e3d 7a0e 6f3e 6a69 6c3d 6c99 363d
000001d0: 1d7c 473d 4b7b 4abe ff37 483e d750 80be
000001e0: 8734 d43d 6c38 a03d aebc e53d e02f 0f3c
000001f0: 4fea e3bd 9282 cdbd a9a3 c13d 39a2 8abd
00000200: cc60 0ebe 235a d13c 5e58 a1bd f036 08bd
00000210: 1528 353d a112 553b c2eb d3bd 58e3 7c3d
00000220: 61a5 9c3b f3ec 733c d042 89bd 3ba0 d23c
00000230: e103 593e 2fd6 3ebe 2852 5c3e 7255 7b3d
00000240: a359 583d 1338 91be cbad ab3c 8d59 013e
00000250: ea71 913d 9b57 503e 3a86 0c3e a8ba 81be
00000260: 04d2 77bc 6533 9c3d 8688 95bd da1a e93d
00000270: 10e7 ec3c 9bc0 14be 9d9c b43d e36d 9e3d
00000280: d574 743d a35d 23bc 15f4 03bd 13c6 393e
00000290: 5683 3b3d 3d1d c33c 8106 93bb f9ee f23c
000002a0: db7b 5abe 439d f93d 9297 323d 785f a1bd
000002b0: ba2c 03be dd64 1f3e 9352 6d3c 50f6 89bd
000002c0: 7ddf 603e e0d5 fcbd bfd4 193e 7613 6c3e
000002d0: 4c98 f83d def4 ee3d 7cb3 2abe ee46 85be
000002e0: af63 f4bd 40cc 56be c49e 47bd a4f5 563e
000002f0: 194a 063a 77c8 7fbd 19d3 0dbe cf42 923d
00000300: 6682 aa3c 5499 0b3d 6d59 febc c4b5 163e
00000310: 2f2e 18be dd30 50bd 5a83 9c3e 0aac 413e
00000320: a0b2 27be ddfc c23d 4ea7 2bbe e346 073d
00000330: 85b2 713d c8f4 413d 5703 313e c2ef 993e
00000340: 991d 10bd 7d4a 6c3e 0aab a03c 6ba9 a5bd
00000350: 3a5c 6f3e 9ac5 dc3b 3237 123e ad02 86bd
00000360: f23f 12be db36 11be 29df d83d 6fda b53d
00000370: 4542 2fbe 3e09 a3bc fe2b a13b b222 933e
00000380: c142 8f3d 0af5 81bd 0693 d33b 8c6b 1ebe
00000390: a56b 803d 14d5 293d 43bc 403e f920 8fbe
000003a0: d71b 543e 92df 1cbd e06c 08be 63f5 5e3d
000003b0: 9e47 abbe b1c9 7e3e 06e4 913d e5a5 9bbd
000003c0: f2fe 08bd 3783 a43b aa6b 46be 2754 5abd
000003d0: 9556 823c b016 ce3d 3e99 81bd 062c 05bd
000003e0: 72c0 9abe 392d dfbd 0d29 b03e d561 27be
000003f0: e3f9 31bd 6e6d 003d 9754 9ebc 68ad 64bc

actor.2.bias f4 [18]
0.03201928 -0.013465587 -0.012610397 0.06414822 0.002148978 -0.028319126 -0.018597815 0.009102568
-0.021787979 -0.005692539 -0.0021597259 -0.04176293 -0.014314935 0.006174118 0.00046554275 0.008871131
0.0030797515 -0.01881898
00000000: a626 033d c49e 5cbc d79b 4ebc 2460 833d
00000010: ded5 0c3b 83fd e7bc 725a 98bc f022 153c
00000020: b47c b2bc 7a88 babb 308a 0dbb 9b0f 2bbd
00000030: 3089 6abc 4150 ca3b 1714 f439 3858 113c
00000040: a8d5 493b 432a 9abc

critic.0.weight f4 [64, 64]
-0.1468357 0.05862175 -0.09457064 0.027648747 -0.09140099 0.02521397 0.06783021 -0.068253085
-0.030892061 0.12912534 -0.09534049 -0.23094755 -0.022567637 0.06838329 0.43153343 0.0674441
0.12929726 -0.059981927 -0.005613035 0.041750014 0.01344945 -0.07957392 0.14111836 -0.10796726
0.14301427 0.1256894 0.0003977047 0.041218057 0.0006408445 0.07074109 -0.28907704 -0.12536846
0.019863147 0.016229464 0.16036056 -0.23502944 -0.047349114 -0.13981248 0.06561197 0.31914183
-0.041741885 0.31418443 0.018586269 0.12843409 0.06557744 0.02677229 0.09286668 -0.014868644
-0.03435783 -0.03644546 0.1705821 0.10112713 0.09568837 0.15086642 -0.10942213 -0.079564855
-0.07691686 0.11609679 0.0799003 -0.04953394 0.18513063 0.029612893 0.16668507 0.01816421
-0.04606718 -0.039735734 -0.096965484 0.17874856 0.11124642 -0.05434444 0.1374555 -0.17949487
-0.054710753 -0.02108595 -0.3010985 -0.13703106 0.016188715 -0.02135763 0.08234399 0.16635202
0.08023924 0.014758156 0.10488577 0.032541923 -0.16068202 -0.17755754 -0.14607513 2.8848466e-05
0.027533801 0.027454328 0.14962544 0.08099138 -0.19530535 0.1864195 0.09312318 0.0014373378
0.0023389924 -0.13267252 0.14950582 0.03127706 -0.11672925 -0.06334807 -0.07568297 0.011026236
-0.19599697 0.0025108831 0.11344736 -0.09754333 0.10092142 -0.15707843 0.055625685 0.12674524
-0.12002909 -0.175601 0.092402115 -0.24457625 -0.21569608 -0.16258717 0.14338899 0.19863898
0.14573322 0.06464883 0.10053358 0.14210284 0.06678168 0.0072904318 -0.005500025 0.034670547
0.104454845 0.12069269 0.3423486 -0.16441329 0.12821329 -0.07900585 0.01675163 0.19664544
-0.10384679 -0.077376194 -0.14380756 -0.09870431 0.087321 -0.049648095 0.08488711 0.071281165
0.14289999 0.12748857 -0.06680647 0.08835878 -0.1475071 0.23178114 0.17981671 -0.039637763
0.22339468 -0.032886542 0.25657663 0.09242752 0.028083732 0.23853447 0.12205281 -0.080230884
-0.08280995 -0.070163384 -0.12153994 0.08985073 -0.04934301 -0.17108777 -0.06331777 0.23596899
0.032510858 -0.09821275 -0.05194541 0.06392076 -0.064655535 -0.027924672 -0.021369355 -0.013744183
0.010882634 0.28903547 -0.051664963 0.098270126 0.25365537 -0.14915706 -0.049043894 0.006006921
-0.021680195 0.08912004 0.008746997 0.0151487775 0.11567041 0.10445883 -0.10771804 0.15874745
-0.14316577 -0.33117867 0.023414511 0.007440502 -0.17768978 -0.020713229 0.19792867 -0.1717492
-0.09634919 -0.25162 -0.07361996 0.054192804 -0.16083524 -0.0660724 -0.06088508 -0.007179321
-0.1313955 0.16329189 -0.011305833 -0.0062957914 -0.04935001 0.10511244 0.07410547 -0.06301139
0.04776316 -0.11821268 -0.21517088 0.039407242 0.15481657 0.11173494 -0.12612844 -0.036263846
-0.0025487707 0.14626916 0.047876474 0.104486294 0.09922193 -0.016663637 -0.19383048 0.13150586
-0.2543589 0.068467505 -0.057252068 -0.18321967 -0.06550375 -0.10819101 0.1625581 -0.045363054
-0.048619106 0.040937256 0.029539002 0.24564688 0.09676024 -0.081334144 -0.022725703 0.054796334
0.10793111 -0.038623966 -0.08497765 0.010898965 0.0189011 -0.08676933 0.18023235 0.28922015
00000000: 195c 16be 5c1d 703d 40ae c1bd a07f e23c
00000010: 7130 bbbd 878d ce3c 91ea 8a3d 46c8 8bbd
00000020: 5911 fdbc 6f39 043e e041 c3bd 847d 6cbe
00000030: c4df b8bc 8a0c 8c3d f3f1 dc3e 2220 8a3d
00000040: 8066 043e 9caf 75bd 8ded b7bb 1002 2b3d
00000050: 155b 5c3c a7f7 a2bd 5581 103e f01d ddbd
00000060: 5572 123e b9b4 003e 0583 d039 44d4 283d
00000070: 59fe 273a b4e0 903d e801 94be 9760 00be
00000080: 0ab8 a23c a7f3 843c 8f35 243e 8fab 70be
00000090: 25f1 41bd 012b 0fbe 925f 863d 8f66 a33e
000000a0: 8af9 2abd c8dc a03e 3b42 983c 3a84 033e
000000b0: 774d 863d 9051 db3c e330 be3d 9d9b 73bc
000000c0: ccba 0cbd d647 15bd 13ad 2e3e be1b cf3d
000000d0: 44f8 c33d ba7c 1a3e b618 e0bd e6f2 a2bd
000000e0: 9686 9dbd 27c4 ed3d c5a2 a33d 1ae4 4abd
000000f0: e292 3d3e bd96 f23c 7eaf 2a3e 1ccd 943c
00000100: f0b0 3cbd f0c1 22bd d795 c6bd dd09 373e
00000110: 2ad5 e33d 4798 5ebd 22c1 0c3e 81cd 37be
00000120: 6218 60bd 71bc acbc 9529 9abe df51 0cbe
00000130: 329e 843c 32f6 aebc f7a3 a83d 2f58 2a3e
00000140: 7854 a43d 31cc 713c 5ace d63d ae4a 053d
00000150: d489 24be a5d1 35be b894 15be 9cff f137
00000160: 918e e13c e6e7 e03c 6937 193e cfde a53d
00000170: 20fe 47be c1e4 3e3e 5eb7 be3d 0e65 bc3a
00000180: c849 193b 4edb 07be 0e18 193e 601c 003d
00000190: bf0f efbd a2bc 81bd acff 9abd 63a7 343c
000001a0: 6eb3 48be a18d 243b 1757 e83d ccc4 c7bd
000001b0: e4af ce3d 2bd9 20be c2d7 633d 81c9 013e
000001c0: d0d1 f5bd c0d0 33be 523d bd3d 3272 7abe
000001d0: 6fdf 5cbe 407d 26be 90d4 123e 0468 4b3e
000001e0: 173b 153e 9b66 843d 8de4 cd3d 6883 113e
000001f0: d5c4 883d 93e4 ee3b 8e39 b4bb b402 0e3d
00000200: 6cec d53d bb2d f73d 5148 af3e f55b 28be
00000210: 584a 033e d2cd a1bd b73a 893c 6c5d 493e
00000220: a0ad d4bd 6977 9ebd 4a42 13be 7c25 cabd
00000230: 5ad5 b23d cd5b 4bbd 4bd9 ad3d dcfb 913d
00000240: 6054 123e 5d8c 023e d5d1 88bd 73f5 b43d
00000250: 1a0c 17be 0958 6d3e df21 383e 355b 22bd
00000260: 93c1 643e 0ab4 06bd 035e 833e a44a bd3d
00000270: db0f e63c 6142 743e d3f6 f93d 1750 a4bd
00000280: 4398 a9bd d2b1 8fbd efe9 f8bd a903 b83d
00000290: e51b 4abd a231 2fbe bfac 81bd dba1 713e
000002a0: 1b2a 053d c423 c9bd b6c4 54bd e3e8 823d
000002b0: 1f6a 84bd 48c2 e4bc c90e afbc 482f 61bc
000002c0: 134d 323c 75fc 933e a49e 53bd d941 c93d
000002d0: 1edf 813e a1bc 18be 40e2 48bd b5d5 c43b
000002e0: aa9a b1bc 9184 b63d 914f 0f3c 9432 783c
000002f0: 9ce4 ec3d 83ee d53d 479b dcbd b18e 223e
00000300: 0c9a 12be 4090 a9be cacf bf3c 74cf f33b
00000310: 4ff4 35be caae a9bc d0ad 4a3e 06df 2fbe
00000320: b952 c5bd 56d4 80be 10c6 96bd 46f9 5d3d
00000330: feb1 24be f750 87bd a262 79bd 8240 ebbb
00000340: 8b8c 06be fd35 273e 1a3c 39bc ed4c cebb
00000350: 3c23 4abd 3145 d73d 9cc4 973d 1e0c 81bd
00000360: 4ea3 433d 7d19 f2bd c155 5cbe 7d69 213d
00000370: 3c88 1e3e 4ad5 e43d d027 01be 6689 14bd
00000380: 4709 27bb 95c7 153e 1f1a 443d e9fc d53d
00000390: de34 cb3d 2e82 88bc 7f7b 46be 79a9 063e
000003a0: 543b 82be b138 8c3d 2581 6abd f09d 3bbe
000003b0: d526 86bd 4093 ddbd a175 263e 9cce 39bd
000003c0: d424 47bd d3ad 273d c7fb f13c db8a 7b3e
000003d0: 3c2a c63d 8492 a6bd 412b babc 1f72 603d
000003e0: fc0a dd3d 2a34 1ebd c308 aebd 9391 323c
000003f0: 7bd6 9a3c 1eb4 b1bd d48e 383e aa14 943e

critic.0.bias f4 [64]
0.025250146 -0.035537325 0.026838662 -0.030854432 -0.019930918 0.020631846 0.025628682 0.022309426
-0.020417528 -0.023958337 0.027590962 -0.0252222 -0.03379251 -0.025343066 0.028767692 -0.019094627
-0.024196235 -0.032733098 0.027544152 -0.020568304 0.028924266 -0.028958185 -0.028949965 -0.030954098
0.022713007 -0.03262219 -0.047807902 -0.023361694 -0.020876275 -0.02064324 -0.026359841 0.021406032
0.019191965 0.032793775 0.026706584 -0.03018224 -0.031870503 -0.028033271 -0.022862803 0.033562355
0.025253594 -0.030801391 0.04215701 0.035246827 -0.02311235 -0.019461554 -0.03510369 0.027229581
-0.03109088 -0.020187875 0.020219397 -0.038589653 0.019720245 -0.019810058 -0.021723792 0.024761671
-0.026936082 0.020531548 -0.022979783 -0.028786825 -0.026423197 -0.033581633 0.027429147 -0.03030464
00000000: 65d9 ce3c 968f 11bd c1dc db3c 6fc2 fcbc
00000010: 2a46 a3bc 1e04 a93c 3ef3 d13c 42c2 b63c
00000020: a942 a7bc 4644 c4bc 7106 e23c ca9e cebc
00000030: 046a 0abd 439c cfbc 39aa eb3c 566c 9cbc
00000040: 2f37 c6bc 2413 06bd 46a4 e13c dc7e a8bc
00000050: 95f2 ec3c b739 edbc 7a28 edbc 7393 fdbc
00000060: a110 ba3c d89e 05bd 38d2 43bd 0661 bfbc
00000070: b904 abbc 031c a9bc 98f0 d7bc b45b af3c
00000080: 7838 9d3c c452 063d c4c7 da3c bf40 f7bc
00000090: a58a 02bd 08a6 e5bc c64a bbbc ae78 093d
000000a0: a0e0 ce3c 3353 fcbc d4ac 2c3d fa5e 103d
000000b0: 1c56 bdbc d66d 9fbc e3c8 0fbd 9210 df3c
000000c0: 4db2 febc 0b61 a5bc 26a3 a53c 2f10 1ebd
000000d0: 5a8c a13c b448 a2bc 18f6 b1bc fdd8 ca3c
000000e0: 0fa9 dcbc c731 a83c 1940 bcbc 59d2 ebbc
000000f0: 7675 d8bc e58c 09bd 17b3 e03c 7041 f8bc

critic.2.weight f4 [1, 64]
0.92824864 -0.9659801 0.81710154 -0.9368917 -0.81992525 -0.82076555 0.90473294 0.89877456
-0.83304954 -0.9501791 0.8278137 -0.96329015 -0.852071 -0.8514341 1.00289 -0.9688462
-1.0294508 -0.8132116 0.99412876 -0.86093193 0.90445286 -0.9481297 -0.91828495 -0.91719514
1.0715536 -0.89802265 -0.82887685 -0.92801464 -0.8452043 -0.8503895 -0.8857066 0.9746136
0.84126973 0.8699253 0.9339679 -0.7933412 -0.8252452 -0.88254476 -0.91594785 0.8633642
0.82588714 -0.82611555 0.8278323 0.81723696 -0.92613494 -0.9937117 -0.8140627 0.9070665
-0.9396265 -0.8293241 0.93794346 -0.8206431 0.8134158 -1.2142205 -0.88328063 1.0078424
-0.914871 0.8335436 -0.79860914 -0.8903576 -0.8332015 -0.87762237 0.9065117 -0.8113608
00000000: b4a1 6d3f 794a 77bf 912d 513f 22d8 6fbf
00000010: 9fe6 51bf b11d 52bf 949c 673f 1716 663f
00000020: bc42 55bf f03e 73bf 99eb 533f 2f9a 76bf
00000030: 5321 5abf 96f7 59bf b35e 803f 4e06 78bf
00000040: 0bc5 83bf a32e 50bf 397f 7e3f 0966 5cbf
00000050: 398a 673f a1b8 72bf b914 6bbf 4dcd 6abf
00000060: ab28 893f d0e4 65bf 4631 54bf 5e92 6dbf
00000070: 4f5f 58bf 20b3 59bf abbd 62bf 4780 793f
00000080: 745d 573f 6db3 5e3f 8518 6f3f 6918 4bbf
00000090: 4543 53bf 74ee 61bf 8f7b 6abf 7005 5d3f
000000a0: 576d 533f 4f7c 53bf d1ec 533f 7136 513f
000000b0: 2e17 6dbf e463 7ebf 6a66 50bf 8335 683f
000000c0: 5d8b 70bf 964e 54bf 101d 703f ab15 52bf
000000d0: 053c 503f 946b 9bbf ae1e 62bf fb00 813f
000000e0: fc34 6abf 1d63 553f a671 4cbf 7aee 63bf
000000f0: b24c 55bf dcab 60bf 2711 683f 57b5 4fbf

exp_avg f4 [16, 3, 2, 2]
-4.418043e-06 -4.5387474e-06 -4.588609e-06 -1.2078768e-06 -7.5140238e-06 -6.2005283e-06 -6.552737e-06 -7.3778915e-07
0.0 0.0 0.0 0.0 -1.4135987e-06 -5.534103e-06 -1.3827556e-06 -6.256003e-06
-3.3576712e-06 -1.0327196e-05 -3.1690702e-06 -1.0884451e-05 0.0 0.0 0.0 0.0
1.062033e-08 2.16674e-07 1.062033e-08 1.1954719e-08 5.1786016e-17 6.931194e-09 4.767814e-18 1.0391399e-16
0.0 0.0 0.0 0.0 -3.5177704e-06 -5.3870366e-07 -1.7141169e-06 -1.6468879e-06
-4.5513884e-06 8.55646e-09 -3.3529166e-06 -9.5108726e-07 0.0 0.0 0.0 0.0
-1.2582251e-06 -5.233582e-06 -1.2856442e-06 -7.0407864e-06 -2.886571e-06 -1.0893058e-05 -2.9676908e-06 -1.2062985e-05
0.0 0.0 0.0 0.0 -6.117017e-06 -9.4704626e-07 -1.8342034e-06 -3.4601144e-06
-8.0639165e-06 -8.4425926e-07 -4.4213557e-06 -1.7714802e-06 0.0 0.0 0.0 0.0
5.5109094e-08 2.8326068e-07 -1.8598062e-07 -3.812395e-07 2.1107e-08 -5.8506453e-09 1.229708e-08 6.980206e-09
0.0 0.0 0.0 0.0 -3.2484894e-07 -7.708687e-08 -3.5451183e-07 -2.848828e-07
-7.877988e-08 -8.5710006e-10 -7.99624e-08 1.8601868e-08 0.0 0.0 0.0 0.0
0.0 0.0 0.0 -2.8104687e-08 0.0 0.0 0.0 -7.0261706e-08
0.0 0.0 0.0 0.0 1.10413495e-07 2.9140006e-07 3.3049642e-07 6.775173e-08
2.2008361e-08 7.032553e-08 2.84101e-07 1.5035738e-07 0.0 0.0 0.0 0.0
-3.9286697e-06 -4.0664772e-06 -1.4733773e-06 -7.973813e-06 -5.07783e-06 -7.861878e-06 -3.4822797e-06 -1.0591491e-05
0.0 0.0 0.0 0.0 -4.733423e-07 -3.1580214e-07 -1.0579827e-06 -4.1648156e-07
-1.4215686e-06 -2.3362195e-07 -1.7904656e-06 -2.8140477e-07 0.0 0.0 0.0 0.0
-2.457341e-06 -6.07216e-07 -9.5062677e-07 -2.397776e-06 -3.938616e-06 -1.5161714e-06 -2.2778465e-06 -1.9173863e-06
0.0 0.0 0.0 0.0 -8.8026314e-07 -6.4932287e-06 -2.1074377e-06 -3.5283297e-06
-2.2708891e-06 -1.1179986e-05 -3.5820256e-06 -6.798776e-06 0.0 0.0 0.0 0.0
-1.4419681e-10 -2.934215e-23 -6.991189e-11 -1.8447212e-08 -3.5247485e-10 -7.3355456e-23 0.0 -4.6118036e-08
0.0 0.0 0.0 0.0 -5.5873505e-07 -2.8448171e-06 -1.089463e-06 -5.0536673e-06
-1.2060433e-06 -6.8136574e-06 -1.4366033e-06 -8.210952e-06 0.0 0.0 0.0 0.0
00000000: b33e 94b6 8b4b 98b6 daf7 99b6 551e a2b5
00000010: f920 fcb6 220e d0b6 95df dbb6 7c0c 46b5
00000020: 0000 0000 0000 0000 0000 0000 0000 0000
00000030: e2ba bdb5 95b1 b9b6 1f97 b9b5 a8ea d1b6
00000040: 5a54 61b6 f842 2db7 36ac 54b6 5c9c 36b7
00000050: 0000 0000 0000 0000 0000 0000 0000 0000
00000060: b574 3632 e5a6 6834 b574 3632 6961 4d32
00000070: 23d2 6e24 6d27 ee31 bbe6 af22 fe9b ef24
00000080: 0000 0000 0000 0000 0000 0000 0000 0000
00000090: d612 6cb6 6f9b 10b5 9c10 e6b5 a30a ddb5
000000a0: 21b8 98b6 b6ff 1232 ab02 61b6 384e 7fb5
000000b0: 0000 0000 0000 0000 0000 0000 0000 0000
000000c0: 49e0 a8b5 219c afb6 668e acb5 e53f ecb6
000000d0: eab6 41b6 54c1 36b7 8a28 47b6 2062 4ab7
000000e0: 0000 0000 0000 0000 0000 0000 0000 0000
000000f0: c740 cdb6 8638 7eb5 c02e f6b5 5034 68b6
00000100: 424a 07b7 0ea1 62b5 285b 94b6 99c3 edb5
00000110: 0000 0000 0000 0000 0000 0000 0000 0000
00000120: 17b1 6c33 0d13 9834 f7b1 47b4 28ad ccb4
00000130: c94e b532 d206 c9b1 2143 5332 8bd6 ef31
00000140: 0000 0000 0000 0000 0000 0000 0000 0000
00000150: e666 aeb4 f48a a5b3 bc53 beb4 fef1 98b4
00000160: b22d a9b3 0e99 6bb0 cbb7 abb3 f1c9 9f32
00000170: 0000 0000 0000 0000 0000 0000 0000 0000
00000180: 0000 0000 0000 0000 0000 0000 dc6a f1b2
00000190: 0000 0000 0000 0000 0000 0000 c8e2 96b3
000001a0: 0000 0000 0000 0000 0000 0000 0000 0000
000001b0: 761c ed33 b871 9c34 156f b134 e87e 9133
000001c0: e60c bd32 de05 9733 8b86 9834 ec71 2134
000001d0: 0000 0000 0000 0000 0000 0000 0000 0000
000001e0: 04d3 83b6 c672 88b6 dcc0 c5b5 44c7 05b7
000001f0: 3a62 aab6 82e6 03b7 1cb1 69b6 1cb2 31b7
00000200: 0000 0000 0000 0000 0000 0000 0000 0000
00000210: ac1f feb4 848b a9b4 0200 8eb5 ca98 dfb4
00000220: bacc beb5 83d9 7ab4 ee4f f0b5 fa13 97b4
00000230: 0000 0000 0000 0000 0000 0000 0000 0000
00000240: cce8 24b6 91ff 22b5 932e 7fb5 7ae9 20b6
00000250: 7428 84b6 417f cbb5 1bdd 18b6 72ac 00b6
00000260: 0000 0000 0000 0000 0000 0000 0000 0000
00000270: 394b 6cb5 69e0 d9b6 816d 0db6 3ec8 6cb6
00000280: 9465 18b6 ad91 3bb7 bb62 70b6 0b21 e4b6
00000290: 0000 0000 0000 0000 0000 0000 0000 0000
000002a0: cb8b 1eaf d3e3 0d9a e5bc 99ae d975 9eb2
000002b0: 6dc6 c1af d45c b19a 0000 0000 5113 46b3
000002c0: 0000 0000 0000 0000 0000 0000 0000 0000
000002d0: fbfb 15b5 96e9 3eb6 aa39 92b5 ac92 a9b6
000002e0: 55df a1b5 dfa0 e4b6 50d1 c0b5 c5c1 09b7
000002f0: 0000 0000 0000 0000 0000 0000 0000 0000
