storage/MiniGrid-ThrowLeftoversNavigation-8x8-N2-v0_22-07-20-16-34-07/status.pt (torch, 256701 bytes, 39 tensors)

image_conv.0.weight f4 [16, 3, 2, 2]
0.17781498 -0.09606187 -0.026705552 0.16310225 -0.24087186 0.20601241 -0.02844286 0.17973973
0.040130734 -0.035346568 0.08006719 0.014240861 0.13443099 -0.085943654 -0.0034247169 0.0026900724
0.07530863 0.023048311 0.28285185 0.11042712 -0.10750443 -0.17434862 -0.04838647 -0.12451734
-0.07943831 0.025456218 0.18639423 0.16969535 -0.2610601 0.20239441 0.09726029 0.29646426
0.19054285 -0.26302278 -0.27447474 -0.13923728 0.26599908 -0.034057163 0.136985 -0.13054685
0.29888722 -0.11275107 0.23249653 0.0034253178 -0.15207909 0.14838329 -0.15323457 0.08490071
-0.05663464 -0.01245332 -0.24983168 -0.10901396 0.1842739 -0.04476663 0.31505224 0.25895402
-0.0135168135 -0.19268577 0.17579225 0.08959237 -0.16806331 0.20679586 0.19236769 0.28364247
-0.13617298 -0.018089168 0.021149263 0.07509435 -0.21908084 -0.20485033 0.1570406 -0.067692
0.16782486 0.045474946 0.11363557 0.09377133 0.13814272 0.17684536 -0.23825957 0.17912118
-0.20297419 -0.21780798 0.017555594 -0.04919231 0.18056011 -0.16694103 -0.23822469 0.21617103
-0.014453017 0.17731622 0.11638923 -0.21560863 0.057994336 0.06933877 -0.19328493 -0.13696834
0.12911151 0.08446234 -0.09302769 -0.055412453 0.2966675 -0.018017119 0.19413811 0.15867214
-0.18660167 -0.24549785 0.27709597 0.015073687 0.21845323 0.07723379 0.11674502 0.23675838
0.2994101 -0.16602813 0.0660515 0.24392751 0.20912638 0.1793361 -0.20891964 -0.20787618
-0.1891744 0.018197866 0.27010506 -0.20002596 0.14119034 -0.17869365 -0.2900946 -0.07017349
0.16632622 0.26799875 -0.17927846 0.06264573 0.24892458 0.19636217 0.15832071 0.19105586
0.19102407 0.09638523 -0.20131202 -0.24225812 -0.1322769 -0.033615023 -0.17694406 0.105612844
0.11496087 -0.03916823 0.13279724 0.119777694 0.20557429 0.21432327 -0.06912752 0.3112628
-0.033373088 -0.009917736 -0.2724747 -0.185796 -0.15809813 -0.09571848 0.21094196 -0.073181085
-0.1940968 0.14050709 0.113142304 0.21677878 -0.14938134 0.06258911 -0.10509236 -0.064858004
-0.20532086 -0.10599577 -0.06810084 0.14640836 0.077589735 0.100723065 0.31248596 0.31178594
0.19689006 0.009192437 -0.19970298 0.22560239 -0.074724436 -0.026557783 -0.24222156 -0.066391364
-0.19259821 0.24776478 -0.24956572 -0.23474601 -0.009802341 -0.15609111 0.10329133 -0.11111845
00000000: 2115 363e 16bc c4bd 9ac5 dabc 4704 273e
00000010: 1da7 76be ebf4 523e 0001 e9bc b10d 383e
00000020: 2060 243d 90c7 10bd 44fa a33d 8052 693c
00000030: 47a8 093e 3a03 b0bd 3771 60bb ed4b 303b
00000040: 693b 9a3d d0cf bc3c f5d1 903e 9d27 e23d
00000050: 482b dcbd 7288 32be e430 46bd f202 ffbd
00000060: 8db0 a2bd 8f89 d03c 21de 3e3e 9ec4 2d3e
00000070: aba9 85be 7b40 4f3e 6730 c73d 2aca 973e
00000080: aa1d 433e ecaa 86be f487 8cbe 3894 0ebe
00000090: 0831 883e 867f 0bbd cc45 0c3e 13ae 05be
000000a0: bf07 993e 08ea e6bd 9213 6e3e 4c7b 603b
000000b0: 9fba 1bbe caf1 173e 86e9 1cbe 6ce0 ad3d
000000c0: b9f9 67bd 0309 4cbc e0d3 7fbe b642 dfbd
000000d0: 4cb2 3c3e 375d 37bd 874e a13e 9f95 843e
000000e0: a075 5dbc 6b4f 45be e202 343e 347c b73d
000000f0: ca18 2cbe 4bc2 533e 09fc 443e 9639 913e
00000100: ee70 0bbe bc2f 94bc 3841 ad3c 11cb 993d
00000110: ba56 60be 49c4 51be 40cf 203e 1aa2 8abd
00000120: 48da 2b3e f043 3a3d c4b9 e83d 2f0b c03d
00000130: 4975 0d3e f316 353e 51fa 73be 8b6b 373e
00000140: 77d8 4fbe 0e09 5fbe c0d0 8f3c e07d 49bd
00000150: c0e4 383e 97f2 2abe 2cf1 73be f05b 5d3e
00000160: 59cc 6cbc 6292 353e 7a5d ee3d 82c8 5cbe
00000170: 788b 6d3d 7c01 8e3d 7cec 45be 6e41 0cbe
00000180: cf35 043e 97fa ac3d 4d85 bebd 2bf8 62bd
00000190: cde4 973e a398 93bc 24cc 463e f37a 223e
000001a0: 8214 3fbe ca63 7bbe 86df 8d3e a0f7 763c
000001b0: 34b2 5f3e c02c 9e3d 0318 ef3d ca70 723e
000001c0: 484c 993e 4703 2abe 0246 873d 22c8 793e
000001d0: 3a25 563e e2a3 373e 08ef 55be 7edd 54be
000001e0: efb6 41be b113 953c 364b 8a3e 9bd3 4cbe
000001f0: 3394 103e 78fb 36be 4887 94be 1eb7 8fbd
00000200: 6c51 2a3e 2237 893e c694 37be 684c 803d
00000210: 16e6 7e3e 2a13 493e d31e 223e 26a4 433e
00000220: d09b 433e 9f65 c53d bd24 4ebe 8312 78be
00000230: 9873 07be e8af 09bd d330 35be 8c4b d83d
00000240: 9b70 eb3d de6e 20bd 00fc 073e 024e f53d
00000250: 1182 523e 8f77 5b3e bb92 8dbd d65d 9f3e
00000260: 38b2 08bd 007e 22bc ce81 8bbe 4e41 3ebe
00000270: 7ae4 21be 0d08 c4bd 2b01 583e f7df 95bd
00000280: 50c1 46be 17e1 0f3e 27b7 e73d 42fb 5d3e
00000290: 6cf7 18be b82e 803d aa3a d7bd 46d4 84bd
000002a0: a23f 52be 4f14 d9bd 7478 8bbd 13ec 153e
000002b0: 5ee7 9e3d e547 ce3d 29fe 9f3e 68a2 9f3e
000002c0: 8c9d 493e e09b 163c f07e 4cbe 5004 673e
000002d0: 2009 99bd b58f d9bc ee08 78be 32f8 87bd
000002e0: 7738 45be 0db6 7d3e 288e 7fbe 4261 70be
000002f0: 009a 20bc 59d6 1fbe 688a d33d 1292 e3bd

image_conv.0.bias f4 [16]
-0.10241144 0.039143957 0.23367934 -0.19249506 0.16184886 0.21228383 0.31530085 -0.18132432
0.104117736 -0.18561587 0.22309636 -0.112016596 0.1897238 0.038022403 0.009472511 -0.026857091
00000000: 17bd d1bd 6a55 203d a349 6f3e 6d1d 45be
00000010: b5bb 253e ef60 593e 1d6f a13e 15ad 39be
00000020: ae3b d53d 1612 3ebe 5f73 643e f568 e5bd
00000030: f546 423e 61bd 1b3d 9732 1b3c 6703 dcbc

image_conv.3.weight f4 [32, 16, 2, 2]
0.02277623 0.06648171 0.02547457 0.040519405 -0.124020234 0.098459415 0.103959695 0.106866196
0.09111835 -0.08565374 -0.041607786 0.11428902 -0.110833414 0.11719196 -0.10970547 -0.085914575
0.05667231 -0.085990384 -0.030173387 0.093925826 0.09620875 0.11845461 -0.022491965 -0.09023391
0.122513704 -0.021659557 -0.048914034 0.03110679 -0.09337786 0.08890124 0.061212026 -0.10087067
-0.113426685 -0.0067782947 0.04376068 -0.00045138237 -0.07119518 0.0057191653 -0.12504861 -0.08481005
-0.08435892 0.093472525 0.10953497 -0.040811896 0.00030565474 0.056716584 0.0042682225 -0.062082786
0.07076929 0.082238086 -0.008137026 -0.013181967 0.11016249 0.1115002 -0.061490957 0.12633805
0.025777105 -0.07563035 0.06944962 -0.08861171 0.11611959 -0.07902866 0.030568566 0.03412164
0.05674689 0.1311284 -0.024897123 -0.024037054 -0.08321176 0.02258062 -0.034974154 0.03238469
0.00089509145 0.06843553 0.13475841 0.06515186 -0.01789042 -0.035813924 -0.08716642 0.13030367
0.0035278406 0.053207092 0.03043913 -0.050905343 0.094627395 0.0935491 0.031024422 -0.046470873
-0.026321145 0.02838757 -0.044886187 -0.042038098 0.0007006939 -0.014088814 0.05425869 -0.010138624
0.009062887 -0.020330539 -0.08982711 0.13666989 0.047500007 0.13674375 0.0030483596 -0.005439947
-0.09132025 -0.02712168 0.10973178 -0.09963686 -0.022566354 0.09903122 0.09278341 0.06899227
0.0016893918 0.017420284 0.002424767 -0.01825111 0.07927636 -0.015222695 -0.043213136 0.057167564
-0.064091265 0.00080121396 0.08967391 0.0751124 0.13229024 -0.06946748 0.025052724 -0.011900105
-0.05269588 -0.060423627 0.046365008 0.028955901 -0.048524972 -0.06729027 -0.090359 0.1389476
-0.0045044557 -0.015352062 -0.030684788 -0.04784366 -0.09990251 -0.05481002 0.08965645 0.042342223
-0.029424846 -0.029563818 0.09137637 0.10789928 0.1361797 0.048872583 0.07449415 0.002899602
-0.05572691 -0.10448406 0.0913783 -0.0010700786 0.06324938 0.015050919 -0.10322241 -0.042567667
0.05216229 -0.0027056956 -0.10795835 0.061146062 0.01924139 -0.020818917 0.06399618 0.042667944
-0.033316534 0.126051 0.07456336 0.028046848 -0.009829395 -0.08975205 0.11003886 -0.017933613
-0.06318524 0.09880066 0.060487874 0.047937755 -0.007807807 -0.025975972 0.036172826 0.1106904
0.034893375 -0.043179847 0.1390989 0.018837495 0.10205233 0.03319674 0.12284333 0.07547573
-0.06948111 0.08056025 0.0013110955 -0.106612004 -0.029906329 -0.121936634 -0.06555266 -0.09638291
0.07974769 -0.033842556 -0.023064896 0.055700768 0.05006262 -0.0928307 0.04783988 0.04525169
-0.10557245 0.09865142 -0.08399581 -0.059904415 -0.108141616 0.10639608 0.022938482 0.101257056
0.0027703564 0.060415752 -0.04261515 -0.105426274 0.013931506 -0.015274053 -0.007866217 -0.068234876
-0.0023640934 0.027998533 0.041987494 -0.108393416 0.053860527 0.0038174894 0.085448064 0.08210491
-0.09664683 0.112062834 -0.12848645 0.06868307 0.0032581273 0.050257146 -0.06867972 0.06914851
-0.06778258 -0.118627906 0.039158665 0.061791126 0.120194964 -0.020997806 0.11862337 0.07908564
-0.0686467 -0.10444657 0.06763417 -0.07666312 0.05074219 -0.11344015 0.085279584 0.04645404
00000000: 3795 ba3c 9027 883d 0cb0 d03c adf7 253d
00000010: 52fe fdbd 17a5 c93d d2e8 d43d aadc da3d
00000020: 429c ba3d 3a6b afbd ed6c 2abd 5d10 ea3d
00000030: a1fc e2bd 5702 f03d 43ad e0bd fbf3 afbd
00000040: 3921 683d ba1b b0bd 2e2e f7bc 2f5c c03d
00000050: 1809 c53d 5598 f23d 1241 b8bc 8ecc b8bd
00000060: 77e8 fa3d 626f b1bc 155a 48bd abd3 fe3c
00000070: e43c bfbd da11 b63d 76b9 7a3d 4895 cebd
00000080: 404c e8bd 751c debb 663e 333d 84a7 ecb9
00000090: c7ce 91bd d667 bb3b be0c 00be e4b0 adbd
000000a0: 5fc4 acbd 866e bf3d df53 e03d 602a 27bd
000000b0: 4940 a039 a64f 683d 72dc 8b3b 854a 7ebd
000000c0: 7def 903d 716c a83d 2951 05bc 2df9 57bc
000000d0: df9c e13d 385a e43d f1dd 7bbd c35e 013e
000000e0: 822a d33c 16e4 9abd 9a3b 8e3d 0e7a b5bd
000000f0: 1cd0 ed3d c7d9 a1bd ee6a fa3c 22c3 0b3d
00000100: 6d6f 683d 8646 063e 0df5 cbbc 5be9 c4bc
00000110: ed6a aabd fefa b83c 0f41 0fbd cfa5 043d
00000120: 92a4 6a3a ed27 8c3d 1cfe 093e 576e 853d
00000130: ee8e 92bc 9fb1 12bd 4f84 b2bd 536e 053e
00000140: 5833 673b aeef 593d 7b5b f93c 1f82 50bd
00000150: 02cc c13d ac96 bf3d ee26 fe3c 3e58 3ebd
00000160: 719f d7bc 0d8d e83c 94da 37bd 2430 2cbd
00000170: c6ae 373a c5d4 66bc 5c3e 5e3d 791c 26bc
00000180: 817c 143c 3b8c a6bc 47f7 b7bd 31f3 0b3e
00000190: 5e8f 423d 8e06 0c3e fdc6 473b 9541 b2bb
000001a0: 1c06 bbbd 492e debc 0ebb e03d 690e ccbd
000001b0: 13dd b8bc e1d0 ca3d 3a05 be3d d24b 8d3d
000001c0: 956e dd3a fcb4 8e3c d7e8 1e3b 5a83 95bc
000001d0: a55b a23d 9c68 79bc 4200 31bd 8928 6a3d
000001e0: 4842 83bd 8f08 523a f4a6 b73d 88d4 993d
000001f0: 1877 073e f744 8ebd 5f3b cd3c a8f8 42bc
00000200: a3d7 57bd c47e 77bd 3ce9 3d3d ed34 ed3c
00000210: 1fc2 46bd 7bcf 89bd 240e b9bd 4848 0e3e
00000220: 1d9a 93bb 3787 7bbc aa5e fbbc b7f7 43bd
00000230: b099 ccbd 7980 60bd cd9d b73d 0a6f 2d3d
00000240: 600c f1bc d22f f2bc 8923 bb3d 4cfa dc3d
00000250: b172 0b3e 9e2e 483d 6490 983d 4007 3e3b
00000260: e641 64bd bdfb d5bd 8c24 bb3d e141 8cba
00000270: e488 813d 2198 763c 4566 d3bd 6f5b 2ebd
00000280: 20a8 553d 0a52 31bb 4419 ddbd 4b74 7a3d
00000290: 1fa0 9d3c 6f8c aabc 6e10 833d 95c4 2e3d
000002a0: eb76 08bd 8313 013e adb4 983d 81c2 e53c
000002b0: 790b 21bc eccf b7bd 0e5c e13d 83e9 92bc
000002c0: 4367 81bd 0058 ca3d 22c2 773d 615a 443d
000002d0: a2d8 ffbb 90cb d4bc f529 143d a6b1 e23d
000002e0: 5bec 0e3d 5add 30bd f16f 0e3e 1751 9a3c
000002f0: d000 d13d 4ef9 073d 4995 fb3d 0593 9a3d
00000300: 1d4c 8ebd c6fc a43d 11d9 ab3a 6557 dabd
00000310: 1efe f4bc eab9 f9bd 7940 86bd 6764 c5bd
00000320: c252 a33d 7e9e 0abd 98f2 bcbc 7d26 643d
00000330: 760e 4d3d 061e bebd c0f3 433d d659 393d
00000340: 5e36 d8bd c109 ca3d ff05 acbd 555e 75bd
00000350: 5a79 ddbd 30e6 d93d 7ce9 bb3c dc5f cf3d
00000360: de8e 353b 8276 773d 398d 2ebd bbe9 d7bd
00000370: f940 643c 0640 7abc 4ee1 00bc babe 8bbd
00000380: e8ee 1abb 2e5d e53c 14fb 2b3d 5efd ddbd
00000390: db9c 5c3d d82e 7a3b 65ff ae3d 9e26 a83d
000003a0: c6ee c5bd 3381 e53d f491 03be b6a9 8c3d
000003b0: 4e86 553b 70da 4d3d f4a7 8cbd bc9d 8d3d
000003c0: 98d1 8abd 30f3 f2bd d664 203d b118 7d3d
000003d0: c728 f63d 9703 acbc cff0 f23d a7f7 a13d
000003e0: a496 8cbd 15e8 d5bd c983 8a3d 8e01 9dbd
000003f0: 0bd7 4f3d 4f53 e8bd 10a7 ae3d 9746 3e3d

image_conv.3.bias f4 [32]
0.0023115557 -0.012045372 0.04576922 -0.07674966 -0.06150252 -0.011042191 -0.061895773 -0.0018032897
0.03647824 0.13501011 0.06609953 0.026716063 -0.09967637 -0.06281802 0.010626567 -0.09824684
0.0586886 0.10468332 0.08699905 -0.021271426 -0.007887848 0.15269692 0.006817658 -0.07949038
0.026788503 -0.006669533 -0.048456986 0.012405243 -0.09959233 0.0662583 -0.058947723 0.073093675
00000000: 787d 173b f459 45bc 8178 3b3d ed2e 9dbd
00000010: 11ea 7bbd 4eea 34bc 6c86 7dbd 5d5c ecba
00000020: 356a 153d 1740 0a3e 315f 873d a5db da3c
00000030: 2023 ccbd bca6 80bd 0d1b 2e3c a435 c9bd
00000040: 7563 703d 3564 d63d 8f2c b23d 6a41 aebc
00000050: 083c 01bc 955c 1c3e a966 df3b dacb a2bd
00000060: 9073 db3c 198c dabb d57a 46bd 5c3f 4b3c
00000070: 10f7 cbbd 6eb2 873d 2b73 71bd 23b2 953d

image_conv.5.weight f4 [64, 32, 2, 2]
0.077322036 -0.038935814 -0.0217309 0.033672623 0.015077256 0.07779019 0.009748452 0.039607268
-0.015086754 0.03514448 0.049117327 -0.058931153 0.04222577 -0.012176645 0.07554079 -0.08101107
0.015620578 0.07324211 0.09150983 0.01810339 -0.01924081 -0.06405543 -0.03570355 0.08803326
-0.060737483 -0.011005566 0.06388437 0.068641916 -0.06944554 0.011519198 0.021610996 0.08112308
0.011222504 0.063025065 0.005140047 0.10607707 0.012239075 -0.027500106 0.03421443 -0.029750753
0.028299691 0.08626243 -0.05688239 -0.038970627 0.014570988 0.019164657 -0.018407317 0.09735465
0.03756294 -0.030371293 0.013292032 -0.00563022 -0.058156963 0.036004428 -0.058005597 0.021093542
0.08558478 -0.043217905 0.026390146 0.1141581 0.052075155 -0.027989747 0.02313692 -0.08663783
0.038407948 0.09055544 0.10246658 0.013157191 0.042649142 0.0010056659 -0.009697092 0.034941357
-0.025966877 0.069681115 0.06869245 0.0008248175 -0.00531174 -0.03570816 0.026791021 0.05349751
0.111784965 -0.048405472 -0.042451583 0.044281404 0.09703562 0.024154088 0.041967783 0.034287732
0.0063591353 0.091486625 0.0776051 -0.024251174 -0.035620768 -0.050372936 0.007328943 0.028154502
0.094093785 -0.05464762 0.08050716 -0.02302198 0.007175674 -0.00074015785 0.054803934 -0.070678964
-0.036491856 0.03707333 0.056445334 -0.024265392 0.038232442 0.006946211 -0.06324225 0.04962735
-0.0011530429 0.058485214 0.075078845 0.060653623 0.07270806 -0.044101246 -0.06849801 0.037103355
0.045547992 -0.050312907 0.099087276 0.01272543 -0.029311853 0.08341466 0.1066591 0.037370156
-0.00070247945 0.03292466 -0.037993837 0.07961333 0.08205619 0.013127005 -0.03990563 0.09759131
-0.048140865 -0.02327723 0.07464624 -0.021450046 0.03717996 0.09763752 -0.0020057063 -0.0073231934
0.11118975 0.03434325 0.05961063 -0.0034398262 -0.053250674 0.049588893 -0.027006296 -0.03667599
-0.04441637 0.10407858 -0.028308937 0.054788526 0.026645618 0.061048143 0.058232322 -0.061882026
0.06994406 -0.012799103 0.03660139 0.00042470367 -0.05766431 0.04961305 -0.03952072 0.11238709
0.059620976 -0.0072900886 -0.027949786 -0.056546766 -0.012298025 -0.031418692 0.04195604 0.054233763
0.076724865 0.0064933193 -0.017954685 -0.03940724 -0.0019450681 0.054937836 -0.073709466 -0.07176937
0.06196483 0.002398025 0.0039414107 -0.028262088 -0.04151585 -0.04672137 -0.036164124 -0.05754434
-0.019034088 0.098123364 -0.02535304 0.092273824 -0.04873375 0.031570904 0.018096015 -0.0405618
0.032025486 0.103701994 -0.008062967 0.1116375 0.015317232 -0.008739336 0.068929076 0.08689788
0.10264041 0.082370676 -0.04891586 0.016212381 0.03967547 -0.01068608 0.07169687 0.0115830535
-0.045534838 -0.0081349285 -0.024878116 0.06747986 -0.040887073 0.0015014146 0.033476237 0.059718214
-0.040114127 0.08901744 -0.026294703 -0.039084483 0.051491342 -0.042590562 0.080755986 0.05039967
-0.023612902 -0.0058330875 -0.017033104 -0.008974793 0.026769783 0.022981895 -0.032791056 -0.044460356
-0.03782525 0.028050657 0.03449438 -0.035182174 0.017136592 0.027944949 0.0948418 -0.047294777
-0.022525353 0.017415663 0.0042960816 -0.018619958 0.07351176 -0.00911304 0.046343535 -0.024177121
00000000: 045b 9e3d 297b 1fbd 0005 b2bc 4eec 093d
00000010: 9806 773c 7750 9f3d f9b7 1f3c 3b3b 223d
00000020: 6f2e 77bc a9f3 0f3d 402f 493d cb61 71bd
00000030: eef4 2c3d 8d80 47bc 21b5 9a3d 22e9 a5bd
00000040: 74ed 7f3c f6ff 953d 8169 bb3d 8f4d 943c
00000050: e79e 9dbc 7e2f 83bd e33d 12bd c84a b43d
00000060: dec7 78bd b150 34bc cfd5 823d 2294 8c3d
00000070: 7739 8ebd 05bb 3c3c 8b09 b13c db23 a63d
00000080: 98de 373c 4913 813d d76d a83b ef3e d93d
00000090: 6786 483c e747 e1bc 6e24 0c3d dab7 f3bc
000000a0: c1d4 e73c 5baa b03d 82fd 68bd aa9f 1fbd
000000b0: 27bb 6e3c 33ff 9c3c f1ca 96bc e061 c73d
000000c0: 99db 193d 38cd f8bc d3c6 593c b57d b8bb
000000d0: ff35 6ebd 6179 133d 4797 6dbd 5dcc ac3c
000000e0: 1347 af3d 4205 31bd 2630 d83c b9cb e93d
000000f0: c24c 553d c14a e5bc a389 bd3c 2d6f b1bd
00000100: a751 1d3d 2175 b93d 00da d13d 4291 573c
00000110: deb0 2e3d 8cd0 833a 8de0 1ebc ab1e 0f3d
00000120: 7db8 d4bc f9b4 8e3d a1ae 8c3d 9138 583a
00000130: 1b0e aebb b842 12bd d878 db3c 3420 5b3d
00000140: 84ef e43d d144 46bd b6e1 2dbd 6b60 353d
00000150: 9cba c63d cbde c53c 69e6 2b3d 4b71 0c3d
00000160: 4b60 d03b 575d bb3d 6cef 9e3d 66aa c6bc
00000170: 15e7 11bd da53 4ebd a127 f03b 45a4 e63c
00000180: 3eb4 c03d 2fd6 5fbd f0e0 a43d 9798 bcbc
00000190: eb21 eb3b 2707 42ba 177a 603d 22c0 90bd
000001a0: 7c78 15bd 34da 173d 3933 673d 37c8 c6bc
000001b0: 9f99 1c3d 0b9d e33b 2785 81bd 0c46 4b3d
000001c0: b321 97ba 318e 6f3d f0c2 993d ef6f 783d
000001d0: f7e7 943d 82a3 34bd af48 8cbd b0f9 173d
000001e0: 8890 3a3d e814 4ebd 45ee ca3d 527e 503c
000001f0: 691f f0bc 4ed5 aa3d 1670 da3d 7311 193d
00000200: 9926 38ba 02dc 063d 6d9f 1bbd 500c a33d
00000210: 130d a83d a612 573c 1674 23bd f4dd c73d
00000220: 5b2f 45bd e4af bebc 21e0 983d 02b8 afbc
00000230: 044a 183d 2ef6 c73d 2b72 03bb 66f7 efbb
00000240: 74b7 e33d 82ab 0c3d 472a 743d b56e 61bb
00000250: 611d 5abd b91d 4b3d 4f3c ddbc 9039 16bd
00000260: f1ed 35bd 2727 d53d 25e8 e7bc ef69 603d
00000270: e947 da3c 9e0d 7a3d 0485 6e3d 0278 7dbd
00000280: d53e 8f3d 54b3 51bc 57eb 153d c3aa de39
00000290: 6931 6cbd 0e37 4b3d 7ae0 21bd 342b e63d
000002a0: 2035 743d b2e1 eebb f3f6 e4bc 959d 67bd
000002b0: a87d 49bc e3b0 00bd 19da 2b3d 3924 5e3d
000002c0: ed21 9d3d e9c5 d43b b415 93bc 7c69 21bd
000002d0: a8f1 feba 7f06 613d fdf4 96bd d2fb 92bd
000002e0: d5ce 7d3d 2f28 1d3b f326 813b e585 e7bc
000002f0: 860c 2abd e85e 3fbd d520 14bd 9db3 6bbd
00000300: 60ed 9bbc e7f4 c83d 2eb1 cfbc 0ffa bc3d
00000310: 0a9d 47bd 7e50 013d 183e 943c 2124 26bd
00000320: 282d 033d b661 d43d 891a 04bc 34a2 e43d
00000330: 21f5 7a3c 6f2f 0fbc b02a 8d3d 84f7 b13d
00000340: 2335 d23d f5b1 a83d ff5b 48bd d4cf 843c
00000350: bf82 223d ab14 2fbc cfd5 923d d9c6 3d3c
00000360: bd82 3abd 5d48 05bc 31cd cbbc e132 8a3d
00000370: 3479 27bd 1dcb c43a 611e 093d 169b 743d
00000380: b64e 24bd c74e b63d fd67 d7bc 0d17 20bd
00000390: 96e8 523d 7173 2ebd 6563 a53d e26f 4e3d
000003a0: d86f c1bc 7c23 bfbb 0289 8bbc 030b 13bc
000003b0: 4e4c db3c 8744 bc3c ea4f 06bd 101c 36bd
000003c0: a6ee 1abd 7eca e53c fb49 0d3d 2f1b 10bd
000003d0: 0a62 8c3c ceec e43c 6b3c c23d 2bb8 41bd
000003e0: 1787 b8bc 4bab 8e3c 25c6 8c3b e288 98bc
000003f0: 558d 963d dc4e 15bc b8d2 3d3d 190f c6bc

image_conv.5.bias f4 [64]
0.03747162 0.0130091645 -0.00070185296 0.040688828 -0.006146872 -0.0054701865 0.050871655 -0.033207152
0.06745559 -0.01589994 0.0037800807 0.099179715 -0.046203952 -0.069018565 0.039247055 -0.030983737
-0.034955885 0.06979721 0.047297314 0.02071301 -0.016441742 0.0423909 -0.09975078 -0.04275814
-0.0092408 0.06301245 0.07669414 0.028016202 0.099188335 -0.06289693 0.06990885 0.03950636
-0.01962856 -0.06623402 0.11168422 0.0038419957 -0.08622777 -0.041216828 0.029659169 0.052251603
-0.007593098 0.013788521 -0.028328724 0.03987763 0.015150891 0.08637791 0.055244867 -0.014093711
0.0682407 -0.0059470246 -0.03383092 -0.010352735 0.06614299 0.038780034 -0.09838019 0.07130782
-0.044113412 0.08532785 0.038517423 -0.02152274 -0.001520142 -0.06028671 0.11376249 -0.010997769
00000000: d77b 193d 6424 553c 8efc 37ba 54a9 263d
00000010: b36b c9bb 403f b3bb cc5e 503d 3904 08bd
00000020: 2826 8a3d 9740 82bc 3bbb 773b bc1e cb3d
00000030: 5b40 3dbd 9b59 8dbd 85c1 203d 9bd1 fdbc
00000040: e72d 0fbd d7f1 8e3d d4ba 413d 55ae a93c
00000050: d5b0 86bc 15a2 2d3d 234a ccbd 2923 2fbd
00000060: b966 17bc ac0c 813d d111 9d3d 3c82 e53c
00000070: 4123 cb3d 1bd0 80bd 5f2c 8f3d 6cd1 213d
00000080: 13cc a0bc b4a5 87bd b2ba e43d fec9 7b3b
00000090: 2f98 b0bd fad2 28bd c9f7 f23c c705 563d
000000a0: 86cf f8bb 40e9 613c a411 e8bc ba56 233d
000000b0: 713b 783c e7e6 b03d 7148 623d 4fe9 66bc
000000c0: c8c1 8b3d 42df c2bb 4a92 0abd 859e 29bc
000000d0: fa75 873d d0d7 1e3d 8e7b c9bd d609 923d
000000e0: 44b0 34bd 5ec0 ae3d 72c4 1d3d 7550 b0bc
000000f0: 803f c7ba 32ef 76bd 4ffc e83d fd2f 34bc

actor.0.weight f4 [64, 64]
0.15327477 -0.07885943 0.024687093 0.16342899 -0.027886994 0.17709029 -0.22803572 -0.23601793
0.18766503 0.2964507 0.0009634951 -0.2942526 0.09858607 0.13181242 0.000344033 -0.022234002
0.16781871 -0.0102609545 -0.070497945 -0.045236267 0.0035621952 -0.024206335 -0.19317093 -0.18556087
0.06376483 0.0021173388 -0.22336899 0.08386263 -0.055677127 -0.08977706 0.060879733 -0.03401918
-0.12692675 -0.07630889 0.15908718 0.029824521 0.0045977677 -0.0017912828 -0.033602294 0.2873207
0.055719346 0.076600164 -0.15061027 -0.029504744 0.13129736 -0.15538931 0.12394438 -0.0094687035
0.0168613 0.015872529 0.0675067 0.06172821 0.20022382 0.11277483 -0.031308744 -0.13004667
0.017105073 -0.05490694 0.15031648 -0.13195036 0.015675947 0.13062985 0.047803283 -0.008518441
-0.15458281 0.15935555 0.15928955 -0.027733762 -0.06140561 0.0707606 0.0045667766 0.042475507
-0.10356828 -0.008253519 -0.14606455 -0.012098289 0.0023859967 -0.09210354 -0.059218083 -0.20686682
0.2751161 0.067701146 -0.058452476 0.030950144 0.08951728 -0.002291499 0.18940043 0.0040631345
0.099826545 -0.039699815 0.08416116 0.085752755 -0.14518715 -0.08843678 0.024814237 0.05644805
-0.22479479 0.12871474 -0.23914343 -0.01943504 -0.28564897 0.038303606 0.08387415 -0.14354405
0.044704482 0.026505783 -0.14771475 -0.103349164 -0.08774937 -0.08772961 -0.021251032 0.14279589
0.04453738 0.02334994 0.013227909 -0.017033447 0.30825087 -0.026262878 0.03577868 0.060736008
0.07198627 0.043082286 -0.35924459 0.1449719 0.086455666 0.124714896 -0.16410184 -0.16826697
0.2185166 -0.15572613 -0.17831148 -0.054761723 0.0101727415 0.034816723 -0.12575519 -0.012375224
0.04717722 -0.08628124 -0.104103364 -0.12877028 0.05994134 0.008586747 0.30132806 -0.0802953
-0.30779707 0.065555066 -0.06926343 -0.16949107 -0.024249373 -0.09543584 0.11924264 0.012725142
-0.013475124 0.034482226 -0.010878049 -0.17198722 -0.0892014 0.17117533 0.020260729 0.12461947
-0.2998298 -0.086570926 -0.12267202 -0.040716093 -0.089789845 0.14910844 0.07808235 0.020952212
0.02573514 0.12897922 0.23736225 -0.025380637 -0.015848571 -0.12483305 -0.035588533 0.12455921
-0.09791544 0.106706455 -0.11337401 -0.0545443 -0.117965154 -0.14023496 -0.25830212 -0.008759059
0.1602977 -0.11641726 0.16078837 -0.051389642 0.037646048 0.030791733 -0.014344862 -0.21789666
0.07097763 0.22732387 -0.044768427 0.0045933393 0.056001812 -0.11892841 0.24893472 0.21262391
0.07174617 -0.014405086 0.07180429 -0.054119308 0.015471704 -0.03272693 -0.10180574 -0.17122385
0.009185714 0.10069586 0.1042597 -0.05008415 0.13950163 -0.07079791 -0.051571764 0.028081357
-0.25280902 0.18561903 0.06079142 -0.024758762 -0.0072460636 -0.15138142 -0.004131853 -0.108406186
0.11356268 0.22668818 0.019144543 0.06114786 0.09892359 0.12077051 -0.25782603 -0.13611509
-0.016854232 -0.12248585 0.04396236 -0.010181162 -0.07429723 0.03580466 -0.09740799 0.051505182
0.06316646 -0.04401858 -0.3796551 0.014190805 0.018820759 0.22285634 -0.14631747 -0.05352819
0.026539568 -0.124575496 0.04295205 0.16599919 0.3013384 -0.024727084 0.11899146 0.0720873
00000000: 10f4 1c3e 0e81 a1bd 963c ca3c ee59 273e
00000010: 4473 e4bc 2857 353e 3282 69be afae 71be
00000020: 432b 403e 63c8 973e 1093 7c3a 47a8 96be
00000030: 7ee7 c93d d6f9 063e 545f b439 1524 b6bc
00000040: abd8 2b3e 901d 28bc 3a61 90bd aa49 39bd
00000050: b873 693b 5d4c c6bc 9ace 45be ab03 3ebe
00000060: 2397 823d 0dc3 0a3b d7ba 64be 2cc0 ab3d
00000070: b30d 64bd 09dd b7bd 075d 793d b257 0bbd
00000080: 16f9 01be d647 9cbd c0e7 223e 8e52 f43c
00000090: dfa8 963b 7ac9 eaba 8fa2 09bd b31b 933e
000000a0: f839 643d 8ce0 9c3d 9439 1abe efb3 f1bc
000000b0: d172 063e 601e 1fbe 8dd6 fd3d 9f22 1bbc
000000c0: b620 8a3c 1b07 823c f440 8a3d b8d6 7c3d
000000d0: 7907 4d3e 7df6 e63d 993d 00bd f42a 05be
000000e0: f01f 8c3c 19e6 60bd 90ec 193e ff1d 07be
000000f0: d86a 803c d5c3 053e 60cd 433d ee90 0bbc
00000100: f54a 1ebe 1a2e 233e cd1c 233e ea31 e3bc
00000110: 7384 7bbd efea 903d e6a4 953b ccfa 2d3d
00000120: 9b1b d4bd c539 07bc f291 15be e737 46bc
00000130: 625e 1c3b c8a0 bcbd a98e 72bd e5d4 53be
00000140: 04dc 8c3e e6a6 8a3d dd6b 6fbd 288b fd3c
00000150: d654 b73d f92c 16bb 30f2 413e 0b24 853b
00000160: dc71 cc3d 469c 22bd b05c ac3d 249f af3d
00000170: f1ab 14be 581e b5bd 3a47 cb3c 1236 673d
00000180: 9b30 66be cccd 033e 04e2 74be 3c36 9fbc
00000190: 9540 92be 3ee4 1c3d 36c6 ab3d 36fd 12be
000001a0: 0c1c 373d a822 d93c 8942 17be baa8 d3bd
000001b0: f1b5 b3bd 95ab b3bd a516 aebc 1639 123e
000001c0: d46c 363d 6048 bf3c dfb9 583c ba89 8bbc
000001d0: 0fd3 9d3e 3f25 d7bc aa8c 123d 52c6 783d
000001e0: 8a6d 933d 0d77 303d e8ee b7be 8473 143e
000001f0: ab0f b13d 866a ff3d 500a 28be 2d4e 2cbe
00000200: d1c2 5f3e ac76 1fbe 4997 36be d44d 60bd
00000210: 92ab 263c fb9b 0e3d f8c5 00be 74c1 4abc
00000220: e73c 413d 38b4 b0bd 2534 d5bd 5bdc 03be
00000230: 0d85 753d 6daf 0c3c ac47 9a3e dd71 a4bd
00000240: 9497 9dbe bc41 863d fcd9 8dbd 118f 2dbe
00000250: 9fa6 c6bc de73 c3bd 7c35 f43d 1d7d 503c
00000260: c4c6 5cbc 3c3d 0d3d d839 32bc 6b1d 30be
00000270: 39af b6bd 9648 2f3e d4f9 a53c 7e38 ff3d
00000280: 4b83 99be 194c b1bd 783b fbbd ebc5 26bd
00000290: bde3 b7bd e2af 183e a4e9 9f3d f9a3 ab3c
000002a0: 80d2 d23c 2113 043e 170f 733e 0eeb cfbc
000002b0: ddd4 81bc 78a8 ffbd 48c5 11bd e618 ff3d
000002c0: e487 c8bd ea88 da3d a230 e8bd d869 5fbd
000002d0: b797 f1bd c199 0fbe 2d40 84be 2882 0fbc
000002e0: 1525 243e 2c6c eebd b5a5 243e f27d 52bd
000002f0: be32 1a3d f23e fc3c b606 6bbc 4d20 5fbe
00000300: b85c 913d 97c7 683e 195f 37bd b983 963b
00000310: 2862 653d bd90 f3bd bee8 7e3e 15ba 593e
00000320: a8ef 923d 4f03 6cbc 210e 933d 35ac 5dbd
00000330: 087d 7d3c ac0c 06bd 877f d0bd 4e55 2fbe
00000340: ad7f 163c a239 ce3d 1c86 d53d 0a25 4dbd
00000350: 84d9 0e3e 7ffe 90bd ea3c 53bd e00a e63c
00000360: 2f70 81be ea12 3e3e 6d00 793d e3d2 cabc
00000370: 6370 edbb bb03 1bbe 7f64 87bb 1004 debd
00000380: 8d93 e83d f220 683e 04d5 9c3c 2e76 7a3d
00000390: 7398 ca3d 8756 f73d c601 84be c161 0bbe
000003a0: e311 8abc dcd9 fabd e011 343d e3ce 26bc
000003b0: 2529 98bd e8a7 123d d77d c7bd 19f7 523d
000003c0: 6b5d 813d d44c 34bd 2762 c2be 8d80 683c
000003d0: fe2d 9a3c 7434 643e 3fd4 15be 6040 5bbd
000003e0: 8269 d93c 7021 ffbd 7dee 2f3d b1fb 293e
000003f0: 0749 9a3e 7490 cabc cbb1 f33d 82a2 933d

actor.0.bias f4 [64]
0.015715213 -0.012694958 -0.0031820422 0.0193375 -0.0002595842 0.008837189 0.008026719 0.015544375
-0.007402766 0.001546384 -0.0051759086 -0.013762111 0.0020204338 0.0023599642 0.0042021857 0.0019381855
-0.0018426954 -0.0036725916 -0.0016348065 0.005129293 0.0073735295 0.008099858 -0.0011657303 -0.0028835847
-0.013726088 -0.0007705696 0.0089620985 -0.018309115 -0.00013168022 0.0037397787 2.2896927e-05 -0.0061534736
0.01493792 -0.003375955 0.009214711 -0.0130584575 0.02092194 -0.021319116 0.0011430655 0.011799254
-0.013097523 -0.010576375 0.011477841 0.005151154 0.002033727 -0.003633716 0.0074006943 0.010599519
-0.006483041 -0.0080925105 -0.0058705453 -0.0052246996 -0.0015283381 0.0066792555 -0.018350946 0.008679622
0.011423595 -0.010505161 0.0075477967 -0.0040912926 -0.010960071 0.0036598614 -0.011753939 -0.000825169
00000000: 31bd 803c 83fe 4fbc cf89 50bb ad69 9e3c
00000010: cd18 88b9 dbc9 103c 8082 033c d6ad 7e3c
00000020: e792 f2bb 09b0 ca3a ab9a a9bb 7a7a 61bc
00000030: 4169 043b a1a9 1a3b 7db2 893b b70a fe3a
00000040: 9986 f1ba ddaf 70bb 0147 d6ba a113 a83b
00000050: a69d f13b 44b5 043c 6bcb 98ba 86fa 3cbb
00000060: 63e3 60bc 0d00 4aba c4d5 123c fffc 95bc
00000070: a413 0ab9 1317 753b c712 c037 14a3 c9bb
00000080: 2dbe 743c 203f 5dbb 4df9 163c 24f3 55bc
00000090: 7d64 ab3c 6da5 aebc ead2 953a a951 413c
000000a0: fe96 56bc 8848 2dbc 8e0d 3c3c 03cb a83b
000000b0: 4748 053b a323 6ebb 8681 f23b 9ba9 2d3c
000000c0: b16f d4bb 7396 04bc b45d c0bb f533 abbb
000000d0: 8452 c8ba a8dd da3b b954 96bc f934 0e3c
000000e0: 082a 3b3c d71d 2cbc 8253 f73b 4010 86bb
000000f0: df91 33bc 49da 6f3b 9893 40bc 2750 58ba

actor.2.weight f4 [18, 64]
-0.11501863 0.016739458 0.034742992 -0.18266886 0.06595821 0.03056928 0.01877506 0.0554398
-0.08175129 0.1489211 0.01911571 0.09086236 -0.19951457 0.062347185 -0.07904029 -0.11042221
-0.21917315 -0.26293188 -0.2114888 -0.066635825 0.22736607 -0.01937533 0.042630296 -0.0063286307
0.044999655 0.035782695 0.11495718 0.027574595 -0.06642971 0.013219647 0.040537793 -0.05248576
0.17349987 0.12665857 -0.108174615 -0.14235324 -0.1332077 0.16648181 -0.03102677 0.2751191
-0.13553676 0.14435619 -0.035895303 -0.11094798 -0.14154665 -0.051855512 -0.048847828 -0.14518568
-0.10463231 -0.25504214 -0.07972806 0.016285263 -0.23194616 -0.18977271 0.20371006 -0.06090696
-0.017151123 -0.14481099 0.21102354 0.0077028954 -0.18421888 0.023851285 -0.03287942 0.00875807
-0.030619258 0.08145446 -0.08367821 -0.064278476 -0.020962529 0.027235141 0.03144301 -0.19100277
-0.03147544 -0.0128795905 -0.30530962 -0.21810429 -0.21281618 0.08535838 0.054295484 0.08366998
0.082615584 -0.04295212 -0.028452782 -0.025274448 -0.11200513 -0.14877765 0.031664472 0.19471674
0.12992524 -0.06723577 0.15813787 0.17790352 -0.0063271285 -0.2142341 0.120187245 0.11568776
-0.1788027 0.19755219 0.09266917 0.11125977 -0.1298587 0.10733242 0.0300604 -0.06258257
0.03563165 0.11365145 0.03976959 0.021858279 -0.11984776 -0.26383808 -0.19689889 0.016161429
0.13528407 0.14113946 0.040510092 -0.032985747 0.06693791 0.021362074 0.11664843 0.04455396
-0.07467581 0.067841485 -0.24901497 -0.08426437 -0.036693323 0.23999552 0.009255413 -0.20000516
0.14983408 0.09200335 0.008558585 -0.021638678 0.32825375 -0.09396488 -0.1890458 -0.04166724
-0.18095115 -0.053736318 -0.13380298 0.046455033 0.14214027 0.072809786 -0.04868608 0.20404965
-0.1485574 0.2185686 -0.04230654 0.25312698 0.006489813 0.15509719 -0.057731196 -0.09084962
-0.077404015 0.21598601 0.059181243 -0.14877729 -0.061026335 -0.040037114 0.044761807 0.15707494
0.057369985 -0.043916307 -0.027174076 0.040553976 -0.054101434 -0.15275225 0.2000594 -0.17325056
0.14720388 -0.04245066 0.09240359 -0.14842291 -0.012471067 -0.03691213 -0.07147786 0.3098623
0.004741451 -0.20378654 -0.08350147 -0.05981806 0.083105356 0.11908723 0.16494015 0.11978804
0.19551672 -0.24569492 0.17079894 -0.057031494 -0.21276367 0.0025860511 0.03151841 0.05933546
0.04695485 -0.14755777 -0.13516496 0.0961769 -0.05127218 0.03732866 0.07456702 -0.044045333
-0.15016475 0.028658638 -0.2501318 -0.12973572 0.22559191 -0.10232748 -0.034908134 -0.13145593
-0.12898143 0.009545148 -0.05313851 0.056781597 -0.007624225 -0.17287537 -0.010534056 0.014906161
-0.11057406 -0.016204683 0.15505019 0.15023081 -0.1931686 0.14967093 -0.13647313 -0.048976645
0.07521279 -0.13222846 0.073271014 -0.130402 0.2988742 -0.14677386 0.036020033 0.106462166
0.11802834 -0.07435847 0.14658172 -0.15261388 0.12325824 -0.1290311 -0.03393329 0.23409438
0.04188392 -0.20856318 -0.32276595 -0.17910099 0.0777159 -0.12768307 -0.085929506 0.006923141
0.20450582 0.013839425 0.17235705 -0.109433174 -0.19362025 -0.18184187 -0.2620285 -0.042343862
00000000: e38e ebbd 3021 893c ab4e 0e3d 8c0d 3bbe
00000010: 1915 873d 6d6c fa3c 28ce 993c d814 633d
00000020: 386d a7bd c67e 183e 8d98 9c3c 0c16 ba3d
00000030: 8c4d 4cbe c35f 7f3d e0df a1bd 0a25 e2bd
00000040: ed6e 60be 029f 86be 8590 58be 5d78 88bd
00000050: a7d2 683e 03b9 9ebc 1b9d 2e3d 6760 cfbb
00000060: 8f51 383d e090 123d ac6e eb3d 1ee4 e13c
00000070: 4d0c 88bd 3897 583c f50a 263d 4ffb 56bd
00000080: f3a9 313e c9b2 013e a78a ddbd 0cc5 11be
00000090: 9967 08be 357a 2a3e da2b febc 69dc 8c3e
000000a0: 26ca 0abe 1cd2 133e f406 13bd b238 e3bd
000000b0: 9bf1 10be 7266 54bd a914 48bd 8eab 14be
000000c0: 7749 d6bd e294 82be 7748 a3bd ac68 853c
000000d0: 4b83 6dbe c753 42be 5f99 503e 9479 79bd
000000e0: 8380 8cbc 5549 14be 8e16 583e 9268 fc3b
000000f0: e0a3 3cbe c563 c33c 92ac 06bd 027e 0f3c
00000100: 3dd5 fabc 99d1 a63d 7b5f abbd 6fa4 83bd
00000110: 9cb9 abbc 3b1c df3c 63ca 003d 3b96 43be
00000120: 64ec 00bd eb04 53bc 8b51 9cbe bb56 5fbe
00000130: 7cec 59be 60d0 ae3d f164 5e3d 2b5b ab3d
00000140: 5c32 a93d 90ee 2fbd cf15 e9bc 5c0c cfbc
00000150: f262 e5bd 2b59 18be 9bb2 013d d363 473e
00000160: 1f0b 053e e8b2 89bd e5ee 213e 572c 363e
00000170: cd53 cfbb 2f60 5bbe bb24 f63d b4ed ec3d
00000180: 0e18 37be 1f4b 4a3e 55c9 bd3d 2adc e33d
00000190: aef9 04be 1ad1 db3d 3a41 f63c 4a2b 80bd
000001a0: 7ef2 113d 17c2 e83d 70e5 223d 2210 b33c
000001b0: be72 f5bd c915 87be dd9f 49be f964 843c
000001c0: e887 0a3e dd86 103e e9ed 253d 101c 07bd
000001d0: be16 893d 84ff ae3c 5fe5 ee3d 377e 363d
000001e0: a2ef 98bd 7af0 8a3d c8fd 7ebe cc92 acbd
000001f0: bd4b 16bd 63c1 753e 04a4 173c 27ce 4cbe
00000200: 1b6e 193e 416c bc3d 4f39 0c3c 9943 b1bc
00000210: e010 a83e a970 c0bd 3995 41be 45ab 2abd
00000220: 424b 39be 9d1a 5cbd a603 09be a247 3e3d
00000230: 388d 113e 4c1d 953d 0e6b 47bd 64f2 503e
00000240: 6e1f 18be 72d0 5f3e 9f49 2dbd dc99 813e
00000250: 7fa8 d43b ccd1 1e3e 8c77 6cbd 5e0f babd
00000260: ff85 9ebd 702b 5d3e 0868 723d 1359 18be
00000270: c0f6 79bd f5fd 23bd 2858 373d 41d8 203e
00000280: cafc 6a3d 96e1 33bd 2b9c debc ed1b 263d
00000290: 7799 5dbd 166b 1cbe 5fdc 4c3e 9868 31be
000002a0: 9dbc 163e bee0 2dbd 183e bd3d 2dfc 17be
000002b0: 7253 4cbc 2c31 17bd fc62 92bd 45a6 9e3e
000002c0: 2c5e 9b3b 6bad 50be d202 abbd c803 75bd
000002d0: 2433 aa3d 01e4 f33d 12e6 283e 6f53 f53d
000002e0: 8935 483e 7397 7bbe ebe5 2e3e db99 69bd
000002f0: b8de 59be bd7a 293b 7319 013d bd09 733d
00000300: bb53 403d 6219 17be af68 0abe 65f8 c43d
00000310: c702 52bd f0e5 183d 98b6 983d e168 34bd
00000320: cac4 19be 85c5 ea3c 4611 80be 71d9 04be
00000330: 9101 673e 1291 d1bd d5fb 0ebd 629c 06be
00000340: b513 04be 4163 1c3c c4a7 59bd d293 683d
00000350: a3d4 f9bb 3e06 31be 0997 2cbc f938 743c
00000360: a774 e2bd afbf 84bc 7ac5 1e3e 1bd6 193e
00000370: fdcd 45be 5643 193e 9dbf 0bbe bc9b 48bd
00000380: 2a09 9a3d e666 07be 1d0f 963d 1a88 05be
00000390: 0a06 993e e34b 16be be89 133d d608 da3d
000003a0: d8b8 f13d 4149 98bd 8519 163e d046 1cbe
000003b0: d16e fc3d bb20 04be a2fd 0abd 70b6 6f3e
000003c0: 798e 2b3d 9691 55be 9441 a5be 4066 37be
000003d0: 8429 9f3d 5abf 02be cffb afbd 84db e23b
000003e0: f969 513e c1be 623c 5e7e 303e 801e e0bd
000003f0: 6344 46be c134 3abe 9928 86be c270 2dbd

actor.2.bias f4 [18]
-0.0029669278 -0.00082987803 0.023972906 0.048012916 -0.011726783 0.004812803 -0.01319497 0.007546153
-0.030546905 -0.011251496 -0.022401396 2.6700654e-06 0.100397326 -0.012130167 -0.01452083 -0.015686436
0.0017065444 -0.020189477
00000000: ca70 42bb 2c8c 59ba d462 c43c 31a9 443d
00000010: b121 40bc b8b4 9d3b b72f 58bc b845 f73b
00000020: 813d fabc 3258 38bc 2283 b7bc 602f 3336
00000030: 1d9d cd3d 9cbd 46bc c6e8 6dbc d780 80bc
00000040: 21ae df3a 6764 a5bc

critic.0.weight f4 [64, 64]
-0.06639679 -0.11840824 -0.22214901 0.06822598 0.1856136 -0.0768313 0.1053922 -0.09081253
-0.1282166 -0.10328576 -0.23796281 -0.048264254 -0.06782723 -0.069098175 -0.084332876 -0.08457865
0.05830403 0.16408063 -0.13885884 0.05315442 0.053516377 0.066019066 0.12343241 -0.12606968
-0.16175807 -0.15473855 -0.16801867 0.054780524 -0.21062003 -0.02961777 -0.10915914 -0.048926555
0.046972025 0.16754822 0.16550057 -0.25146946 0.015943997 0.053784482 -0.15593271 0.021206994
-0.063059725 -0.14731517 -0.028245835 -0.0041861637 0.0031344853 -0.15661518 -0.019451328 0.09824875
-0.26212916 0.30413082 0.02481824 -0.08025271 0.13627836 0.081743665 0.055988874 0.03831792
-0.0015003048 -0.30213445 -0.20164168 0.04159614 0.09179876 -0.118211664 -0.13589539 -0.0813131
0.041297894 -0.152342 -0.08937242 0.17341715 -0.27509734 -0.071744785 0.20827214 -0.03778205
0.034413684 -0.094652146 -0.039873753 0.022220124 -0.29242015 -0.15669407 -0.06243422 0.06596916
-0.11252654 0.045806836 0.10152279 -0.13975883 -0.2813325 -0.059430707 -0.13693115 0.047313
-0.039739843 -0.015049638 0.08391344 -0.12255685 0.12536135 -0.143103 0.007582107 -0.12724027
-0.04492864 -0.24322662 -0.10840816 0.0035144424 0.115276106 -0.34635156 -0.18814947 0.032576855
0.08997741 0.09851692 0.0705008 -0.12759043 -0.017522631 -0.06624712 -0.10395573 0.16713393
-0.030682858 0.029175967 -0.20772317 0.033411626 0.026929606 0.13537721 0.19878265 0.08260692
-0.22703317 -0.047567826 -0.034760166 -0.15726298 -0.05666133 0.11581725 0.05586707 0.06824182
0.102996655 0.019722847 0.19574589 0.019756462 0.013669587 -0.1705245 0.13206857 0.09514783
0.14861114 0.10649086 -0.16476999 -0.1151343 0.10420709 -0.10411045 0.30806354 -0.054127827
0.18418942 0.23479621 0.1200427 0.013598307 0.11464757 0.14030756 -0.21125446 0.024021704
-0.1228626 0.078801155 -0.008799363 0.23968418 0.2505806 0.2446514 0.0025645152 -0.07649902
0.24401471 0.04541858 -0.06682078 -0.033250984 0.15447554 -0.008784711 -0.0031707503 0.17945977
-0.049192984 -0.1086185 -0.11139165 -0.04439539 -0.006826086 0.21766871 0.105087504 0.0055529736
0.1716434 -0.022457138 -0.04385815 -0.16866538 -0.030787496 0.1877669 0.14072648 0.029785097
0.11400045 0.06767477 0.03809903 0.0010137216 0.09402687 -0.09400787 0.20296033 0.08828341
0.10410283 -0.0131748635 -0.24220426 -0.16230272 -0.1327396 -0.08265747 0.037589867 -0.090488546
-0.07079079 -0.27649936 0.061796118 -0.1341237 0.13908179 -0.06175716 0.114720784 0.09998891
-0.28221482 0.09670916 0.1181748 0.00369323 -0.00892476 -0.18522733 0.31340742 0.14115101
-0.2475287 0.07980092 -0.08900454 -0.10079472 0.11240492 0.14409536 0.05213546 -0.16661909
-0.067566894 -0.07406238 0.11326733 0.06490533 -0.10711019 -0.045423348 -0.07955371 -0.019004256
-0.06594043 0.09196293 -0.23469433 -0.10520357 -0.2096065 0.0034490672 -0.12505867 -0.027814405
-0.1138279 0.075077794 0.026333688 -0.04735024 -0.10720699 -0.13812578 -0.0487796 0.01024387
-0.0049035223 -0.03409958 -0.22357488 0.13885002 0.03940855 -0.12340717 0.046990342 -0.23357344
00000000: 0afb 87bd 0580 f2bd 087b 63be 10ba 8b3d
00000010: 7e11 3e3e bb59 9dbd ded7 d73d ebfb b9bd
00000020: 364b 03be 7c87 d3bd 86ac 73be bdb0 45bd
00000030: 01e9 8abd 5883 8dbd b7b6 acbd 9237 adbd
00000040: 35d0 6e3d c104 283e 0331 0ebe 73b8 593d
00000050: fd33 5b3d 0135 873d 22ca fc3d 6918 01be
00000060: e8a3 25be c873 1ebe 160d 2cbe 8b61 603d
00000070: c7ac 57be f7a0 f2bc d48e dfbd 3667 48bd
00000080: bd65 403d c391 2b3e fb78 293e 9bc0 80be
00000090: fc9c 823c 1e4d 5c3d d3ac 1fbe 4aba ad3c
000000a0: 7525 81bd cad9 16be cf63 e7bc 162c 89bb
000000b0: f06b 4d3b bb5f 20be 6458 9fbc a436 c93d
000000c0: cb35 86be 09b7 9b3e 9f4f cb3c 885b a4bd
000000d0: 8e8c 0b3e 3969 a73d 9754 653d 40f3 1c3d
000000e0: e0a5 c4ba 5eb1 9abe 287b 4ebe b760 2a3d
000000f0: fd00 bc3d f518 f2bd 2928 0bbe 7c87 a6bd
00000100: fb27 293d 8bff 1bbe e308 b7bd 4494 313e
00000110: 8fd9 8cbe eeee 92bd 4b45 553e 5ac1 1abd
00000120: 5df5 0c3d fcd8 c1bd a952 23bd fa06 b63c
00000130: 18b8 95be 6974 20be 06bb 7fbd d71a 873d
00000140: 5174 e6bd f39f 3b3d 2eeb cf3d f01c 0fbe
00000150: d00a 90be 9d6d 73bd ae37 0cbe 47cb 413d
00000160: 3fc6 22bd c292 76bc cfda ab3d 16ff fabd
00000170: ba5e 003e 9889 12be 5373 f83b 464b 02be
00000180: 1807 38bd 6610 79be 1905 debd 8f52 663b
00000190: e115 ec3d fe54 b1be 41aa 40be 4f6f 053d
000001a0: 1446 b83d 3dc3 c93d b962 903d 11a7 02be
000001b0: 9f8b 8fbc 92ac 87bd bee6 d4bd 2825 2b3e
000001c0: 9e5a fbbc 7002 ef3c 62b5 54be a1da 083d
000001d0: 7a9b dc3c 53a0 0a3e ae8d 4b3e d12d a93d
000001e0: 627b 68be 7bd6 42bd ad60 0ebd 8c09 21be
000001f0: b615 68bd 9831 ed3d ded4 643d 5ec2 8b3d
00000200: e9ef d23d cf91 a13c 9c71 483e 4ed8 a13c
00000210: 67f6 5f3c f99d 2ebe fc3c 073e dedc c23d
00000220: 852d 183e e117 da3d 77b9 28be 88cb ebbd
00000230: 876a d53d dc37 d5bd 81ba 9d3e 24b5 5dbd
00000240: 279c 3c3e 6b6e 703e f2d8 f53d 6fcb 5e3c
00000250: 58cc ea3d c9ac 0f3e 1753 58be 2ac9 c43c
00000260: 639f fbbd 8062 a13d 342b 10bc c56f 753e
00000270: 1a4c 803e e685 7a3e 6d11 283b 85ab 9cbd
00000280: fede 793e d508 3a3d 55d9 88bd 2f32 08bd
00000290: d62e 1e3e c0ed 0fbc 5dcc 4fbb 4dc4 373e
000002a0: 957e 49bd 6073 debd 4e21 e4bd f1d7 35bd
000002b0: 5cad dfbb 8ce4 5e3e 1e38 d73d b8f5 b53b
000002c0: 4ac3 2f3e 08f8 b7bc 9aa4 33bd 9eb6 2cbe
000002d0: 0f36 fcbc f745 403e 9a1a 103e e0ff f33c
000002e0: 1179 e93d 1299 8a3d ba0d 1c3d dade 843a
000002f0: 2991 c03d 3387 c0bd d5d4 4f3e efcd b43d
00000300: dd33 d53d 62db 57bc 6504 78be af32 26be
00000310: e4ec 07be 5248 a9bd d5f7 193d 0f52 b9bd
00000320: c3fa 90bd 5391 8dbe ed1d 7d3d b957 09be
00000330: 756b 0e3e 13f5 7cbd bbf2 ea3d fcc6 cc3d
00000340: 767e 90be 740f c63d a105 f23d 1e0a 723b
00000350: 2839 12bc 3cac 3dbe f076 a03e e489 103e
00000360: 2a78 7dbe aa6e a33d 0348 b6bd 766d cebd
00000370: 8d34 e63d bc8d 133e fe8b 553d 329e 2abe
00000380: 8360 8abd 04ae 97bd b4f8 e73d 16ed 843d
00000390: 965c dbbd d50d 3abd 0eed a2bd d0ae 9bbc
000003a0: c70b 87bd 1057 bc3d b653 70be f874 d7bd
000003b0: 16a3 56be bf09 623b 610f 00be 09db e3bc
000003c0: 9a1e e9bd 63c2 993d bfb9 d73c 53f2 41bd
000003d0: 578f dbbd d870 0dbe 1ecd 47bd e8d5 273c
000003e0: baad a0bb 00ac 0bbd d0f0 64be b32e 0e3e
000003f0: dc6a 213d e6bc fcbd f278 403d e02d 6fbe

critic.0.bias f4 [64]
-0.0339348 -0.026405351 0.019818697 -0.024398183 -0.027426818 -0.020593815 -0.021738064 0.026654992
0.026384592 0.028989958 -0.019861717 0.022437938 -0.024599396 -0.014173923 -0.022099627 -0.033989336
-0.022490876 -0.023246307 -0.023005072 -0.014094879 -0.019616207 0.023020925 0.024846409 0.020557111
0.021176642 -0.019907935 -0.023859717 -0.03542194 0.023907099 0.02338257 -0.015938954 0.021984253
-0.025833845 0.024968484 0.023683768 -0.022241447 0.02440298 0.041518025 0.025799377 -0.019948922
-0.023205673 0.021070221 0.026237372 -0.028772758 0.022659848 0.020084659 0.02332144 0.026083777
-0.027712902 -0.02318718 0.029660523 0.03126297 0.019134955 0.032749023 -0.02348699 -0.022355912
0.021109084 -0.025589205 -0.02417807 -0.028403927 0.03349119 -0.02359757 0.028118405 0.02167488
00000000: 38ff 0abd 0950 d8bc d25a a23c b3de c7bc
00000010: 35ae e0bc 5cb4 a8bc 0614 b2bc 925b da3c
00000020: 8024 d83c 597c ed3c 0ab5 a2bc c4cf b73c
00000030: ac84 c9bc be39 68bc 470a b5bc 6738 0bbd
00000040: c93e b8bc 0a6f bebc 2275 bcbc 35ee 66bc
00000050: 2bb2 a0bc 6196 bc3c b28a cb3c 6367 a83c
00000060: a37a ad3c f715 a3bc 7475 c3bc 9916 11bd
00000070: d2d8 c33c ce8c bf3c 6992 82bc 5218 b43c
00000080: 80a1 d3bc b58a cc3c 7604 c23c b233 b6bc
00000090: c2e8 c73c ce0e 2a3d 3759 d33c ec6b a3bc
000000a0: d319 bebc 759b ac3c c2ef d63c d9b4 ebbc
000000b0: 25a1 b93c 9588 a43c 9b0c bf3c a5ad d53c
000000c0: 2b06 e3bc 0af3 bdbc a0fa f23c 9a0d 003d
000000d0: e9c0 9c3c d723 063d ca67 c0bc bf23 b7bc
000000e0: f5ec ac3c 74a0 d1bc 1611 c6bc 5aaf e8bc
000000f0: 0f2e 093d b14f c1bc 9258 e63c 858f b13c

critic.2.weight f4 [1, 64]
0.8117326 0.81080455 -0.94028944 0.94042146 1.0101262 0.9151394 0.9548855 -0.80997735
-0.96492594 -0.8777189 1.0384156 -0.85399777 0.80658525 -0.77828467 0.84916574 0.86460435
0.96874684 0.9546399 0.86538666 -0.7839725 0.8425907 -1.0072681 -1.0067216 -1.0770133
-0.9770342 0.985442 0.9574477 0.82869434 -0.9215904 -1.0389576 -0.7887076 -1.0075184
0.80119383 -0.87726533 -0.9128781 0.85875905 -0.81616265 -0.8565626 -0.82975465 0.862866
0.90263295 -0.8541779 -0.80783993 0.89717484 -0.8817711 -1.0845227 -1.0657649 -0.81095344
0.82643354 0.8951888 -0.8165113 -0.90680116 -0.87375474 -0.81811935 0.87206376 0.8048785
-0.8122959 0.805208 0.8466759 0.8765651 -0.7861933 -0.75983924 -0.8244438 -0.8975326
00000000: b5cd 4f3f e390 4f3f cfb6 70bf 76bf 703f
00000010: d14b 813f 9346 6a3f 6073 743f ad5a 4fbf
00000020: 6305 77bf 30b2 60bf cdea 843f 999f 5abf
00000030: 5f7c 4e3f aa3d 47bf ed62 593f b656 5d3f
00000040: cbff 773f 4863 743f fb89 5d3f 6cb2 48bf
00000050: 06b4 573f 29ee 80bf 41dc 80bf 92db 89bf
00000060: ea1e 7abf ed45 7c3f 4b1b 753f 5025 543f
00000070: 59ed 6bbf 90fc 84bf bee8 49bf 5df6 80bf
00000080: 0a1b 4d3f 7694 60bf 61b2 69bf a2d7 5b3f
00000090: 09f0 50bf b047 5bbf cd6a 54bf c9e4 5c3f
000000a0: f412 673f 67ab 5abf 99ce 4ebf 40ad 653f
000000b0: c0bb 61bf a4d1 8abf fc6a 88bf a59a 4fbf
000000c0: 2691 533f 182b 653f e206 51bf 1f24 68bf
000000d0: 64ae 5fbf 4570 51bf 923f 5f3f 840c 4e3f
000000e0: a0f2 4fbf 1d22 4e3f c0bf 583f 9266 603f
000000f0: f743 49bf d384 42bf c00e 53bf b2c4 65bf

exp_avg f4 [16, 3, 2, 2]
-1.1343594e-06 -2.9577993e-06 -1.4239756e-06 -3.0661106e-06 -2.8157472e-06 -7.390241e-06 -3.5589615e-06 -7.608725e-06
0.0 0.0 0.0 0.0 -1.4378977e-06 -1.9118777e-06 -2.13494e-06 -2.7161484e-06
-3.560743e-06 -4.14211e-06 -3.990888e-06 -5.7173065e-06 0.0 0.0 0.0 0.0
-4.910005e-07 -2.1208464e-06 -5.522532e-07 -2.256235e-06 -1.2338521e-06 -5.2677447e-06 -1.3692946e-06 -5.753601e-06
0.0 0.0 0.0 0.0 4.1424112e-08 1.8237376e-08 -4.171185e-08 -7.865944e-08
-2.743947e-07 -1.3748168e-07 -8.638513e-08 -1.946016e-07 0.0 0.0 0.0 0.0
-1.2252644e-06 -2.1885603e-06 -1.4075739e-06 -3.495687e-06 -3.0677313e-06 -4.9846813e-06 -3.513803e-06 -8.09455e-06
0.0 0.0 0.0 0.0 -8.051211e-07 -2.7958454e-06 -1.1979547e-06 -3.047096e-06
-2.0045388e-06 -6.9473913e-06 -2.5520558e-06 -7.062187e-06 0.0 0.0 0.0 0.0
-2.159582e-06 -3.5360936e-06 -1.5185174e-06 -4.01955e-06 -4.7403096e-06 -8.345851e-06 -3.7884172e-06 -9.764632e-06
0.0 0.0 0.0 0.0 -1.0314436e-06 -6.9968485e-07 -8.182234e-07 -1.3304564e-06
-2.458307e-06 -1.1109521e-06 -2.0329255e-06 -7.1620286e-07 0.0 0.0 0.0 0.0
-1.7481613e-06 -2.4969395e-06 -1.2898989e-06 -2.4266837e-06 -3.2607527e-06 -5.2327155e-06 -3.2175221e-06 -5.841357e-06
0.0 0.0 0.0 0.0 -1.8823129e-06 -2.5298987e-06 -1.3556391e-06 -3.3547392e-06
-4.4842586e-06 -6.2913746e-06 -3.3867648e-06 -7.4176e-06 0.0 0.0 0.0 0.0
1.4836827e-09 1.2766884e-09 -6.4080054e-11 -9.556206e-11 -2.2933422e-09 -6.486755e-10 -2.4426466e-10 5.74537e-10
0.0 0.0 0.0 0.0 3.2883688e-07 2.0728275e-07 1.1277274e-07 4.1769354e-08
6.848748e-07 3.4699147e-07 3.551557e-07 7.528923e-09 0.0 0.0 0.0 0.0
-1.2421173e-06 -2.1611636e-06 -1.022504e-06 -3.635536e-06 -3.1116126e-06 -5.4109023e-06 -2.5404947e-06 -6.9328485e-06
0.0 0.0 0.0 0.0 -1.4147014e-07 -1.9409547e-06 7.426522e-08 -1.9456224e-06
-3.5110924e-07 -4.9047835e-06 -4.8057865e-07 -5.222652e-06 0.0 0.0 0.0 0.0
-3.4040136e-07 -1.3697804e-06 -5.08155e-07 -9.5192473e-07 -8.4705255e-07 -3.4227742e-06 -1.2677136e-06 -3.2157661e-06
0.0 0.0 0.0 0.0 -1.4149691e-07 -1.8604129e-07 1.188983e-10 1.188983e-10
-3.540088e-07 -4.6782634e-07 0.0 2.106014e-39 0.0 0.0 0.0 0.0
00000000: 4b40 98b5 9b7e 46b6 6e1f bfb5 61c3 4db6
00000010: 2bf6 3cb6 b0f9 f7b6 7ed6 6eb6 734e ffb6
00000020: 0000 0000 0000 0000 0000 0000 0000 0000
00000030: cafd c0b5 cf4d 00b6 fd45 0fb6 1347 36b6
00000040: 19f5 6eb6 74fc 8ab6 78e9 85b6 4ad7 bfb6
00000050: 0000 0000 0000 0000 0000 0000 0000 0000
00000060: 4ccd 03b5 dd53 0eb6 8d3e 14b5 d269 17b6
00000070: d69a a5b5 95c1 b0b6 9bc8 b7b5 0e0f c1b6
00000080: 0000 0000 0000 0000 0000 0000 0000 0000
00000090: 4bea 3133 6aa8 9c32 aa26 33b3 7ceb a8b3
000000a0: 8550 93b4 ad9e 13b4 ba82 b9b3 aef3 50b4
000000b0: 0000 0000 0000 0000 0000 0000 0000 0000
000000c0: c473 a4b5 2edf 12b6 dfeb bcb5 7297 6ab6
000000d0: 39df 4db6 1642 a7b6 adce 6bb6 d4cd 07b7
000000e0: 0000 0000 0000 0000 0000 0000 0000 0000
000000f0: 801f 58b5 42a0 3bb6 69c9 a0b5 b67c 4cb6
00000100: b785 06b6 a31d e9b6 fc43 2bb6 b9f7 ecb6
00000110: 0000 0000 0000 0000 0000 0000 0000 0000
00000120: 56ed 10b6 a04d 6db6 dccf cbb5 acdf 86b6
00000130: f30e 9fb6 2805 0cb7 833c 7eb6 c6d2 23b7
00000140: 0000 0000 0000 0000 0000 0000 0000 0000
00000150: 2270 8ab5 fad1 3bb5 e2a3 5bb5 2292 b2b5
00000160: 65f9 24b6 061c 95b5 656d 08b6 1641 40b5
00000170: 0000 0000 0000 0000 0000 0000 0000 0000
00000180: 5da2 eab5 1891 27b6 9720 adb5 1cda 22b6
00000190: 4ed3 5ab6 af94 afb6 9cec 57b6 e000 c4b6
000001a0: 0000 0000 0000 0000 0000 0000 0000 0000
000001b0: c7a3 fcb5 54c7 29b6 68f3 b5b5 fb21 61b6
000001c0: 7d77 96b6 7f1a d3b6 2d48 63b6 b3e4 f8b6
000001d0: 0000 0000 0000 0000 0000 0000 0000 0000
000001e0: 72ea cb30 7b77 af30 dde9 8cae a824 d2ae
000001f0: e798 1db1 7b4e 32b0 3249 86af 72ed 1d30
00000200: 0000 0000 0000 0000 0000 0000 0000 0000
00000210: ff8a b034 7391 5e34 782d f233 e465 3333
00000220: 3dd8 3735 254a ba34 3aac be34 8e58 0132
00000230: 0000 0000 0000 0000 0000 0000 0000 0000
00000240: d3b6 a6b5 8208 11b6 f83c 89b5 08fa 73b6
00000250: 19d1 50b6 4c8f b5b6 5e7d 2ab6 b7a0 e8b6
00000260: 0000 0000 0000 0000 0000 0000 0000 0000
00000270: 04e7 17b4 5941 02b6 bd7b 9f33 8a91 02b6
00000280: 1680 bcb4 c593 a4b6 1d01 01b5 3d3e afb6
00000290: 0000 0000 0000 0000 0000 0000 0000 0000
000002a0: 68c0 b6b4 4cd9 b7b5 2568 08b5 c587 7fb5
000002b0: 0261 63b5 d0b2 65b6 4f26 aab5 71ce 57b6
000002c0: 0000 0000 0000 0000 0000 0000 0000 0000
000002d0: 60ee 17b4 a4c2 47b4 e5ba 022f e5ba 022f
000002e0: 990e beb4 9029 fbb4 0000 0000 b6ee 1600
000002f0: 0000 0000 0000 0000 0000 0000 0000 0000
