storage/MiniGrid-ThrowLeftoversNavigation-8x8-N2-v0_22-07-20-17-17-06/status.pt (torch, 255933 bytes, 39 tensors)

image_conv.0.weight f4 [16, 3, 2, 2]
00000000: 1257 4cbc 8fb9 433c 8c0a e8bd 1fa9 b53d
00000010: 052e 20be ddf9 b4bc dcdd 003e dea1 9b3e
00000020: 7448 8b3d da93 c8bd f0bf e23c 1084 04bd
00000030: f4f1 113e 053d 663d 9dc5 063e 9eb8 993e
00000040: 64bb a8bd e517 c63c 4003 d73d 687f ee3c
00000050: d07d e2bc a4cc 82be 63fd 7ebe 3400 85be
00000060: 6166 70be f915 79be a853 39be 7116 69be
00000070: 68c9 60be dfc7 1a3e 91eb 5b3e 2c46 693e
00000080: 5a3f 1f3e 5c54 c83d 103a 023e 5e79 23be
00000090: a98b 793e faa0 0ebd f6c3 6d3e bd0d 833d
000000a0: 0a5f 503e 25ca 5a3e 00a5 abbd 3828 c7bd
000000b0: 78ea 313d a002 49bc d0f1 383d 72f5 153e
000000c0: d8f8 43be 951c 7f3c d5f1 50be 12bb 9f3e
000000d0: b5c8 2abe 51dd c03d 3011 1abd d954 543e
000000e0: 0032 7e3a 90d7 edbc 5e5d 583e b6ff 863e
000000f0: 0dba 2dbe 72de 5dbe 9e18 5a3d d94c f83d
00000100: bf8b e03d 16e9 a43e c8ca 343e 10a6 a3bd
00000110: d36e 4abe c055 653e 4ea8 8d3e 1f46 0cbe
00000120: 1161 3cbe 1f97 da3d a97f 52be 6cfc 93bd
00000130: 27c6 93be fbcc b13d 934a d0bd 92da 2cbe
00000140: b1f8 3bbe 9407 d0bd 2865 0c3e 70e6 853c
00000150: 07b5 8b3e 2953 7abd d6ae 52bd c9e4 a63e
00000160: be1b 6dbe bbd1 88bd deb8 08be 450a a63e
00000170: 7a60 1d3e 2a17 c6bd 8afb fabd 3850 b53d
00000180: 42be 42bd 4ef3 0c3e 1a72 b1bd 5a11 03be
00000190: 635b 413d e7e0 5f3e cb2b 9c3e 144d e23d
000001a0: 748f 2fbe 6489 1a3e c878 e63d a433 fc3d
000001b0: d8d3 d8bd 7ef1 55bc ec60 153e 43a3 073e
000001c0: 6a40 443e 3e02 31be e162 413e 62b3 e0bd
000001d0: 4075 edbb 1c22 0bbe 4a42 afbd ce48 473e
000001e0: e6b4 823e 1f1b 013e 5aa1 4ebe dbc8 30bd
000001f0: e692 673e 461d 65bc 3a9a 59be 4212 fc3d
00000200: 7e35 83be 000e e4ba 085d 11bd 0057 353b
00000210: ebd5 c6bd 7b7c 03bd 92c9 4abe 1382 58be
00000220: ffaa 923d bd13 8c3e 6f67 7dbe c4c0 9ebe
00000230: 1ce3 1fbe bcde 8d3e 5a05 853e fad1 8fbe
00000240: 45d5 3f3d dfba f23c 65fb 833e f9e2 97bd
00000250: 2873 a63d e3b3 18be 9ec6 8ebe 01d5 593d
00000260: 6ee7 0ebe 903f 94bc ea8c 82bd 8e17 6fbe
00000270: b549 303e 7205 573e 321f 6e3e e5dd 4f3d
00000280: a4c0 7dbe 923f 62be 1a49 8eb9 8045 8ebc
00000290: 6326 86be 8a36 373e 7965 5cbe a0d3 04bc
000002a0: 534a 67be 454f ee3d 6b0c 053d 184b 6c3e
000002b0: b8dc c73d cc15 39be 3801 a53e 6e44 4abe
000002c0: 48e6 0d3e acdb 4dbe 6a81 1f3e fc93 933d
000002d0: 3561 eb3d bf09 7abc 9ec5 9d3e 2edc a73e
000002e0: 5d34 be3c 3a27 2abd 619d be3d 3d18 6f3e
000002f0: 5a84 893e 5c56 863e f06c 093e 908a 083d
-0.012471931 0.011946096 -0.11330137 0.08870148 -0.15642555 -0.0220918 0.12584633 0.30396932
0.06800929 -0.097938254 0.027679414 -0.032352507 0.14252454 0.056210537 0.13161321 0.30023664
-0.08238867 0.024181316 0.10498667 0.029113486 -0.027647883 -0.25546753 -0.24901347 -0.25976717
-0.23476554 -0.24324788 -0.18098319 -0.22762467 -0.2195183 0.15115307 0.2147658 0.22780675
0.1555151 0.09781715 0.12717462 -0.15964267 0.24369682 -0.034821488 0.23219284 0.06399105
0.20348755 0.21366175 -0.083810806 -0.09724468 0.043436497 -0.012268692 0.045152485 0.14644411
-0.19137895 0.015570779 -0.20404752 0.3119741 -0.16678126 0.09417213 -0.037614048 0.20735492
0.00096967816 -0.029033452 0.21129367 0.26366967 -0.16965504 -0.21666887 0.053246133 0.121240325
0.109641545 0.3220908 0.1765548 -0.07990658 -0.19768839 0.22395992 0.2766747 -0.13698624
-0.18396403 0.10673355 -0.20556511 -0.0722588 -0.28862116 0.08681675 -0.10170474 -0.16880253
-0.18356587 -0.101576954 0.13710463 0.016345233 0.2728655 -0.061114464 -0.051436268 0.32596424
-0.23155114 -0.06680628 -0.13351771 0.3242971 0.15368834 -0.09672387 -0.122550085 0.08853191
-0.047544725 0.13764688 -0.08664341 -0.12799588 0.047206294 0.21863137 0.3050216 0.11049858
-0.17144567 0.15091473 0.11253506 0.12314537 -0.10587281 -0.0130580645 0.14587754 0.13245873
0.19165197 -0.17286012 0.18885376 -0.109717146 -0.0072466433 -0.1358723 -0.085575655 0.19461367
0.2552864 0.12608002 -0.20178738 -0.0431603 0.22614631 -0.01398403 -0.21250239 0.1230817
-0.2562675 -0.0017399192 -0.035489112 0.0027670264 -0.0970877 -0.032101136 -0.19803455 -0.2114337
0.07161521 0.2735881 -0.24746488 -0.31006444 -0.15613979 0.27708995 0.25980645 -0.28089887
0.04683425 0.029630123 0.25777736 -0.074163385 0.08127433 -0.14912371 -0.27885908 0.053181652
-0.13955471 -0.018096715 -0.063745335 -0.23348829 0.17215617 0.20998171 0.23254088 0.050748724
-0.24780518 -0.22094563 -0.00027138815 -0.017367125 -0.26201162 0.17891899 -0.21523084 -0.008107096
-0.22586946 0.11636213 0.032482546 0.23075521 0.09758896 -0.18074721 0.32227492 -0.19752666
0.13857377 -0.2010333 0.15576711 0.0720596 0.1149315 -0.015261113 0.30814832 0.3278517
0.023218328 -0.041541316 0.093073614 0.2334909 0.2685879 0.26237762 0.13420463 0.03333527

image_conv.0.bias f4 [16]
00000000: 0ff6 30be 48dc 39be 9b6e 693e c385 8dbe
00000010: 687d 0a3d 8c07 933e faa7 78be 4b88 1bbe
00000020: 0e6b 72be 5331 263e f371 ec3d 24ba 493e
00000030: de90 4cbd 75f9 8ebd a0ef 8f3e 78ea 0bbe
-0.17281364 -0.18150437 0.22796099 -0.27641115 0.033811003 0.28716695 -0.24282828 -0.1518871
-0.2367365 0.16229753 0.115451716 0.19699913 -0.049942844 -0.06981174 0.28112507 -0.13663661

image_conv.3.weight f4 [32, 16, 2, 2]
00000000: 1df5 92bd 69d4 bc3d 1944 f93d 0ef4 73bd
00000010: fb13 e3bd 0755 d73c 13c2 a0bc 285f 153d
00000020: a041 9c3d 3e4b 833c 6172 88bd 49f1 25bb
00000030: 5679 9c3d 0ce3 123d e3e8 aebd 3d15 cb3b
00000040: 7608 90bc c49d 2cbd efc2 853d e042 403d
00000050: db0b 043e b1a5 dc3d e1a3 d43b e1d7 b6bd
00000060: af95 823d d667 783d ecbb 923d f1a1 923d
00000070: 4d02 a33d 81e2 263d aa43 9dba dc99 6c3d
00000080: f524 c7bd b0a4 903d dbab 453d d9f5 4d3d
00000090: 9b93 c2bc 0b45 5b3d ed64 e83c dab5 debd
000000a0: 4e60 babc 0b57 a23d 8ed9 afbd b679 11bd
000000b0: fb7f b53d dede 653d ae2d b5bd 65a1 413d
000000c0: 64d2 bfbd b4fb fd3d 89ce 02bd 7d55 873c
000000d0: 9ce4 1f3d bb4b a1bd 7ada 8b3d 4f62 a4bd
000000e0: 1fce cabd b0ff 333d aaed ee3c 7ffc cc3d
000000f0: c841 bbbd 87a7 26bc f3e4 b23d 53e8 8e3d
00000100: da40 b3bd 2405 bd3c 4359 353d 50bd 4dbd
00000110: 9675 b73d 1391 8d3c 561d f0bc 7cdc b73d
00000120: 95f0 933d a1f0 f83d a8b2 a63d 5081 97bd
00000130: 8431 993d aeae 6e3d eaf2 f43c 3f2e 56bd
00000140: eb06 183d 03c6 103e e61d 3e3c 823a f8bc
00000150: cee1 b2bd f102 c63c 0bb6 833d 4084 143d
00000160: b7b9 143d a449 0a3d de67 a63d 1af2 ff3d
00000170: d6f9 dd3c 8e7e 9dbd c16d fc3c f685 4dbc
00000180: 071f b33d 1514 8c3d e5cd 793d 6cc0 ac3d
00000190: 0e9a c5bd 0efe 8dbc f516 b63d 2a95 f2bc
000001a0: 58ef 473d 4840 ba3d c05d d43d e130 aebd
000001b0: 76a0 8e3d 6afc d7bb 9fad 313d 270c 063e
000001c0: e923 5c3d 10a4 07be 878f 873c ee79 c2bd
000001d0: 4295 a93d dbce e4bd be3d 023e 6f6e 98bd
000001e0: 9dd3 7a3d e2a2 aa3d 49a0 833d 4c31 1e3e
000001f0: 30bf 173d ba8b c8bd 7f95 d3bd a19e 1a3e
00000200: 0f22 7d3d 5462 c4bb 4e24 a3bc 570d 663d
00000210: ef46 89bb 6e23 963d 1bb4 2ebd da43 b63d
00000220: e809 4aba 259f db3d 1323 fb3d 3e06 163d
00000230: fd22 373d d42d c8bd 215e 193c 31c1 6fbd
00000240: c143 89bd 7639 bf3d 5805 bcbd 036d 75bc
00000250: cc01 f9bb 53d3 d6bc 4947 f4bb abc0 aabc
00000260: 7cc2 e63d d747 c43d aa93 8dbd 00a3 debd
00000270: b0c7 be3d f397 59bd 1023 a83d 1a73 333d
00000280: 0e9f f2bc eb68 283d e49f 5fbd 5692 263d
00000290: 4637 073e ec9c fa3d 511d aa3d 6d58 5bbd
000002a0: fa32 cf3d f235 053e b320 9a3d 3aea 35bd
000002b0: 2b11 88bd a329 a9bd f1ce 40bd 0067 1cb9
000002c0: e5ef 843d ee56 9c3d 56d2 b13d 4d02 50bc
000002d0: e706 ea3d 046e 3d3c 8d21 1dbd efab 9ebd
000002e0: aa92 fe3d 587e 2e3d 1141 953d 480b 0ebd
000002f0: c387 0c3e 8ee1 e2bc b6aa 013e d342 c23d
00000300: 784e 68bd 8291 34bb 6b57 fc3d ea49 cf3d
00000310: f07d 943d 7eda 1bbc ceb4 fdbc 90d3 7b3d
00000320: ed30 e2bc 81aa 5d3d d36e da3d 8865 533d
00000330: 3995 4dbd 07f5 39bd 2fba d8b9 9598 2d3d
00000340: c815 073e 0b02 53bd 55a8 063e c70f af3b
00000350: 04b2 0c3d 8193 233e b419 2abd 41ad e6bc
00000360: 4cfb febb 4a8e c6bc e482 b5bd 558c e4bd
00000370: 05da 0f3d ff38 a8bd a8ba 453b 999f 2ebc
00000380: 4da9 7b3b ec16 20bd caee 0e3d 0b5e acbd
00000390: 5511 8fbd bcf6 e73d 3f91 343d 4115 6c3d
000003a0: 6dd8 103e 6a17 153d 3397 0e3e fa4a bc3c
000003b0: a1a6 76bd 1676 32bd adbb 31bd 4d80 b43d
000003c0: fc2e 8b3d 96ac 983c 082f 48bd 0781 c6bc
000003d0: d26e 19bd 00db 58bd 7939 05bd afdb d1bc
000003e0: e7d8 98bd f596 a3bd f63d 8a3c a4d8 a03d
000003f0: 4d89 c1bd 9b10 1d3e e664 dfbc d4cc a33d
-0.07175658 0.092202015 0.12171192 -0.05955892 -0.11087795 0.026285661 -0.019623792 0.0364677
0.076297045 0.01602709 -0.06662441 -0.002532082 0.076403305 0.03586106 -0.08540513 0.0061976
-0.01758216 -0.042142645 0.06531321 0.046938777 0.12895148 0.10773791 0.0064892625 -0.089278944
0.06376206 0.0606459 0.071647495 0.07159794 0.07959423 0.040743355 -0.0011998315 0.05776392
-0.09723846 0.07062662 0.048259597 0.050283287 -0.023752024 0.05353264 0.028368438 -0.10874529
-0.022751 0.079267584 -0.08586417 -0.035516463 0.08862301 0.056120746 -0.08846603 0.04727306
-0.09366301 0.12401524 -0.03193525 0.016520256 0.03903638 -0.078757726 0.068287805 -0.080265634
-0.09902596 0.043945014 0.029166061 0.10009097 -0.09143406 -0.010171778 0.08735075 0.06977906
-0.08752604 0.02307374 0.04427458 -0.05022937 0.089579746 0.01728109 -0.029310863 0.08977601
0.07223622 0.12155271 0.08139545 -0.07397711 0.074801475 0.058272056 0.029900987 -0.052290197
0.037115972 0.14138035 0.011603808 -0.030301336 -0.08734475 0.024171324 0.06431206 0.036258936
0.036309924 0.033761635 0.0812528 0.12497349 0.02709667 -0.07690154 0.030814053 -0.012544146
0.08746152 0.06839768 0.060987372 0.08435139 -0.09648524 -0.017333057 0.088910975 -0.029612143
0.04881224 0.09094292 0.10369444 -0.08505417 0.06964199 -0.0065913694 0.04337847 0.13090573
0.053745184 -0.13246179 0.016547931 -0.094959125 0.08280422 -0.11172267 0.12718865 -0.074429385
0.061236966 0.08331849 0.06427056 0.15448493 0.037047565 -0.09792276 -0.103312485 0.15099575
0.06180006 -0.005993167 -0.019914772 0.056165066 -0.004189364 0.073309764 -0.04265223 0.088996604
-0.00077071646 0.10723714 0.12262549 0.036627047 0.0447111 -0.09774366 0.009360821 -0.05853385
-0.06702376 0.09337132 -0.09180707 -0.014979604 -0.007599091 -0.026223814 -0.007454787 -0.020843824
0.11267564 0.09584015 -0.0691293 -0.108709335 0.09315431 -0.053123426 0.08209813 0.04381094
-0.029616859 0.041115683 -0.054595843 0.0406669 0.13204679 0.12236962 0.08306373 -0.053551126
0.10117145 0.1300886 0.07525768 -0.04441283 -0.066438995 -0.08259895 -0.047072355 -0.0001491569
0.06491069 0.07633768 0.086826965 -0.012695861 0.11427098 0.011561874 -0.038362075 -0.077476375
0.12430318 0.04260096 0.07287801 -0.034678727 0.13723664 -0.027695443 0.12662777 0.09485402
-0.05671546 -0.002755255 0.12321361 0.1012152 0.07250583 -0.009512542 -0.030970003 0.06148106
-0.02761122 0.054117683 0.10665669 0.0516105 -0.050191138 -0.045399692 -0.00041337448 0.04238184
0.13191903 -0.05151562 0.13150151 0.005342457 0.034349456 0.15974237 -0.04152842 -0.028158786
-0.0077814218 -0.02423777 -0.08862856 -0.11159579 0.03512003 -0.08213996 0.003017107 -0.010658168
0.0038400472 -0.03908436 0.034895696 -0.08416375 -0.06985728 0.11326358 0.04408383 0.057637457
0.1414506 0.036399283 0.13924865 0.02298497 -0.060217503 -0.043569647 -0.043391872 0.08813534
0.06796071 0.018636983 -0.048872977 -0.024231447 -0.037459202 -0.05294323 -0.032525513 -0.025617449
-0.07463246 -0.07987777 0.016875248 0.07853821 -0.09450016 0.15338366 -0.027269792 0.07998052

image_conv.3.bias f4 [32]
00000000: 6ef1 663d 7a03 c63d 2b9f fe3d 582a e9bd
00000010: 567c 983d 56a9 92bd 12cb 693d 1246 9c3d
00000020: 6b0b 07bd d6c1 263d a999 b1bd c236 803d
00000030: 4685 b7bd 4a8f af3d 0cfd 3c3d c867 8cbd
00000040: 9183 6f3d 07ad 51bb 848f 043d 78b1 f4bd
00000050: f83c f5bc 7d47 2b3d d55f 54bd 9ea1 d13d
00000060: c705 b3bc 2f74 403d c5eb 633d a217 c9bc
00000070: 12c9 953c 1806 343d 5ce0 bc3d 688e e53c
0.05638259 0.09668632 0.12432703 -0.113850296 0.0744559 -0.071612045 0.05707843 0.07630552
-0.032969873 0.0407122 -0.086718865 0.06260444 -0.08960967 0.08572252 0.04613976 -0.06855732
0.05847508 -0.0031994001 0.03236343 -0.11947912 -0.029936299 0.041816223 -0.051849205 0.10235904
-0.02185334 0.0469858 0.05564477 -0.024547402 0.018284354 0.043951124 0.09222481 0.028022006

image_conv.5.weight f4 [64, 32, 2, 2]
00000000: 5c95 be3c e5e1 653d c55a 87bb 0363 3d3d
00000010: 9223 93bd 123b 533c de26 a6bd 0dd4 56bc
00000020: a66a 843d ed8d 603d 218b 6f3d 5311 e23c
00000030: c046 72bd 5a65 673d f755 51bd d692 4e3d
00000040: 51ea 8f3c ed63 72bd 3664 0d3c 7584 53bd
00000050: cf2e 3d3c f102 ab3d a04e 343d aa19 7f3d
00000060: 3827 3c3d 8ff5 a3bd a04f fb3b 1517 1bbc
00000070: 838e 92bd a042 13bc f230 b4bd 0f82 9cbc
00000080: 94f6 283d f371 5d3c 0f11 a3bd f4f7 8b3c
00000090: 58d7 683d 30fe 993d a516 d4bd 4271 c2bc
000000a0: d0a3 92bc 508d 303b e239 073d 9db4 3f3d
000000b0: 4dbf a7bd d9b0 0dbd 1884 283d 26f4 bbbc
000000c0: 409c bcbd 198b 1abb f4e1 5dbc 7366 583d
000000d0: 02dd 6fbd 27d7 f73c a728 5bbd 4ed1 4e3d
000000e0: b1cc c03b d4a1 72bd 5889 bbbc 2a04 633b
000000f0: 9046 87bd 8b48 963d ccd1 483d ff61 4d3d
00000100: 9127 583d 5840 8abc bbeb c3bd bc4f 123d
00000110: bf18 abbd 87ab bd3d 657c b0bd b7e4 b3bd
00000120: 63de ce3c 2e19 493d d140 2f3d ee89 5dbd
00000130: 9ab8 463d 0288 28bd e01d b63c edfc 8f3d
00000140: 6aee 94bc 25aa 903c 35f4 4cbd a2d8 e0bc
00000150: 49a0 67bd e9e2 5a3d da98 6dbc a0f9 183b
00000160: 529d e63c fadc 573d fadc a8bd 7fd9 93bc
00000170: 1b90 313d 85f7 58bd 1e48 6ebd c179 5f3d
00000180: c2ca 95bd f415 3d3d c4c3 e4bc 8c7f 853c
00000190: d5e6 d23c ff24 ca3c c366 4dbb a5f9 57bd
000001a0: 0e17 febc 220b 82bd c5b4 f9bc f8e2 04bc
000001b0: 5a37 86bd 6cbe 9e3c 02e8 9abd f867 87bd
000001c0: e21e 42bd e88d 43bd dbd0 a93d c1da 20bd
000001d0: a66b 353d cb0f 1dbd 5c7c c43c fdd8 0cbd
000001e0: 8bc0 9cbd 191d 013c e731 9dbd 5066 b73d
000001f0: 3ff7 8b3d 9279 86bd 9e9c 7fbd fac9 0e3c
00000200: ae1a 6f3d 4d49 acbb 6cbf 9c3d 5e48 77ba
00000210: 16da cfbc 0d16 683d 2e2d 563d bb8b d73c
00000220: f03d 04bb a3d7 a3bd c048 8ebd 349d 923c
00000230: b1e3 8d3d 12d5 a43d 5edc 3fbd b674 613d
00000240: e0f0 d6bb 99e9 ca3d 9c2c d83b fb06 0f3d
00000250: 7cf3 8b3d 4ad5 573d 4ba2 e4bc 24d8 8ebd
00000260: a827 01bb 69d4 4e3d 0c1e 033d b518 423b
00000270: 40be e73c d457 653d 9464 13bd 9e3a c83b
00000280: 7ad6 813d fdef e6bc 82df 8fbc 786e acbd
00000290: 074a fa3c 997e 86bd ed0d 32bc 8102 ec3c
000002a0: 92d9 a63d a7db 15bd 91a0 8a3d ff84 2bbd
000002b0: acb5 7abd 7c3e d03d 6c58 ce3d 893c e73c
000002c0: 29d4 133d 07ec 03bc 1fe0 82bd a18a 493d
000002d0: 6e8f b43d 674c 8ebd 05f9 663c d2ec 1fbc
000002e0: befe 883d 9c5e 0b3c f0a3 9a3d d6b8 5e3d
000002f0: cf2e 67bd 82cd 993d 3abb a83d 7aa1 5e3d
00000300: 8495 d1bb 2c27 053d 6a2e 993d 747c 523d
00000310: 4131 dd3c bf92 ac3d ec57 6b3d aa07 e7bc
00000320: 55a4 aa3d 13f0 f8bc 0118 8cbd fd20 813d
00000330: 9e1e e93d 25d4 3dbd a8ed 913d c97b 83bd
00000340: 0159 a73d 18f0 533c abb4 a8bd a126 1bbd
00000350: d0c9 183c e144 923d df31 9dbc 244f a73d
00000360: 6f9e a63c 6d2b e13c 9907 903d 4394 7dbd
00000370: 8206 663d bb68 7abd d464 66bd 0639 323d
00000380: d821 8b3d 7e6a 723d f8fa e2bc 769e 1dbb
00000390: dfcf 8a3d a697 38bd 176a 33ba 8a24 52bd
000003a0: 17ef 333d a948 f83c dc8a 9a3d f44c 1e3d
000003b0: f4d8 1dbd 0388 b43c 76ea afbc 9bc0 98bb
000003c0: f30c a43d a371 b23c faaa f83c 0d6d 1b3d
000003d0: a915 40bd 3854 77bd cd1f f5bc 97c2 7f3d
000003e0: f6c8 c43d 11e9 79bc 2fed f2bc 0720 a03d
000003f0: a8b9 ccbc 9bb5 fabc 4075 b13b 2f93 d93c
0.02326458 0.056123633 -0.0041306936 0.046237003 -0.07184519 0.012892501 -0.08112882 -0.01311208
0.06465654 0.05482285 0.058482293 0.027596151 -0.059149504 0.05649314 -0.051107373 0.050433002
0.017567785 -0.059177328 0.008629849 -0.051639993 0.011546805 0.083501704 0.044020295 0.062280335
0.04593584 -0.08005821 0.007669404 -0.009465952 -0.07156088 -0.008988053 -0.08798398 -0.019104986
0.04125078 0.013515937 -0.07962238 0.017086007 0.056845993 0.075191855 -0.103558816 -0.023735646
-0.017900378 0.0026939698 0.033014186 0.046803106 -0.081907846 -0.034592483 0.0411416 -0.022943567
-0.0920949 -0.0023581444 -0.013542641 0.05283208 -0.05856038 0.03025396 -0.053505566 0.050492577
0.005883776 -0.059236363 -0.022892639 0.0034639933 -0.066052556 0.07338055 0.049028203 0.050142284
0.05277211 -0.016876385 -0.095664464 0.035720572 -0.08354329 0.09261232 -0.086174764 -0.08783858
0.025252527 0.04909628 0.042786423 -0.054086618 0.048515894 -0.041145332 0.022231042 0.07030664
-0.018180091 0.017659256 -0.05003758 -0.027447049 -0.056549344 0.053439055 -0.014501775 0.0023342147
0.028151188 0.052700974 -0.08245273 -0.018048046 0.04335032 -0.052970428 -0.058174245 0.054559473
-0.073140636 0.046163514 -0.02792538 0.01629617 0.025744835 0.024675844 -0.0031341768 -0.052728314
-0.031016853 -0.0634978 -0.030481705 -0.008110754 -0.06553526 0.01937791 -0.07563783 -0.06611627
-0.047392733 -0.047742754 0.08291789 -0.03927112 0.044292115 -0.03834514 0.02398508 -0.034386624
-0.07653912 0.007880473 -0.07675534 0.089550614 0.06834268 -0.065661564 -0.06240522 0.008715147
0.058375053 -0.0052577616 0.07653698 -0.0009433086 -0.025372546 0.056661654 0.05228918 0.026311746
-0.002017852 -0.08000114 -0.0694747 0.017897226 0.06928194 0.080484524 -0.046841018 0.055042945
-0.0065594763 0.099078365 0.0065971147 0.034918766 0.0683355 0.052693643 -0.027909419 -0.06974819
-0.0019707475 0.05049554 0.032011077 0.0029616777 0.02828896 0.055991963 -0.03598459 0.0061105033
0.06339736 -0.028190607 -0.017562632 -0.08419508 0.030552877 -0.06567115 -0.010867578 0.028809788
0.08146967 -0.03658643 0.06768907 -0.04187488 -0.061208412 0.10168168 0.10075459 0.028227108
0.036091004 -0.008051879 -0.06390404 0.049204472 0.088164195 -0.06948166 0.014097457 -0.009761052
0.06689213 0.008506443 0.075508 0.054375492 -0.056441125 0.07509901 0.08238836 0.054353215
-0.0063959975 0.03250806 0.07479556 0.05138822 0.027001025 0.08426427 0.057456896 -0.028201897
0.08332125 -0.030387914 -0.06840516 0.0630512 0.11382793 -0.046344895 0.071254075 -0.064200945
0.08171273 0.012935661 -0.08237585 -0.037878636 0.00932546 0.07142044 -0.01918882 0.08169392
0.020339219 0.027486527 0.07032699 -0.06190897 0.05615855 -0.061135035 -0.0562485 0.043511413
0.067935646 0.05918359 -0.027707562 -0.002405075 0.067779295 -0.0450665 -0.0006844117 -0.051304378
0.043929186 0.030308085 0.075460166 0.038647607 -0.03853698 0.022037512 -0.021474104 -0.0046616322
0.08010282 0.021782702 0.030354965 0.037945796 -0.046895657 -0.06038305 -0.02992239 0.062441435
0.09608643 -0.015253321 -0.029654114 0.07818609 -0.024990872 -0.030604174 0.0054155886 0.02655944

image_conv.5.bias f4 [64]
00000000: 459e aa3d 42fa b3bc 368c 0fbd 79fc 013d
00000010: 07f6 19bd 2bd2 093d 1723 863c a8de a43c
00000020: e563 663d 3a43 d2bd 2e34 3a3c 59e7 19bd
00000030: f7e3 b7bd 9416 e33c 94d7 c03d 1e3d 83bd
00000040: 9a05 a1bd eca0 823d 541e 67bd 289f bc3d
00000050: 3479 2b3d 5f55 70bc 559f 943d 6598 063d
00000060: b26a c7bb a5fb c63a 1b69 833c 7ff3 60bd
00000070: abf9 733d 9f95 573d c143 efbb c324 ab3c
00000080: df5f 9abd 6291 2c3d 6a81 aaba 45d8 2ebc
00000090: 1b71 8abd bb1e 143d 9f13 8abc c04e 42bd
000000a0: 50b1 713c 0103 8ebd 6845 a7bd 9e43 a23d
000000b0: ec8e 03bc a481 aebd c9b4 80bd 335c 6e3d
000000c0: cbc3 1cbb ab9f 823d 936c 283b 2de0 503d
000000d0: 1a4c 98bd 7bb0 073d 80e7 8e3c 97dc bdbd
000000e0: cba0 7cbd fff6 4ebb fb07 28bc 43dc 18bb
000000f0: 4ed9 4bbc 054d 113d 179a 1abd 2b14 313d
0.08330969 -0.021969918 -0.035045825 0.031734917 -0.037588146 0.033647697 0.016374154 0.020125702
0.05624761 -0.10266729 0.01136498 -0.037574146 -0.08979028 0.027720727 0.09416118 -0.064081416
-0.078623965 0.0637835 -0.056425408 0.09210044 0.041863635 -0.014668792 0.07256953 0.03286018
-0.006085717 0.0015181197 0.01604133 -0.054919716 0.059564274 0.052632924 -0.007301778 0.020891553
-0.07537817 0.042130835 -0.0013008539 -0.01067168 -0.067598544 0.03616212 -0.01685506 -0.047438383
0.014751747 -0.06934167 -0.08167535 0.07923053 -0.008029681 -0.08520821 -0.06284482 0.058193397
-0.0023920413 0.063781105 0.002569948 0.05099504 -0.0743639 0.03312729 0.017444372 -0.0927059
-0.06167678 -0.0031580327 -0.010255809 -0.0023324646 -0.012441946 0.035473842 -0.037744608 0.043232124

actor.0.weight f4 [64, 64]
00000000: c22b 59ba 5946 263d db14 fbbb 3860 5c3d
00000010: 83ae 663e d823 16bc 2e7e 07bd ccea 36bd
00000020: 7f4c d6bd 3121 8ebd e2b0 65be e907 40be
00000030: 3918 ba3d 7f4c 21bd 5cec c23d b185 b2bd
00000040: 9dc1 d73d e781 99bd c13c eebc 7c00 e5bd
00000050: 8241 9e3d 5297 b23d 8b92 1b3d 8614 6fbe
00000060: 547f 41be b457 14be 9f9f 39be 344d b4bd
00000070: 16e2 40be 90c8 e9bd e839 9f3d 3e86 0c3e
00000080: 65e6 1a3d a028 693e 8e86 86bd e6ba 03be
00000090: 5484 3d3e 5cc9 9b3d 1a45 18be 08ff 7e3d
000000a0: e305 ca3b b5e3 02be 144e ca3c aab1 17bd
000000b0: f0a0 bcbd d12b 85bd 63bd 99bd eb28 523e
000000c0: b600 7b3e 60c2 f2bc be3e 42bc a768 3ebd
000000d0: a53a 05bd 4180 7f3e 798e c2bd 5659 333e
000000e0: 6412 8bbd a34e f9bb 2e33 f1bc 6ffb 823d
000000f0: 36cd 233e 57ec 59be ff9f 95bd 2b6b 963e
00000100: 68ed 373e 6712 1ebe 00c9 e3bd 603f c73d
00000110: 1834 d2bd e076 a2be 0537 f4bb 4e7f 5f3d
00000120: e9ce 6c3e 6e14 063d c5ba e5bd 0fde bcbd
00000130: 6905 c1bd b2a4 3a3d 5348 133d bc9d 94bd
00000140: bc6b 5f3d cbbd b53d 417b 15be 2f26 d33c
00000150: 61a8 983d fd17 253e 4bbc 95bb 44b9 1b3d
00000160: 039d 18bd f988 31be 33fc 0cbe a399 f5bd
00000170: 05bf cabd 3f15 c7bc c3f2 163e 7c61 e5bc
00000180: 650a 90be 7efc 90bd ff90 a6bc beac 303e
00000190: f66a 303e 3f96 14be a6fa 29bd fd86 1c3e
000001a0: 190b 813d 5d48 97be 6caa b0bd b83c e6ba
000001b0: f1db b1bc 6a98 eabd 0334 fbba 3dee abbb
000001c0: 9989 9dbd c8f1 9d3c 05ea 3b3e 0747 5a3d
000001d0: e15a 5e3d f41c 073e d191 47b9 c749 093e
000001e0: b512 3d3e fb68 c6bc 9536 d93c 89ce 203d
000001f0: 7d5e b13d 46dd 773e c7ca 49be 15c1 b5bd
00000200: e3d7 9d3c 7ad5 d2bd 463f 883d b6b4 cfbd
00000210: 2197 e7bd c5ad 523e 98ce e5bd 1aec 283e
00000220: 6426 94bd 2c05 ddbc c54c 14be d9b5 adbd
00000230: e338 dd3d 5883 b1bb b22a 9b3d 8ca2 b43d
00000240: e65e e8bb 5737 d8bd 6040 d1bd 731d f53c
00000250: a2b2 853e 334c 8a3b 21b7 56be d5a1 fa3d
00000260: 7894 713d cdc8 243e 3056 573d 3c49 af3d
00000270: c58c 853c e7fb 193e 1766 733d ebfa 1a3e
00000280: 1c76 d43d 753a 1bbd 39ca 38be 8438 3f3d
00000290: 22b7 063e ec05 f9bd 8a3c 6f3d 9177 3e3b
000002a0: d3f8 80be f60d 54bd 1e64 113e aaa1 123e
000002b0: a018 78bd dff2 773d 0d3f 743c 7cdd f53c
000002c0: 1eed 60be 2e23 773e 0dda 75bd a560 76bd
000002d0: d9e7 fbbc f37b 3abd 2171 4d3e 7b08 863d
000002e0: ba51 a5be 33c1 8e3d 5f0d 583e f732 1fbe
000002f0: 9f34 fdbd a18f 3c3e 51dc 1cbc da5c 863d
00000300: 237a 733e e31d f43c 8445 713d 0896 4e3e
00000310: 4c23 41bd 1252 adba bd1b c1bc baf4 a5bd
00000320: 313d 283e 9872 e0bd 2940 83be 1391 40be
00000330: 8f55 4cbc 6d27 403e d90f c13d 11c8 1fbb
00000340: 5eff 0bbe db41 c53c eccd 073e 5b50 f53d
00000350: ce8b 81bd 5bdc 70bc 5596 433e d48d d3bd
00000360: 1d96 3a3e fe47 c43d abf2 3b3d 3d12 bebc
00000370: 03b7 30bd b1e5 5dbd 8861 463c 2b35 4fbd
00000380: aff6 0fbe 26be cbbd 1e49 45be 25c5 b9bd
00000390: 7d05 b53b 0376 0d3e 842f a3bc e3c3 21bd
000003a0: 2355 96bc eebc 85bc 4ec9 34be 8a4e 89be
000003b0: 70b8 6a3c 89f2 85bc 5e4f f83d 7e1b 17bd
000003c0: f6b4 10be 5886 2f3e 20f4 eb3c 1ae3 b1bc
000003d0: f6c2 fdbd 78cd 98be 88bd 1e3b 9292 63be
000003e0: 0e6d c73c afd6 d03c c88d 1abd f658 613e
000003f0: cc63 c03d d7ac 203e 0424 7a3c f5f0 143e
-0.00082844135 0.040594433 -0.0076623983 0.0538027 0.22527508 -0.009163819 -0.03307932 -0.044657513
-0.10463809 -0.069399245 -0.22430757 -0.18753017 0.09086651 -0.039379593 0.09517738 -0.08716906
0.10534976 -0.0749548 -0.029081704 -0.11181733 0.077273384 0.08720268 0.03798155 -0.23347673
-0.18896228 -0.14486581 -0.18127297 -0.08803788 -0.18836245 -0.114152074 0.077747166 0.13723084
0.037817378 0.22769403 -0.06568633 -0.12864265 0.1850751 0.07606766 -0.1487011 0.062254936
0.0061652525 -0.12782176 0.024695434 -0.037034668 -0.09210384 -0.06502498 -0.07506826 0.20523421
0.2451199 -0.0296337 -0.011855779 -0.046486523 -0.03252663 0.24951269 -0.09499831 0.17514548
-0.06790617 -0.007608251 -0.02944335 0.063956134 0.1599625 -0.21281563 -0.073059075 0.29378638
0.17961657 -0.15436707 -0.11122322 0.09728885 -0.10263842 -0.3173132 -0.007452848 0.054564767
0.23125805 0.032734327 -0.11217264 -0.09222042 -0.0942486 0.045567222 0.035957646 -0.07256648
0.054546103 0.08874091 -0.14597799 0.025775043 0.07453991 0.16122432 -0.0045695654 0.03801848
-0.037259113 -0.17337407 -0.13768081 -0.119921945 -0.09899715 -0.024302123 0.14741044 -0.028000586
-0.2813293 -0.07079409 -0.020332811 0.17253396 0.17228302 -0.1451044 -0.041498803 0.15285869
0.06300945 -0.29547396 -0.086262554 -0.0017565703 -0.021711322 -0.11454852 -0.0019165281 -0.005246906
-0.0769226 0.01928033 0.1835099 0.053290393 0.054285888 0.13194638 -0.0001903244 0.1340705
0.18464167 -0.02421998 0.026515285 0.039259467 0.086606 0.24205503 -0.1970626 -0.08874718
0.019267982 -0.10294624 0.066526935 -0.1014189 -0.113081224 0.205741 -0.11221045 0.16496316
-0.07233885 -0.026980005 -0.1448241 -0.0848195 0.10801866 -0.0054172687 0.07576503 0.08820066
-0.007091391 -0.1055743 -0.10217357 0.029921269 0.2611285 0.0042205094 -0.20968296 0.12237898
0.05897948 0.16092224 0.05257243 0.0855889 0.016302476 0.150375 0.059423532 0.1513478
0.1037409 -0.037897546 -0.18045892 0.046684757 0.13155797 -0.12159333 0.058407344 0.0029062966
-0.25189838 -0.051771127 0.14198348 0.14319482 -0.06057036 0.060534354 0.014907611 0.030012839
-0.21965453 0.24134514 -0.060022403 -0.06015076 -0.030750202 -0.045528363 0.20062687 0.06544586
-0.32288915 0.069704436 0.2109885 -0.15546785 -0.12363552 0.18414165 -0.009574012 0.06560679
0.2377706 0.029799407 0.058904186 0.2017442 -0.047152802 -0.0013223311 -0.023572797 -0.081033185
0.16429593 -0.10959357 -0.25634888 -0.18805341 -0.012471571 0.1876504 0.09426851 -0.0024380723
-0.13671634 0.024079254 0.13262147 0.11978217 -0.06325494 -0.014700974 0.19100316 -0.10329786
0.18221326 0.09584044 0.045885723 -0.023202056 -0.043143284 -0.05417413 0.012108214 -0.050587814
-0.14058946 -0.09948377 -0.19266173 -0.090708055 0.005524336 0.13814549 -0.019920118 -0.039493453
-0.018351143 -0.01632544 -0.17654917 -0.26817733 0.0143262 -0.016351001 0.12124513 -0.036891453
-0.14131531 0.17141092 0.028802931 -0.021714736 -0.123907015 -0.2984426 0.0024221856 -0.22223881
0.024343994 0.025492994 -0.03773287 0.22006592 0.09394035 0.15690933 0.015267376 0.14545043

actor.0.bias f4 [64]
00000000: bf8c 50bc b5ed 743a e14c 06bc 7213 aa3a
00000010: a6ee 8bbc daa3 b1bc e405 18bc d993 37bc
00000020: 54a4 2a3c 9ab4 cebc a10c 6bbc b9f4 b23c
00000030: 4609 273c 2598 12ba fcd1 383c 4c3d de3b
00000040: 5012 0abc 5d71 a83c 81d1 b2bb abe8 713b
00000050: 79b8 dd3b 2a9a 823b 2b4f 1e3c 1cb7 84bc
00000060: bcd4 3d3b deef d8bb 4d2b 62bc 87ad ec3b
00000070: 1557 9c3c dae1 8d3c 340e 92bb 3b16 243c
00000080: 5d20 adbb 27b0 a03c 1722 8cbc 5c10 a13b
00000090: 3d9a 10bc c0be e5bb ae90 9dbb 0bd5 053c
000000a0: d542 023c 2c05 2ebc 94d8 52bc 2f18 cc3b
000000b0: 556d c33b 71b1 25bc ee5b 3a3c cbc3 41bb
000000c0: caa0 83bc c5b9 aaba 12e2 0d3a ee9d b0bb
000000d0: 16e3 92bc a58a 0b3a a321 3bbc 50ec 87bb
000000e0: 413b 7e3b a7f4 143c 83bd 643b 10b0 1f3c
000000f0: 768e 1f3c 18ae 303b 5a6b 32bc df63 a93b
-0.012728869 0.00093432824 -0.00819704 0.0012975766 -0.01708157 -0.021684576 -0.009278748 -0.011204683
0.010415155 -0.025232602 -0.014346273 0.021845208 0.010195082 -0.00055921293 0.011280533 0.0067822095
-0.008427218 0.020561868 -0.0054571037 0.0036912363 0.0067663756 0.003985663 0.00966243 -0.016200595
0.002896591 -0.0066203913 -0.013804269 0.0072228345 0.019084493 0.017319608 -0.0044572596 0.010015066
-0.005283399 0.019615246 -0.017106099 0.0049152803 -0.008825836 -0.0070112646 -0.004808507 0.008168469
0.007950504 -0.01062135 -0.012869019 0.006228469 0.005963961 -0.010113106 0.011374457 -0.0029566165
-0.016067881 -0.0013025334 0.000541241 -0.0053899204 -0.017930549 0.0005323089 -0.011421594 -0.0041480437
0.0038792642 0.009091533 0.0034902997 0.009746566 0.009738555 0.0026959237 -0.010889852 0.0051693763

actor.2.weight f4 [17, 64]
00000000: a42b 0b3e cd9a f7bd c2ff 513e d2a9 dc3d
00000010: 48e1 773e 8aeb 223e ab45 d6bb 9c42 2f3d
00000020: e0e9 6d3d 65e4 9d3c ffa7 f3bd bfda 79bd
00000030: 3d59 e03d 970a 1a3b 8de5 843d 3494 613d
00000040: 99e3 793d e3aa d4bd cf5b 19be e673 c43d
00000050: d5b2 993b 9fb3 96be f8bb ccbc 66bf 24bd
00000060: b846 a43d de8d 23be 65f5 42be b07d d2bd
00000070: 685c 9a3d 1367 873d 88a5 3b3e 05bd 84bd
00000080: 4236 bd3d cab2 f23d 575c 54bd ccbc 8e3d
00000090: d1db 95bd b601 5abe ab60 6bbd 502a 75be
000000a0: 9c0b 39be f688 c6bd b13b f33d be14 fa3d
000000b0: 8236 d43d b04b 053e d3c8 b13d 84f1 31bc
000000c0: 1f46 1f3e f709 133e 063d 1f3d 1259 29be
000000d0: f9c8 4fbd 3d82 583d 037a 823d 4f99 863d
000000e0: 0c8a b53c 2312 613e 7bb9 8abd c533 34bd
000000f0: fe32 ae3d 6a1f debd 8f75 bdbd cbad d9bd
00000100: 16e5 86bd 6f9e 3a3e 221a 0ebe 2e2a cebd
00000110: 6f82 633d ce21 e7bd c7c7 103c c395 153d
00000120: 33fc 8abd c283 75be a246 a93d 5f70 5e3e
00000130: c5d7 34bd 2083 c4bc fdf3 76be 5031 cabc
00000140: f702 93be 1bf6 c63c 25db 89bd b489 8c3d
00000150: 214c 733e 89cf 343c 6a10 d93d d395 9abd
00000160: 2353 43bd eccb 0bbd 3398 28be 4237 b6bc
00000170: 0b2f 833d 2b83 243e e337 3fbe 47a7 2f3c
00000180: 83be 09be b452 1cbd 23e3 37be ded4 713d
00000190: a67b 53be 0228 1bbd 6fd5 75bd ec04 963d
000001a0: 287d b7bd 80c8 bebd 4d31 2d3d 470f b83d
000001b0: f23b 7cbd 8f00 00be 4ae2 dfbc 27de d73d
000001c0: d597 573a 8bf5 82bc b086 413d 84dd 0bbd
000001d0: 9164 94bd ce86 28be 8b3f 73bd 0dde e83b
000001e0: cc2f 53be 400d 1a3e 14f4 e6bb 8ea2 7e3e
000001f0: 1391 10bd b8ff 2c3d ddca 2fbd 4517 95be
00000200: 9419 da3d bff8 1e3e 2682 60be 9bdf 4bbe
00000210: d929 163e c1c3 28bd 2148 bdbd 0e58 20be
00000220: a7a4 263e b4a2 83bc f032 913e e903 f43d
00000230: f3d0 2b3e 5438 6c3d fa7c 373e 8173 493c
00000240: fb24 dabd eae6 7bbe e466 80bd 4465 0f3e
00000250: 0e11 efbd 5da4 febc 7fea 6e3d f240 db3d
00000260: 17aa 433e 4578 53be 3a2a 6b3d d172 92be
00000270: 8324 76be 6439 c5be 1dec 113d 81ad ccbd
00000280: 9913 41be 6b1c 97bd d3ca 873d 5cb4 49bd
00000290: 9143 7d3c 1cb3 16be a626 823d 9655 a53c
000002a0: fadc b9bc 5ae9 54be 9cef abbc 1157 29be
000002b0: 823a f3bb f6a8 9d3d bf38 943c bfbd cc3d
000002c0: edcb 983d 080b de3b 00cb 9e3d bffb b4bd
000002d0: 388e 9fbe 3556 14bd bf34 42be b4ea a73c
000002e0: 57ec 20be e083 16be 418e 183e 0df5 00bd
000002f0: 26ab 04bd 9dc8 743c 345f 40be 68a4 b13b
00000300: 05b5 163e af09 c93d 0659 983e 29d9 e13d
00000310: 5055 273c bd06 883d d899 c33c 1988 8fbd
00000320: 1b67 ddbb f534 95bc 3d80 2fbe 3532 763d
00000330: 812c 6c3e c5d4 423e d28a e8bc 1263 cebc
00000340: f0b8 6a3d 3a96 12be 210d a33d d12a eabe
00000350: 8209 9ebc aadd 45be 06b7 dd3d 1274 86bd
00000360: 0114 d63d e23d 5fbd 4ed1 07bd 03b3 c83c
00000370: ac41 473c 5709 173e 0f71 2fbd e794 483c
00000380: 669a bebc 2fcc ac3d 0eab 06bc 25db f63d
00000390: 82cf e83b 8ca3 803d e0bc 343e ade8 483d
000003a0: d8e0 8fbd 2662 c63d 6cfe 2f3d 9c98 ff3d
000003b0: 856d e2bd 6f8a 87bd 4d60 1b3d b45a 9d3e
000003c0: 33ba f73d 354b b43d 4037 a63d acd8 d23d
000003d0: cb39 aebd b93e ee3d 0abf 72bd 0833 d1bd
000003e0: 5fcc 09be 6b69 a53c 406f 20bc 492d 31be
000003f0: 8f67 23be 5618 273e 57bf 703e d66e 8dbd
0.13590866 -0.12090073 0.2050772 0.10774578 0.24207032 0.15910164 -0.006539067 0.042788133
0.05808437 0.019273946 -0.11897277 -0.06099963 0.10954521 0.0023504847 0.06489096 0.05507298
0.06100807 -0.103841566 -0.14976428 0.095924184 0.004690508 -0.29433915 -0.024991974 -0.040221594
0.08021301 -0.15972087 -0.19038923 -0.10277879 0.07537156 0.06611457 0.18324864 -0.06481365
0.092388645 0.118505076 -0.051845875 0.06969604 -0.07317317 -0.21289715 -0.057465237 -0.23941922
-0.18070835 -0.09694092 0.118766196 0.122109875 0.10361959 0.13017154 0.08680882 -0.0108608045
0.15554093 0.1435927 0.038876556 -0.16537884 -0.05072877 0.05285858 0.06370928 0.0657221
0.022160552 0.21979575 -0.06773659 -0.043994684 0.0850582 -0.108458355 -0.09250938 -0.106288515
-0.065866634 0.182245 -0.13877156 -0.10066639 0.055544313 -0.112857446 0.008836693 0.036519777
-0.067863844 -0.23976043 0.08265425 0.21722554 -0.044151086 -0.023988307 -0.24116512 -0.024681717
-0.287132 0.024287274 -0.067312516 0.06862202 0.2375951 0.011035808 0.10598834 -0.07548108
-0.047686707 -0.034130022 -0.1646431 -0.022243146 0.06405457 0.16065662 -0.18673663 0.010721034
-0.1345158 -0.03816481 -0.1795774 0.059040897 -0.20652637 -0.03787995 -0.060018 0.073251575
-0.089594185 -0.09315586 0.042283345 0.08987289 -0.061580606 -0.12500213 -0.027329583 0.10540419
0.0008224224 -0.015986225 0.04724759 -0.0341468 -0.07245744 -0.16457674 -0.05938677 0.0071065486
-0.20623702 0.15044117 -0.0070481393 0.24866697 -0.035294604 0.04223606 -0.042918075 -0.29119316
0.1064941 0.15524577 -0.21924648 -0.19909517 0.14664401 -0.04120231 -0.09242273 -0.1565859
0.16273747 -0.016068794 0.28359175 0.11914808 0.16778927 0.057670906 0.17918769 0.012295605
-0.10651585 -0.24599805 -0.06269625 0.14003474 -0.11673175 -0.031084234 0.0583291 0.10705747
0.19107853 -0.20651348 0.057413317 -0.28603223 -0.24037366 -0.38520348 0.035625566 -0.09994031
-0.18855132 -0.07378467 0.066304825 -0.04924427 0.015458004 -0.14716762 0.06355028 0.020182412
-0.022688378 -0.20792142 -0.020988278 -0.1653712 -0.007422746 0.07698242 0.018093465 0.09997129
0.07460771 0.0067762174 0.07753563 -0.08837079 -0.31163192 -0.036215026 -0.18965434 0.020497657
-0.15715156 -0.14698744 0.14898016 -0.0314837 -0.032389782 0.014940408 -0.18786317 0.00542121
0.14717491 0.098163 0.2975542 0.11027748 0.010213211 0.0664191 0.02387707 -0.070083804
-0.006756676 -0.018213728 -0.17138763 0.060106475 0.23063852 0.19026478 -0.028386507 -0.025193725
0.057305276 -0.1431512 0.079614885 -0.4573579 -0.019291643 -0.1932284 0.108259246 -0.065651074
0.10453034 -0.054502375 -0.033158593 0.024499422 0.0121616535 0.14749657 -0.04283243 0.012242532
-0.023266982 0.084373824 -0.008219494 0.12053517 0.007104815 0.06281194 0.17650175 0.049050022
-0.070253074 0.09686689 0.042967245 0.1248028 -0.110560454 -0.06618201 0.037933636 0.30733263
0.120960616 0.08803407 0.08116007 0.10295233 -0.08507117 0.11633057 -0.05926422 -0.102148116
-0.13456868 0.020191869 -0.009792149 -0.17302431 -0.15957473 0.16317877 0.2351049 -0.06905906

actor.2.bias f4 [17]
00000000: 49ae 9d3a 115b a73b b40d 04bd 52a1 203c
00000010: 65e4 73bd 35c9 8a3c 9fb7 e8bc 2521 dc3d
00000020: 0668 433d a8a5 fabc 7229 b8bc 2303 d6bc
00000030: 5f20 5e3d d9a4 043d df3a 89bc 7a5b b2bb
00000040: 6233 0a3e
0.001203009 0.0051072915 -0.03223963 0.009804087 -0.059543986 0.016941646 -0.02840787 0.10748509
0.047706626 -0.03059657 -0.0224807 -0.026124543 0.05423009 0.032383773 -0.016751705 -0.0054430338
0.13496163

critic.0.weight f4 [64, 64]
00000000: ff7c 2fbe 39df 46bb d038 403d 7d03 5dbe
00000010: aa6f 873e 8eb7 c73d 603d 513e 333a 81bd
00000020: 3225 7bbd fb09 d2bb 6e91 3e3d a859 da3d
00000030: 8279 bfbb 902d 91bd c4d7 c6bc 7061 843e
00000040: be16 603d b497 373c 6ae1 f0bd f346 3c3e
00000050: 43ac cb3b 38b7 543e 561e 463e 54a9 4f3e
00000060: 5ccb 363e 5cfd e9bd c5ed 28be 25d0 3f3d
00000070: af14 4a3c 6978 993e fe5b 743e 87b2 183e
00000080: 6b05 e53b 5114 093e 7736 673c 2dbf ccbd
00000090: 80c9 cbbd 65aa 723c 67b0 cf3d 4ca2 39be
000000a0: 5237 eabc d04a 103d 297b a5bc 86b0 973d
000000b0: 4c27 b53d 640a 1f3e 816a cebd 24f2 413e
000000c0: 7065 73be d055 223e 4673 b13d a77f 983d
000000d0: edf7 2bbe 1f06 8bbc 37f1 9a3b 120b 903d
000000e0: 4ee3 80bc 23c3 fdbd cd76 6bbb 2b30 89bb
000000f0: 3956 da3d 6562 1e3e 70d6 913d 889c cabd
00000100: 6379 1dbe 9c29 e53d 929e ed3d 3da3 d939
00000110: 2817 7cbc d95a 1d3e 5599 ca3c 9610 58be
00000120: b999 b63e 21e0 2fbd 6933 c4bd e640 49be
00000130: 8a3a 1dbe f681 64bd 61c6 92bc 0264 bbbb
00000140: eb9c 3a3e e233 0ebe e2a9 cbbd e5a9 16be
00000150: 66ac 303e 0df5 e6bd cf44 193e ac95 55be
00000160: 58a7 dfbd 8e8d 993d 6901 aabd 99d2 47bc
00000170: 3e87 103d 9101 84bb dcd7 d43d fb2c 85bd
00000180: 58d9 42be c5e5 8fbd 81d0 093e 5942 7739
00000190: df0d cbbc bdb9 2c3e e1e4 f3bd 05b3 69be
000001a0: 98a2 cc3d 259e 20be 1019 d33c 74bc 0b3d
000001b0: 0016 63bb c895 03bd ba6d 1cbe 6d53 74bd
000001c0: d7d6 163d 66e9 3ebe b23e b63c 625b 96bd
000001d0: 20a4 6ebd 0543 833c fd38 73be ca8f 3c3e
000001e0: 9f0a c2bc ab9f 4cbc 7162 0abe 190b 7ebd
000001f0: a0b8 c43c 668f 11be be96 4ebe d166 97be
00000200: 270f 523d a668 fdbd 9aba 4bbe 52a3 9a3d
00000210: 193c 623d f7ed e4bd de44 bcbd c6b2 a8bd
00000220: f55c 2fbd dc20 653d b4f5 f6bd 00f0 243e
00000230: 5a68 2fbd a9cf 2d3e 9f81 b03d dc24 003e
00000240: 977a dbbd 2381 8dbd 8b17 78bd fdd0 7a3e
00000250: e9f8 3c3e aa7d 283e 1242 be3d 9d32 243d
00000260: d7c9 f63d cf51 9e3d 5347 be3d 61bc b8bd
00000270: f77b 27be b193 fabc 1ad5 973e 22c3 d13d
00000280: 4339 363d dc0c 99bd b4a7 133e 0fc4 7bbc
00000290: 9d6d 3cbe 307c 98bc 3a75 4f3e aeb3 053d
000002a0: 10da 3abe 301d 5f3d 7747 b4bd 0c55 3ebe
000002b0: 8c6d 81bd 81ed 74be d04b 0dbe 6223 923c
000002c0: 33f0 61be 0208 243e 5322 453e fff9 423d
000002d0: b40f 913d b061 353e 9f83 d63d 3a03 4e3d
000002e0: eb6e 5a3e 17c2 2bbd 4f31 4e3e eec4 91bd
000002f0: 4dde 7c3c bf1f 223e 1eca 213e 5f4b a83c
00000300: a7fd 2d3e 0d53 ff3d 1d48 9f3e 69a5 63be
00000310: bf04 503e fb1d ce3d df0d 403a e7fa 653e
00000320: a9c0 c9bd 6ae4 04be d4ff a3bc d3ab 833d
00000330: 1a28 00bd e1cf 16bd 1737 5cbe 4d63 5abd
00000340: 759c 333c c3bb 533d 74f4 a03d 06d4 85bd
00000350: 895e d3bd 53b2 e43d 64b2 503d d537 063e
00000360: b131 bd3d 210f fa3b 5de1 16bb b65c 9b3e
00000370: 8443 583e 8385 5e3e 25ab b83d 3b71 f13d
00000380: c227 b4bd 2122 403e 415e 0abe 6a41 3ebe
00000390: ef4a 82bc bf63 2abe ee32 9abd e833 febb
000003a0: c01d babd 8bf9 3a3e 39ef 98bd a633 133d
000003b0: 268f 33bb 7b4e 4fbe 915b b4bc 7afb e83d
000003c0: cbb3 2abe 8404 e13d a31b a9bd 881a 9b3d
000003d0: ee99 e03d 8afa 1b3c 56ee 9e3e d865 f9bc
000003e0: f29e 10be d073 1bbd e43a 2c3e f959 e2bd
000003f0: d155 593a cca6 083d e9ca 073c deb6 21be
-0.17137526 -0.0030345453 0.04692918 -0.21583362 0.2645238 0.09751807 0.20433569 -0.06309929
-0.06131477 -0.006409881 0.04652541 0.10661632 -0.0058433423 -0.070887685 -0.024272807 0.2585559
0.05470919 0.011205602 -0.11761744 0.1838644 0.0062156036 0.20773017 0.1934751 0.20279437
0.17851013 -0.114252776 -0.16496952 0.04682936 0.012334033 0.29974678 0.23863217 0.14911853
0.0069891713 0.13386656 0.0141121065 -0.099974014 -0.099505424 0.014811133 0.10141068 -0.18128318
-0.028590832 0.035227597 -0.020200329 0.07406716 0.08845386 0.15531307 -0.10078908 0.18940026
-0.23769164 0.15853047 0.08664565 0.07446223 -0.16793795 -0.016970692 0.004728462 0.070333615
-0.015733387 -0.12390735 -0.0035928965 -0.0041866503 0.10660977 0.15467222 0.07120979 -0.09893137
-0.15378337 0.11189577 0.116025105 0.00041511087 -0.01538638 0.15366687 0.024731318 -0.21100077
0.35664156 -0.042938355 -0.09580118 -0.19653663 -0.15354362 -0.055788003 -0.01791686 -0.005718709
0.18223922 -0.13886979 -0.09944512 -0.14713247 0.17253265 -0.112772085 0.14967655 -0.20857877
-0.1092059 0.074977025 -0.0830105 -0.0121962065 0.035285227 -0.004028507 0.103927344 -0.0650272
-0.19028223 -0.07026247 0.13458444 0.00023580472 -0.024786888 0.16867729 -0.119088896 -0.22822197
0.0999195 -0.15685327 0.025768787 0.03411527 -0.0034650564 -0.032125264 -0.15276232 -0.059649874
0.03682598 -0.18643722 0.022246692 -0.07341649 -0.05826199 0.016023168 -0.23752208 0.18414226
-0.023686705 -0.01248924 -0.13514115 -0.062022302 0.024013817 -0.14214858 -0.20174691 -0.2957063
0.05128398 -0.12373476 -0.19895402 0.07550682 0.055233095 -0.11178201 -0.09192823 -0.08237223
-0.04281326 0.05593954 -0.12058583 0.16107178 -0.042824127 0.16973747 0.08618473 0.1251406
-0.107167415 -0.069093965 -0.060569327 0.24493785 0.18454327 0.16454187 0.09289946 0.04008733
0.12050217 0.077304475 0.09290948 -0.090203054 -0.16355883 -0.030588003 0.2965477 0.10242297
0.044488203 -0.07473156 0.14419442 -0.015366568 -0.18401189 -0.018613905 0.20259562 0.03264206
-0.18247247 0.054471195 -0.08802693 -0.1858713 -0.063197225 -0.23918726 -0.13798451 0.017839137
-0.22064285 0.1601868 0.19251375 0.047601696 0.07083073 0.17713046 0.104743235 0.050296046
0.21331374 -0.041933145 0.20135997 -0.071176395 0.01543386 0.15832423 0.15799758 0.020543752
0.16991292 0.124670126 0.31109706 -0.22231068 0.2031431 0.10064312 0.00073262857 0.22458993
-0.098512 -0.12977758 -0.02001945 0.06429257 -0.031288244 -0.036819343 -0.2150539 -0.053317357
0.010962595 0.051692735 0.07859126 -0.06534581 -0.103207655 0.11166825 0.050951377 0.13107236
0.092379935 0.007631198 -0.002302251 0.3034417 0.21119505 0.21730618 0.09017018 0.11789175
-0.08796646 0.18763019 -0.13512518 -0.18579641 -0.015904872 -0.16639613 -0.07529245 -0.0077576526
-0.090877056 0.18259256 -0.07467503 0.035937928 -0.0027398556 -0.20244782 -0.022016319 0.1137609
-0.16670148 0.109871894 -0.082572244 0.0757342 0.1096686 0.009520182 0.3104121 -0.03044407
-0.14123133 -0.037952244 0.1681934 -0.11052317 0.00082906807 0.033362195 0.008288124 -0.15792415

critic.0.bias f4 [64]
00000000: 04d6 933c 6a00 91bc 3327 ad3c d2a3 343d
00000010: 9e63 f1bc 612e a0bc 38a3 de3c 2cb4 9b3c
00000020: badd 07bd 0b8b 00bd 405b c13c 4c08 eb3c
00000030: 3a46 cc3c 27de 02bd 7d51 153d a0c5 02bd
00000040: d209 68bc 73bd b4bc 504d c2bc 351f cb3c
00000050: e7f7 b9bc f042 b03c c5a7 af3c 5362 a9bc
00000060: f031 abbc b77b cabc 6ab4 c53c 0975 a9bc
00000070: 925a 99bc a747 09bd ab5f f1bc 0b33 c0bc
00000080: 438c b0bc f382 b4bc 10b6 983c f759 e73c
00000090: 6124 babc 169b d0bc 8979 d4bc 3f50 9bbc
000000a0: 9aee a1bc 248f c03c 9890 a33c 0b62 04bc
000000b0: dba4 acbc 79d4 aa3c c2a7 f3bc c68a 94bc
000000c0: d6b2 fa3c beda c23c 6ec6 913c c3fc 123d
000000d0: 7746 f2bc 1882 c23c 84e8 d2bc 96ad 8b3c
000000e0: b043 c03c 9fc5 b63c 4e6e bd3c c047 eabc
000000f0: 403e b63c 20d0 cfbc c6e4 e43c e82b c23c
0.018046387 -0.017700393 0.021136856 0.044101544 -0.029466446 -0.019553365 0.027177438 0.019006811
-0.03317044 -0.0313826 0.023603082 0.02869048 0.02493583 -0.031950142 0.036454666 -0.03192675
-0.014162498 -0.022062993 -0.023718506 0.024795154 -0.022701217 0.021516293 0.021442303 -0.020676767
-0.020897835 -0.024717195 0.02413388 -0.02068569 -0.018719945 -0.0335156 -0.029464563 -0.02346184
-0.021551257 -0.022035098 0.018641502 0.02824114 -0.022722425 -0.025464576 -0.025936859 -0.018959163
-0.019767094 0.023505755 0.019966409 -0.008080016 -0.021074703 0.020853268 -0.02974308 -0.018132579
0.030602854 0.023785945 0.017794814 0.035885584 -0.029574616 0.023743674 -0.025745638 0.017050546
0.023469776 0.02231103 0.023123886 -0.028598666 0.02224648 -0.025367796 0.027941119 0.023702577

critic.2.weight f4 [1, 64]
00000000: 1612 5dc0 b522 4b40 80ee 5dc0 7a83 49c0
00000010: caec 4d40 e0a5 5040 bf96 48c0 5a44 58c0
00000020: 566e 4b40 560e 4e40 aae9 4fc0 91ae 50c0
00000030: a53f 4ec0 5374 4b40 d37b 4ac0 0b5d 4a40
00000040: f357 47c0 4534 5240 0405 4c40 69bb 4ac0
00000050: f685 5240 7513 53c0 196b 53c0 c993 5440
00000060: 7c7b 4f40 005d 5040 dc6c 49c0 272b 4e40
00000070: 8bcc 4a40 fd22 4940 ccfd 4a40 67c9 5340
00000080: 22d5 5240 bf9c 4a40 5eeb 50c0 ffe4 4ec0
00000090: 2ca6 4c40 cfc5 4940 8f48 4940 9061 5740
000000a0: fa59 4e40 644c 4dc0 e796 4ac0 0e8f 48c0
000000b0: 13d6 4c40 b00a 4cc0 ed2d 5040 8da4 4a40
000000c0: a33e 4cc0 0243 50c0 d397 59c0 e07e 4dc0
000000d0: f09a 4f40 860e 4dc0 1d24 5840 d97f 4740
000000e0: e108 53c0 4f47 52c0 ce96 4dc0 a3b6 5940
000000f0: 2861 4dc0 45e5 4940 2a38 4cc0 d48e 48c0
-3.4542289 3.1739933 -3.467682 -3.1486497 3.2175775 3.2601242 -3.1342008 -3.3791718
3.1786094 3.219625 -3.2486367 -3.2606547 -3.2226346 3.1789749 -3.1638076 3.161929
-3.114743 3.2844403 3.1878061 -3.1676886 3.2894263 -3.2980626 -3.3034117 3.32152
3.241912 3.2556763 -3.1472692 3.2213838 3.1687343 3.1427605 3.1717405 3.3091676
3.2942586 3.165817 -3.2643657 -3.2327268 3.1976423 3.1526983 3.1450536 3.3653297
3.2242417 -3.2077875 -3.1654603 -3.1337314 3.200566 -3.1881523 3.252803 3.1662934
-3.191323 -3.2540898 -3.3998916 -3.2108688 3.2438316 -3.2040114 3.3772042 3.1171782
-3.297417 -3.2856023 -3.2123294 3.4017723 -3.209055 3.1546185 -3.190928 -3.1337175

exp_avg f4 [16, 3, 2, 2]
00000000: 24be ae34 c818 9535 cb19 a634 7bf8 0136
00000010: bec0 5d35 47fc d835 51f3 5235 924a 1336
00000020: 0000 0000 0000 0000 0000 0000 0000 0000
00000030: 1d22 bd34 58f3 3636 03ba a934 2484 0f36
00000040: 92ae a235 49a0 1236 4010 9e35 5ebb 9635
00000050: 0000 0000 0000 0000 0000 0000 0000 0000
00000060: 00bd e734 9dac 9235 f8a4 de34 8c92 4e35
00000070: 20d6 9035 c557 3736 1b27 8b35 961b 0136
00000080: 0000 0000 0000 0000 0000 0000 0000 0000
00000090: c53e 8ab3 b2ad 97b3 7e34 7cb2 0abd 5632
000000a0: d88f 36b4 0619 2a34 c897 12b4 9133 d834
000000b0: 0000 0000 0000 0000 0000 0000 0000 0000
000000c0: c631 5934 7779 ae35 4049 4c34 ba8a d635
000000d0: 515f 0a35 b579 2036 fe4d 0235 70f3 1636
000000e0: 0000 0000 0000 0000 0000 0000 0000 0000
000000f0: 08c9 9934 f46c 0d36 7252 0834 a440 dd35
00000100: fc74 7235 59e6 5a36 9389 3235 9c4b cf35
00000110: 0000 0000 0000 0000 0000 0000 0000 0000
00000120: fa1f 42b1 83cb 1533 fa1f 42b1 f91f 42b1
00000130: 0400 0080 f325 9234 0400 0080 ac32 d923
00000140: 0000 0000 0000 0000 0000 0000 0000 0000
00000150: bc1e 5a34 bb3f ae35 e8be 6c34 a914 0336
00000160: d2be 2735 2d00 1736 c923 2235 5468 3436
00000170: 0000 0000 0000 0000 0000 0000 0000 0000
00000180: 69ae f434 b57b 5536 204d 0a35 b59d 2e36
00000190: 7c47 9935 1b0e 8536 fb7c 9e35 0b60 0636
000001a0: 0000 0000 0000 0000 0000 0000 0000 0000
000001b0: 42ba 7f34 1da7 3735 2e3f 4f34 263d 9a35
000001c0: 33e4 2935 4446 d134 98c5 1b35 ecad b434
000001d0: 0000 0000 0000 0000 0000 0000 0000 0000
000001e0: 2acd fc34 44a2 a335 3fd9 ba34 9f3e d635
000001f0: 563e af35 6876 1436 fc5f 6d35 8360 0236
00000200: 0000 0000 0000 0000 0000 0000 0000 0000
00000210: d898 1cb1 e432 7433 7702 eab0 7702 eab0
00000220: 1df6 45b1 e4d9 6734 0400 0000 0400 0000
00000230: 0000 0000 0000 0000 0000 0000 0000 0000
00000240: 18f3 7d33 f183 6833 523a a732 da3f 0e31
00000250: 9f5a 5f32 3204 a232 671b 0a32 e30c c4b2
00000260: 0000 0000 0000 0000 0000 0000 0000 0000
00000270: b117 83b3 6663 43b4 813f a5b3 b5ba 9534
00000280: 289b 88b3 e04f 7434 3a20 c0b3 33c2 c6b2
00000290: 0000 0000 0000 0000 0000 0000 0000 0000
000002a0: 6e2e e834 4316 0936 b63e e134 ef78 c335
000002b0: 4019 9535 92f6 5f35 7ec2 9035 414a e233
000002c0: 0000 0000 0000 0000 0000 0000 0000 0000
000002d0: 2b20 9c34 6699 b635 dc7e 3b34 56ba 3036
000002e0: 928d 9135 32fd 0236 da30 7535 1bf9 4436
000002f0: 0000 0000 0000 0000 0000 0000 0000 0000
3.254837e-07 1.1108577e-06 3.0938676e-07 1.9367133e-06 8.260939e-07 1.6166676e-06 7.858517e-07 2.1948113e-06
0.0 0.0 0.0 0.0 3.5228814e-07 2.7261758e-06 3.1614044e-07 2.1385576e-06
1.2120747e-06 2.1848994e-06 1.1776647e-06 1.1230402e-06 0.0 0.0 0.0 0.0
4.3164619e-07 1.0928085e-06 4.1470753e-07 7.6954234e-07 1.0791155e-06 2.7320214e-06 1.0367688e-06 1.9238555e-06
0.0 0.0 0.0 0.0 -6.4375435e-08 -7.0630804e-08 -1.4680266e-08 1.2499422e-08
-1.7002401e-07 1.5841587e-07 -1.3652527e-07 4.0270655e-07 0.0 0.0 0.0 0.0
2.0227807e-07 1.2999361e-06 1.9025629e-07 1.5984617e-06 5.154771e-07 2.39127e-06 4.854227e-07 2.249344e-06
0.0 0.0 0.0 0.0 2.864474e-07 2.1074056e-06 1.269598e-07 1.6484596e-06
9.032226e-07 3.2618611e-06 6.6510364e-07 1.5444707e-06 0.0 0.0 0.0 0.0
-2.8248892e-09 3.487686e-08 -2.8248892e-09 -2.824889e-09 -6e-45 2.722223e-07 -6e-45 2.3548648e-17
0.0 0.0 0.0 0.0 2.0314013e-07 1.2982558e-06 2.2048664e-07 1.9532547e-06
6.249003e-07 2.2500856e-06 6.0401777e-07 2.6882817e-06 0.0 0.0 0.0 0.0
4.5575442e-07 3.181148e-06 5.152124e-07 2.6019818e-06 1.1420193e-06 3.965351e-06 1.1808291e-06 2.002346e-06
0.0 0.0 0.0 0.0 2.3816486e-07 6.8415994e-07 1.9301362e-07 1.1491691e-06
6.328948e-07 3.898041e-07 5.8029536e-07 3.3654158e-07 0.0 0.0 0.0 0.0
4.7087934e-07 1.2191672e-06 3.4803267e-07 1.5962468e-06 1.3056658e-06 2.212264e-06 8.8429056e-07 1.9427687e-06
0.0 0.0 0.0 0.0 -2.278787e-09 5.6856962e-08 -1.7026441e-09 -1.7026441e-09
-2.8807172e-09 2.159282e-07 6e-45 6e-45 0.0 0.0 0.0 0.0
5.9127245e-08 5.413671e-08 1.946788e-08 2.0700015e-09 1.3000913e-08 1.886119e-08 8.038888e-09 -2.2823263e-08
0.0 0.0 0.0 0.0 -6.104472e-08 -1.8196951e-07 -7.6949625e-08 2.788926e-07
-6.361216e-08 2.2753329e-07 -8.946559e-08 -2.3138545e-08 0.0 0.0 0.0 0.0
4.324715e-07 2.0427549e-06 4.1955144e-07 1.4563828e-06 1.1108714e-06 8.343278e-07 1.0785441e-06 1.0537452e-07
0.0 0.0 0.0 0.0 2.908067e-07 1.3604702e-06 1.7461883e-07 2.6334505e-06
1.0844544e-06 1.9518889e-06 9.13407e-07 2.9351274e-06 0.0 0.0 0.0 0.0
